models/MPC_horizon_8_obs_8.pt (torch_old, 678237 bytes, 8 tensors)

layers.0.weight f4 [128, 48]
000000 d9 5d 43 3f 2c ee b7 bd 1f 2f 86 3f 5b f8 0c be
       0.76315075 -0.089809746 1.048313 -0.13766615
000010 ea 44 20 3c fc 72 c6 3b 46 9b 90 3d 1a c6 d0 3c
       0.009782055 0.0060561877 0.07060866 0.025485087
000020 57 94 6b 3d 6f ac c5 3d 4c 08 80 bd 8a 13 a4 3c
       0.057514515 0.0965203 -0.062515825 0.020028848
000030 51 86 80 bd 6b d4 ab 3d ee 45 a3 3d d1 34 df 3b
       -0.06275619 0.08390125 0.079723224 0.006811716
000040 68 b2 e4 bd 0e 42 f7 bd 65 ac d2 bb 24 2a 16 3d
       -0.11166841 -0.12073146 -0.0064292424 0.036661282
000050 75 85 e1 3d ec 88 4d bd d7 c6 84 bd a8 92 e4 bc
       0.11011783 -0.050179407 -0.06483238 -0.027901962
000060 e6 1d 16 bd d6 bd a2 bd 31 59 4f bd 09 1c ae 3d
       -0.036649607 -0.079463646 -0.05062217 0.08501441
000070 9a 51 90 3b 4c eb a3 bd 4a 4f c6 3d f9 d6 35 3d
       0.004404259 -0.08003864 0.09683092 0.044394467
000080 f3 db ee 3d 16 18 81 3d c6 47 9a 3b cc b1 cc bc
       0.11663046 0.06303422 0.004708263 -0.024987124
000090 55 b2 95 bd 3a f9 56 3d 3d b7 9e bd 26 ff 15 bb
       -0.07309405 0.052483775 -0.07749794 -0.0022887676
0000a0 7c f8 af 3e 73 9c c2 bd a6 4f 18 bf e9 81 76 3f
       0.34369266 -0.095024966 -0.59496534 0.9629198
0000b0 e9 bb 03 bf 31 97 c9 3d af 29 2e 3f 6f 17 1e bf
       -0.51458603 0.098432906 0.68032354 -0.61754507
0000c0 30 27 87 be 2b ba 81 3d ee e0 19 c0 cf 98 57 40
       -0.26397085 0.06334337 -2.4043536 3.3687017
0000d0 b7 57 62 be 44 83 15 3d e4 16 2b bf 74 7f 24 3e
       -0.22103773 0.036502138 -0.66831803 0.16064245
0000e0 b6 a1 bc bb ad 51 bf 3c 24 22 ee bc 8e f6 3f 3d
       -0.005756582 0.023354376 -0.029069014 0.046865992
0000f0 50 fc 9d 3c c4 0e b4 bd 5e bb f6 3d e3 d8 80 bb
       0.019285351 -0.08791879 0.12047456 -0.003932105
000100 bd 79 f1 3d 20 b2 91 3d 94 f5 fc 3d c0 48 32 bd
       0.11790798 0.07114053 0.12351528 -0.04352641
000110 9a 2e 19 3b 4f e5 92 3d 0b 8c a3 3d 5c 2a 4e ba
       0.0023373724 0.071726434 0.079856955 -0.00078645884
000120 8b b7 c7 bd b0 af 11 3e f6 f1 e5 3c 23 ce be 3d
       -0.09751805 0.14227176 0.028069478 0.09316661
000130 5e d3 18 3e c4 0f 8b 3d b0 6a 15 bd 0a 92 d1 3c
       0.1492438 0.067901164 -0.0364787 0.025582332
000140 aa d6 e9 bd 5f 1f cf 3d e1 eb 3b 3c 02 69 f1 bd
       -0.11417897 0.101134054 0.011469812 -0.11787607
000150 2d 22 5c bd f0 1d 1d 3e b1 99 06 3e eb d0 b7 3c
       -0.05374353 0.15343451 0.13144566 0.022438487
000160 ab 59 86 be e5 8c 82 bd bd 53 09 3f bd 49 cb be
       -0.26240286 -0.0637453 0.536434 -0.39704695
000170 cf ae ea 3e 82 33 92 bd d4 b2 d2 be e9 dc de 3e
       0.45836493 -0.071387306 -0.4115206 0.43527916
000180 86 88 92 3e c3 7c a8 3d 5c cb 15 40 30 55 88 3f
       0.28619784 0.082269214 2.340537 1.0650997
000190 a0 90 87 3d cb 55 b7 bd 65 b6 93 3d 1b ee 1e 3f
       0.06619382 -0.089519106 0.07212523 0.6208207
0001a0 0b f6 ff 3d 00 ac dd bd b5 9b 70 3d 33 61 6e 3c
       0.12498101 -0.10823822 0.058742244 0.014549541
0001b0 17 73 0a 3e e2 07 29 3d a7 3a ee 3b 64 96 b8 3d
       0.13520466 0.041267283 0.0072701755 0.0901306
0001c0 2c 2a f8 bd 4f 87 33 bc d5 ea 41 3d bf 31 cf 3d
       -0.12117419 -0.010957553 0.047343094 0.1011691
0001d0 0c 08 6b bc 86 f8 95 bd c2 14 d1 bd 1b 8a 04 bd
       -0.01434518 -0.07322793 -0.10209037 -0.03235827
0001e0 55 80 e6 bb a1 50 16 3e ad 56 96 3d 61 6f 15 3d
       -0.0070343413 0.14679195 0.07340751 0.036483172
0001f0 6e bf 1b bd 6a ad cd bd 4f 57 01 bd 99 a4 7a 3b
       -0.03802436 -0.10042842 -0.031577405 0.003824508
000200 b0 73 1a 3e 41 53 9f bb d5 54 9c 3c 5c e4 8b 3c
       0.15083194 -0.0048622196 0.01908342 0.017076664
000210 cc 2e e8 3d 65 b1 bb 3d 33 c1 27 3c 0c dd 0a 3d
       0.11337051 0.09164695 0.010238933 0.033902213
000220 2c 5a 84 3b c1 1f 39 bf 7c d0 c1 3e 75 d3 67 3f
       0.0040390696 -0.7231408 0.37854373 0.9055703
000230 0b 83 5e bf 6c bd 07 bf 0f 55 37 bf 47 b9 8b 3f
       -0.86918706 -0.5302341 -0.71614164 1.0915917
000240 33 fc 8f b2 1f cb 9b ac ab 6b 05 00 8c 66 02 00
       -1.6762078e-08 -4.427916e-12 4.97801e-40 2.20458e-40
000250 fe 80 c1 b2 ef fd 7b ad 31 2c 08 00 b9 73 05 80
       -2.2526816e-08 -1.4324083e-11 7.50537e-40 -5.00691e-40
000260 57 92 99 a7 e1 55 98 b0 be 72 7f b3 50 7e 00 80
       -4.2624693e-15 -1.1083864e-09 -5.947617e-08 -4.5312e-41
000270 56 42 f8 b1 04 c4 cc ac 48 29 07 80 68 6a a4 b3
       -7.2252915e-09 -5.819791e-12 -6.57657e-40 -7.6562e-08
000280 d9 90 31 af 45 89 23 b2 b7 5c d5 b4 51 5a 3d 8f
       -1.6149516e-10 -9.51906e-09 -3.97418e-07 -9.335814e-30
000290 eb d9 2b b4 d2 25 40 b0 2c a7 fb a2 78 92 cc b4
       -1.6004894e-07 -6.990294e-10 -6.8210686e-18 -3.810453e-07
0002a0 a7 f4 e5 a1 f3 3e 57 9b ea ef 01 80 ed 8a 04 00
       -1.5582403e-18 -1.7804723e-22 -1.779e-40 4.17179e-40
0002b0 b5 59 99 af 69 fd 27 ae cd ef 54 af 25 48 20 85
       -2.7894279e-10 -3.8196477e-11 -1.9366482e-10 -7.536415e-36
0002c0 e7 54 10 ae 47 e0 09 ab a7 1f 04 00 a3 d4 2f a5
       -3.2817218e-11 -4.8983425e-13 3.78697e-40 -1.5250875e-16
0002d0 26 d6 4a b3 15 e1 07 b2 38 0e 4d b1 78 76 ff 9e
       -4.7226557e-08 -7.909212e-09 -2.9839509e-09 -2.7048173e-20
0002e0 dd 62 00 80 35 8e 02 80 d5 03 b1 81 92 27 03 80
       -3.5465e-41 -2.34685e-40 -6.502503e-38 -2.89702e-40
0002f0 23 61 00 80 8b c2 04 80 88 2a 04 00 4f a6 03 80
       -3.4846e-41 -4.37131e-40 3.826e-40 -3.35167e-40
000300 43 74 14 be 4b 37 40 bf ef 64 09 3e 25 c6 1a bf
       -0.14497475 -0.7508437 0.1341741 -0.60458595
000310 40 6e 24 bd 90 7b 02 3e a8 40 6c be e9 22 c3 3d
       -0.040144205 0.12742448 -0.2307154 0.09528143
000320 92 ec 0d 3e ef 70 1b 3e 80 64 2a 3e e0 47 5b 3c
       0.13859776 0.151798 0.166399 0.013383836
000330 3a 3b 14 3e 31 53 ba 3d de c4 25 bd 54 70 39 3d
       0.14475718 0.09097899 -0.04047095 0.04527314
000340 dc 13 00 3e c9 22 b5 3c 49 70 03 3e 5d 23 72 3c
       0.12507576 0.022111313 0.12835802 0.014778939
000350 df 1c ab bd 57 08 13 3e 1d 79 8a bd d1 40 99 3d
       -0.08355116 0.1435865 -0.06761382 0.07483066
000360 98 ee a8 bc f7 cd 7d bc d3 d8 34 bd 54 be 15 3e
       -0.020621583 -0.015491 -0.044152092 0.14623386
000370 86 63 90 3d 30 41 41 3e 1e 42 0e 3d a4 1a bd 3d
       0.070502326 0.18872523 0.034731023 0.09233597
000380 1f 1c a4 bc f9 aa fb 3d 0d 90 ce bc 52 34 b4 3d
       -0.02003294 0.1228847 -0.025215173 0.08799042
000390 d9 ac b3 bd 4e f7 c6 3d 84 59 23 bc b8 1d 3b bd
       -0.087732024 0.097151384 -0.009970073 -0.04568264
0003a0 75 05 80 be 40 31 11 bf 2e a5 ef be 0a 11 56 bf
       -0.25004163 -0.56715775 -0.4680571 -0.8361975
0003b0 77 e6 c2 3f 03 40 2a 3f 15 e1 38 3f 83 4d f0 be
       1.5226582 0.66503924 0.7221845 -0.46934137
0003c0 60 a3 e0 3d dd 4e 6c bf 21 00 09 3e a1 ab bf bf
       0.10968661 -0.92307836 0.13378955 -1.4974252
0003d0 37 26 a3 bd c6 c0 a1 bb c5 ce 5a bd c8 c5 bf bd
       -0.07966273 -0.0049363105 -0.053419847 -0.09363896
0003e0 d5 e5 f3 3b 5d 98 32 3d 3d 29 5a 3d ff d7 3a 3d
       0.0074431696 0.043602336 0.053261984 0.045616146
0003f0 aa c4 61 3d ca 27 aa 3d 48 77 8d 3d f7 7a 45 3d
       0.055119194 0.083083704 0.06907517 0.04821297

layers.0.bias f4 [128]
000000 92 9f fe bc bc b0 d9 3b f3 67 11 3d fb 38 28 a5
       -0.031081948 0.006643383 0.035499524 -1.4590983e-16
000010 1a 7c f3 3d 67 48 d1 3d 58 a9 99 bd 57 da c3 bb
       0.11888905 0.10218888 -0.07503003 -0.005976956
000020 ac db 1c 3d 28 6a d3 bb 1f a3 39 bd 30 d7 a6 3c
       0.038295433 -0.006451864 -0.04532158 0.020366281
000030 e0 2c a5 3d 8c 14 1e bd 21 25 a3 3d 61 91 19 3d
       0.080652 -0.038593814 0.07966066 0.03749216
000040 a5 3d cc 3a 73 d1 cd bd 5f 03 d9 bc 09 5f aa bb
       0.0015582336 -0.10049715 -0.026490865 -0.0051993174
000050 fa c7 bf 3d e3 29 c2 3d e6 05 52 3c 67 21 e5 bd
       0.093643144 0.094806455 0.012818789 -0.111880116
000060 47 6c 6d 3d 55 57 10 a4 80 7d 2b 3e 0e 2b 33 b3
       0.05796459 -3.1298996e-17 0.16747093 -4.1715843e-08
000070 4d c4 f0 bd 13 c9 a0 3b 24 59 8b 3d 80 87 1b bd
       -0.117561914 0.0049067824 0.068041116 -0.03797102
000080 53 4f eb bb b0 0e 08 3e ae 2c cb bb 41 31 38 3e
       -0.007181087 0.13286853 -0.0062003946 0.17987539
000090 34 c7 b4 3d 3d 20 01 00 52 8f 23 3e 4d 47 3b b9
       0.088270575 1.034e-40 0.15972641 -0.00017860271
0000a0 3b c0 ab bd 5f 11 2b 3e 09 44 fd bd 92 c2 e8 3d
       -0.083862744 0.16705845 -0.12366492 0.11365236
0000b0 37 6d 5b 3b da 70 b3 3d 95 64 1b 3e 4b b6 db bb
       0.0033481845 0.08761759 0.15175088 -0.0067050806
0000c0 64 2c c7 bb c3 b3 29 bc ff 6f 05 80 07 8d b0 3c
       -0.00607829 -0.0103578 -4.99354e-40 0.021551622
0000d0 0a 0e 3b a5 97 ce 21 3e 36 51 1f 3e f2 55 f7 bd
       -1.6224421e-16 0.15801464 0.15558323 -0.1207694
0000e0 c1 fa bf bc d9 f2 7a bb 6e e0 00 bc 53 a6 84 a5
       -0.023434998 -0.003829172 -0.007866008 -2.3011056e-16
0000f0 42 9a 94 bd d8 60 e0 bb a7 d9 bd 3d 69 ce cf bd
       -0.07255985 -0.006847482 0.092700295 -0.101467915
000100 e4 c0 5d 3c 43 00 2f 3d 7b c7 a6 3d 5f f9 f9 ba
       0.013534758 0.04272486 0.08143517 -0.0019071511
000110 cf 1b 87 bd 46 96 07 00 d9 e4 92 ba f9 fc d5 b9
       -0.06597101 6.96756e-40 -0.0011207118 -0.00040815005
000120 7e ae ba 3d 1a 3c 10 bd b5 3b 52 3d 8c 5c 3c bd
       0.09115313 -0.035213567 0.051326472 -0.045986697
000130 73 9b c3 bd 9f 70 1d 3e 62 29 08 3e eb 72 59 bd
       -0.09551134 0.15374993 0.13297036 -0.05308811
000140 25 b5 a5 bd 4f 32 6d 3d f3 5b ac bd 61 19 06 be
       -0.08091191 0.057909306 -0.084159754 -0.13095619
000150 48 2f c0 98 d4 30 03 3e 0c 4d c8 bd cd 20 b9 bc
       -4.967858e-24 0.12811595 -0.097803205 -0.022598648
000160 17 10 75 3d 5a 3a 07 be 10 27 91 bd 72 08 08 80
       0.059829798 -0.13205853 -0.07087529 -7.37714e-40
000170 bc 36 c6 bb 4c cd 0f 3d 13 91 4f a2 08 d8 06 00
       -0.0060490053 0.035107896 -2.8130533e-18 6.2851e-40
000180 e0 4a 2d 3d 44 90 f5 3d b5 fc 73 bd 73 63 b1 bd
       0.042307734 0.11990407 -0.059567172 -0.086615466
000190 cd ce 04 80 82 dc 9c 3c d7 62 a7 bd 50 ba c0 3c
       -4.41528e-40 0.019148115 -0.08173149 0.02352634
0001a0 ca b9 c5 aa 60 17 0b 3e c4 01 0d bb 95 50 91 bd
       -3.5123147e-13 0.13583136 -0.0021515945 -0.07095448
0001b0 eb 74 b7 bc 01 c0 72 3d 24 e8 f9 3d 40 91 50 bd
       -0.022394618 0.05926514 0.122024804 -0.05091977
0001c0 d1 54 c6 b0 47 fa cd 3d 49 84 49 3b a5 12 8d 3c
       -1.4430502e-09 0.10057502 0.0030749014 0.017220804
0001d0 eb 4d a4 99 e3 0a b0 3c 1f 1a c6 bb 5a 0f 94 bd
       -1.6988673e-23 0.021489566 -0.0060455943 -0.072294906
0001e0 5c 63 70 b2 7b d3 8b bc 9a 62 0f 80 0a 6b ce bd
       -1.399243e-08 -0.017068615 -1.412904e-39 -0.1007901
0001f0 12 6e e8 93 6a c2 12 bc 94 06 1e 3e 56 7a f9 bc
       -5.867357e-27 -0.008957485 0.15432197 -0.030453842

layers.1.weight f4 [128, 128]
000000 2a 15 54 ba ff 87 1f b8 e2 18 b2 b9 84 b2 0a 00
       -0.0008090312 -3.803521e-05 -0.00033969345 9.82394e-40
000010 b2 22 43 bb e0 10 29 bb 97 60 10 10 44 56 02 80
       -0.0029775319 -0.0025797412 2.8473403e-29 -2.14617e-40
000020 18 07 5b b0 b7 55 6f a7 af 7b 85 ba 45 ee 9c b8
       -7.9681817e-10 -3.321438e-15 -0.0010183955 -7.483041e-05
000030 b6 06 6a b7 e8 48 a0 b7 f0 4c b7 ba da bf 94 ba
       -1.3949049e-05 -1.9107436e-05 -0.0013984721 -0.001134868
000040 57 cb 4e b7 cf e5 10 bb 94 ae da ba 01 54 07 80
       -1.2325901e-05 -0.0022109633 -0.0016684108 -6.72983e-40
000050 68 64 04 ad 7d 93 69 ba 4e 85 1b b9 09 57 44 b9
       -7.525626e-12 -0.0008910222 -0.00014831612 -0.0001872444
000060 f5 d8 89 35 19 e8 09 80 ce 51 a7 b7 ef 2c 04 80
       1.0270438e-06 -9.0978e-40 -1.9946045e-05 -3.83461e-40
000070 ea 77 82 ba e4 99 26 bb e6 7a 98 a3 b5 1a c1 b9
       -0.000995395 -0.0025421316 -1.6531923e-17 -0.00036831727
000080 7f d3 6d ba f5 9b 16 bb 3d b7 09 80 a2 27 a1 ba
       -0.0009072348 -0.0022981141 -8.92253e-40 -0.0012295137
000090 55 a1 56 b9 62 d5 08 80 1c 5a d4 ba 63 5e 08 80
       -0.00020468731 -8.11231e-40 -0.0016201171 -7.68544e-40
0000a0 2a a7 26 ba b8 62 d4 b9 d8 35 f3 b9 f1 90 4b bb
       -0.0006357307 -0.00040509342 -0.00046388688 -0.0031061734
0000b0 47 4c 0d ba 78 24 30 ba 9c 5e c4 b8 99 9b 09 80
       -0.00053900894 -0.00067193015 -9.363631e-05 -8.82337e-40
0000c0 42 e2 49 ba 1c 5c 00 00 7c 58 09 80 dc d4 c2 81
       -0.00077012565 3.3043e-41 -8.58262e-40 -7.1569783e-38
0000d0 9f b4 08 00 11 82 2c bb 92 ba 94 b9 a9 c1 e9 ba
       7.99479e-40 -0.0026322643 -0.00028367765 -0.0017834204
0000e0 7b 8c 3f ba ab 90 08 00 5d b0 00 80 14 24 00 00
       -0.0007307005 7.86581e-40 -6.3267e-41 1.2942e-41
0000f0 16 68 09 b9 e7 83 5f b9 27 45 59 b0 f7 4e 1a b7
       -0.00013104113 -0.00021316075 -7.904241e-10 -9.197501e-06
000100 88 24 70 b7 b8 8a 9f ba ee ec 1d ba ac a2 05 00
       -1.431362e-05 -0.0012172079 -0.000602438 5.17533e-40
000110 b6 a7 da ba ea 38 01 80 7b 11 b9 b6 f8 65 04 80
       -0.0016682062 -1.12252e-40 -5.5154646e-06 -4.03921e-40
000120 30 cd 83 b9 65 e0 9a a0 0d c6 9f ba 2b a6 34 b8
       -0.00025139144 -2.6237107e-19 -0.0012189761 -4.30701e-05
000130 b8 29 06 33 b0 4e 1e bb 1a 13 c4 ba 00 c3 dc b9
       3.123725e-08 -0.0024155788 -0.0014959306 -0.00042106956
000140 13 7b 5c 99 50 91 c3 b8 16 4d 0d bb bf bf 44 b8
       -1.1398588e-23 -9.325391e-05 -0.002156084 -4.690862e-05
000150 04 bb 09 80 a1 e1 60 b9 78 6d c6 b8 db 20 46 ba
       -8.93608e-40 -0.00021446358 -9.461766e-05 -0.00075579964
000160 98 15 86 af 9e e7 78 b8 0f 52 2c b9 a7 c2 0a 00
       -2.43898e-10 -5.9343518e-05 -0.00016433767 9.88183e-40
000170 7c 47 08 80 81 dc c3 ba a9 26 06 80 ba 38 09 00
       -7.60328e-40 -0.0014943035 -5.64882e-40 8.46869e-40
000180 13 ea 9a ba 99 d9 e6 b3 99 67 96 b7 74 6e 36 bb
       -0.0011819027 -1.07497904e-07 -1.7929635e-05 -0.0027836831
000190 c0 40 07 80 c9 58 d4 b8 76 9c e6 b9 c7 c7 0b 80
       -6.66076e-40 -0.00010125485 -0.0004398559 -1.081857e-39
0001a0 d1 3c 05 80 bd 40 9c ba 17 0f 08 80 6d ee ba ba
       -4.80994e-40 -0.0011921149 -7.40097e-40 -0.001426173
0001b0 f0 6b 6d a8 47 ff c8 aa 0a 78 80 b8 92 3f 5f b9
       -1.3179548e-14 -3.570427e-13 -6.125875e-05 -0.00021290619
0001c0 8d e7 04 80 af 37 ba ba 30 cd 81 ba 24 41 a0 ba
       -4.50407e-40 -0.0014207269 -0.000990307 -0.0012226445
0001d0 15 2d 03 80 9a a0 ed b8 b4 52 06 80 29 fd 58 ba
       -2.91679e-40 -0.00011330955 -5.80681e-40 -0.000827747
0001e0 58 96 01 80 58 56 aa ba 8c 22 0a 80 d4 2f 8b 25
       -1.45769e-40 -0.0012995703 -9.30748e-40 2.4145066e-16
0001f0 0a 6d 02 80 d8 f9 63 b8 42 3d f8 b9 9a 56 94 b7
       -2.22787e-40 -5.4353703e-05 -0.00047347887 -1.7683302e-05
000200 60 49 c4 ba b0 a1 0a ba 18 5f cf 38 25 e6 06 00
       -0.0014975481 -0.00052883755 9.888242e-05 6.33573e-40
000210 1e 36 52 ba 40 dc f9 ba 55 76 79 bb 8c 29 00 00
       -0.00080189283 -0.0019062832 -0.0038064916 1.4904e-41
000220 7a fb 14 ba c6 82 13 bb 6b 65 8a ba 1a c9 fe ba
       -0.0005683225 -0.0022508367 -0.0010558789 -0.0019438595
000230 09 2a 63 bb 95 ac 61 b9 ee 20 7b b9 16 72 b7 ba
       -0.0034662506 -0.00021521964 -0.00023949493 -0.0013995792
000240 b2 5f 82 ba f0 7b b8 b7 c8 dd 19 bb 53 11 0a 80
       -0.0009946732 -2.1992222e-05 -0.002347814 -9.2457e-40
000250 c4 dd c3 ba da 2f 3a 38 e2 09 26 ba 9a bb 72 bb
       -0.0014943411 4.439042e-05 -0.000633387 -0.0037038089
000260 14 c3 2b bb 34 9c 09 00 61 18 13 bb aa 78 03 00
       -0.0026208805 8.82555e-40 -0.002244495 3.18793e-40
000270 e1 82 8c bb da dc c9 ba 59 1d 04 32 9c 14 61 bb
       -0.004288063 -0.0015400902 7.690084e-09 -0.003434456
000280 43 2a 56 bb c3 fb a7 ba 97 3a 09 00 29 c1 e0 ba
       -0.0032678999 -0.001281612 8.47538e-40 -0.001714741
000290 58 63 25 ba e7 ba 08 00 66 d9 aa ba c6 d9 04 00
       -0.0006309054 8.01732e-40 -0.001303476 4.45464e-40
0002a0 44 11 ca b9 37 a4 39 36 7f b0 f6 ba 83 a1 47 ba
       -0.00038541306 2.7662734e-06 -0.001882091 -0.00076153147
0002b0 60 f7 30 b9 d9 ce cd bb c8 85 e2 b9 31 10 06 80
       -0.00016876822 -0.0062807617 -0.00043205754 -5.56821e-40
0002c0 1e e9 81 bb ec 88 00 00 64 69 00 80 03 6c 36 b7
       -0.0039645573 4.9118e-41 -3.7807e-41 -1.0873194e-05
0002d0 bd 3a 00 80 77 2d 04 b9 8c 65 bb ba 1b c6 16 ba
       -2.1071e-41 -0.00012605438 -0.0014297231 -0.0005751566
0002e0 04 20 02 bb 92 55 02 00 18 c5 08 00 92 e6 00 80
       -0.0019855509 2.14368e-40 8.05388e-40 -8.2713e-41
0002f0 26 f8 2b 39 33 7a 6d b9 43 35 b5 b9 6b 3a 4e b8
       0.00016400273 -0.00022647604 -0.00034562693 -4.9168633e-05
000300 e9 2a a1 ba eb bd 3b bb 2f 84 4d b8 b5 0e 0a 80
       -0.0012296113 -0.0028647135 -4.8998914e-05 -9.23631e-40
000310 c7 5d 07 3b 1c 5c 08 00 3a a5 6c ba a5 d9 09 80
       0.002065526 7.67727e-40 -0.0009027306 -9.04596e-40
000320 f2 e8 cd bb ac 92 d0 b9 23 53 66 36 c7 02 0e b7
       -0.0062838728 -0.0003978213 3.4321063e-06 -8.464506e-06
000330 1f ed 2c b8 c7 ec 9b ba 5c cb e3 ba db 0a 37 b8
       -4.1228832e-05 -0.0011896127 -0.0017379331 -4.364071e-05
000340 6b a1 95 b9 ab 28 90 b7 92 5d eb b8 4c 9e 4b ba
       -0.0002853976 -1.7185075e-05 -0.00011223102 -0.00077674235
000350 1f 4c 0a 80 39 58 10 bb 59 02 9c 36 ca e5 c5 ba
       -9.45662e-40 -0.002202524 4.6494356e-06 -0.001509839
000360 ce 43 52 ba be 4f 87 ba e5 5a ab 38 48 fb 05 80
       -0.0008020968 -0.0010323448 8.170846e-05 -5.4932e-40
000370 78 ee 08 00 35 d3 02 bb 98 08 01 80 d6 85 08 80
       8.2023e-40 -0.0019962315 -9.4918e-41 -7.82695e-40
000380 a7 48 d2 38 f4 f2 83 ba ed 54 8d bb 94 df bd 3a
       0.00010027113 -0.0010066913 -0.0043131025 0.0014486187
000390 6c 49 09 00 6c 00 08 bb 63 61 09 39 e6 8e 55 2e
       8.52858e-40 -0.0020752205 0.00013101618 4.8557512e-11
0003a0 69 b6 03 80 ec d2 9d 39 75 77 06 00 39 b4 5c ba
       -3.40943e-40 0.00030102523 5.93866e-40 -0.0008419189
0003b0 4a 61 70 bb d1 b0 94 bb 58 75 2c 37 01 de 8f bb
       -0.0036679083 -0.0045376797 1.027932e-05 -0.0043904786
0003c0 cc ae 01 80 79 b9 03 ba 78 8d 4e bb 1e ce 5b bb
       -1.54541e-40 -0.0005024891 -0.0031517427 -0.0033539603
0003d0 95 9f 04 00 b0 9a de ba f2 25 06 00 89 af f6 b9
       4.24589e-40 -0.0016983356 5.64625e-40 -0.0004705156
0003e0 d4 78 01 80 71 18 03 bb 26 06 09 80 18 9f c3 ba
       -1.3518e-40 -0.0020003582 -8.28725e-40 -0.0014924733
0003f0 9c 5c 02 80 49 25 24 bb b8 c6 c5 b9 68 f6 67 bb
       -2.16893e-40 -0.0025046638 -0.00037722825 -0.0035394672

layers.1.bias f4 [128]
000000 3b 4a 62 b9 4c ef f4 b9 42 5d 81 b8 b8 eb 64 3d
       -0.00021580693 -0.00046717597 -6.16857e-05 0.05588886
000010 cf cc 16 bb 10 12 4b 3e 2a 6c 17 bb 60 ad 06 be
       -0.002301026 0.19831109 -0.0023105242 -0.13152075
000020 79 99 85 ad a1 e5 b0 bb af 9c 40 3e ee a4 95 3c
       -1.5188505e-11 -0.0053984676 0.1880977 0.018267121
000030 58 71 25 3e 74 d8 98 bd 90 3e 20 3e aa a6 58 bd
       0.16156518 -0.0746316 0.15648866 -0.05289332
000040 5a 32 89 bb d6 be 03 00 e7 9c 6d 3e da e4 bc 3d
       -0.0041869106 3.43966e-40 0.23204385 0.092233375
000050 89 80 0b 97 6d f9 72 3d 0a 1e 0f bb 3a 9a 50 bc
       -4.5075556e-25 0.059319902 -0.0021837973 -0.012732083
000060 5c 53 b6 3c 50 14 14 b7 b3 28 10 bc 6a b7 e7 3d
       0.022256546 -8.826217e-06 -0.008798766 0.1131428
000070 7f 10 67 3e 02 e0 94 ba 33 75 20 b5 3e 19 b1 bc
       0.22564887 -0.0011358263 -5.977519e-07 -0.021618482
000080 22 63 81 3e 53 95 df 3d 14 c9 fa bb 84 b7 aa 3d
       0.25270945 0.10917153 -0.007653365 0.08335784
000090 4e b9 8d bc a4 ae 17 3e 91 28 9c 3d 2e f4 0a b9
       -0.017300274 0.14812714 0.07624925 -0.0001325167
0000a0 27 7b 40 bb 9e 65 65 3e 56 e9 03 3e 23 c1 39 bd
       -0.002937028 0.22402045 0.1288198 -0.045350205
0000b0 b0 aa f5 3d 49 f9 37 b2 9f 5d 01 3e 7a 93 52 3e
       0.11995447 -1.0708683e-08 0.1263337 0.2056407
0000c0 aa 68 78 3e 42 c8 97 3d 8e e4 0f 3e 04 77 28 3c
       0.24258676 0.07411243 0.1405203 0.010282282
0000d0 02 4b 3d b2 71 33 3a 3e 31 46 cb 3d d4 d1 79 b2
       -1.1018303e-08 0.18183686 0.09925497 -1.4541417e-08
0000e0 c4 fb 02 00 d8 0e 39 ba 85 98 53 3e 8f 81 0c be
       2.73987e-40 -0.0007059402 0.2066365 -0.13721298
0000f0 a9 88 e1 3d e0 fb 41 3c fd ff 1c be 7b 8d b2 a9
       0.11012394 0.011839837 -0.15332027 -7.929331e-14
000100 cd 65 a9 ba a1 eb a1 af f3 e6 02 00 ef 3f 73 3e
       -0.0012924016 -2.9453154e-10 2.6652e-40 0.23754857
000110 49 d0 15 3e 09 12 ae b0 40 61 e4 3d 43 f9 37 3e
       0.14630236 -1.2665292e-09 0.111513615 0.1796618
000120 bf ac 04 00 d8 f9 f1 aa 5b 2a 4d 94 15 3d 05 3e
       4.29312e-40 -4.2983564e-13 -1.0358208e-26 0.13011582
000130 47 f1 f9 3d ea 99 7a bb a5 67 0b 3e c9 af 0c bc
       0.12204223 -0.0038238713 0.13613756 -0.008586832
000140 a7 a9 60 bb b5 14 50 bb 56 8c 05 80 5d 52 32 05
       -0.0034280808 -0.0031750624 -5.0952e-40 8.3846475e-36
000150 91 f6 40 3d f3 87 1a 0e f9 b9 35 bc ed ec 31 3e
       0.047110144 1.9047423e-30 -0.011091703 0.17375536
000160 be 4f 80 ba 78 53 01 80 54 cd 1a aa e9 e5 87 9c
       -0.000978939 -1.21778e-40 -1.3749185e-13 -8.992981e-22
000170 18 e5 aa 3c 84 54 88 bd 72 2f 1b bc 00 11 0f 3d
       0.020861194 -0.06656745 -0.009471761 0.03492832
000180 a5 c6 6d 3e 80 a9 e5 bd 41 b2 2a 39 6d 20 08 3e
       0.23220308 -0.1121397 0.00016278868 0.1329362
000190 05 1b 1b 3e eb e8 9e 3d 46 cf 8b 3e 8d 58 4a 3e
       0.15147026 0.07759269 0.27306575 0.19760342
0001a0 3f a8 de a5 e5 2c 0c 3e cf f8 2e 3e 5c e0 f4 00
       -3.862487e-16 0.13689001 0.170871 2.2488346e-38
0001b0 16 75 af 3c 10 53 18 bc 56 33 d7 bc ff 8c 3a 3e
       0.021418136 -0.009297147 -0.026269596 0.18217848
0001c0 c5 1b 0d be 23 ab d0 3a 81 07 96 3d 3c 80 71 3d
       -0.13780124 0.0015920143 0.0732565 0.058960184
0001d0 1e da 18 3e 3a f8 ba 3d 2b ab 87 3e ba 4f 42 bb
       0.14926955 0.09129377 0.26497778 -0.0029649572
0001e0 c2 19 08 be 82 36 35 3e 4f ed 06 3e 50 b3 19 3e
       -0.13291076 0.17696574 0.13176464 0.15009809
0001f0 c6 90 27 bd a6 f7 75 ae ff 41 49 3e 56 ec a0 a3
       -0.04090955 -5.5926506e-11 0.19654082 -1.7447327e-17

layers.2.weight f4 [128, 128]
000000 f4 c8 09 00 8c ec 02 00 7c 60 05 00 23 e2 20 b4
       8.98608e-40 2.68528e-40 4.9379e-40 -1.4983429e-07
000010 af 1f 08 00 51 7c 89 ba 4f 96 07 80 2d b2 38 b9
       7.4605e-40 -0.001048932 -6.96769e-40 -0.00017613983
000020 88 ca 01 00 9d 2d 01 00 70 1d a6 36 4b c7 a9 b8
       1.6449e-40 1.08198e-40 4.9506125e-06 -8.095669e-05
000030 82 43 ac b9 fe a8 a7 3a 43 05 9f b7 5d 90 82 ba
       -0.00032856694 0.0012791452 -1.8956727e-05 -0.0009961237
000040 68 b0 09 00 ea 22 06 00 e3 b7 02 bb 3c 88 5f b9
       8.89802e-40 5.63538e-40 -0.001994603 -0.00021317689
000050 4e 25 08 00 c5 53 37 b4 ad 34 03 00 5e 47 08 80
       7.48066e-40 -1.7073678e-07 2.94403e-40 -7.60286e-40
000060 cb e7 2c bb fc 37 01 80 5e 65 04 80 16 20 54 bb
       -0.0026383277 -1.11919e-40 -4.03706e-40 -0.0032367758
000070 c3 df 8c ba aa f6 3f af e9 f9 05 00 47 e3 1b bb
       -0.0010747839 -1.7458981e-10 5.48828e-40 -0.002378659
000080 ce 62 20 ba 2e 71 b8 b3 95 2a 05 80 3e 21 58 bb
       -0.00061182387 -8.588755e-08 -4.74453e-40 -0.0032978798
000090 54 d4 bc ba d6 17 20 b5 86 cd 0d b7 7d f5 0a 00
       -0.001440654 -5.963933e-07 -8.452107e-06 1.00642e-39
0000a0 41 29 09 80 40 ab 7d ba 13 d8 a4 bb a0 f5 27 bb
       -8.41319e-40 -0.00096767023 -0.005030641 -0.0025628582
0000b0 bb b4 1a ba 5f a0 01 00 54 12 03 b5 06 75 0c ba
       -0.0005901565 1.49366e-40 -4.8827974e-07 -0.0005358014
0000c0 71 0b ee b7 d9 c5 46 b3 98 61 92 b6 91 38 85 b5
       -2.8377139e-05 -4.628041e-08 -4.3625005e-06 -9.925735e-07
0000d0 02 f6 07 00 5b f7 ef b4 58 95 45 38 60 10 01 80
       7.311e-40 -4.4697194e-07 4.7107547e-05 -9.771e-41
0000e0 cc d4 09 00 14 8f 00 00 d7 c9 b5 b5 99 8f 84 b6
       9.02857e-40 5.1327e-41 -1.3544294e-06 -3.9506235e-06
0000f0 32 29 4c ba 41 9d 18 39 52 96 5b ba af 4f 06 00
       -0.0007788121 0.00014554431 -0.00083765865 5.79598e-40
000100 85 de 08 80 8a bf 07 80 a0 f2 0a 80 47 22 2e b1
       -8.14509e-40 -7.1156e-40 -1.005392e-39 -2.5339817e-09
000110 27 a4 ee b7 85 f6 09 00 71 73 36 ba a4 25 8c b7
       -2.844825e-05 9.14954e-40 -0.0006959951 -1.6706828e-05
000120 92 43 08 80 fc 96 0a 00 b3 ae 01 80 cf 08 ce ba
       -7.58924e-40 9.72518e-40 -1.54506e-40 -0.0015719178
000130 cc ae 51 b7 2e ae 04 80 90 f7 8c b5 b3 39 08 00
       -1.2498069e-05 -4.29826e-40 -1.0502863e-06 7.55383e-40
000140 44 12 0a 00 b6 1a 09 80 5c d3 09 00 71 2b 04 00
       9.24907e-40 -8.36102e-40 9.02341e-40 3.82926e-40
000150 a1 fa 18 bb 3b 4b 06 00 63 de 06 00 e9 c8 49 bb
       -0.0023342746 5.78e-40 6.3079e-40 -0.0030789918
000160 e8 55 09 80 9f aa 0a 80 be c7 0a 80 c6 37 08 00
       -8.57337e-40 -9.79562e-40 -9.90009e-40 7.54692e-40
000170 cc ff a1 34 86 1d ca b8 aa 3f 05 80 58 87 13 ba
       3.0174704e-07 -9.63761e-05 -4.82016e-40 -0.0005627773
000180 b7 2e b9 b9 25 24 d2 ba ec c8 bb 38 e3 8a 8a ba
       -0.00035320755 -0.00160325 8.9542795e-05 -0.0010569956
000190 8f 5c ea b7 45 55 6e bb f1 90 a7 bb 0a 20 02 ba
       -2.7938075e-05 -0.0036366743 -0.005113714 -0.00049638806
0001a0 19 ba 07 80 46 68 2e bb 78 32 ef b0 f0 78 05 80
       -7.09608e-40 -0.0026612445 -1.7403883e-09 -5.02562e-40
0001b0 9c 81 c0 ba 79 99 05 00 d9 03 42 38 78 4d e5 ba
       -0.0014687064 5.14233e-40 4.6256788e-05 -0.0017494401
0001c0 3e d3 dc ba cd f4 67 b8 37 3a 31 b8 34 70 44 ba
       -0.0016847623 -5.530268e-05 -4.2254305e-05 -0.0007493526
0001d0 b3 6a 39 b8 ac 0d 96 b9 a3 1a 5b b7 6c ba 08 80
       -4.420681e-05 -0.00028620416 -1.3059619e-05 -8.0156e-40
0001e0 c9 fb 80 b9 7c e2 0b b9 ee 0a 0a ba 42 fc 77 b5
       -0.00024601657 -0.00013340445 -0.0005265911 -9.2381754e-07
0001f0 5e ce 65 b8 cf 4a 06 00 fc c2 ee b9 c4 96 06 80
       -5.479005e-05 5.77849e-40 -0.00045540172 -6.05097e-40
000200 6b 35 08 00 a0 0f 05 00 b2 b1 03 00 d5 df 02 80
       7.53847e-40 4.64783e-40 3.39252e-40 -2.63967e-40
000210 ba 4a 03 80 a5 3c 32 ad b3 56 06 00 f9 c1 4e a7
       -3.02313e-40 -1.0131594e-11 5.82115e-40 -2.8693396e-15
000220 79 bc 05 00 37 10 05 00 00 5c 27 a9 92 fb bc a8
       5.26789e-40 4.64994e-40 -3.7161246e-14 -2.0981294e-14
000230 8e c3 16 a8 57 cf 59 1d 53 06 23 9c fb 53 47 92
       -8.369077e-15 2.8826903e-21 -5.394035e-22 -6.289684e-28
000240 c2 2e 03 00 6d 00 04 00 15 da 6a ac 05 89 43 9e
       2.9228e-40 3.67495e-40 -3.337446e-12 -1.0351549e-20
000250 02 39 01 00 76 cf 82 8e 99 7c 04 00 50 7e 06 00
       1.12286e-40 -3.2247252e-30 4.12039e-40 5.96325e-40
000260 46 db 00 00 61 1e 03 00 c4 b5 00 00 70 84 f0 b3
       7.866e-41 2.86404e-40 6.5205e-41 -1.1199961e-07
000270 1a 81 b6 a9 3e 06 07 00 80 37 03 80 6c ce 83 b2
       -8.104819e-14 6.45088e-40 -2.95416e-40 -1.5344277e-08
000280 e2 d1 5c ac 8a 14 05 80 93 66 00 00 cd 60 6f b0
       -3.1380389e-12 -4.66546e-40 3.6797e-41 -8.7085256e-10
000290 72 b1 bb 8a 57 4f 26 9b fa 75 03 00 bb 3c 06 80
       -1.8074192e-32 -1.3756834e-22 3.17829e-40 -5.72799e-40
0002a0 36 5a 09 00 9c e8 c2 b3 88 93 b3 b4 1a f2 65 ad
       8.58881e-40 -9.0761404e-08 -3.344869e-07 -1.30709e-11
0002b0 f3 aa 37 aa 42 e7 01 80 5b 2f 07 00 38 ab 38 ab
       -1.6312975e-13 -1.74795e-40 6.59836e-40 -6.5607545e-13
0002c0 91 6e 07 80 93 42 00 80 f3 12 05 00 5a f0 4d 87
       -6.82512e-40 -2.3882e-41 4.65975e-40 -1.5493119e-34
0002d0 8a 16 09 00 20 a1 07 80 60 d1 86 10 fb 79 02 00
       8.34605e-40 -7.00649e-40 5.3176274e-29 2.2743e-40
0002e0 12 d3 00 00 d3 c9 03 00 ec ab 02 80 a5 ae 77 9a
       7.5718e-41 3.47907e-40 -2.45345e-40 -5.121948e-23
0002f0 98 4d aa ab 0a d0 f7 a5 2c 09 6d a6 f2 41 04 00
       -1.2100763e-12 -4.2988643e-16 -8.2238323e-16 3.90999e-40
000300 08 6b 04 80 cc 48 03 80 32 9d 09 00 51 7b 02 00
       -4.05738e-40 -3.01621e-40 8.8291e-40 2.27909e-40
000310 99 e2 16 a3 85 e8 01 80 d3 62 a8 ab eb b1 75 9f
       -8.1795e-18 -1.75248e-40 -1.1964547e-12 -5.2027938e-20
000320 b3 6f 0a 80 e3 1a 03 80 0c 7e 01 80 d1 82 e4 b0
       -9.58425e-40 -2.85152e-40 -1.37053e-40 -1.6626364e-09
000330 76 85 9a 9b c9 97 09 80 81 89 9e 94 f5 9a 08 80
       -2.556341e-22 -8.8097e-40 -1.6008159e-26 -7.90272e-40
000340 0c bb 03 00 ec 54 0a 80 0b 21 0b 80 61 46 05 00
       3.42606e-40 -9.48819e-40 -1.022044e-39 4.84425e-40
000350 9d be fd ad 08 22 04 00 c2 24 0a 80 80 38 04 b4
       -2.884742e-11 3.7955e-40 -9.31541e-40 -1.2314013e-07
000360 3a c7 00 00 e4 c5 0a 80 74 c3 09 80 de 06 04 80
       7.1469e-41 -9.89345e-40 -8.96635e-40 -3.69805e-40
000370 15 18 4f 10 07 1f 5e 8f 19 a8 02 80 01 4b 27 a5
       4.0842104e-29 -1.0951421e-29 -2.43973e-40 -1.4510353e-16
000380 af 16 3b ad 87 06 18 b1 85 b2 03 80 e8 58 9b a7
       -1.0634756e-11 -2.2122622e-09 -3.39547e-40 -4.3117535e-15
000390 05 e3 46 86 b4 b1 0e ac 08 df d0 b3 23 24 b0 a9
       -3.740645e-35 -2.0278059e-12 -9.726324e-08 -7.822239e-14
0003a0 54 33 08 80 c5 a0 e6 ac 6f 22 01 00 fa 60 01 00
       -7.53097e-40 -6.554842e-12 1.04188e-40 1.26624e-40
0003b0 6c 02 97 ad 1f a8 00 80 03 5d 1e 25 77 1c 11 a6
       -1.7167788e-11 -6.031e-41 1.3735829e-16 -5.034556e-16
0003c0 99 8b 45 a6 7b cc 00 00 87 42 bb a8 93 81 77 a3
       -6.8537295e-16 7.3354e-41 -2.0790022e-14 -1.3417335e-17
0003d0 99 38 0d 9a 3f f6 82 9a 90 3f 6a 8b bb 2f 02 00
       -2.9203836e-23 -5.416457e-23 -4.511458e-32 2.00793e-40
0003e0 b3 a6 02 00 8c 92 10 ab 87 d6 cb ad d5 f5 06 00
       2.43471e-40 -5.136245e-13 -2.3173697e-11 6.39201e-40
0003f0 16 80 53 ad 00 d9 0a 80 41 bb 6c b2 5a 8b 06 80
       -1.2022402e-11 -9.962e-40 -1.3779585e-08 -6.01003e-40

layers.2.bias f4 [128]
000000 7a 3f a8 ae 26 28 05 80 56 d5 06 3e a0 e8 00 3d
       -7.651031e-11 -4.7358e-40 0.13167319 0.03147185
000010 61 10 05 80 99 e4 06 80 e3 93 aa 3d 41 86 d9 ba
       -4.65053e-40 -6.33018e-40 0.083289884 -0.0016595797
000020 7d b9 ac bc 32 04 45 bd f8 41 86 be 6f b5 4a b2
       -0.021084541 -0.048099704 -0.26222205 -1.1799201e-08
000030 35 f5 9b be 78 30 c4 bd ce a1 01 be 26 b5 07 80
       -0.30460516 -0.09579557 -0.1265938 -7.07832e-40
000040 b8 9c ab b3 a7 4c 93 be 71 fe 6c bd 6b 3e 06 00
       -7.991315e-08 -0.2876942 -0.05785984 5.73404e-40
000050 93 e1 77 3e 7a 2d f6 bc 19 4e 05 00 07 b1 14 bd
       0.24207143 -0.030050982 4.87194e-40 -0.03630164
000060 a6 b3 99 ba 3f fe 70 be a5 e8 c5 3e da 6f b6 b3
       -0.0011726513 -0.23534487 0.38654056 -8.495381e-08
000070 23 82 42 a6 f3 29 09 bc 9c b9 a8 98 54 5c 05 00
       -6.748364e-16 -0.008371818 -4.36144e-24 4.92299e-40
000080 70 95 f5 be 8c 34 91 01 60 f5 6e b9 2f b1 48 be
       -0.47965574 5.333999e-38 -0.00022788858 -0.1959884
000090 d6 ff 1a be c4 21 3e be fb 3a 43 3e fa 0c b5 be
       -0.15136656 -0.18567568 0.19065468 -0.35361463
0000a0 65 8e f4 b1 db a5 83 be fc 38 ad bd 46 04 d8 3d
       -7.117523e-09 -0.25712475 -0.084581345 0.1054769
0000b0 3f a6 9d 3e 19 a8 16 3b 69 c4 a8 bb aa 81 0b bc
       0.30790898 0.0022988378 -0.005150367 -0.008514801
0000c0 04 d1 05 00 e5 ec 05 80 1d c5 be b1 1e 28 f3 3d
       5.34158e-40 -5.44159e-40 -5.552137e-09 0.11872886
0000d0 1f 75 5a b2 64 d9 35 b4 a1 75 bb bd 0c c0 b4 96
       -1.27159e-08 -1.6936025e-07 -0.09153295 -2.9201767e-25
0000e0 22 26 94 bd fb d1 a3 3e 8a 1b 07 80 65 d0 01 00
       -0.07233836 0.3199614 -6.52728e-40 1.66593e-40
0000f0 7b 03 03 00 72 ec 18 ad 3c 61 00 00 70 f2 e0 b9
       2.76755e-40 -8.692701e-12 3.4881e-41 -0.0004290524
000100 1c fb 45 3e ac ab a0 9c 38 79 89 9b 62 b7 64 bb
       0.19334072 -1.0632288e-21 -2.2743085e-22 -0.0034899344
000110 b9 c7 f7 b9 29 6e bc b9 0b 62 39 a6 23 eb 2a 3d
       -0.00047260316 -0.0003594023 -6.431764e-16 0.04172815
000120 d3 6a a0 3c 34 fa 1e bc cc 80 f8 b4 d7 9c 34 b4
       0.019582188 -0.009703208 -4.6287312e-07 -1.6820864e-07
000130 cc f2 0a 3e a6 b3 cc bb 16 4d 33 3e 9b 05 06 00
       0.13569182 -0.0062470017 0.17509875 5.53024e-40
000140 5f 77 58 be 4e c4 05 00 b8 6c 5d 3e f1 03 3e 3d
       -0.21139286 5.29598e-40 0.21623504 0.046390478
000150 9a 88 03 80 8f 1c d1 b9 5a f4 f9 a6 f6 0e 51 3e
       -3.2451e-40 -0.00039884864 -1.7344077e-15 0.20415863
000160 60 22 07 00 b9 5e 8d bc 87 50 fa bd 33 21 e8 bb
       6.5518e-40 -0.017257081 -0.122223906 -0.007084036
000170 f0 b9 89 3e 59 6a 01 00 87 04 52 91 ca e3 47 be
       0.26899672 1.29986e-40 -1.6567474e-28 -0.19520488
000180 7b 0f 1d 3e b7 72 03 00 fc a1 d3 b7 fc 4f b2 3d
       0.15337937 3.16658e-40 -2.522859e-05 0.08706662
000190 1c c9 24 3c c8 80 4f 3e dd 46 4a ba d4 7e 06 00
       0.010057714 0.2026397 -0.0007716248 5.9651e-40
0001a0 b2 14 2c 3d f1 4f 88 b1 2d e7 00 80 74 39 16 95
       0.042011924 -3.9672092e-09 -8.293e-41 -3.033758e-26
0001b0 32 98 0a be 9c 53 5a bc 03 1c b4 be a2 3e 8d 3e
       -0.1353462 -0.013325598 -0.3517762 0.27586848
0001c0 82 c7 54 9f c1 57 52 3e a9 00 02 80 1e d0 22 95
       -4.5057775e-20 0.20541288 -1.83908e-40 -3.2879815e-26
0001d0 a6 64 b8 b1 ea 6a c3 bc 6c 47 94 3c 00 43 28 3d
       -5.366547e-09 -0.023854692 0.018100463 0.04107952
0001e0 e2 18 a9 3c c2 57 90 be 30 4b 60 be 7b 08 be b1
       0.020641748 -0.28191954 -0.21903682 -5.530692e-09
0001f0 14 b6 04 bc cb 42 b2 20 b1 9d 19 bc fc 10 e4 ba
       -0.008100051 3.0198573e-19 -0.0093759755 -0.0017400081

layers.3.weight f4 [1007, 128]
000000 41 0d 84 3a 97 10 40 38 55 4a 2d bf a5 d5 09 be
       0.0010074751 4.5791818e-05 -0.67691547 -0.13460405
000010 77 2b 93 2c 72 cc 32 38 78 4b 35 bf d3 07 7a bf
       4.182817e-12 4.262891e-05 -0.7081828 -0.9766819
000020 b5 c1 27 bf 74 71 b1 be 3b 23 29 bf e1 42 81 bc
       -0.6552995 -0.3465687 -0.6606938 -0.01577896
000030 fd 3f 65 bf 29 71 bc 30 93 a6 0d bf 4a c6 20 28
       -0.89550763 1.3710962e-09 -0.553323 8.924781e-15
000040 bd fd 7a bc 9f 24 19 bf eb da d4 be 03 6e 04 b9
       -0.015319285 -0.59821504 -0.4157327 -0.00012629484
000050 de 44 db be 37 9f d7 be 59 af a7 36 f8 b1 05 bf
       -0.4282598 -0.4211366 4.997401e-06 -0.52224684
000060 3b 10 f9 ba bc 70 b3 3d 6e 60 b4 be ac b8 15 3c
       -0.001900203 0.08761737 -0.3522982 0.0091382675
000070 c1 36 85 3c 6e fa 23 3c 91 6a 78 af e2 d2 f2 2e
       0.01626146 0.010008438 -2.2593329e-10 1.1042346e-10
000080 82 91 ed 3e 64 fe 24 3a 50 f9 85 bc a9 34 3f bf
       0.46400076 0.00062940107 -0.016354233 -0.7468973
000090 95 66 2d bd 5c be 1c bf 0a 47 53 be 8e 87 6d 90
       -0.042334158 -0.61227965 -0.20632568 -4.6844436e-29
0000a0 18 ea d6 3b 06 54 22 bd ad 6a 00 c0 97 63 18 bf
       0.006558668 -0.039630912 -2.006511 -0.5952696
0000b0 06 d7 37 be e4 0f 73 bd 08 75 d9 3b 50 58 79 be
       -0.17953119 -0.059341326 0.0066362657 -0.24350095
0000c0 40 c2 8b 25 e6 d4 83 b5 17 60 4d 3b 3a 84 25 bf
       2.4244285e-16 -9.822222e-07 0.0031337792 -0.64654887
0000d0 86 00 21 3b 93 97 8d bb a7 f5 6f 3d dc 6b 1b 36
       0.0024566962 -0.0043210476 0.05858388 2.3159582e-06
0000e0 db 40 b1 be 22 32 48 be fb 0f 00 00 d4 f1 ae 39
       -0.34619793 -0.19550374 5.733e-42 0.00033368042
0000f0 a4 78 80 b1 fe ac 01 b7 05 ab 02 80 20 fd f3 bb
       -3.7390055e-09 -7.729277e-06 -2.45021e-40 -0.0074459463
000100 33 fd 01 bf dd 7e 03 3c eb d7 e7 b7 18 8f 59 3c
       -0.50776976 0.008025852 -2.763789e-05 0.013278745
000110 38 9f 4e 3c 90 41 84 b8 73 04 0e ba 0d 86 2b bd
       0.012611203 -6.3064625e-05 -0.0005417533 -0.041875888
000120 68 90 45 be 13 96 f7 3b c0 ec cf bb 86 5c b1 34
       -0.19293368 0.007555732 -0.0063453615 3.303614e-07
000130 c2 99 e1 bc 25 8a ef 3b 8f c6 62 b1 75 53 7b 38
       -0.027539138 0.0073101693 -3.3000196e-09 5.992079e-05
000140 5b d6 51 be 4e a6 d3 99 a6 d9 d0 be 6c 5a c6 be
       -0.20491926 -2.1884059e-23 -0.40791053 -0.3874086
000150 79 88 d9 b3 96 68 07 bb ac d4 ba 32 ef 5b 5a bf
       -1.0129674e-07 -0.0020661703 2.1749962e-08 -0.8529653
000160 c5 71 ee b2 3d b5 c2 be c0 5a 89 be b1 af d6 3b
       -2.7758583e-08 -0.380289 -0.2682705 0.0065517058
000170 68 28 32 bd 7d 52 14 3a 6c 5f 04 bb 3e 81 bb bf
       -0.043495566 0.00056580437 -0.0020198477 -1.4648817
000180 60 17 09 be c1 17 c7 9f 8e 5e 3c 3b 79 81 1c be
       -0.13387823 -8.4319076e-20 0.0028742882 -0.15283765
000190 d3 e1 8f be 72 0e b8 be ae 63 a0 ba 8d 23 00 80
       -0.28101978 -0.3594852 -0.0012236738 -1.2753e-41
0001a0 d4 91 c9 be c5 f8 53 bb 49 c7 df 38 2e f9 1a 35
       -0.3936907 -0.0032344323 0.000106705884 5.7732075e-07
0001b0 2d 33 dd be 6d 2d e5 3c 42 5b c6 be 7d 5a e3 be
       -0.43203107 0.027975762 -0.387415 -0.44404975
0001c0 62 8a 09 3a 17 bc 96 be d8 bd b9 b8 49 76 5b ba
       0.0005246756 -0.29440376 -8.8568486e-05 -0.0008371813
0001d0 69 d9 b9 3b e2 ab 6a bf 55 2f c2 bd 0f a1 54 bf
       0.0056716693 -0.9166852 -0.09481684 -0.83058256
0001e0 fa 64 f3 bd cf dd ae 33 0f 37 74 bb 0e 2a 07 00
       -0.11884494 8.142853e-08 -0.0037264263 6.57935e-40
0001f0 a5 8f f3 3b a5 d8 82 a9 93 b0 b4 3b a8 c8 5f bc
       0.0074328952 -5.8107416e-14 0.0055142133 -0.01365868
000200 49 35 d5 b6 e7 c3 6a 2a ce 03 ba be 08 f3 7e be
       -6.354098e-06 2.0851342e-13 -0.36331028 -0.24897397
000210 eb d4 f1 ab d7 57 b1 b6 d1 ff a0 be 73 69 48 bf
       -1.7183177e-12 -5.285237e-06 -0.31445172 -0.782859
000220 b6 6b ad bf f0 e6 aa be c4 b9 0e bf 35 f9 29 3b
       -1.3548496 -0.33379316 -0.55752206 0.0025935892
000230 89 76 3c 3e 9b 39 87 2e a4 54 0e be 7b 4b 06 80
       0.18404593 6.149322e-11 -0.13899475 -5.7809e-40
000240 29 a1 05 bc 19 bf b8 bf b2 0f 2f be dc 85 a3 b7
       -0.008156099 -1.4433318 -0.17095831 -1.9493447e-05
000250 9e a7 87 bf ba c3 9f bf e0 fe 00 00 7d 33 80 be
       -1.0598028 -1.2481606 9.1432e-41 -0.25039282
000260 5e 37 52 ba 1f c8 94 bc de f7 c7 be 36 03 c2 bb
       -0.00080191146 -0.018161831 -0.39056295 -0.005920793
000270 be 0a 9a bb a0 4b ae b9 06 fd 3c 1b 82 d1 10 b5
       -0.0047009876 -0.0003324421 1.5632752e-22 -5.3949054e-07
000280 3d 3e 6f bf a5 d9 42 b0 a6 91 e4 ba 53 8a f8 3d
       -0.93454343 -7.088608e-10 -0.0017438426 0.12135758
000290 29 31 89 be fd 35 29 bf 50 60 e8 be 7c 15 eb bf
       -0.2679532 -0.66098005 -0.4538598 -1.8365932
0002a0 e4 5f 27 3c 8c 16 d6 bd d6 96 7d ae 89 74 5d bc
       0.010215733 -0.10453519 -5.765951e-11 -0.013516554
0002b0 f9 bf 7a be 79 f4 b4 ba 19 59 36 3c 2b af bd be
       -0.24487294 -0.0013805769 0.011129641 -0.37047705
0002c0 38 a2 d5 01 e2 bd 09 80 83 ea ac b7 fc 63 3a bf
       7.8476615e-38 -8.94637e-40 -2.06132e-05 -0.72808814
0002d0 09 ab 91 39 ef 5b 06 bb 31 e2 3c b2 7c 62 ae ae
       0.00027783986 -0.0020501574 -1.099447e-08 -7.930098e-11
0002e0 ed b0 fb be 74 7a 91 ae 4d 01 51 9a f6 10 15 38
       -0.4915842 -6.6155886e-11 -4.3221238e-23 3.5540164e-05
0002f0 fc 64 3d b4 cb 90 04 80 e5 5e 05 00 ec b3 6a bc
       -1.7638735e-07 -4.19284e-40 4.93219e-40 -0.014325123
000300 2f bb 02 bf 7d 9a 14 bb 2d 69 78 ba 87 de f0 3b
       -0.5106687 -0.002267509 -0.00094761216 0.007350746
000310 e3 4e c2 3b 37 90 39 bc af 97 99 ac 93 97 36 37
       0.005929814 -0.011325887 -4.365362e-12 1.08833365e-05
000320 f9 bd ba bf a2 e5 6d bb 2e ac c6 bb 99 73 95 32
       -1.4589225 -0.0036300202 -0.006063006 1.739845e-08
000330 93 cd 0a 3d df e9 1f bb 85 ed 0d c0 14 99 32 ae
       0.033887457 -0.0024400873 -2.217622 -4.0608475e-11
000340 10 ec 5b be ed 2a 03 80 24 bc c2 3c 60 02 a2 be
       -0.2147677 -2.90905e-40 0.023771353 -0.31642437
000350 bd c4 45 32 74 23 7d 3b e1 76 a5 2e 8e 0f 5b be
       1.1511642e-08 0.0038625868 7.5244484e-11 -0.21392652
000360 d0 2e 57 a4 4f cf f4 be 1b d9 55 be 10 24 cd ba
       -4.6660345e-17 -0.47814414 -0.208836 -0.0015651006
000370 45 bb 04 be c3 62 06 00 7c 3e e9 b9 77 81 30 be
       -0.12962063 5.86442e-40 -0.00044487778 -0.17236887
000380 40 25 3b bf aa e0 ac 9e 9f 1e 92 bc c4 e0 2e be
       -0.73103714 -1.8304127e-20 -0.017836867 -0.17077929
000390 51 45 88 be a0 38 3a be 81 61 7b 3b 1c c6 05 80
       -0.26615384 -0.18185663 0.0038357677 -5.30246e-40
0003a0 3c fa 2f be 8d 54 ad bb b7 3f c0 b3 86 35 17 b7
       -0.171853 -0.0052896203 -8.9522864e-08 -9.012763e-06
0003b0 17 22 44 bd 1f d0 7d 3e 89 47 a5 be 88 97 e2 be
       -0.047884073 0.24786423 -0.3228114 -0.44256234
0003c0 26 7c f4 35 39 a7 e8 be da 12 11 b4 3c 44 59 38
       1.8215549e-06 -0.4544008 -1.3511035e-07 5.180038e-05
0003d0 0f 6f 17 3c 56 39 5b be 30 da d2 ae c3 b5 3d b1
       0.009242787 -0.2140859 -9.588452e-11 -2.760644e-09
0003e0 ae 75 69 be 43 72 0c ae 79 d1 8d bd 57 0d 08 80
       -0.22798797 -3.19338e-11 -0.06924719 -7.3947e-40
0003f0 e0 1d b2 ba a2 38 2b a4 72 58 5e bc 89 4c 03 bc
       -0.0013589226 -3.7127684e-17 -0.013570892 -0.008013853

layers.3.bias f4 [1007]
000000 5f 46 bf be 98 b8 c0 be 93 ab b6 bf 7b ea 3c be
       -0.37358376 -0.37640834 -1.427111 -0.18448822
000010 ec 53 26 be fe de 63 be 8e 4c 3c be 07 4d 45 be
       -0.16242951 -0.22253034 -0.18388578 -0.19267665
000020 ea c0 53 be 0d bc 52 be 98 83 2e be 53 10 5e be
       -0.2067906 -0.20579548 -0.17042387 -0.21685915
000030 0d ad 1a be 65 4b 94 3e a0 a3 3c be 47 51 6d be
       -0.15105076 0.2896377 -0.18421793 -0.23175536
000040 4c 32 50 be 65 72 73 be af f7 54 be c6 5b b5 be
       -0.20331687 -0.23774107 -0.20797609 -0.3542158
000050 65 dd d0 bd 6d c7 89 be ff 74 b5 be 53 c9 5a be
       -0.10198478 -0.26909962 -0.35440823 -0.21365862
000060 b1 d6 77 bd 5c 16 60 be aa ba c5 be e0 32 07 be
       -0.06050748 -0.2188353 -0.38618976 -0.13203001
000070 fa 31 7b be 65 7a a7 be a9 ab dd bc 41 93 ee be
       -0.24530783 -0.32710567 -0.027059393 -0.4659672
000080 87 61 64 be 23 27 53 be 25 18 7a be d0 dc 12 be
       -0.22302829 -0.20620398 -0.24423273 -0.14342046
000090 48 27 d3 be 78 3d 6c be 61 56 bf bd ce 84 9c be
       -0.41240907 -0.23070323 -0.09342647 -0.30570072
0000a0 73 bf a4 be 6d 3a c4 be e0 33 a9 bc 19 b7 6c be
       -0.32177314 -0.38325825 -0.020654619 -0.23116721
0000b0 38 b4 9a bd 76 e4 d5 be f5 da 4f be 78 54 ce bd
       -0.07553905 -0.41775864 -0.20298369 -0.10074705
0000c0 32 92 a7 bd 2c d3 dc bd dc f1 b6 be 35 06 df bd
       -0.081821814 -0.10782465 -0.357314 -0.10889856
0000d0 e4 8e 21 be 47 07 58 be 24 32 b6 be e5 13 87 be
       -0.15777165 -0.21096526 -0.3558513 -0.26382366
0000e0 a8 db 23 be 35 af e8 bd 29 b3 75 be 3a 6b 01 be
       -0.16001761 -0.11361543 -0.23994125 -0.1263856
0000f0 3b 8a 5e be 1d 96 1b be 19 5d 01 bf e7 fb 53 bd
       -0.21732418 -0.15193982 -0.5053268 -0.051753905
000100 aa 69 ef bd db 44 97 bd d9 66 00 bf 51 c4 42 be
       -0.11690076 -0.0738618 -0.50156933 -0.19020201
000110 04 49 9a bd 63 43 15 be d6 92 8c be a8 a9 80 be
       -0.07533458 -0.14576487 -0.27455777 -0.25129437
000120 ae 1a 3e be 56 63 d1 be 0c 2d 2a be 5e 30 a1 be
       -0.18564865 -0.408961 -0.16618747 -0.31482214
000130 e2 ad 7f be 76 63 9c be 01 ff ea bd 00 be 6f be
       -0.24968675 -0.30544633 -0.114744194 -0.23412323
000140 2c d6 4c be e6 ef 1d be c9 a2 03 be 14 ce 9d be
       -0.20003575 -0.15423545 -0.12855066 -0.30821288
000150 93 9b 77 be f9 3b ad bd ac 27 70 be bb 4a d6 bd
       -0.2418044 -0.084587045 -0.23452634 -0.104634725
000160 86 7f 50 be b0 79 ea bd 54 56 e1 be da c6 64 be
       -0.20361146 -0.11448991 -0.44011176 -0.22341481
000170 05 80 33 be 92 1d 20 bc 41 89 fa bd 33 df 7c be
       -0.17529304 -0.009772675 -0.1223321 -0.24694519
000180 c3 41 d6 bd 61 15 d0 bd b9 e8 25 be 7c 80 66 bd
       -0.10461762 -0.10160328 -0.16202058 -0.056274876
000190 c7 dd 36 be 5e 53 02 be 67 39 74 be 89 b9 11 be
       -0.17858039 -0.12727115 -0.23850022 -0.14230932
0001a0 d3 31 8a be c7 4d 8c bd 50 db ca be 89 76 3f be
       -0.26991138 -0.06850772 -0.39620447 -0.18697561
0001b0 bb 73 c9 bd 73 3b 24 be 4c 53 81 bd cc 97 f9 bd
       -0.09836527 -0.16038303 -0.06314716 -0.12187156
0001c0 7d 81 2c be 18 7b 71 be 33 ae 59 be 2d 32 c1 bd
       -0.16846271 -0.23582113 -0.21257858 -0.094333984
0001d0 d2 65 ae bd 53 7b 5a be 87 4d 69 bd cc d3 c8 bd
       -0.085155144 -0.21336107 -0.0569587 -0.09806022
0001e0 e3 fd 42 bd 72 f8 35 be a2 57 07 be 6d d2 92 bd
       -0.047605406 -0.17770556 -0.13217023 -0.07169042
0001f0 59 86 09 be 73 a7 87 bd 9d 93 e9 bd df 75 95 bd
       -0.13430156 -0.06623735 -0.11405108 -0.07297873
000200 3d d2 61 be f9 21 bb bd 38 bf e1 bb 54 86 ab bd
       -0.22052856 -0.09137339 -0.00688925 -0.083752304
000210 14 e0 8d be 82 63 5f be 27 78 8d be 59 f5 31 be
       -0.2771002 -0.21815303 -0.2763073 -0.17378749
000220 c6 60 ed bd 57 75 84 be 30 6c 39 3c 02 f7 ea bd
       -0.11590724 -0.25870773 0.011317298 -0.11472894
000230 71 9b 0a be 3d 28 43 be 77 38 c7 bd 8c 53 c4 bd
       -0.13535859 -0.19058318 -0.09727567 -0.09586248
000240 de 2f b9 bd ef 58 ef bd 66 7e a7 bd 93 71 f9 bd
       -0.09042333 -0.116868846 -0.081784055 -0.12179866
000250 64 80 e5 bd 00 1f 82 be d2 22 39 be b4 0b 05 bd
       -0.11206129 -0.25414276 -0.18079689 -0.032481864
000260 61 da 2b bc b8 fe b3 bd a2 9b 22 be 54 a1 50 be
       -0.010489077 -0.08788818 -0.15879682 -0.20374042
000270 2f 83 ac bc c0 28 ce bd 9e 30 58 be d1 41 54 be
       -0.021058647 -0.10066366 -0.21112296 -0.20728232
000280 ff 4a 48 be 39 94 d2 bd cc 8b 7d bd 4a a4 da bd
       -0.19559859 -0.102821775 -0.0619009 -0.10675867
000290 c3 cb fb bd fa cf 31 bd 33 00 85 be 4f a0 46 be
       -0.12294724 -0.043411233 -0.25976714 -0.1939709
0002a0 5a d4 f0 3b bd a6 14 be 54 70 6d be 68 79 dc bd
       0.007349533 -0.1451673 -0.23187381 -0.10765344
0002b0 32 5a 4e bd ba 49 11 be c0 4b bc bd 01 06 2c be
       -0.050378986 -0.1418828 -0.09194136 -0.16799165
0002c0 c3 58 46 be 48 95 04 bd 6a 60 19 be 42 86 6d bd
       -0.19369797 -0.03236893 -0.14978185 -0.057989366
0002d0 7b de aa be 84 83 40 be 32 58 d8 bd e4 88 90 bd
       -0.33372864 -0.18800169 -0.10563697 -0.0705736
0002e0 83 f0 09 bd 5d 2d 9b be 57 f5 af be 19 af c0 bd
       -0.033676635 -0.30308047 -0.34366867 -0.09408397
0002f0 fc 6e a5 be ba ac bf bd eb e0 4f bd db 2b e5 bd
       -0.32311237 -0.09359117 -0.050751608 -0.111900054
000300 fc 70 cd bc 1a aa eb bd 9f f6 95 be fd 3a 0e bd
       -0.02507829 -0.11507054 -0.2928972 -0.034724224
000310 df 6b 36 bd 98 ad 5b bc 83 47 8a bd 29 c9 ca bd
       -0.044536468 -0.013408087 -0.06751921 -0.099016495
000320 eb fa 3f be 4c a7 c6 bd ef fe 62 bd e7 65 89 bd
       -0.18748061 -0.09699878 -0.055418905 -0.067088895
000330 fe e7 f0 bd db bc 1c be 09 fb f4 bc 91 f7 5f be
       -0.11762999 -0.15306418 -0.02990486 -0.21871783
000340 64 e5 43 bd 69 8c ad bd 16 48 a9 be 04 c6 7a bd
       -0.047826186 -0.08474047 -0.3306281 -0.061224
000350 b6 b2 b7 bd 1f 28 ba bd 43 ee c3 bd e2 33 5c bd
       -0.08969633 -0.09089684 -0.09566929 -0.053760417
000360 95 6b 92 bd 08 76 45 bd 81 88 02 bd 62 0e e4 bd
       -0.07149426 -0.048208266 -0.03186846 -0.11135556
000370 08 db 1d be a5 ae 84 bd 10 6e 10 be 2b 6e 4c be
       -0.15415585 -0.06478623 -0.14104486 -0.199639
000380 96 9b 7f bd 07 e0 01 be 92 9c 1e bd 61 a5 3f bd
       -0.062404238 -0.12683116 -0.038723536 -0.046788577
000390 e9 7a e2 bd de cb 20 be 7f a3 25 be 7c 1c 20 be
       -0.110585995 -0.15702769 -0.1617565 -0.15635866
0003a0 af dc 2a be 2d bd 18 be 8b 07 56 bd 82 f3 bd bd
       -0.16685747 -0.14915915 -0.052253287 -0.09274961
0003b0 0a 6b 9e bd 4a 3e ce bd 12 93 d7 bd f3 e8 e4 bd
       -0.0773526 -0.100704744 -0.10526098 -0.11177244
0003c0 95 bf c9 bd e8 ef af bd 8d f0 9d be 59 f0 03 be
       -0.098509945 -0.0859068 -0.30847588 -0.12884654
0003d0 06 2f 26 be 93 55 d9 bc 5d 89 00 be 1b ba 06 be
       -0.16228876 -0.026530063 -0.125524 -0.13156931
0003e0 18 52 14 be 1c af e5 bd 93 fe 49 3d e5 ac 4a bd
       -0.14484441 -0.1121504 0.049315047 -0.04948129
0003f0 8a 58 0a be 3f fa c8 bd 1d 0c b6 bd 9e 9e 7c be
       -0.13510337 -0.09813356 -0.08889029 -0.24669883
