models/MPC_horizon_6_obs_8.pt (torch_old, 288136 bytes, 8 tensors)

layers.0.weight f4 [128, 48]
00000000: 375f 493d a6bf 513f 57de 1e3f 695f 96be
00000010: 027c 31bb 5fdc 0fbe 439a 773d e498 80bd
00000020: 0616 343c f97c 4a3c ab7e dd3c 259f 4a3c
00000030: 1d57 3c3c 5a0f 6f3b e66e b03b 8749 00bc
00000040: 8d59 293c ee3d 3b3c 9aba f3bc dce8 583c
00000050: f2bb d03b 4e3b ebbc c09b bd3a fa2b 8e3d
00000060: 56b2 4f3c 6107 4f3c 2007 ef3b 4c36 4e3c
00000070: dc7e 753c cb07 3a3c e078 de3c 8dab 803a
00000080: 2220 9d3c 7305 7e3c 95f9 613c ce5d 673b
00000090: 6e18 523c 361e 6d3c 80ad 8f3c a00c 9c3a
000000a0: e3eb ef3e 49d5 a8be e332 383e 6a3a 243f
000000b0: d2ec 02be 81c8 d5bf c927 96be ea23 0c3f
000000c0: 0cab a7be 85b3 aabd 1da2 c53c b9e8 bebe
000000d0: 4a03 c0bd dade b73d b823 e23d 2a48 923e
000000e0: 51d9 8bbd f966 333c cddf 42bd 79de 80ba
000000f0: 4f5b 113e cd25 323d b2bd adbc 622e 79bd
00000100: daa1 283c aad0 c5bd d6a0 a93d ada8 2f3c
00000110: 0cfe f13d 1496 45bd c6c6 c43d bcae ad3c
00000120: e098 893d ac99 f2bd a12c 5d3d 76d4 35bc
00000130: 9c99 9ebd 781b 043e a490 b3bd 364f da3d
00000140: b238 033e d4c6 8b3d 3010 c4bd c566 dfbd
00000150: 56c6 d03c a33b f8bc b147 183e 0714 b83d
00000160: c1d2 213d 1574 3cbf aede 4ebd 0122 a1bd
00000170: 1f8f bb3e 67e2 cfbe 94c9 de3e 6132 703f
00000180: 5b3f a03e 87df c6be fbfb b43e ab04 91bd
00000190: 94b5 84bd e9c9 1a3d b693 823d 3d9c adbb
000001a0: 0791 633d a8a1 053e c93a b33d 54bc db3b
000001b0: 4066 e1bd ac57 85bd 4b1f a3bd 8fce c5bd
000001c0: 2a9e 893d f9f0 2c3d 87b0 263d 5440 253d
000001d0: be54 f1bd b916 503d 7f07 e43d cdbf f63d
000001e0: 64cf 7e3d c296 23bc 06b1 233d 1aa1 233e
000001f0: f7ed 0d3e f52a 4ebd fa19 b93d 22da b43d
00000200: 0aea fcbc 4ee7 37bd e35c 3bbc 1504 8d3d
00000210: 0de6 8b3d aa8f e63d 78b5 f2bd 26e4 543d
00000220: a5b3 1a3e d5a8 243c 2cf7 33bf 5d28 013f
00000230: 995c 80be f54f 9dbe 934d c03e 474b b2bd
00000240: 6164 e6bb a63a b8bb 3789 0233 db56 b426
00000250: f702 dcbb 0772 adbb 6f29 bca4 a3c6 8737
00000260: 8bc5 28bb f38a c0b9 4922 ccbb 7e72 d7b9
00000270: 8cae aebb ab99 b0bb a284 a5bb 54be d0bb
00000280: 4892 77bb 9acc 01bb cdc8 d9bb 4b49 23bb
00000290: 3953 cebb 19db cabb 5760 c8bb 8cb3 e2bb
000002a0: 94b6 28bb 5ed2 a5ba b505 1725 f115 aabb
000002b0: 3450 2fbb 7ca3 7bb6 b29c 95bb 9640 a6bb
000002c0: 0d84 9dbb 6115 34bb 5915 aeba f7e7 bebb
000002d0: b532 8cbb 6e68 15bb e7c0 c0bb 9b80 bdbb
000002e0: ccb5 31ba e0d5 36a5 6fd1 02bb 1211 6738
000002f0: 466c 2dba 4435 0ca6 c8ef 7038 913e 62a5
00000300: f527 063f cab3 c9bc da56 5b3e 51b9 943d
00000310: 1cc4 10be 5b04 bb3d 0c87 f63d 0dfc 083e
00000320: 9cfd 06be a086 093e e29c 07be cbc7 c2bd
00000330: 9e04 a43d 56af e83d bcbe efbd 7546 bb3d
00000340: 2d54 eabb d609 ddbd 51ec 2b3d f963 ba3d
00000350: 5204 aa3d a47c 053e b610 30bc 91f4 bd3c
00000360: 2cd8 cf3d ee87 9dbd 7f76 3d3d 55e9 4abd
00000370: be63 063d 5779 b5bd c27d adbd 5007 80bd
00000380: d981 353b c44e 04bd 6871 97bc 9bcb 85bd
00000390: 01e7 3a3d 7300 143d 4542 14bd b1f9 42bc
000003a0: feea a63e 0c8a 043f 7e8d 10bf 3431 c23e
000003b0: f864 a0be 7bee 97be 5e12 86be 97a2 1bbf
000003c0: 7df7 203e 579a 02bf 1a1b 943e 8902 c7bf
000003d0: 5312 9ebb 6fa5 bb3d 655b 6c3d 7189 f23d
000003e0: 799d a0bc 04ed 80bc 20d7 c13d 63be fe3d
000003f0: 7236 0c3e c0fb cf3d e516 bfbd 396d b0bd
0.04916307 0.8193306 0.62058014 -0.29369667 -0.002708197 -0.14048909 0.06044985 -0.062791616
0.010991579 0.012358897 0.027037939 0.012367045 0.011495379 0.0036477656 0.005384314 -0.00783003
0.010336292 0.011428339 -0.029752064 0.013239112 0.006370061 -0.028714802 0.0014465973 0.069419816
0.012676796 0.012636037 0.0072945505 0.012586188 0.014983859 0.011354397 0.027157247 0.0009816751
0.019180361 0.015504229 0.013792415 0.0035303715 0.012823207 0.014472535 0.017538786 0.0011905618
0.46859655 -0.32975224 0.17988162 0.6415163 -0.12785652 -1.6701814 -0.2932723 0.547423
-0.32747686 -0.08335022 0.024125153 -0.37286928 -0.09375627 0.089780524 0.11041969 0.28570682
-0.06828559 0.010949844 -0.047576714 -0.0009831927 0.14194988 0.04349308 -0.021208618 -0.06083525
0.010292495 -0.0965894 0.0828263 0.010721368 0.11816034 -0.04823883 0.096082255 0.021201484
0.06718612 -0.11845717 0.05399764 -0.011098018 -0.077441424 0.12901103 -0.087678224 0.106596395
0.12814596 0.06825033 -0.095734 -0.109082736 0.025485199 -0.030301875 0.14871098 0.08988195
0.03950763 -0.7361463 -0.050505333 -0.07867814 0.3663263 -0.4060242 0.43513167 0.9382687
0.31298336 -0.38842413 0.35348496 -0.070809685 -0.06479946 0.037790213 0.0637583 -0.005298166
0.05555823 0.13049948 0.08751447 0.0067058 -0.11005831 -0.06510863 -0.07964953 -0.096585386
0.067196205 0.042221997 0.040695693 0.04034455 -0.117837414 0.05080292 0.11134242 0.12048302
0.0622095 -0.009984674 0.039963745 0.15979424 0.13860308 -0.050333936 0.09038158 0.08830668
-0.030873317 -0.044898324 -0.01143572 0.06885544 0.06830988 0.112578705 -0.11851019 0.05197539
0.15107591 0.010050018 -0.7029903 0.50452214 -0.25070646 -0.30725065 0.37559184 -0.08705764
-0.007031009 -0.005622226 3.039278e-08 1.2513551e-15 -0.0067142206 -0.005293134 -8.1602195e-17 1.6185752e-05
-0.002575251 -0.0003672462 -0.006229673 -0.000410933 -0.005330866 -0.0053894124 -0.0050512115 -0.006370345
-0.00377764 -0.001980579 -0.006646252 -0.0024915512 -0.006296542 -0.0061906693 -0.006115 -0.0069183763
-0.002574359 -0.0012651195 1.3099096e-16 -0.005190604 -0.0026750686 -3.7497075e-06 -0.0045657987 -0.005073617
-0.0048070014 -0.0027478563 -0.0013281509 -0.005825992 -0.0042785057 -0.002279784 -0.0058823708 -0.005783153
-0.0006779104 -1.5858447e-16 -0.0019961258 5.509059e-05 -0.000661556 -4.8644446e-16 5.7443773e-05 -1.9623574e-16
0.5240472 -0.024621863 0.2141985 0.07261909 -0.1413731 0.0913169 0.12037477 0.133774
-0.13182682 0.13430262 -0.1324344 -0.09510764 0.08008693 0.11361568 -0.117063016 0.09144298
-0.007151148 -0.10792892 0.041973416 0.091010995 0.08301605 0.13035828 -0.010746172 0.023187907
0.101486534 -0.07691942 0.046255585 -0.04953893 0.032809965 -0.08861034 -0.08471252 -0.06251395
0.0027695803 -0.03230168 -0.018486694 -0.06532975 0.04563046 0.03613324 -0.036196012 -0.011900351
0.3260116 0.5177314 -0.564659 0.37928164 -0.31327033 -0.29674134 -0.26185888 -0.6079497
0.1571941 -0.51016754 0.28926927 -1.5547649 -0.0048239618 0.09162413 0.057704348 0.11842621
-0.019606339 -0.015738018 0.0946486 0.12438657 0.13692644 0.101554394 -0.09330539 -0.086145826

layers.0.bias f4 [128]
00000000: 8f06 f03b c990 173e 79e7 e9bd 9609 4bbb
00000010: 4b53 c1bc eca1 583c f72d 2fbd 6044 2c3d
00000020: bffe 3eb9 d0c4 e63d 5728 0700 1c81 2b3e
00000030: c130 8a3d 8096 a3bd 95b5 973c e034 ba3d
00000040: db43 493d dcc6 86ba a1ff e6bb 6335 ab3d
00000050: af87 f43d 76b7 dcbb 12fa 0abc 5451 6e3c
00000060: 539e debc 7d5e 01be 5f36 833b e986 bbad
00000070: 4c03 c2b2 671d 48b9 5571 9dbc eff7 33b9
00000080: 1900 01bc 1942 bd3c 9258 6f3d 161d 99bd
00000090: 3a46 3692 2a8f d5bb 5c3e 0a3b e5c6 eabc
000000a0: 567a eb3d c9a5 91ba 7ebc 6cbb bbc1 b73d
000000b0: ca20 0480 7525 0700 49b0 96b6 d247 abbd
000000c0: aea5 8b3d fa27 80bd 17bb 7e3d 439c d9bd
000000d0: 1207 80bb 5b1b 11bc 12d9 c33c 9bc3 639f
000000e0: 50c2 833d 6744 8bbd 0776 2d8a fce3 1a3d
000000f0: 1609 4ea5 af3b 413d 1d41 d23d 37fa 0480
00000100: 2484 58bc 6cc3 bd3d da9f c23d 510e a43c
00000110: 12b1 373c f146 23b2 36fc 82bd 87d3 d9ba
00000120: e7f9 163e 1cb2 f0bd 3fa6 a2bc 46ce 2fbc
00000130: b6ef 30b8 cd67 d9b9 8599 ff3d 4fca 07bb
00000140: f5fb e53c d14f 4abc 9dce 64bc 0723 d83d
00000150: 8e93 d3bd 9a2f c6bb 9d4c 4abd 0a16 9d3c
00000160: c080 96ba 0b53 02be eb39 0680 8c6b 0680
00000170: c6eb 85b9 7791 bd3c a38c cebd 9643 69bb
00000180: 58b8 8ebb 2da3 82bd 08de b83d 1340 22bb
00000190: 57bb 6aba f98b 51bd 2178 b9bd d245 6a3d
000001a0: 4e33 eabc a958 113d f439 0fbe 8123 d73b
000001b0: 03e2 3eba 90cf 90bd 3023 81bb ce42 ac3a
000001c0: fd45 c73d d062 00be 62c4 6f3d 302c b13c
000001d0: 9a63 2f3e 5171 57bd 341e c53d d031 32bd
000001e0: cb50 18bb e225 99b4 c7bc e5bc d3d0 043e
000001f0: 33cc db3d f663 1584 d1c7 cebb 1a41 a83c
0.0073250006 0.14801325 -0.11421103 -0.0030981055 -0.023599287 0.013222199 -0.042768445 0.042057395
-0.00018214712 0.11268008 6.5732e-40 0.1674847 0.0674758 -0.0798769 0.018519202 0.09092116
0.049136978 -0.0010282653 -0.0070495163 0.08359792 0.11939942 -0.0067357374 -0.008482473 0.014545757
-0.027175104 -0.126337 0.0040042843 -2.131935e-11 -2.2586072e-08 -0.0001908444 -0.01921908 -0.00017163133
-0.007873558 0.023102807 0.058434077 -0.07476251 -5.7515635e-28 -0.0065173106 0.0021094298 -0.028659293
0.11497943 -0.001111203 -0.0036123092 0.08972498 -3.79104e-40 6.56286e-40 -4.4908707e-06 -0.08363308
0.0681871 -0.06257625 0.06219014 -0.10625508 -0.003907093 -0.00885662 0.023907218 -4.823092e-20
0.064335465 -0.06800156 -8.3518455e-33 0.03781508 -1.787073e-16 0.04717606 0.102663256 -4.57102e-40
-0.0132150985 0.092657894 0.095031455 0.020026358 0.01121165 -9.503979e-09 -0.06395762 -0.0016618826
0.14743768 -0.11752722 -0.019854663 -0.010730332 -4.2184918e-05 -0.00041466803 0.124804534 -0.002071995
0.028074244 -0.012348131 -0.013965276 0.10553556 -0.10330878 -0.006048155 -0.04938947 0.019175548
-0.0011482462 -0.12726991 -5.7179e-40 -5.89594e-40 -0.00025543402 0.023140652 -0.10085418 -0.0035593263
-0.0043554716 -0.063787796 0.09026724 -0.002475743 -0.00089543074 -0.05115888 -0.09056116 0.057195492
-0.028588917 0.035484944 -0.13986951 0.0065655117 -0.0007281603 -0.070708394 -0.0039409623 0.0013142468
0.09730146 -0.12537694 0.058536895 0.021627516 0.17127839 -0.0525983 0.096249014 -0.043504536
-0.0023241516 -2.8526034e-07 -0.028044118 0.12970285 0.10732307 -1.7560766e-36 -0.006310441 0.020538855

layers.1.weight f4 [128, 128]
00000000: 69da 68b8 652c b42d 0bda 02b6 c7eb 0800
00000010: a23c 79b7 a403 a635 386d 34b7 5042 0d37
00000020: 8c77 0a80 e625 40b7 4afe 0480 4d5f 16b8
00000030: c71c a9b7 453d 9fb6 0928 4134 3aec 30af
00000040: 721e 0ab9 52f7 0900 0a9b 00b6 fefa 48b7
00000050: 0a43 4ea9 5d18 abb5 393e 0380 da0d 11b5
00000060: 3e76 9631 2efa 0ab6 db79 a8b7 9412 0400
00000070: 0a5e 0a00 746b 0380 ef1a d7b7 a457 0a00
00000080: 5ccc 0900 3813 5ab8 02e5 88b6 e4c5 68b8
00000090: 5ab8 0700 4604 0180 2f11 2cb9 443a acb5
000000a0: a14c fbb2 2205 0100 ec1f 0b80 6021 af35
000000b0: bc34 0500 993a 0000 5e26 0180 4c6a 09ae
000000c0: c961 1eb5 a9bd a9b8 e05c 0ab2 4e7d 02b9
000000d0: 52d5 0700 084e 0180 dcb7 2b32 7487 0780
000000e0: 5bbd 46b2 1cec 21b5 7ae0 0080 36f2 0cb2
000000f0: 0c04 0980 573d 66b7 6d53 83b2 daa8 0000
00000100: 1cb9 0280 214c 2ab8 6637 7cb7 3b78 1cb6
00000110: 8d75 8bb8 0c51 0000 cfa6 13b7 4ec1 0a00
00000120: 2a4d 15b7 0ff0 4cb8 18c3 3636 15b0 b0b5
00000130: 4c57 0980 2c89 0a80 5e62 56b7 5ad8 0200
00000140: 499c 17b5 e062 0580 ad5c 0300 0fe7 40b8
00000150: 3d7b 7135 0a01 0880 aed4 d6b7 210b 0fb3
00000160: fe85 0880 14a8 4fb6 7c73 0a00 ddcd 0700
00000170: 9edc 0900 67e0 17b7 6d84 4db8 e697 0a80
00000180: 16d2 a0b7 f016 29b5 c912 3f30 2a91 0780
00000190: eea8 0500 f13d 62b3 1ef2 36b6 33ac b3b1
000001a0: f7e5 85ae 58c1 4eb9 7808 5db8 1044 1fb8
000001b0: 7acf 0a00 0ad3 93b8 13dc 0100 9901 3eb8
000001c0: 8fb1 a1b5 a8c7 38b9 a76a 8cb6 c3a0 2db6
000001d0: 67a2 79b6 315b 01b8 5a8c 75b9 2feb 9bb8
000001e0: 4e61 0900 2ce6 0a00 e826 7eb8 21af 32b7
000001f0: c602 2cb8 7290 0200 53b2 10b3 92a2 70b0
00000200: f561 c18f c20f 0480 d074 0580 288f 0000
00000210: f81a 0680 d22c 0380 e301 0080 ec87 0700
00000220: 0c01 0300 aad3 6d00 2d2c 0280 017f 0400
00000230: c048 1694 dff9 0400 a3aa 0300 031a 0480
00000240: 2402 0380 6182 0000 1a8b 0400 0366 0380
00000250: d4f6 0100 de06 0280 22a0 0300 2073 3e90
00000260: ea12 0500 3fe1 0600 7cfc 0300 5f65 0300
00000270: 5957 0700 29a7 0100 38e9 0100 f264 0880
00000280: 7dbc 0700 40b0 0300 bf44 c087 8114 058b
00000290: 6f1a 0380 ca68 0200 e099 0900 96f0 0600
000002a0: 84d0 0580 8455 0400 eaa0 0200 5c37 0280
000002b0: 2e25 0500 5856 0800 ba3e 0400 a62d 0680
000002c0: a0a5 0700 143b c88d 449c 0300 0a89 f48c
000002d0: dcbb 0800 c8c8 0800 2a39 0300 8f83 0180
000002e0: b463 0700 0e21 0600 df28 0900 da4a 0380
000002f0: a700 0780 691b 3b02 a76f 0780 1d5b 0a00
00000300: 1ee4 0180 c930 0480 4456 448a 5ad4 0680
00000310: 9d4c 0780 60c0 0100 4418 0580 11cb 0200
00000320: 2d3c 8587 ad7b 0300 3455 0480 6bfd 0480
00000330: 4089 0a00 8b44 0880 cb34 0780 06fe 0880
00000340: ae1f 0700 acae 0080 2f9a 0580 9d66 d695
00000350: 4e84 0080 1381 0580 7208 0780 aca5 0700
00000360: a883 0080 6403 0400 41ac 0900 3e5d 0880
00000370: 5199 0a00 e61f 0480 7342 0180 98c7 0300
00000380: 2d12 0100 1e7b 0100 a43f 0800 e9d3 0780
00000390: 90f5 0200 a661 0480 3966 0380 2d92 0680
000003a0: fa64 0700 ffab 5b93 2f6d 7b90 6cd9 0500
000003b0: 924f 0000 56d0 f202 2af9 0580 dab4 438d
000003c0: 86df 7592 46e3 ed8a 8265 0500 c3ee 0580
000003d0: 8251 0080 b3dd 0380 c577 ff90 34fc 0080
000003e0: 84f8 0600 6511 0880 da2a 0500 fe04 0080
000003f0: e161 838d 1a6d 0100 7363 0080 180a 0880
-5.551652e-05 2.0483346e-11 -1.9498427e-06 8.19265e-40 -1.4855674e-05 1.2369023e-06 -1.07542655e-05 8.4196945e-06
-9.6124e-40 -1.1452916e-05 -4.58564e-40 -3.5851543e-05 -2.015977e-05 -4.745702e-06 1.798909e-07 -1.6091031e-10
-0.00013172047 9.15241e-40 -1.916373e-06 -1.1979368e-05 -4.5799336e-14 -1.2747583e-06 -2.97828e-40 -5.4036866e-07
4.379017e-09 -2.0709226e-06 -2.0083904e-05 3.74007e-40 9.5209e-40 -3.14053e-40 -2.564254e-05 9.49794e-40
8.9983e-40 -5.199315e-05 -4.079776e-06 -5.549741e-05 7.08981e-40 -9.3369e-41 -0.000164096 -1.2831956e-06
-2.9255093e-08 9.3677e-41 -1.021642e-39 1.304823e-06 4.78095e-40 2.1021e-41 -1.05599e-40 -3.1244604e-11
-5.9001883e-07 -8.093875e-05 -8.0537745e-09 -0.00012444446 7.19373e-40 -1.19828e-40 9.995315e-09 -6.9144e-40
-1.1568171e-08 -6.032076e-07 -8.0527e-41 -8.204145e-09 -8.27971e-40 -1.372335e-05 -1.5288345e-08 6.0573e-41
-2.50076e-40 -4.060206e-05 -1.5033269e-05 -2.3315795e-06 -6.649932e-05 2.9074e-41 -8.800721e-06 9.877e-40
-8.899058e-06 -4.8860962e-05 2.7233673e-06 -1.3164268e-06 -8.57836e-40 -9.67563e-40 -1.2778297e-05 2.61283e-40
-5.647931e-07 -4.94647e-40 3.08752e-40 -4.5991557e-05 8.995883e-07 -7.35057e-40 -2.5609825e-05 -3.3304904e-08
-7.82751e-40 -3.0943238e-06 9.59783e-40 7.16698e-40 9.05662e-40 -9.052549e-06 -4.899914e-05 -9.72846e-40
-1.9171315e-05 -6.2990784e-07 6.951209e-10 -6.94924e-40 5.19778e-40 -5.267606e-08 -2.7261044e-06 -5.2291624e-09
-6.08899e-11 -0.00019717717 -5.2698393e-05 -3.7971942e-05 9.92784e-40 -7.048815e-05 1.70783e-40 -4.5301018e-05
-1.2047111e-06 -0.00017621985 -4.184741e-06 -2.5872585e-06 -3.7198422e-06 -3.0840925e-05 -0.00023417306 -7.434782e-05
8.61426e-40 1.000925e-39 -6.0594553e-05 -1.0650402e-05 -4.101058e-05 2.35488e-40 -3.3689798e-08 -8.754252e-10
-1.9069001e-29 -3.72995e-40 -5.01082e-40 5.1355e-41 -5.60688e-40 -2.91585e-40 -6.77e-43 6.91608e-40
2.75882e-40 1.0086e-38 -1.99518e-40 4.12902e-40 -7.587412e-27 4.56979e-40 3.3672e-40 -3.76673e-40
-2.76274e-40 4.6771e-41 4.17242e-40 -3.12101e-40 1.80381e-40 -1.86134e-40 3.32951e-40 -3.7559582e-29
4.65963e-40 6.31816e-40 3.66081e-40 3.11872e-40 6.74183e-40 1.51801e-40 1.75499e-40 -7.70896e-40
7.10465e-40 3.38733e-40 -2.8929354e-34 -2.5630294e-32 -2.84989e-40 2.21262e-40 8.8172e-40 6.37319e-40
-5.33979e-40 3.98019e-40 2.41396e-40 -2.0353e-40 4.72515e-40 7.65658e-40 3.89844e-40 -5.67389e-40
7.02264e-40 -1.2340174e-30 3.31564e-40 -3.767663e-31 8.02075e-40 8.06711e-40 2.96013e-40 -1.3903e-40
6.78615e-40 5.62871e-40 8.41181e-40 -3.02358e-40 -6.43082e-40 1.3746457e-37 -6.82902e-40 9.5104e-40
-1.73669e-40 -3.84843e-40 -9.4532815e-33 -6.2719e-40 -6.70332e-40 1.60847e-40 -4.67882e-40 2.56517e-40
-2.0046984e-34 3.19873e-40 -3.97907e-40 -4.58251e-40 9.67591e-40 -7.59273e-40 -6.61787e-40 -8.2581e-40
6.54213e-40 -6.266e-41 -5.14488e-40 -8.6595807e-26 -4.7462e-41 -5.0548e-40 -6.45878e-40 7.0228e-40
-4.723e-41 3.68558e-40 8.88313e-40 -7.68133e-40 9.73355e-40 -3.78785e-40 -1.15673e-40 3.47107e-40
9.8356e-41 1.36002e-40 7.57514e-40 -7.18868e-40 2.71762e-40 -4.02372e-40 -3.12177e-40 -6.03451e-40
6.79072e-40 -2.7726487e-27 -4.9585134e-29 5.37174e-40 2.8544e-41 3.5678283e-37 -5.48561e-40 -6.0306706e-31
-7.7583883e-28 -2.290776e-32 4.95592e-40 -5.44829e-40 -2.924e-41 -3.55037e-40 -1.007643e-28 -9.0473e-41
6.40164e-40 -7.40924e-40 4.7455e-40 -1.791e-42 -8.097062e-31 1.30974e-40 -3.5676e-41 -7.38305e-40

layers.1.bias f4 [128]
00000000: fdda 6ab6 e5cb 0180 a382 95bb 6a28 b9bb
00000010: 5863 b2bc fff7 d63d d056 903d a6cd f8bc
00000020: 4fea dab8 98d9 8eb4 20d4 3a3e 2f47 88bb
00000030: 056c e6bd 5a50 cbbc c08b 1d3d a329 3ebd
00000040: a260 ef3d 42d7 3db2 d8e3 2d3d ef6c 7c3d
00000050: 79dc bd3c 1f3a 19a3 6e36 3b3d fcc2 0fb3
00000060: dc61 0080 51ec 943d 970b 433d 72e7 c2aa
00000070: 9c29 ae3c 6655 dbbd 2434 c53b 523e 1bbc
00000080: 7972 3a3e 6d17 5c3d 4f08 cabb 29ac f9bb
00000090: 1daa a9bb 96d3 0f92 0d9f ddb7 4f82 40ba
000000a0: b593 173e eb09 283e 8814 9dbc 2950 a2ba
000000b0: 2d58 fab8 aa54 e33d a76d ddbd 0f8e 973d
000000c0: 2a93 00bd 0c5a bd3c c81a 493d ed7b 0e97
000000d0: 4d88 b7b3 777f ccbc 3b5d 9eba e37a 0580
000000e0: 0f92 d03d 002b 32bb 5b08 863d fc52 84bc
000000f0: 75b4 6ba9 1cb2 1e3d fd05 6f3d d441 f3a0
00000100: 3ed4 a53d 1543 613c 354a 54b9 3e0a b93c
00000110: 56de 113d 7f43 9fb8 f424 593d b765 4e3d
00000120: f5c4 cf3d eaa0 6cbc a7e1 2788 e916 89ba
00000130: 5699 b13c 6f01 10b9 49fe c0b7 1f5a b2bb
00000140: dc7d c7bb e3b3 53bb aa21 613e d001 813d
00000150: e4fc dc3c c051 ec3d bc04 29bb ca5a 45b5
00000160: 102e c93c 566c 0e3b 1963 87bb 5439 39b8
00000170: 6a67 22bc 5743 cc3d a61d dd3d 58c8 27af
00000180: 518b c73d 1d4d b13d 8354 b93d 315c 2686
00000190: 6a5b 883d be5c c0bb b0e7 b63d db13 b93d
000001a0: addc c6bd 6149 29a4 3c70 0a3e 3656 ba3d
000001b0: 2171 b9bc 4dba ae3d 1234 2abb 6acf feb6
000001c0: 5461 513d 37cf 1dbc 5855 5202 8813 40bd
000001d0: efc5 27b5 a020 0280 c956 163d 30a5 36bd
000001e0: f429 0100 7311 17ba 5a9c e43d f7c4 ed3d
000001f0: 76f5 7b3b ab1c a33d 67d9 293d e521 6cb9
-3.4996185e-06 -1.64979e-40 -0.0045626923 -0.0056505697 -0.021775886 0.1049652 0.07047808 -0.030371498
-0.000104386934 -2.660788e-07 0.18244982 -0.0041588764 -0.11251072 -0.024818588 0.038463354 -0.046426427
0.11688353 -1.1050192e-08 0.042453617 0.061627325 0.023176419 -8.306454e-18 0.045706205 -3.347212e-08
-3.5105e-41 0.07271636 0.047618475 -3.462192e-13 0.021260075 -0.10709648 0.0060181785 -0.009475308
0.1820773 0.053733278 -0.0061655412 -0.0076194 -0.00517775 -4.5383644e-28 -2.6419317e-05 -0.0007343636
0.1480244 0.16410033 -0.01917483 -0.0012383509 -0.00011937353 0.11100133 -0.1081193 0.074001424
-0.031390347 0.023114227 0.049097806 -4.603909e-25 -8.5463945e-08 -0.024963124 -0.0012082228 -5.03261e-40
0.101841085 -0.0027186275 0.065445624 -0.016152851 -5.2337004e-14 0.038744077 0.05835532 -4.1209363e-19
0.080971226 0.013748904 -0.0002024554 0.022587892 0.035612427 -7.594283e-05 0.053013757 0.05038997
0.101449884 -0.014442662 -5.0519988e-34 -0.0010459098 0.021679562 -0.00013733444 -2.3006594e-05 -0.005442872
-0.0060880017 -0.0032303266 0.21985498 0.06299174 0.026976056 0.1153903 -0.0025790175 -7.3520334e-07
0.024558097 0.0021732054 -0.0041316864 -4.4160828e-05 -0.009912351 0.099737816 0.107966706 -1.5259738e-10
0.09743369 0.08657286 0.090493225 -3.1288862e-35 0.06658061 -0.0058704307 0.0893091 0.0903699
-0.09710059 -3.6708188e-17 0.13519377 0.09098475 -0.022636952 0.08531628 -0.0025970978 -7.593936e-06
0.05111821 -0.009631923 1.5452856e-37 -0.046893626 -6.250038e-07 -1.95375e-40 0.03670386 -0.04459113
1.06885e-40 -0.0005762793 0.11162634 0.11609834 0.0038445867 0.07964452 0.041467097 -0.0002251934

layers.2.weight f4 [128, 128]
00000000: ba25 67b9 362c 4427 5146 703b 313a ce3b
00000010: 923b 123c 57cd 923d 0e90 803d 1754 833e
00000020: f04c 793b bfc3 3298 8cdf 123c 27d1 7f3b
00000030: 2d2e 363e 404d 34bf 2bdc 88be dfa6 18bd
00000040: 5d94 713e 3f49 9cb5 79eb d7bc f734 b9bd
00000050: 3293 47bc 576f 8fa4 c2b2 f0bd 4b91 1c25
00000060: 076c bd25 4102 0c3d 7bd0 bb3e de15 4838
00000070: 3d42 4dbc 5b0e 783d 0c88 283e 1a9e 913c
00000080: 35cb 733e 8213 2abe 6b70 35bb 1d33 993b
00000090: f456 17bc 4487 b421 229d b33a e5c0 8b3a
000000a0: 8e2a ac3d c644 6f3e 279c cbbd 4f41 1b3b
000000b0: 59a9 6f3b b153 e23d 5674 b4bd 2307 753d
000000c0: 5bb5 043e f60b 2bbe 6626 623c d1d8 c7a6
000000d0: a660 c938 b76f 5bbd 4f05 a73b 56c9 0780
000000e0: 0fc1 2a3e 12ac 8cbb b172 9cbc d873 623f
000000f0: 2258 0dac 8e13 babd 59a2 ebbd 3272 6ab7
00000100: fd60 0fbe bd0c 38be cf34 6039 e040 7abb
00000110: 537a cabc e1fb 34b9 6ae3 c93e 8ae1 2cbf
00000120: b255 6d3e 3884 a0bb ef93 372c 9258 35bb
00000130: 50e7 06be 81e4 83ba fe16 a739 ca71 2a3c
00000140: 2a3a 913b 35e2 64bd 8046 033e 659b c33d
00000150: 01fb dcbd 5f98 863c 75de 083c 89fb d383
00000160: b859 d83d 0f11 24be cde2 50be 01e7 83b7
00000170: 8ba9 2dbc 4168 043e 020e 663e be6a 0780
00000180: b864 3e3e b904 26bd a79c 773e 36b7 e591
00000190: eb41 023f 018d b93b 1c05 873e fa39 0c3e
000001a0: 8f78 f03d 2fbd c4b9 5c57 4c3e f85d 803e
000001b0: 5bcb d9bd aff7 db3d e282 91ba 79f7 5538
000001c0: 2e1d b83d 79af 563e ff04 3b25 b7d1 40bf
000001d0: 9ed9 2c3a 109a e8a8 c5ca 683e f275 aabd
000001e0: bf98 0500 04c4 6639 e6af 07bf 9a8f adbd
000001f0: d306 b8bc c88d 3d3d 58f6 60be 8ac4 35ad
00000200: 5da6 22b8 953e 0200 e04a 943c 5f24 b23a
00000210: 9be3 2cbd 8dd0 1fbe 2462 b6bd 42fb 1e3e
00000220: 8682 cfba 03bb bd17 b470 cfbd e499 18bc
00000230: c63e 503e 7421 d13d 5e20 373d 1227 0a3e
00000240: f721 29bd 0745 2633 1e28 b2bd 95bf 843d
00000250: d197 2ebd c720 0480 b547 10be 675c 0e21
00000260: 8327 5828 9a5c c3bc 9267 273e e7f3 15b5
00000270: a50e ac3c 59b8 5a3d eedf 0a3e 025f 54be
00000280: be04 353b a7b3 bb3e ffd3 363b 6210 3d3b
00000290: 78cc e43b 8fea af0d 9ec6 b6b9 01a9 5bb9
000002a0: b21d b9bc d373 2d3e 60ea 573e 6826 4a3b
000002b0: a47c e3b9 c312 b7bd 0c8a 093e afd7 27be
000002c0: 053d af3e 1a78 c43b c5f2 ebbe 8876 5513
000002d0: 0db1 7437 ae0c 5abd c7e7 513a 4159 0100
000002e0: a777 82bd 54ba ffba f0c5 0f3e 9eb5 423f
000002f0: aa2b 7228 ec7e c0be f013 3dbe aa56 0780
00000300: b855 863d ef4c c73e 32f7 70ba f1ea 863c
00000310: e203 493d d395 2c39 0b3e 393c b662 213d
00000320: 2a7e b23e 8318 82bc 38bb d69b 85b2 a7bb
00000330: d8dc aabd e4b1 2fbb cebc 3638 dfac 203c
00000340: 19b6 3439 b96d ea3d 4bbc e9bc 0db6 1e3e
00000350: 754c fe3c cead 8a3d 4d8e 003c 7ccf 0700
00000360: 783f 04bc 2064 36be 3324 09be ff69 6039
00000370: cf64 283b 3c2e e2bd 05ba c13e 0e1a 0500
00000380: ed86 dfbd e538 ea3c d3e1 003d 6673 0080
00000390: 04ef a6be d943 c93b eb7b 7ebd 3a0b a73d
000003a0: 2c9d 823e f721 802c 7771 09be 5aa6 783d
000003b0: 0404 763e 8b27 8b3d 85a2 cb39 2f6e c238
000003c0: 358d 2d3e 8064 3d3e da56 1597 89ec 0abe
000003d0: f350 49b5 d793 63a4 be4f 95be f7c5 a53e
000003e0: 8bc0 0300 e01b 893a e173 16bd 5784 a3be
000003f0: 5ea7 37bd d965 38be c69a bdbe e7ba 24a7
-0.00022043931 2.722443e-15 0.0036663006 0.006293558 0.0089253355 0.07168072 0.06277476 0.25650093
0.0038040243 -2.3104787e-24 0.008964431 0.0039034577 0.17791052 -0.70430374 -0.26730475 -0.037268516
0.23591752 -1.1644223e-06 -0.0263574 -0.09043305 -0.01218109 -6.220498e-17 -0.11752845 1.358007e-16
3.2859476e-16 0.034181837 0.36682495 4.770408e-05 -0.0125279995 0.060560565 0.16458148 0.017775584
0.23807986 -0.16609004 -0.0027685415 0.0046752826 -0.00923704 1.2233079e-18 0.0013703445 0.0010662345
0.08406554 0.23366079 -0.09941893 0.002369005 0.0036569445 0.11051119 -0.08811252 0.05982126
0.12959807 -0.16703781 0.0138031 -1.3867167e-15 9.602429e-05 -0.053573336 0.0050970684 -7.15074e-40
0.16675209 -0.0042929733 -0.019097658 0.88458014 -2.0086229e-12 -0.09085761 -0.11505575 -1.3974075e-05
-0.14001842 -0.1797361 0.00021381977 -0.0038185641 -0.024716532 -0.0001725997 0.39431316 -0.67531645
0.23177221 -0.004898574 2.6087984e-12 -0.00276712 -0.13174176 -0.0010062606 0.00031869853 0.010403106
0.0044319825 -0.05587979 0.12819862 0.095511235 -0.10790063 0.016430078 0.008353819 -1.2459215e-36
0.105639875 -0.16022132 -0.20399018 -1.5723987e-05 -0.010599504 0.12930395 0.22466281 -6.8114e-40
0.18593109 -0.040531848 0.24180852 -3.6242742e-28 0.5088183 0.005662561 0.26371086 0.13693991
0.11741745 -0.00037524986 0.199552 0.25071692 -0.1063449 0.10740601 -0.0011101628 5.1013634e-05
0.089899406 0.20965375 1.6221357e-16 -0.7532 0.0006593707 -2.5823988e-14 0.227336 -0.083232775
5.13972e-40 0.00022007531 -0.53002775 -0.084746554 -0.022464192 0.04627779 -0.21968973 -1.0332299e-11
-3.8778748e-05 2.06121e-40 0.01810211 0.0013591162 -0.04220925 -0.156069 -0.089054376 0.15525535
-0.0015831746 1.2261047e-24 -0.10128918 -0.009314034 0.20336446 0.10211459 0.044708602 0.13491467
-0.041292157 3.8712667e-08 -0.08699058 0.06481854 -0.042625252 -3.791e-40 -0.14089854 4.8233765e-19
1.1998976e-14 -0.023847867 0.16348103 -5.586175e-07 0.021003077 0.053398464 0.13561985 -0.20739368
0.0027621235 0.366605 0.0027897356 0.0028848876 0.0069823824 1.0841676e-30 -0.00034861726 -0.00020948426
-0.022597168 0.16938715 0.210855 0.0030845646 -0.00043389678 -0.089391254 0.13431567 -0.1639087
0.34226242 0.0059957625 -0.46083656 2.694282e-27 1.4584756e-05 -0.05323475 0.0008007255 1.23854e-40
-0.06370478 -0.0019510486 0.14040351 0.76058376 1.3443167e-14 -0.37596834 -0.18464637 -6.73938e-40
0.06559318 0.38925883 -0.00091921084 0.01646945 0.04907597 0.00016459012 0.011306296 0.03940078
0.3486188 -0.015880829 -3.5524317e-22 -0.0051177167 -0.08342904 -0.0026808912 4.356802e-05 0.009806841
0.00017233974 0.11446709 -0.028532168 0.15499134 0.031042317 0.06771432 0.007846427 7.1728e-40
-0.008071773 -0.17811632 -0.13392715 0.00021401791 0.0025694852 -0.11043975 0.37837234 4.68524e-40
-0.10914407 0.028591583 0.031465363 -4.1397e-41 -0.3260423 0.0061421213 -0.062129896 0.08156438
0.25510538 3.6417497e-12 -0.1342219 0.06070552 0.2402497 0.067946516 0.00038840264 9.271164e-05
0.16948397 0.18495369 -4.825412e-25 -0.13566794 -7.499613e-07 -4.9348004e-17 -0.291624 0.32377598
3.44578e-40 0.0010460578 -0.036731604 -0.31936905 -0.04483735 -0.18007602 -0.37032145 -2.2860892e-15

layers.2.bias f4 [128]
00000000: d457 cf3d f0e9 34be 3e36 57bc c9c8 eb9c
00000010: a7d8 cfbd 57c3 009a f0d0 393d db63 293d
00000020: 122e 0ab9 a92c d3bd 6deb 0280 7611 8bbd
00000030: 299d 0280 63e0 17bc b0ef 51be 010b 78ad
00000040: ce12 d6ba 1e7e 743d 3cad 2b3e 953a 5e3e
00000050: c524 0400 8cd2 67bc 9f74 0400 e577 2cb5
00000060: 690e 77bb ab57 5d3e 6f07 22bd 8850 793e
00000070: 1c78 54bd ca83 03bb 1c71 0700 799e 95aa
00000080: de5a 53bd 820d 0e3e 3219 04bb 2c0b 8ebb
00000090: 1a9d 873d 6b35 ca3d 3733 4d3d bea5 0000
000000a0: 34b8 9fbc 2fdb 77bb 1356 b2bb 4828 46be
000000b0: a155 0500 42a7 ad3c 10a5 0600 0134 0db5
000000c0: 66e0 763e f25c 2d3d c435 2fbb bf33 7dbb
000000d0: 782a adbd a57a 383e 9710 83a2 1167 c1bb
000000e0: 8d4f b4bb 2e43 43a0 5f9e 0580 ebce 4a89
000000f0: decc fabd a74b fabb 819c de3c d5ef fe3d
00000100: db22 4f3d a41d 33bd 0b21 ee3c c703 3b3e
00000110: 3453 14bd c9dd 49bc efd6 70ba f68f 2bbe
00000120: dbd6 e2b8 e03f c1a1 6228 fb99 ff0e 8008
00000130: 56cc 0380 25f1 22bc c716 893d aa47 0bbe
00000140: 644c e8b7 37d5 353e 8ae2 463e 0b38 9ebd
00000150: 726d 0780 18fe eb3d 1cc4 723e 2df2 14a3
00000160: 0452 5c3e 3f0d 0280 c275 f6a7 e17b 6e3e
00000170: a677 6b3d a6fc d43c 2f70 f2bd 8718 0400
00000180: 7fc6 a5bd a9b3 b63d d486 4cbd b096 acbd
00000190: 1c8b 953d 4f64 01bc 0213 863d 34c0 42be
000001a0: e65e 0700 a62c bab6 7446 f5b2 d016 393e
000001b0: 45ea 3e3e 31b2 113e c7dd 853c 6d24 953d
000001c0: ee15 d8bb ca93 213e e380 b7bb 4aa4 a2ba
000001d0: dead d4b1 3f01 1a3e f259 d33d 8d10 21bc
000001e0: ba15 8a3d 6975 8d3d 32fd 133e 9f89 46bc
000001f0: 4949 a03d 799c 523d a977 c2bb fc70 1fbd
0.10124174 -0.17667365 -0.013135491 -1.5602897e-21 -0.10148745 -2.6627574e-23 0.045365274 0.041354995
-0.00013177868 -0.103112526 -2.68126e-40 -0.0679044 -2.4005e-40 -0.009269807 -0.2050159 -1.4099611e-11
-0.0016332509 0.059690587 0.16765302 0.21702035 3.80532e-40 -0.014149319 4.09178e-40 -6.424946e-07
-0.0037697798 0.21615474 -0.03955787 0.24347126 -0.051872358 -0.0020067566 6.83424e-40 -2.657768e-13
-0.05160033 0.1387234 -0.002015662 -0.004334828 0.066217616 0.0987347 0.05009767 5.9457e-41
-0.019497015 -0.0037819853 -0.0054423898 -0.19351304 4.89895e-40 0.021197919 6.10226e-40 -5.260227e-07
0.24109039 0.042324968 -0.0026734928 -0.003863558 -0.08455366 0.18015535 -3.5525186e-18 -0.005902179
-0.0055026473 -1.653937e-19 -5.1599e-40 -2.4412158e-33 -0.122461066 -0.007638413 0.027174236 0.12448088
0.05057035 -0.04372944 0.02906849 0.1826316 -0.03621216 -0.012320944 -0.0009187301 -0.16754135
-0.0001081654 -1.3095096e-18 -2.5969102e-23 7.707245e-34 -3.48808e-40 -0.009945189 0.066937976 -0.13601556
-2.7692127e-05 0.17757116 0.19422355 -0.07725533 -6.8211e-40 0.11523074 0.23707622 -8.074379e-18
0.21515661 -1.88423e-40 -6.840639e-15 0.23289444 0.057487153 0.025999378 -0.118378036 3.76141e-40
-0.08094501 0.08920986 -0.04993327 -0.08427179 0.07301924 -0.007897451 0.06546594 -0.19018632
6.76892e-40 -5.5484297e-06 -2.8553792e-08 0.18075109 0.18644054 0.14228131 0.016341103 0.07282338
-0.006594411 0.15779033 -0.0056000813 -0.0012408581 -6.1897785e-09 0.15039538 0.1031989 -0.009830606
0.06742425 0.0690716 0.14452055 -0.012117772 0.07826478 0.051418755 -0.0059346748 -0.03892611

layers.3.weight f4 [251, 128]
00000000: 7e47 c1bd e169 3ebe 03e3 623b 272d 64bb
00000010: f052 39bc a2de 93b9 496d 24bf 889c bbbe
00000020: 79c7 5ebc 1154 8cbe ab26 0580 4dd7 69bd
00000030: 37a2 67b9 bd01 913a a0f1 283e 5c1c f43a
00000040: 4e11 cebb 8938 5a3e 86f7 66bb 120d 8fbe
00000050: 8467 40b9 d730 9c3c 943a bb36 dc27 af3b
00000060: 1520 e8bb db58 8c3c 9df6 8d3b 31d5 f13d
00000070: 8a68 e43d 2614 cebb 8488 18bb 8840 05bb
00000080: 5ed0 87bd ea77 a63d b012 0480 0d1b 30bc
00000090: 21dd 983d 4ced 02bf e1cb ffbc 5479 9814
000000a0: 8389 edbe 4d53 6e3a 76b9 a23b 1e30 9ebf
000000b0: 06dc 03ba f921 823c f812 0180 e45b 183c
000000c0: 8510 733e dc1f 26be 0938 01bc 1064 f6bb
000000d0: 620e 02bf 238a 0d3d 9633 ba3b 111c fbba
000000e0: 9848 22bb 1f0e 3cba e390 bdb3 c203 e33b
000000f0: 0e85 10bd dce9 4c3b 4a3f c23e a7c5 023d
00000100: 5050 613e 08d3 9ebd 5127 27bd 6146 8b3d
00000110: 75c2 ffbe edc7 163b 9e64 2cbd e634 3b3d
00000120: e56b 8cb7 8449 c3ba 3be4 4f39 56d2 1f3b
00000130: 8ed8 1b26 94eb d2b9 03e6 47bd 207a 89bf
00000140: ae02 8c3b 2c81 46bd 58b4 6cbd f908 08be
00000150: 7fd6 a2b6 d3c8 76bc 83c8 b1be 3375 27b9
00000160: 9a31 c53b 575e ef34 f121 6cba f9eb f0bc
00000170: 8157 dfbe 5167 f6bb ba50 a2be f9db 6c3b
00000180: b7f3 95be cb9e 85bd c1be 6abe b621 5a20
00000190: cbdf abbc 60ca 1d3c ddb4 843d 0ade 533e
000001a0: b376 8cb4 790f 5e3a e06c 0bbc c833 5b3d
000001b0: 7b7c ac3e 8888 8a3c 6454 1fbd 13be 3bbf
000001c0: 8825 a6bb 4281 81bc cf1c 39bb dcc6 e4bb
000001d0: 7228 af3b 5681 a7be 3eee 133d 2903 073b
000001e0: 6e9b 103f fb39 4cbf bb72 b9bd fb16 3fbb
000001f0: 2ae2 9bbf 72f8 3f3d f2f1 c7bd ab80 d8af
00000200: 715d 883d 978b 7fbd 11d3 b3bb 2dcb 18bb
00000210: d9c7 51bd 56a0 ec3b b766 b23e 5904 a6bd
00000220: b79b fcbb e1ab 673e a971 0700 aaf7 d4bc
00000230: ba4a b43a b5ed 753c 9deb 1c3e 13a1 68ba
00000240: ac2a 8a3c e93a 02be 5539 a7be 80fc 8bbe
00000250: 9747 2d2c fc23 6ebc d51a 7eb8 48c8 9b3a
00000260: 3352 013b 1aa4 593d 9836 493e 4b74 8ebe
00000270: 0293 23bc 4a68 cbbb c83b 8eb9 a4d4 49bb
00000280: 5807 6c3e e159 2ebe a40e 0dba 13ea 553a
00000290: 140b 88bd 8c4b 16be 3487 2ebe a57e 8a39
000002a0: d20b ad3e ffc6 053c e8b4 c03b 1399 183e
000002b0: 0db1 163a 6365 b8bc 9847 0700 5706 6eba
000002c0: e24e 8bbe 8f19 febd 33ac 963d fd6e 6e3a
000002d0: bdd9 ba3d 6285 b1bd 0473 eebb cedf 993b
000002e0: a8c3 103c e0ee e2ba ff79 2f36 7490 b23b
000002f0: 028b 523e 655e c1ba 9198 b23d 19d3 12be
00000300: 9f49 83bd 2f87 56bd 9add f9bd b6f6 a0be
00000310: bd24 943e 9a56 8c3b cebd 0f3e 74a8 e33e
00000320: 1dd2 9d3b e8c2 82bb 4f7c bcbb 54b0 bfbb
00000330: 6034 80bb 2c31 03bc 007f 5cbe 2bb5 363e
00000340: 8968 b0bb 66e8 1fbe 730b efbd c4ab 81bd
00000350: 50e6 f4b7 052e ca3c 021c 9dbd c81c 9539
00000360: e24a a4be 77dd 28b9 ef43 86bb 10b3 f1be
00000370: a26c 353d f8f2 7fbd f360 b13c 0844 94bb
00000380: 8ac0 a33e cbd5 0bbe e127 61bd ecee 7b3f
00000390: 67db 38be d5c5 143c f16d 63be 88ec 633e
000003a0: c6d3 0fb9 cfe9 8138 250e 423b e875 60bd
000003b0: 7d5a 41bf 76ea c93d 2a6d aa3d 5f7b 6e3b
000003c0: 774c e2ba 2dfb 81bc 27ce ab39 737c 623c
000003d0: 537c f53a ed57 7a3d dee2 26bc 815d 9e3b
000003e0: 0c15 11be a3c3 423e f7af a7be e0f6 eabb
000003f0: 9fd5 9c3d e0f2 b83b a489 c33d 6aab 2b3f
-0.09437464 -0.18595077 0.0034620173 -0.0034816952 -0.011311278 -0.000282039 -0.64229256 -0.3664286
-0.013597363 -0.27407888 -4.73049e-40 -0.057090092 -0.00022090306 0.001106314 0.16498423 0.0018624174
-0.006288684 0.21310629 -0.003524275 -0.2793966 -0.0001834911 0.019066257 5.5798537e-06 0.005345328
-0.0070839026 0.017132213 0.004332377 0.11808241 0.11152752 -0.006289023 -0.002327473 -0.0020332653
-0.0663154 0.081283405 -3.74046e-40 -0.010748637 0.07464052 -0.51143336 -0.031225147 1.5395933e-26
-0.46393976 0.0009091392 0.0049659563 -1.2358434 -0.00050300395 0.01588534 -9.864e-41 0.009299252
0.2373677 -0.16223091 -0.007886895 -0.0075192526 -0.50803196 0.034555566 0.005682419 -0.0019158145
-0.0024762508 -0.0007173735 -8.827353e-08 0.006927938 -0.03528314 0.003126732 0.3793891 0.031926777
0.22003293 -0.07755095 -0.04080898 0.06800533 -0.49953046 0.0023007349 -0.042088144 0.045704745
-1.6739543e-05 -0.0014899229 0.00019826081 0.0024386845 5.4069914e-16 -0.0004022984 -0.04880334 -1.0740395
0.0042727804 -0.04846303 -0.057789177 -0.13284673 -4.852947e-06 -0.015062529 -0.3472329 -0.00015970021
0.006017876 4.458586e-07 -0.0009007743 -0.029409396 -0.43621448 -0.0075196405 -0.31702214 0.0036141856
-0.29287502 -0.06524428 -0.2292433 1.8476472e-19 -0.020980736 0.0096307695 0.064798094 0.2069017
-2.6163397e-07 0.00084709335 -0.008509845 0.05351618 0.3368872 0.016910806 -0.03889884 -0.73336905
-0.005070392 -0.015808705 -0.002824593 -0.0069817137 0.0053453976 -0.32715863 0.036115877 0.0020601249
0.56487167 -0.7977597 -0.09055086 -0.0029157985 -1.2178395 0.046867795 -0.09762944 -3.9381595e-10
0.066584475 -0.062388983 -0.0054878076 -0.0023314462 -0.05121598 0.007221262 0.3484399 -0.08106298
-0.0077089923 0.2262416 6.83622e-40 -0.025997002 0.001375518 0.015010287 0.15324254 -0.00088740996
0.01686605 -0.12717785 -0.32660928 -0.2734108 2.462452e-12 -0.0145349465 -6.058331e-05 0.001188525
0.0019732832 0.053135015 0.19649732 -0.278231 -0.00998378 -0.0062075006 -0.0002712889 -0.003079691
0.23049676 -0.17026474 -0.0005380905 0.0008160185 -0.06642738 -0.14677256 -0.17043763 0.0002641577
0.3379808 0.00816512 0.0058809407 0.14902143 0.00057484285 -0.022509282 6.68531e-40 -0.0009079924
-0.2720862 -0.12407219 0.07357063 0.0009095518 0.091235615 -0.08668019 -0.0072768945 0.004695869
0.008835711 -0.0017313622 2.6148043e-06 0.005449349 0.2056084 -0.0014752863 0.08720506 -0.1433834
-0.064105265 -0.052375015 -0.1220047 -0.31438226 0.2893428 0.0042827846 0.14037248 0.44464457
0.004816307 -0.00399052 -0.0057521234 -0.0058498774 -0.0039124936 -0.008007329 -0.21532822 0.17842548
-0.0053835553 -0.15615997 -0.11672106 -0.0633159 -2.9194314e-05 0.024680147 -0.07671358 0.00028440938
-0.3208838 -0.0001610423 -0.004097454 -0.47206926 0.044293053 -0.062487572 0.021652674 -0.0045247115
0.31982833 -0.13655774 -0.054969672 0.9841144 -0.18052445 0.00908037 -0.22209908 0.22258198
-0.00013716434 6.1947496e-05 0.0029610482 -0.054799944 -0.755287 0.09859173 0.08321603 0.0036389453
-0.001726522 -0.01586684 0.00032769257 0.013823616 0.0018729068 0.06111901 -0.010185925 0.004832924
-0.14168185 0.19019942 -0.32751438 -0.007170543 0.076579325 0.0056441873 0.09547737 0.6705843

layers.3.bias f4 [251]
00000000: 525a 933d bca2 1bbf c10c 0a3e 32d4 7b3c
00000010: b4cc 6bbd efc1 61be bf2b 71bd b932 a53d
00000020: 837a 04bd d932 2e3d 83a6 e2bc b168 1dbe
00000030: c724 0dbe 9c59 7cbc 37b1 403d 49c2 edbd
00000040: d731 bb3d 9b0c 023d b609 9cbc d5d4 8bbc
00000050: 8b87 aa3d de48 51bc 22ac 913c 1386 34bd
00000060: d0cb 8cbd e6fb 8fbd 40b5 6dbb 26a8 413d
00000070: c757 0d3d a6e4 a43b c4e1 c03c 2af7 79bd
00000080: 9a8c 07bd 9e85 40be db16 97bd ed50 893d
00000090: e3ea 6ebd 2377 9dbc f998 18bd 4140 373d
000000a0: 9ee7 6d3d 976f cdbd dceb ac3d dadb e33d
000000b0: d88a bf3d 77ae 703d 1240 613d df2b eabd
000000c0: 13d8 5c3d 73c0 02bd 7837 ab3d a126 0abd
000000d0: cd59 4fbc f990 a33d d271 083d 09ca ca3c
000000e0: 2df1 6c3a 2032 643d 42ff 873c 6b7b 09bc
000000f0: f1ed 60bc d48d acbc aeb0 1dbd b3ba a33d
00000100: 84ca 1bbd 5384 a1bd 29ec cebc 5a49 7dbd
00000110: 30b4 0c3e 199e 38bd 2652 bd3d c7f7 023e
00000120: 6006 9fbd a58e 493d 818d 3c3c bb59 1bbd
00000130: 4c68 ff3c 5dd5 b43c b01c 113e 7609 72bc
00000140: 87c0 33bd 50cd c23b 2a24 94bd a8cf 3d3c
00000150: fef2 ee3d 8dec a63c 7e87 0d3d 585e b13b
00000160: b64a 413c 3633 bf3d cb50 b4bc d6fb 933c
00000170: 9c6d 13bd 932d c83d 8126 8d3d 26f2 86bc
00000180: fc6c 02bd b88f 1e3d d2d1 e7bc 03b3 9ebc
00000190: 1b78 dd3c dbc2 f63b cbfa 683d c7be 8e3b
000001a0: 554f 0dbd 6721 543d 3c63 993d 0f55 c4bc
000001b0: 5370 983d 4283 e43c 1e98 bf3d 241a d6bc
000001c0: 3d6e 00bc e187 fc3c 6e27 263c 2b30 5d3c
000001d0: b42e d1bb 88a3 9e3b d21c f1bb 3b1d 2f3c
000001e0: f1be 63bd 70c9 ac3b 8644 073d a0c7 95bd
000001f0: 3dff 62bd 8fab fbbc 4319 8abc 152a 0c3d
00000200: e8b4 853d 0995 9bbc 7e07 1c3d c60e b8bc
00000210: b78a ddbc 475d 2b3d 0e7d f6bd 2240 073b
00000220: 3cc5 ae3c 5a21 5dbc 90b7 33bd c016 95bd
00000230: adff 6dbc b6a3 6e3c ce31 143c e227 66bd
00000240: 1cd5 0c3d 9795 d5bd ac4d dfbc 3f64 fbbb
00000250: fc4e fabc be8e 06bd 4e75 70bd 8b91 513c
00000260: 0544 06bd b524 833c 1cb0 bf3d e093 6a38
00000270: 0ce9 99bc 3e10 3dbd 2060 d4bc bc87 31bd
00000280: a6c2 f5bc 5daf b8bc a4a0 2ebc 55af 50bd
00000290: 971f 29bc 3a6c 123c 37df d5ba 7968 dfbb
000002a0: a0de 353d a230 c23c 6691 74bc cb24 98bc
000002b0: ee46 e1bc a5d5 94bc 6a48 3cb9 140b ccbb
000002c0: 9e6d af3c 10c8 2d3b 730a 3dbd 8362 30bd
000002d0: d8b3 9bbc 1a6e 01bd f8a7 a63c 3898 63bd
000002e0: 8fa2 0b3d 2741 1abd 6715 1cbd 01d7 cd3c
000002f0: c8ce b3bc a9c2 2cbb c6e2 dcbc f840 dabc
00000300: 2a29 32bd 9366 5e3d 491a fbbc b98a 14bd
00000310: c762 1fbd fe00 0abd 7960 03bd cd5f 00bd
00000320: cf0c 7abc c876 85ba 2f6c c9bc 6e19 0fbd
00000330: d95b 9ebc 560e f8bc ed1e 83bc 3098 2bbd
00000340: 3cf4 c5bc 9c28 06bd 883a 01bc 4771 14bd
00000350: 5c89 d23c a410 30bd e88b 0abd b05f 05bd
00000360: 95b6 fcbc 066e e3bc a00a f9bc 7833 a33b
00000370: 7dfd ecbc 2ed2 2bbd 3324 ccbc 0bdb cfbc
00000380: 78f3 0dbd e123 34bb 8f2d 69bd cfd7 29bb
00000390: 3c9a 1ebd e32f 1bbd 4883 e8bc b171 a7bc
000003a0: f722 a0bc e1fd 01bd a23b 0dbd f09d a9bd
000003b0: 4a3b 17bd fe1f 12bd 9d78 25bd dc7f 01bd
000003c0: 23ab 17bd c6de 0cbd 06b0 41bc fd82 e0bc
000003d0: ee19 1ebd 43dd 0dbd 10f4 abbc 572b ecbc
000003e0: 8bf1 b3bc 84c2 0dbd 878f 3abd
0.071949616 -0.6079519 0.13481428 0.0153704155 -0.057568267 -0.22046636 -0.05887961 0.08066315
-0.0323434 0.04252896 -0.02766729 -0.15371968 -0.1378356 -0.015402224 0.047044005 -0.116093226
0.091403656 0.031750303 -0.0190476 -0.01706926 0.08326634 -0.012773721 0.017782275 -0.044073176
-0.06874812 -0.07030468 -0.0036271363 0.0472795 0.03450754 0.00503214 0.023545153 -0.06102673
-0.033093072 -0.18800971 -0.07377406 0.067048885 -0.058329474 -0.019221848 -0.03725526 0.04473901
0.058082215 -0.1003105 0.08443424 0.11125918 0.09352654 0.058760133 0.054992743 -0.11434149
0.053917002 -0.031921815 0.08360189 -0.033728246 -0.0126556875 0.07986636 0.033311673 0.024754541
0.00090386235 0.055711865 0.016601209 -0.008391242 -0.013728605 -0.021063723 -0.038498573 0.079945944
-0.03803493 -0.07886567 -0.025259094 -0.06183753 0.13740611 -0.04507265 0.09244184 0.12789832
-0.07764888 0.049208302 0.011508347 -0.03792737 0.031177662 0.022074396 0.141711 -0.0147727635
-0.04388478 0.0059448853 -0.0723346 0.011585154 0.11667441 0.020376468 0.034553044 0.005412858
0.011797598 0.093359396 -0.022011181 0.01806442 -0.035993204 0.097743176 0.0689211 -0.016472887
-0.031842217 0.03871128 -0.028298292 -0.019372469 0.02703481 0.007530553 0.0568798 0.0043562385
-0.034499485 0.051789667 0.074896306 -0.02396634 0.07443299 0.02789462 0.09355186 -0.026135512
-0.007838783 0.03082651 0.010141237 0.013500254 -0.0063837413 0.004841272 -0.007358172 0.010688121
-0.055602018 0.0052730367 0.033024333 -0.07313466 -0.055419195 -0.030721454 -0.016857749 0.03421982
0.06528646 -0.018991964 0.038093083 -0.022467982 -0.027043683 0.041837003 -0.12035571 0.0020637591
0.021334283 -0.013496721 -0.04387623 -0.0727973 -0.01452629 0.014565399 0.0090450775 -0.05619038
0.034382924 -0.104289226 -0.027258717 -0.0076718624 -0.03055524 -0.032850973 -0.05870562 0.012791048
-0.032779712 0.016008714 0.09359762 5.5927667e-05 -0.018787883 -0.046158068 -0.025924742 -0.043342337
-0.030000042 -0.022544557 -0.010658417 -0.05094846 -0.010322473 0.008936936 -0.0016317134 -0.006817874
0.044401765 0.02370483 -0.014927244 -0.018572232 -0.027499642 -0.01816828 -0.00017956053 -0.0062269066
0.021414574 0.0026516952 -0.046152543 -0.043062698 -0.019006655 -0.03159914 0.020343766 -0.05556509
0.034090575 -0.03765979 -0.03810635 0.025126936 -0.021949187 -0.0026361144 -0.026963603 -0.026642308
-0.04349629 0.05429704 -0.030652182 -0.03626511 -0.03891256 -0.033692352 -0.032074425 -0.031341363
-0.015261843 -0.0010182494 -0.024587719 -0.03493636 -0.019330906 -0.030280273 -0.016005957 -0.041893184
-0.024164312 -0.032753572 -0.00788749 -0.036240842 0.025700264 -0.04298462 -0.03382483 -0.032561958
-0.03084878 -0.027762424 -0.030400574 0.004980501 -0.028929466 -0.04194849 -0.024919605 -0.025373003
-0.034656018 -0.0027487206 -0.056928214 -0.0025915985 -0.038721308 -0.037887465 -0.028382912 -0.020439954
-0.019547923 -0.03173626 -0.0344807 -0.08282077 -0.036921777 -0.03567504 -0.04039823 -0.031616077
-0.037028443 -0.03439214 -0.011821752 -0.02740621 -0.038598947 -0.03463484 -0.020990402 -0.02882926
-0.021965763 -0.034609333 -0.045547035
