models/MPC_horizon_6_obs_9.pt (torch, 288079 bytes, 8 tensors)

layers.0.weight f4 [128, 53]
-0.42382026 0.75865334 -1.5418594 0.5272038 0.13370539 0.1583575 0.43573454 0.06009071
0.060092952 0.023633648 -0.049576018 0.14867666 0.029958231 0.046504013 0.103042446 -0.022267181
0.11585566 -0.02459175 0.109780654 0.046232834 0.11273972 -0.08101961 0.043636385 0.0079747345
0.102881946 0.0909483 0.023443561 0.0049086553 0.14398283 -0.0666021 -0.04080476 -0.0963849
-0.0824758 0.13781539 0.119078755 -0.09218577 -0.10362113 0.034810293 -0.11320534 -0.074650146
0.10562948 0.10415321 -0.008716633 0.026443992 -0.38444614 0.048252646 -0.582431 0.22773173
-0.46858612 -0.31644768 1.2908925 0.15649602 -0.30961114 -0.00909028 -0.23642756 -0.263285
-0.80332476 0.66521144 0.62595624 -0.1400997 0.3773636 -0.040227316 -0.021034472 -0.1331495
-0.07220953 -0.12535538 0.054451153 -0.13572595 -0.14106277 -0.09613618 0.09299446 0.042539842
-0.08473001 0.034184102 0.0083477935 -0.004121201 0.022603959 0.015930977 -0.07244397 0.06713182
0.06828695 -0.09383259 -0.044662133 0.08555625 -0.031903166 -0.13243178 0.088155285 -0.07668549
-0.034698788 -0.15061775 -0.01087639 0.088261776 0.07245913 -0.0329255 0.10128297 -0.023542674
0.035232082 0.6905447 1.1625953 -0.80445766 -0.15161997 -0.37278053 -0.57787687 0.20237596
-0.2993096 -0.16489498 0.4670048 0.47044525 1.1535074 1.6388397 -0.13911258 -0.2072517
-0.20265974 0.019776028 0.0036502937 -0.004358503 -0.006273356 0.02822243 0.08390867 -0.07316384
-0.08439872 -0.10455778 -0.003972142 0.0029675649 0.03696726 -0.1073364 0.04874331 -0.10207179
-0.06378684 -0.06936402 0.027578171 -0.11325532 -0.06296159 -0.03461975 0.06351455 -0.0687937
-0.023336476 -0.051466122 -0.0011626389 0.02263132 0.07629006 0.05808156 0.04957872 -0.011548879
0.024469279 0.1097436 -0.03216275 -0.07528608 0.06285426 -0.12628557 -0.6349517 0.5310893
-0.53070927 -0.46721387 -0.04831496 0.085251756 1.5840772 -0.65398914 -0.5639534 -1.2201871e-06
-6.7027957e-09 -7.32375e-40 -6.41233e-40 -1.12067625e-07 -5.980564e-08 -2.96525e-40 -5.14873e-40 2.03083e-40
-1.1051169e-34 -9.852687e-06 -1.4160246e-06 -1.278339e-09 -5.0067234e-07 -6.729091e-11 -3.5310072e-07 -1.2298152e-07
-9.379894e-17 -3.5232522e-11 -3.6173697e-05 -4.994453e-06 -1.5108205e-07 -7.699396e-06 -4.4704766e-08 -1.4150354e-06
-1.06254e-06 -1.6662955e-07 -1.230073e-20 -1.8896527e-09 -1.3628845e-21 -2.9383108e-07 -1.4822196e-07 -4.829539e-14
-8.433076e-14 -1.0311225e-09 -1.0337815e-06 -8.5164314e-10 -5.1936027e-08 -6.5394246e-10 -5.0201124e-06 -2.6059931e-06
-1.6415229e-10 -4.196577e-10 -6.457441e-08 2.38593e-40 -1.7275156e-24 2.371921e-38 3.57953e-40 1.2876879e-24
-2.53771e-40 6.659331e-38 6.0168393e-22 -3.7634618e-29 -2.2361642e-07 -4.6363548e-05 -4.07369e-40 -2.7442e-40
-3.6345027e-05 -4.0255077e-06 3.63288e-40 -9.5654e-41 4.83955e-40 -2.10883e-23 -7.398997e-05 -1.9602723e-05
-1.6346813e-07 -9.6249905e-06 -2.2053536e-08 -7.5802477e-06 -3.6860308e-06 -2.473345e-12 -1.4209941e-08 -0.00018039653
-4.6459492e-05 -4.242706e-06 -6.249011e-05 -1.8463338e-06 -1.9592897e-05 -1.6105258e-05 -4.536401e-06 -6.5643673e-15
-2.1333193e-07 -1.5505573e-15 -6.6852804e-06 -4.1875924e-06 -1.6397157e-10 -2.388303e-10 -1.4120667e-07 -1.5805537e-05
-1.2396522e-07 -2.045448e-06 -1.0356109e-07 -4.662287e-05 -2.9759593e-05 -4.0433335e-08 -7.656926e-08 -2.3734758e-06
00000000: f8fe d8be 1b37 423f a65b c5bf d4f6 063f
00000010: 11ea 083e 7828 223e 9918 df3e ad21 763d
00000020: 0724 763d 5a9b c13c 3910 4bbd b23e 183e
00000030: f76a f53c fe7a 3e3d eb07 d33d aa69 b6bc
00000040: bb45 ed3d a374 c9bc aed4 e03d a45e 3d3d
00000050: 15e4 e63d 9ced a5bd 11bc 323d 76a8 023c
00000060: c5b3 d23d 1a43 ba3d b60c c03c c9d8 a03b
00000070: 3c70 133e af66 88bd e422 27bd 7265 c5bd
00000080: 12e9 a8bd 7a1f 0d3e 90df f33d e5cb bcbd
00000090: 5137 d4bd 3d95 0e3d 34d8 e7bd 2de2 98bd
000000a0: 4554 d83d 474e d53d 35d0 0ebc 12a1 d83c
000000b0: 20d6 c4be 91a4 453d 331a 15bf 8232 693e
000000c0: 85ea efbe 6e05 a2be f73b a53f 7e40 203e
000000d0: 5a85 9ebe 66ef 14bc 111a 72be 4bcd 86be
000000e0: b1a6 4dbf 4c4b 2a3f ab3e 203f 4c76 0fbe
000000f0: cd35 c13e 66c5 24bd 7c50 acbc 5858 08be
00000100: 97e2 93bd 295d 00be 2c08 5f3d befb 0abe
00000110: c272 10be 0ce3 c4bd e173 be3d 423e 2e3d
00000120: ed86 adbd a104 0c3d 2fc5 083c 240b 87bb
00000130: f02b b93c ae81 823c 815d 94bd 687c 893d
00000140: 07da 8b3d 4d2b c0bd a4ef 36bd 1d38 af3d
00000150: e5ac 02bd 329c 07be c28a b43d 480d 9dbd
00000160: 5120 0ebd 8a3b 1abe e332 32bc 97c2 b43d
00000170: 7465 943d e4dc 06bd 726d cf3d 91dc c0bc
00000180: 844f 103d 8ac7 303f eccf 943f f0f0 4dbf
00000190: 4442 1bbe 17dd bebe bdef 13bf a53b 4f3e
000001a0: 1c3f 99be 3bda 28be 411b ef3e 33de f03e
000001b0: 21a6 933f 80c5 d13f 8773 0ebe ca39 54be
000001c0: 0986 4fbe 5601 a23c c439 6f3b c6d1 8ebb
000001d0: b990 cdbb ba32 e73c 4fd8 ab3d ecd6 95bd
000001e0: 3cd9 acbd 6422 d6bd be28 82bb 7a7b 423b
000001f0: fb6a 173d 30d3 dbbd 11a7 473d 040b d1bd
00000200: ada2 82bd b90e 8ebd 9eeb e13c 68f2 e7bd
00000210: 02f2 80bd 70cd 0dbd eb13 823d b6e3 8cbd
00000220: 232c bfbc 24ce 52bd b063 98ba 5165 b93c
00000230: f73d 9c3d eee6 6d3d 0e13 4b3d 8237 3dbc
00000240: cc73 c83c 41c1 e03d 16bd 03bd 972f 9abd
00000250: bcb9 803d 0151 01be 328c 22bf 78f5 073f
00000260: 90dc 07bf a836 efbe e8e5 45bd 7998 ae3d
00000270: 0bc3 ca3f d56b 27bf 405f 10bf 4fc5 a3b5
00000280: 6a4e e6b1 90f9 0780 7ffb 0680 d4a9 f0b3
00000290: 806e 80b3 973a 0380 429b 0580 1d36 0200
000002a0: 2ee5 1287 f84c 25b7 3c0e beb5 8eb1 afb0
000002b0: f165 06b5 6af9 93ae cb91 bdb4 e70c 04b4
000002c0: 1f49 d8a4 4bf4 1aae 36b9 17b8 0696 a7b6
000002d0: 1e39 22b4 a72c 01b7 6901 40b3 3fec bdb5
000002e0: 999c 8eb5 c8ea 32b4 ae5a 689e 1fdb 01b1
000002f0: 0af4 cd9c d6bf 9db4 f126 1fb4 cb80 59a9
00000300: 60e5 bda9 66b7 8db0 76c0 8ab5 0f19 6ab0
00000310: 4410 5fb3 1cc1 33b0 7072 a8b6 9fe2 2eb6
00000320: c37c 34af 92b5 e6af 28ac 8ab3 1a99 0200
00000330: f9a8 0598 c123 0101 d4e5 0300 9342 c717
00000340: 69c3 0280 c448 b501 0ad9 351c 87d4 3e90
00000350: 371b 70b4 7b76 42b8 946f 0480 f9fc 0280
00000360: 2d71 18b8 d912 87b6 b3f4 0300 a50a 0180
00000370: 1245 0500 1af4 cb99 102b 9bb8 8770 a4b7
00000380: c785 2fb4 057b 21b7 3d70 bdb2 d559 feb6
00000390: 875d 77b6 d30b 2eac fb1f 74b2 d328 3db9
000003a0: 80dd 42b8 915c 8eb6 1f0d 83b8 8ccf f7b5
000003b0: 6d5b a4b7 c719 87b7 6337 98b6 9a81 eca7
000003c0: 3c10 65b4 7875 dfa6 1f52 e0b6 2583 8cb6
000003d0: e549 34af 604c 83af 989e 17b4 2296 84b7
000003e0: 4d1b 05b4 8744 09b6 5065 deb3 ed8c 43b8
000003f0: 3da4 f9b7 eca8 2db3 656e a4b3 0148 1fb6

layers.0.bias f4 [128]
-0.10482828 0.024203153 -0.13319312 -1.4189994e-11 -7.664878e-09 -7.8827425e-06 0.119235195 0.082667634
-0.0076100607 0.0023428244 -6.0966e-40 0.05529263 0.012610295 0.121732205 0.115222774 0.106636286
0.097029254 -0.028888822 -0.0024175374 -0.00069989986 0.09533091 -0.070298046 -0.05231358 0.101459116
-0.006233148 -0.028320864 0.09828189 -0.03358025 0.023449047 -0.06358635 0.10275014 0.11907526
-0.0136635965 0.108851366 -0.070268884 0.059214994 -5.68367e-40 -9.624915e-15 0.16398273 0.055261284
-7.341523e-05 -2.16058e-40 -5.403884e-16 -0.012609006 0.031378116 -0.03885708 -1.7990964e-06 -0.07069346
2.10779e-40 -1.1374402e-11 -0.061216425 0.0181484 -1.1611353e-27 3.2653372e-07 0.16080838 -5.475771e-39
-0.00026304246 -0.011421554 0.031692542 0.10842445 0.05881951 0.1495243 -0.072441176 0.17952949
-0.08889489 0.03638017 -0.0027365133 0.19880052 0.042735856 -0.0066966396 -6.8402267e-10 -0.013721901
0.044180322 -0.0065082377 -3.6419576e-10 -1.0172081e-28 0.025754375 -0.06732495 0.08520737 -0.04027145
-0.09093554 -1.7549e-40 -0.018187758 0.06791664 0.108735725 -1.037361e-09 0.05581267 0.111989334
-0.0032181288 -0.107620604 5.54242e-40 -0.1407026 -6.2467154e-07 0.1153622 -0.07400519 0.13856536
0.16386025 -0.08156646 -1.1566537e-09 -0.00293725 0.004953969 -0.019982595 -0.0051414184 -6.492346e-08
-2.34112e-40 -0.071506344 5.24858e-40 -0.056968305 0.11853726 1.16042e-40 -4.2948178e-30 0.056938678
0.089477964 -0.1391416 -0.00031472667 0.10377583 -0.1120661 -2.5598282e-15 0.126973 8.132055e-37
0.06552713 0.02069328 -0.01047375 -0.047473818 0.03590673 -9.393954e-17 -2.1688666e-06 -0.003144141
00000000: 36b0 d6bd b145 c63c c763 08be 0da2 79ad
00000010: 7dae 03b2 1f40 04b7 9531 f43d a64d a93d
00000020: d15d f9bb 128a 193b 7ca3 0680 867a 623d
00000030: 699b 4e3c bc4e f93d ebf9 eb3d 2064 da3d
00000040: 46b7 c63d 40a8 ecbc 8c6f 1ebb 7c79 37ba
00000050: da3c c33d 6cf8 8fbd c446 56bd ccc9 cf3d
00000060: 6f3f ccbb 2801 e8bc 0448 c93d 728b 09bd
00000070: 3718 c03c 8f39 82bd aa6e d23d bbdd f33d
00000080: 47dd 5fbc 77ed de3d 22e9 8fbd 6c8b 723d
00000090: 6030 0680 1663 2da8 17eb 273e a859 623d
000000a0: 80f6 99b8 485a 0280 a0c1 1ba6 0196 4ebc
000000b0: 5786 003d 9a28 1fbd 7b78 f1b5 bcc7 90bd
000000c0: 914b 0200 c119 48ad 13be 7abd f4ab 943c
000000d0: 3efd b792 744e af34 f4aa 243e 39a0 3b80
000000e0: f6e8 89b9 7821 3bbc 0ad0 013d a30d de3d
000000f0: baec 703d e61c 193e 0a5c 94bd 94d6 373e
00000100: 860e b6bd 6003 153d 1357 33bb 5d92 4b3e
00000110: cb0b 2f3d 7c6f dbbb d105 3cb0 d3d1 60bc
00000120: 6df6 343d 0e43 d5bb ff37 c8af 4af2 0091
00000130: d7fa d23c aae1 89bd 3481 ae3d adf3 24bd
00000140: 6a3c babd 32e9 0180 7efe 94bc e117 8b3d
00000150: d6b0 de3d e592 8eb0 d49b 643d aa5a e53d
00000160: 3ee7 52bb 3168 dcbd 0009 0600 5814 10be
00000170: 1aaf 27b5 0443 ec3d 0890 97bd 14e4 0d3e
00000180: fbca 273e 510c a7bd 22f8 9eb0 e17e 40bb
00000190: e754 a23b 8ab2 a3bc 5879 a8bb 0d6c 8bb3
000001a0: 9c8c 0280 eb71 92bd 17b7 0500 9957 69bd
000001b0: aac3 f23d 7a43 0100 f037 ae8e 8838 693d
000001c0: 3940 b73d 237b 0ebe e601 a5b9 6c88 d43d
000001d0: e982 e5bd 7f74 38a7 3605 023e 185c 8a03
000001e0: 1733 863d f484 a93c 179a 2bbc e873 42bd
000001f0: ef12 133d 1e9c d8a4 d88c 11b6 ef0d 4ebb

layers.1.weight f4 [128, 128]
-0.41810644 -0.10368396 -0.41954556 -2.19571e-05 3.766143e-05 -3.3533788e-06 0.1428684 -0.34613803
0.010468022 -0.17589165 -1.2343276e-22 0.77015615 -0.025810193 0.08770485 -0.5955084 -0.21818826
0.006493975 -0.06551548 -0.0066921716 3.5702916e-14 0.09055461 0.2826415 0.18106581 -0.13746731
-0.2765734 -0.09918475 -0.23395659 -0.11334201 -0.048626214 -0.21165913 0.2755539 -0.034876823
0.042911183 0.083960615 -0.13510883 0.055913746 -1.1499779e-11 -8.006026e-14 0.23315845 0.14276905
5.4113852e-06 -7.3456e-40 2.026899e-13 0.029517505 -0.38128197 0.07178824 2.2343691e-08 -0.033871938
-6.15655e-40 -1.8251859e-07 -0.08263293 -0.03606356 -1.387596e-26 -6.9112766e-10 0.41677752 2.055703e-38
0.002691267 0.0033449156 0.040576853 -0.09197973 -0.036977947 0.19712225 -0.44382998 0.081593394
0.11688185 0.11590226 7.504879e-07 0.02802032 0.050104003 -0.008393432 -5.485627e-10 0.222329
-0.053043146 0.45698234 -4.182967e-05 2.1135579e-16 0.37143195 -0.0014794931 0.2529931 0.0019937162
-0.20289369 -5.0602e-40 -0.05630662 0.09466625 0.1938965 -1.01580575e-08 0.056480717 0.19769502
0.002539651 0.21003255 2.62022e-40 0.21504727 5.1574435e-12 0.27482128 -0.01833624 -0.13828948
0.32391548 0.086222 3.8065435e-05 -0.011109802 -0.011911346 0.28165907 -0.34058145 -2.1253854e-05
-8.26835e-40 -0.040988542 6.308703e-33 0.10347413 -0.6307198 2.56e-43 -5.46e-41 0.12811317
-0.13851814 -0.6203314 -9.523344e-05 0.062607296 -0.06904471 4.47219e-40 0.03364242 2.9603278e-08
-0.08801173 -0.06694786 0.049313746 0.08036964 0.5178969 -7.5715e-41 1.42505e-40 0.0021706594
0.14271764 0.011180422 0.008158646 -0.00022433707 -0.0021715148 -3.7542726e-05 0.17384368 0.28854948
0.016789874 0.030072978 -1.4702659e-15 -0.42158437 -0.06080692 -0.05097094 -0.06999133 0.06357152
0.09716064 0.0008893642 0.009286562 -0.0074183703 0.20436695 0.16451891 0.08412617 0.066116355
-0.053578224 0.15426898 0.10373095 0.06895416 0.2834157 0.08749275 0.29048544 0.1051821
-0.25785413 0.14635104 0.10397684 -0.006781644 -1.1574335e-07 0.00017503255 -0.0059328615 0.097483106
-0.00025152555 -6.51063e-40 1.5641781e-06 -0.006785276 -0.439865 0.13735 5.2213283e-05 0.08364825
3.75527e-40 9.8288285e-05 0.25208682 0.1594506 -3.6821888e-16 -2.4719109e-08 0.18720105 2.030965e-21
0.0069479384 0.00959122 -0.05430593 -0.38202095 0.17343347 0.017772 -0.23829103 -0.06833796
0.102041356 0.17576876 -0.008738271 -0.09266537 -0.026067995 0.007581529 0.00037962775 0.16401185
0.19028476 -0.7712013 0.0004929427 -1.2625553e-07 -0.10092845 0.16287449 0.21768394 0.1452707
0.01972644 -1.77948e-40 0.09376609 0.16591413 0.0035191341 -5.0284048e-06 0.23764351 0.13826777
0.0064371345 0.23037079 8.7524444e-17 0.1339834 4.7919264e-09 0.12232772 0.13998982 -0.011899824
-0.31569615 0.25557625 0.00041376974 0.007110825 0.008437309 -0.7533086 -0.10704039 0.0005372948
1.0113241e-17 -0.041927338 -2.5583779e-24 0.17428707 -0.101829164 2.53369e-40 1.89999e-40 -0.04737005
-0.00516864 0.19410408 0.0010415321 -0.14304894 0.017258998 6.4418e-41 0.12158586 -8.148724e-05
0.005834853 -0.27855468 0.039185878 -0.014086638 0.21907456 -4.2279e-41 -7.08953e-40 -0.0046876254
00000000: 0c12 d6be 4258 d4bd adce d6be 8330 b8b7
00000010: a7f6 1d38 9c0a 61b6 184c 123e 0139 b1be
00000020: 1182 2b3c f11c 34be 9738 159b f428 453f
00000030: e66f d3bc 9a9e b33d 3d73 18bf be6c 5fbe
00000040: 69cb d43b fb2c 86bd 014a dbbb a9ca 2029
00000050: b274 b93d 63b6 903e 5169 393e 3bc4 0cbe
00000060: 079b 8dbe 6021 cbbd 5192 6fbe db1f e8bd
00000070: 482c 47bd 2cbd 58be 6715 8d3e 00db 0ebd
00000080: a3c3 2f3d 8bf3 ab3d f859 0abe d005 653d
00000090: 674e 4aad 9947 b4a9 17c1 6e3e 0d32 123e
000000a0: 7293 b536 a8ff 0780 6335 642a b2ce f13c
000000b0: 6437 c3be b605 933d 4cee bf32 4dbd 0abd
000000c0: 32b4 0680 54fa 43b4 743b a9bd 62b7 13bd
000000d0: bd6b 8994 c9f9 3db0 dd63 d53e a3d8 df00
000000e0: f85f 303b 5f36 5b3b ea33 263d de5f bcbd
000000f0: 3076 17bd 6ada 493e af3d e3be 701a a73d
00000100: c05f ef3d 2a5e ed3d 2375 4935 df8a e53c
00000110: db39 4d3d 9b84 09bc abc9 16b0 37aa 633e
00000120: c543 59bd 97f9 e93e 4472 2fb8 38ad 7325
00000130: 542c be3e 8deb c1ba 5088 813e 02a9 023b
00000140: 5dc3 4fbe 9482 0580 c5a1 66bd 61e0 c13d
00000150: ce8c 463e 9c83 2eb2 5358 673d 9070 4a3e
00000160: 4670 263b c612 573e 69da 0200 5a35 5c3e
00000170: 1f76 b52c 60b5 8c3e e235 96bc c29b 0dbe
00000180: 40d8 a53e 2995 b03d 73a8 1f38 e305 36bc
00000190: ce27 43bc 9e35 903e b160 aebe 4e4a b2b7
000001a0: e100 0980 9ae3 27bd d206 030a 3fea d33d
000001b0: da76 21bf b700 0000 3498 0080 1930 033e
000001c0: b3d7 0dbe 0ace 1ebf 10b8 c7b8 4138 803d
000001d0: 5067 8dbd aade 0400 a2cc 093d 4c4a fe32
000001e0: 7e3f b4bd f61b 89bd 36fd 493d d698 a43d
000001f0: e494 043f 10d3 0080 3f8d 0100 9f41 0e3b
00000200: 9324 123e 172e 373c d7ab 053c 063c 6bb9
00000210: f94f 0ebb 3277 1db8 1404 323e c2bc 933e
00000220: eb8a 893c 9b5b f63c 3de3 d3a6 e8d9 d7be
00000230: ad10 79bd e8c6 50bd 9d57 8fbd c931 823d
00000240: 28fc c63d 3924 693a aa26 183c cd15 f3bb
00000250: 9245 513e a577 283e 574a ac3d 0368 873d
00000260: d774 5bbd b0f8 1d3e e470 d43d d737 8d3d
00000270: dd1b 913e 662f b33d 82ba 943e b669 d73d
00000280: 7505 84be 0cdd 153e cff1 d43d 8e38 debb
00000290: 948e f8b3 f188 3739 7368 c2bb 39a5 c73d
000002a0: 30df 83b9 e616 0780 c0f0 d135 0557 debb
000002b0: fc35 e1be 7aa5 0c3e 96ff 5a38 c64f ab3d
000002c0: d116 0400 1f20 ce38 8611 813e 0547 233e
000002d0: 8443 d4a5 e555 d4b2 a2b1 3f3e 9474 191d
000002e0: 88ab e33b 7e24 1d3c e56f 5ebd 4098 c3be
000002f0: 8b98 313e 9696 913c 9002 74be c6f4 8bbd
00000300: 0ffb d03d bafc 333e f72a 0fbc 57c7 bdbd
00000310: 8c8c d5bc 7a6e f83b c608 c739 b9f2 273e
00000320: 02da 423e 736d 45bf d338 013a db90 07b4
00000330: 93b3 cebd 92c8 263e 8ae8 5e3e d8c1 143e
00000340: 5899 a13c 0cf0 0180 7008 c03d 65e5 293e
00000350: 46a1 663b abb9 a8b6 d258 733e 1196 0d3e
00000360: 99ee d23b 52e6 6b3e 50d1 c924 f232 093e
00000370: 3ba6 a431 f586 fa3d 7e59 0f3e 7bf7 42bc
00000380: eda2 a1be e4da 823e 3cef d839 ec01 e93b
00000390: a43c 0a3c d5d8 40bf fe37 dbbd 3ed9 0c3a
000003a0: 6e8e 3a23 00bc 2bbd e5f1 4598 4f78 323e
000003b0: cf8b d0bd 4ac2 0200 a411 0200 1907 42bd
000003c0: b25d a9bb 38c3 463e 0584 883a 6c7b 12be
000003d0: be62 8d3c 92b3 0000 0202 f93d 21e4 aab8
000003e0: 4b32 bf3b b89e 8ebe 5f81 203d a4cb 66bc
000003f0: 1555 603e db75 0080 46b8 0780 a79a 99bb

layers.1.bias f4 [128]
-0.020184519 0.28262064 -2.9114299e-16 -0.00306458 -0.111007474 0.2444427 0.06557397 -0.011282746
0.17560485 -0.007515979 -0.07730183 0.1633849 0.117179625 0.050732758 0.19753921 -0.002616801
0.14081213 -8.625684e-05 0.14792664 -0.0013423892 0.16735522 -0.010035626 -4.9130544e-10 -0.09349932
0.025385637 0.17241707 0.2981391 -9.1839416e-21 -1.5699387e-15 0.105988085 -2.6304333e-18 -8.110703e-09
-0.05824279 -1.48978e-40 -0.0029472099 -0.03263314 -0.0051446757 -8.560521e-09 -0.00013603887 0.13008434
-2.4147166e-06 0.16080128 -0.0011500166 0.17295484 -0.029201727 0.038665093 0.28334764 0.026375119
-4.60123e-40 0.32298663 0.081670806 0.12872949 6.8172e-41 0.05355663 0.15234159 -0.0051560886
-0.21367809 0.18773185 -0.009347141 0.14007609 0.09860204 0.18019737 0.01912018 0.119724065
0.016266646 0.12284311 0.2765384 -0.08783196 -0.012688962 0.25279352 -0.20907354 -2.8907193e-10
-0.009895352 0.040735733 0.31476274 0.10565597 -0.23860392 -6.2036133e-06 -0.0012859986 0.07351635
-0.0056732404 -7.0105514e-08 0.17982168 0.17232192 -8.652962e-14 1.9348e-40 -4.5828907e-07 3.32873e-40
0.22978684 0.058133744 0.26634187 -6.7564826e-19 -0.00031332043 -0.055450827 -0.0039209803 0.08594966
0.13145174 -0.0020984726 -4.4943926e-07 -0.039791282 -0.027518269 0.24120522 -0.009249643 -0.0026115403
0.19920772 -0.012936009 0.120911606 0.09886839 0.065643296 6.596383e-16 -1.2705849e-05 -0.006917798
0.17251317 0.12436253 -4.11934e-40 0.0863145 3.4253e-41 0.09794747 -0.005778091 -3.83461e-40
0.12014562 -0.005706045 -0.001057265 -0.14684992 -0.001986008 0.05328378 -1.4911102e-11 -2.7746277e-05
00000000: 015a a5bc a7b3 903e 1fd5 a7a5 1fd7 48bb
00000010: e357 e3bd 304f 7a3e a54b 863d 44db 38bc
00000020: c2d1 333e 9a48 f6bb 6c50 9ebd 5f4e 273e
00000030: dffb ef3d 27cd 4f3d b847 4a3e a37e 2bbb
00000040: 0e31 103e cae4 b4b8 157a 173e 1bf3 afba
00000050: 2b5f 2b3e 776c 24bc 8c0c 07b0 927c bfbd
00000060: 8af5 cf3c 1a8e 303e b0a5 983e d17a 2d9e
00000070: 8440 e2a6 4810 d93d 7b17 42a2 4057 0bb2
00000080: fe8f 6ebd 4a9f 0180 fa25 41bb 54aa 05bd
00000090: ab94 a8bb 9211 13b2 a8a5 0eb9 d434 053e
000000a0: 840c 22b6 17a9 243e 27bc 96ba 131b 313e
000000b0: 7638 efbc 4a5f 1e3d f112 913e a210 d83c
000000c0: a302 0580 815e a53e 0643 a73d aad1 033e
000000d0: 09be 0000 325e 5b3d 6fff 1b3e 68f4 a8bb
000000e0: 6ece 5abe c73c 403e c024 19bc 1b70 0f3e
000000f0: deef c93d a985 383e eca1 9c3c e431 f53d
00000100: a141 853c 2b95 fb3d 7196 8d3e 3ee1 b3bd
00000110: 5de5 4fbc 276e 813e 6017 56be 42eb 9eaf
00000120: 1d20 22bc 83da 263d 9528 a13e 2862 d83d
00000130: 9654 74be a228 d0b6 f48e a8ba bd8f 963d
00000140: 97e6 b9bb ea8c 96b3 2d23 383e 2875 303e
00000150: eed8 c2a9 581b 0200 c50a f6b4 ea9f 0300
00000160: 3e4d 6b3e a61d 6e3d f65d 883e 8a6a 47a1
00000170: 2845 a4b9 6820 63bd 917b 80bb 6006 b03d
00000180: 499b 063e 8786 09bb 764a f1b4 2ffc 22bd
00000190: fe6d e1bc 80fe 763e d18b 17bc 6026 2bbb
000001a0: 1cfd 4b3e 8ef1 53bc 81a0 f73d 837b ca3d
000001b0: fe6f 863d b720 3e26 352b 55b7 b2ae e2bb
000001c0: 4ba7 303e c8b1 fe3d 4e7c 0480 a8c5 b03d
000001d0: 7c5f 0000 af98 c83d 2456 bdbb ef2c 0480
000001e0: e80e f63d c6f9 babb ed93 8aba d35f 16be
000001f0: af27 02bb 1840 5a3d d128 83ad adc0 e8b7

layers.2.weight f4 [128, 128]
-0.11246067 -0.076008365 2.888561e-05 1.1072525e-13 -0.74271333 -0.03627286 0.06962884 0.012696046
-0.46771395 -0.009711809 -0.09178332 0.049214885 -0.14999212 0.24205917 0.22297612 0.012146158
-0.27470383 0.006015112 0.027861506 -0.0010751497 -0.27334687 -0.0061699864 -7.372148e-05 0.32185537
0.07814572 0.033831075 0.32004583 -3.50809e-05 -2.3532137e-10 0.48775208 -5.198295e-07 -4.7977285e-11
-0.17894088 5.17037e-40 0.01571057 -0.19660816 0.0074022817 -6.5043276e-10 -0.0036405022 -0.018030472
6.1822817e-07 -0.027448954 -0.001051515 0.03924291 0.03884009 0.25180757 0.06562089 0.21042305
-1.81313e-40 0.12601791 -0.09911872 -0.041673027 1.9796743e-13 0.13122584 0.13928935 -0.004019414
0.7110338 0.02711111 0.0030467808 0.46798512 0.55946445 -0.15663594 -1.0280253 0.010125346
0.028086897 0.072554074 -0.06511448 -0.16027075 0.0053476696 0.08718025 0.16443641 0.00020202632
0.06829946 -0.063895956 -0.041350182 0.008753014 0.23618846 -0.001494741 0.0014983566 0.11017472
0.012019862 0.0016011348 0.36929998 0.41677356 2.9321825e-08 2.6290603e-09 4.250984e-06 -7.65712e-40
0.45540848 0.02781682 0.1671826 -3.198163e-06 0.0014832254 -0.469187 0.0014907867 -0.018571915
0.29196906 0.0019610843 0.0002456926 0.03697609 0.1378021 -0.15983433 -0.0015788887 -0.00085081457
0.11722393 -0.005728287 0.23620345 -0.17614208 0.41774812 1.1094465e-18 -0.010228197 0.008775921
0.1910916 -0.2339371 -2.6188035e-25 0.07325595 2.7249125e-11 0.41778204 -0.005073304 -3.95849e-40
-0.25017807 0.006557386 3.6132208e-06 0.008392932 -0.4060901 0.26014128 -7.9216654e-05 0.0007947298
-0.0038322962 -0.0032073355 7.0438e-40 -8.61143e-40 -0.0059243822 -0.0066232514 -0.0016854216 -8.95695e-40
-0.001841047 -2.44754e-40 -0.0011047323 -0.004811197 -0.0014860434 -0.004201894 -0.0054822685 -3.81125e-40
-0.0017115568 -8.41869e-40 -0.0039249174 6.1844e-40 -0.004009306 5.98001e-40 -9.8514e-40 0.00076556427
-0.0020589663 -0.008655664 -0.003548509 9.06161e-40 4.72886e-40 -0.0037028533 9.99426e-40 -3.61115e-40
0.0025656058 4.04813e-40 8.49443e-40 -0.003057913 1.61015e-40 8.99112e-40 -4.5314e-40 -0.001246853
-2.78137e-40 -0.0035634134 8.68275e-40 -0.0069075045 -0.0016829435 -0.005012237 -0.006188155 0.00033936283
9.2335e-40 -0.005340618 -0.0029396606 0.00016820483 -7.1203e-41 0.0013874868 -0.0034132255 -7.60403e-40
-3.6110015e-10 -0.0019962797 6.38496e-40 -0.006276836 -0.00837246 0.00021606761 0.0029997209 -0.0017641855
0.0044750893 -0.0026568281 -0.002850547 -0.0041719778 -6.52985e-40 -0.00023460276 -0.0034384208 -1.1927e-40
-0.007106113 0.0019681295 -0.006490287 -1.9966905e-05 -0.0032251135 -2.82356e-40 5.09327e-40 1.4926312e-05
5.79479e-40 8.38328e-40 -0.0016596055 -0.008878532 -8.79186e-40 -2.00066e-40 4.46414e-40 9.54267e-40
-0.0008379849 0.00010473367 -0.005022759 9.79948e-40 4.17752e-40 -0.0036013466 6.75486e-40 -0.0010261608
-0.0011138156 1.002797e-39 -7.51216e-40 -0.00202609 -0.0024266206 0.00055062806 4.13449e-40 9.46129e-40
-0.006681539 -6.75535e-40 -0.0061362754 -0.008248812 -0.00447192 2.91414e-40 1.049556e-39 -3.61127e-40
-0.005742667 -0.0067392634 -8.52749e-40 -0.004537638 -8.86324e-40 -0.009665384 -1.020619e-39 -9.67238e-40
-0.005314885 -2.73225e-40 2.34914e-40 -0.0022637506 -0.008358012 -0.00030898603 -9.16466e-40 -1.007539e-39
00000000: c851 e6bd 46aa 9bbd 604f f237 c354 f929
00000010: 7622 3ebf da92 14bd 9199 8e3d 1403 503c
00000020: 3478 efbe 481e 1fbc e5f8 bbbd 8c95 493d
00000030: 8997 19be 5cde 773e da53 643e ae00 473c
00000040: fba5 8cbe 6b1a c53b d03d e43c 0aec 8cba
00000050: 1ff4 8bbe 992d cabb eb9a 9ab8 3aca a43e
00000060: dd0a a03d 7492 0a3d 0cdd a33e d423 13b8
00000070: 8a5e 81af a4ba f93e 698a 0bb5 9f01 53ae
00000080: 473c 37be 4aa1 0500 74b3 803c a653 49be
00000090: d78e f23b 23ca 32b0 7e95 6ebb a4b4 93bc
000000a0: 51f4 2535 a1dc e0bc fdd2 89ba 2cbd 203d
000000b0: c916 1f3d ecec 803e 3f64 863d 2479 573e
000000c0: 6df9 0180 d70a 013e c1fe cabd 56b1 2abd
000000d0: 3ae4 5e2a 1160 063e dea1 0e3e 4ab5 83bb
000000e0: 5006 363f 1e18 de3c 80ac 473b bf9b ef3e
000000f0: 1039 0f3f 2c65 20be 5596 83bf c7e4 253c
00000100: 7e16 e63c 3b97 943d be5a 85bd 041e 24be
00000110: 813b af3b 8f8b b23d 0562 283e 07d7 5339
00000120: 96e0 8b3d e2db 82bd cf5e 29bd cd68 0f3c
00000130: 63db 713e 2feb c3ba 8164 c43a 49a3 e13d
00000140: f5ee 443c 2bdd d13a e314 bd3e 5863 d53e
00000150: 60df fb32 ebaa 3431 ada3 8e36 7e56 0880
00000160: 4d2b e93e 1ae0 e33c ea31 2b3e 06a0 56b6
00000170: c968 c23a 4739 f0be 8066 c33a 2124 98bc
00000180: f87c 953e 8985 003b 4dd0 8039 3e74 173d
00000190: fe1b 0d3e 9cab 23be b7f2 ceba 3309 5fba
000001a0: 1a13 f03d 5bb4 bbbb 51df 713e 975e 34be
000001b0: 15e3 d53e b4b9 a321 2b94 27bc e1c8 0f3c
000001c0: 84ad 433e 358d 6fbe 9918 a296 3707 963d
000001d0: 93af ef2d 87e7 d53e f53d a6bb 774f 0480
000001e0: 5717 80be 57df d63b a97a 7236 8282 093c
000001f0: 0beb cfbe 3d31 853e 1e21 a6b8 6a55 503a
00000200: 4327 7bbb 2932 52bb 86ab 0700 8460 0980
00000210: 5221 c2bb dc07 d9bb 5de9 dcba d5c0 0980
00000220: 494f f1ba 46aa 0280 aacc 90ba 3fa7 9dbb
00000230: 58c7 c2ba 0bb0 89bb 9aa4 b3bb 6c26 0480
00000240: 5156 e0ba ca2a 0980 989c 80bb f6bb 0600
00000250: 7f60 83bb fc82 0600 2bba 0a80 26b0 483a
00000260: b9ef 06bb 7cd0 0dbc 1a8e 68bb 02de 0900
00000270: 3726 0500 92ab 72bb fee1 0a00 a4ee 0380
00000280: b923 283b 7468 0400 e73f 0900 4467 48bb
00000290: d8c0 0100 5cca 0900 2cef 0480 726d a3ba
000002a0: 5507 0380 2888 69bb 6674 0900 5958 e2bb
000002b0: 3796 dcba b13d a4bb 02c6 cabb 82ec b139
000002c0: ed0d 0a00 5a00 afbb 52a7 40bb 2460 3039
000002d0: 7cc6 0080 55dc b53a 6cb0 5fbb b247 0880
000002e0: 5484 c6af 04d4 02bb def3 0600 ebad cdbb
000002f0: a42c 09bc 3590 6239 f796 443b 3e3c e7ba
00000300: c5a3 923b 2e1e 2ebb 3ed0 3abb 16b5 88bb
00000310: 421c 0780 b3ff 75b9 2157 61bb 7a4c 0180
00000320: 65da e8bb bcfb 003b 79ac d4bb 9a7e a7b7
00000330: 6d5c 53bb 1813 0380 cc8b 0500 066c 7a37
00000340: 5a4f 0600 eb20 0900 1f87 d9ba 4377 11bc
00000350: d092 0980 b42d 0280 6cdc 0400 1c64 0a00
00000360: 37ac 5bba 76a4 db38 f595 a4bb b2ab 0a00
00000370: 868c 0400 9204 6cbb fb5a 0700 3e80 86ba
00000380: 73fd 91ba 64eb 0a00 162e 0880 26c8 04bb
00000390: f007 1fbb 0658 103a 8780 0400 6c4d 0a00
000003a0: d0f0 dabb 1e5b 0780 cf12 c9bb 0626 07bc
000003b0: 2f89 92bb 582c 0300 bc6d 0b00 adee 0380
000003c0: fb2c bcbb 0ad5 dcbb 1e49 0980 77b0 94bb
000003d0: b6a6 0980 8f5b 1ebc 121d 0b80 4488 0a80
000003e0: 7d28 aebb a4f9 0280 d88e 0200 6f5b 14bb
000003f0: 0bf0 08bc 67ff a1b9 bcfa 0980 9cf8 0a80

layers.2.bias f4 [128]
-0.0048019416 -0.00083957874 -0.012008006 -1.7698762e-08 -0.008862868 -0.13864402 0.4662223 -0.29503492
0.05213026 -0.003679175 0.2081127 -0.39420882 0.12688577 -6.13083e-14 0.23605902 1.77505e-40
-1.35396e-40 -5.33778e-40 0.2855808 0.32929653 -0.22470406 -0.006328347 -2.8386976e-17 -0.40639526
-6.10673e-40 0.24855715 0.122043654 -1.705729e-07 -0.007888175 -5.1302333e-05 -0.0005481463 -0.2918542
-0.066813774 4.00459e-40 -0.013671743 0.3372344 6.24196e-40 -0.12896262 -8.6727625e-05 -6.7317483e-06
-0.05642735 0.2416689 -4.05611e-40 -0.3382282 -8.256429e-07 -0.14343703 0.2794264 -0.1261309
-0.0022821424 -0.018260749 0.09073327 0.22108655 -0.0017632239 -4.0583772e-10 0.10271771 0.043401126
-1.4981494e-07 0.18989561 0.13817465 -1.8550831e-14 0.21880448 -0.086539894 0.27100378 -0.060072403
4.2784e-40 -0.11273677 -4.8553986e-05 0.15875444 -2.0987915e-16 0.103393115 -8.946302e-18 -4.540838e-05
0.1630287 -0.19787136 -1.2096832e-17 0.32944894 0.19242758 -8.8025e-41 4.83923e-40 -0.006353891
-0.00046013336 -0.08034443 2.78151e-40 0.09270848 4.27615e-40 -0.008998685 -0.01228276 -0.018315341
0.08261463 4.87934e-40 -7.57071e-40 -0.0013712511 -5.9938297e-06 -0.086707264 0.15278918 0.36653835
0.07230385 0.0072908844 -0.38935852 0.3695891 -3.5789995e-05 -0.34687275 0.40313354 0.16487716
-1.41454e-40 -0.110949576 -0.0024707275 0.28136754 -2.6528732e-35 1.08309e-40 0.25486776 0.051964756
-5.37321e-40 -4.049962e-21 0.16518812 -0.13346876 0.28330424 0.16449124 -0.08804504 -0.0028999927
0.41371623 0.14668468 0.074806094 7.678958e-08 0.26694572 0.23929775 -0.27099594 -1.2567029e-19
00000000: 9b59 9dbb 2d17 5cba 3abd 44bc fd07 98b2
00000010: 9035 11bc b3f8 0dbe b0b4 ee3e d10e 97be
00000020: 8a86 553d 501e 71bb 7f1b 553e bdd5 c9be
00000030: 58ee 013e d40d 8aa9 75b9 713e d0ee 0100
00000040: 6e79 0180 f5cf 0580 a637 923e 8e99 a83e
00000050: d218 66be 065e cfbb 6de9 02a4 0a13 d0be
00000060: 4fa6 0680 c485 7e3e 06f2 f93d b926 37b4
00000070: 673d 01bc 762d 57b8 7ab1 0fba ea6d 95be
00000080: a9d5 88bd 515c 0400 72ff 5fbc fda9 ac3e
00000090: 01cc 0600 c70e 04be 8ae1 b5b8 47e1 e1b6
000000a0: 5d20 67bd 0d78 773e ae6a 0480 3f2c adbe
000000b0: c0a1 5db5 28e1 12be fa10 8f3e 7528 01be
000000c0: ff8f 15bb 9197 95bc 5dd2 b93d 8364 623e
000000d0: fa1b e7ba 951c dfaf aa5d d23d 61c5 313d
000000e0: d1dc 20b4 ff73 423e a87d 0d3e 4e17 a7a8
000000f0: 480e 603e d43b b1bd 02c1 8a3e 7b0e 76bd
00000100: a5a8 0400 89e2 e6bd 72a6 4bb8 8690 223e
00000110: 64f9 71a5 c5bf d33d b707 25a3 e074 3eb8
00000120: fff0 263e ca9e 4abe ad25 5fa3 88ad a83e
00000130: bc0b 453e 61f5 0080 fb44 0500 4d34 d0bb
00000140: 0e3e f1b9 9f8b a4bd 5f07 0300 f2dd bd3d
00000150: 04a8 0400 386f 13bc a13d 49bc 0e0a 96bc
00000160: dc31 a93d 2950 0500 683e 0880 8dbb b3ba
00000170: 9b1e c9b6 9493 b1bd c474 1c3e eaaa bb3e
00000180: 0a14 943d 5fe8 ee3b 005a c7be c83a bd3e
00000190: 371d 16b8 4e99 b1be 8567 ce3e 8fd5 283e
000001a0: 518a 0180 8839 e3bd eeeb 21bb 680f 903e
000001b0: 0a0d 0d86 ec2d 0100 077e 823e ffd8 543d
000001c0: d5d9 0580 d400 999d 1327 293e 09ac 08be
000001d0: 410d 913e 6470 283e f550 b4bd ce0d 3ebb
000001e0: 9dd2 d33e 8234 163e f033 993d 85e7 a433
000001f0: 1cad 883e 780a 753e fbbf 8abe 845d 14a0

layers.3.weight f4 [244, 128]
-0.014440525 -0.009131649 -0.024015965 5.26304e-14 0.008839983 -0.086066775 -0.6874803 -0.12656744
-0.13616693 -0.010778993 -0.17532037 0.098103024 -0.045647986 0.003542224 -0.1856965 1.08016e-40
-1.2360591e-05 1.55683e-40 -0.084840946 -0.2106675 -0.5169232 -0.009784492 0.006586566 -0.08205467
5.5802835e-17 -0.33303216 -0.29486117 0.0082620885 -0.01038128 -0.006530748 0.0016005295 -2.121781
-0.21100225 3.2711258e-05 -0.02067144 -0.00054451317 -1.0401069e-21 -0.050369777 -0.0075254734 -0.0016307886
-1.9463189 -0.043936707 -5.0181253e-23 -0.26343328 0.002108239 -0.1800843 0.35721612 -0.30697677
0.0030747978 0.30288634 -0.7697548 -0.12322831 -0.0044298526 -0.010373618 0.08962277 -0.657436
-0.00089128746 -0.042445436 -0.035046056 1.3425245e-18 0.031141307 -0.035964966 -0.31741595 -0.18510997
4.4264932e-11 -2.5402813e-09 -0.0041946364 -0.69024986 -1.678747e-07 -2.4156563e-10 -0.002331247 0.0022199666
0.010885238 -0.77586234 -0.0007345513 -0.13253355 -0.64020896 -2.1616036e-06 -7.0033354e-11 0.001848379
0.0030324396 -1.0167458 -4.4057633e-06 0.17223197 9.601506e-09 0.005704956 0.008412423 -0.23977754
-0.17308065 1.6055663e-09 -4.746425e-06 0.009133785 -0.0035951128 -0.106028594 -0.39585537 -0.03509441
-0.46391332 -0.15429284 -0.26884577 0.005990057 -0.0037890428 -1.8578652 -0.09580455 -0.22026233
-1.3893282e-07 -0.02784016 -4.5626653e-05 -0.01683578 0.0008679025 0.00026651804 -0.21939282 -0.0068972525
-1.1092357e-07 -1.6301658e-25 -1.0495569e-07 -0.3599827 0.013690302 -0.09798032 -0.72829884 0.008097173
-0.13160327 -0.3187256 -1.4131182 -0.007823937 -0.2727247 0.04928162 0.15641402 -6.7705216e-05
0.05116387 0.0039823703 -0.0034691864 4.27029e-40 -0.0023502018 -0.7146918 -0.38715 0.049713034
-0.0321672 -0.017379126 -0.13447954 0.03223216 0.0027956197 0.0076264134 -0.4222263 2.71985e-40
-5.248704e-13 -5.9683e-41 -0.053650822 -0.42610478 -0.42655075 0.0053560357 0.0027759003 0.008964593
-2.1692545e-23 -0.66295886 -0.39617887 -0.0065078405 -0.0056174453 0.0026975377 0.0072394507 1.2082676e-13
0.061105434 -6.4368705e-06 0.0044841296 -0.18105681 -6.4666e-40 0.054907307 -0.0021261906 0.00214369
1.5263097e-13 -0.20462732 4.49801e-40 0.010908777 -0.0011126641 -0.44681635 0.28840795 -0.41221842
-0.010875307 -0.21349217 -0.97005224 -0.072282135 0.020689087 -0.018780336 0.19703451 -0.87306035
-0.00017061953 -0.25427112 -0.007353219 1.1231834e-35 -0.21119872 0.029160712 -0.4806354 -0.281463
-3.2887516e-21 3.2021488e-12 -0.00423319 -0.59010625 3.167588e-12 -8.7683794e-13 -0.00034554073 0.011207991
-0.016168082 -0.7188063 -0.00035875695 -0.0018550367 -2.3164768 5.210062e-07 5.6415e-40 -0.012117538
0.0043473514 -0.9305793 -1.71604e-40 -0.6954675 -2.272763e-21 -0.018748356 -0.0066867694 -0.7704871
-0.3315271 -3.30229e-08 -9.2746054e-11 -0.004243534 0.003082518 -0.20904057 -0.24323879 0.10071889
-0.40762907 -0.07084995 -0.26081514 -0.19891627 0.0019575183 -0.9815243 -0.15985456 -0.7910003
7.03739e-40 -0.16232936 -6.77679e-40 -0.20743977 -0.00012457317 1.5241396e-22 -0.62141186 0.014768056
1.872483e-07 -4.2643e-40 2.4745903e-14 6.6609246e-11 -0.16235384 -0.2657236 -0.7041226 0.013365083
-0.06237569 -0.19178511 -0.52255756 -0.008131397 -0.20888163 -0.079689465 -0.2871402 0.0013482373
00000000: f497 6cbc e99c 15bc 21bd c4bc b806 6d29
00000010: 93d5 103c c743 b0bd b5fe 2fbf e59a 01be
00000020: 586f 0bbe 609a 30bc 2f87 33be 3dea c83d
00000030: 62f9 3abd a824 683b 3927 3ebe 1b2d 0100
00000040: 5660 4fb7 fbb1 0100 17c1 adbd 39b9 57be
00000050: 1455 04bf 224f 20bc 1fd4 d73b 470c a8bd
00000060: 2eac 8024 3183 aabe 0bf8 96be b65d 073c
00000070: 3f16 2abc e3ff d5bb dcc8 d13a 43cb 07c0
00000080: f910 58be 7233 0938 2757 a9bc a9bd 0eba
00000090: 302d 9d9c 8a50 4ebd 3f98 f6bb 2fc0 d5ba
000000a0: fa20 f9bf faf6 33bd 62a9 729a bae0 86be
000000b0: 622a 0a3b 0568 38be 08e5 b63e 0f2c 9dbe
000000c0: 8c82 493b eb13 9b3e a70e 45bf 205f fcbd
000000d0: 4c28 91bb 1cf6 29bc 258c b73d ba4d 28bf
000000e0: 4aa5 69ba 44db 2dbd 748c 0fbd 241f c621
000000f0: 0e1c ff3c 0050 13bd 5884 a2be 788d 3dbe
00000100: e2ad 422e 1a91 2eb1 2973 89bb 37b4 30bf
00000110: 0c41 34b4 57cd 84af d6c7 18bb dc7c 113b
00000120: ff57 323c ea9e 46bf e78e 40ba e0b6 07be
00000130: bce4 23bf 1110 11b6 4601 9aae 4f45 f23a
00000140: e5bb 463b ba24 82bf 38d5 93b6 945d 303e
00000150: dff3 2432 a4f0 ba3b 42d4 093c 3e88 75be
00000160: 0e3c 31be d8aa dc30 7b43 9fb6 dfa5 153c
00000170: fc9b 6bbb 8525 d9bd 8ead cabe 28bf 0fbd
00000180: 0c86 edbe f1fe 1dbe 27a6 89be 3d48 c43b
00000190: 9751 78bb 87ce edbf 2d35 c4bd 738c 61be
000001a0: 902d 15b4 0c11 e4bc 3f5f 3fb8 31eb 89bc
000001b0: f383 633a 72bb 8b39 83a8 60be 5902 e2bb
000001c0: e134 eeb3 04ce 4996 0064 e1b3 a74f b8be
000001d0: 4a4d 603c e8a9 c8bd cb71 3abf 01aa 043c
000001e0: 02c3 06be 0030 a3be 0fe1 b4bf f82f 00bc
000001f0: 92a2 8bbe 86db 493d ff2a 203e f6fc 8db8
00000200: 3591 513d 8b7e 823b 4a5b 63bb 62a6 0400
00000210: d805 1abb 0bf6 36bf 8638 c6be e59f 4b3d
00000220: c1c1 03bd ab5e 8ebc 01b5 09be df05 043d
00000230: b736 373b fee6 f93b 0c2e d8be 2ff6 0200
00000240: e6bc 13ab 5fa6 0080 f7c0 5bbd 682a dabe
00000250: dc64 dabe af81 af3b e1eb 353b 3ae0 123c
00000260: 24cc d199 acb7 29bf f5d7 cabe b93f d5bb
00000270: 8c12 b8bb 2cc9 303b ea38 ed3b f109 082a
00000280: b149 7a3d 4cfc d7b6 9bef 923b f566 39be
00000290: a00a 0780 7ce6 603d 8f57 0bbb 267d 0c3b
000002a0: e2d8 2b2a d389 51be dde5 0400 baba 323c
000002b0: d0d6 91ba 1dc5 e4be 35aa 933e 4b0e d3be
000002c0: 582e 32bc b19d 5abe 5855 78bf a808 94bd
000002d0: 297c a93c 38d9 99bc 6ac3 493e e280 5fbf
000002e0: 55e8 32b9 d32f 82be 46f3 f0bb ecdf 6e05
000002f0: 7a44 58be 72e2 ee3c d815 f6be eb1b 90be
00000300: b57d 789d c954 612c 92b6 8abb 3411 17bf
00000310: 31e6 5e2c d5ce 76ab b129 b5b9 b9a1 373c
00000320: ed72 84bc b103 38bf 8b17 bcb9 b424 f3ba
00000330: 2841 14c0 46db 0b35 9f24 0600 a388 46bc
00000340: 3a74 8e3b 723a 6ebf 5dde 0180 280a 32bf
00000350: a1b9 2b9d 2796 99bc b01c dbbb a53e 45bf
00000360: ecbd a9be 10d5 0db3 63f3 cbae 580d 8bbb
00000370: 1204 4a3b bb0e 56be 9713 79be b545 ce3d
00000380: c2b4 d0be c719 91bd 9089 85be b5b0 4bbe
00000390: b549 003b 2d45 7bbf eab0 23be ff7e 4abf
000003a0: bda9 0700 ab39 26be 1861 0780 176b 54be
000003b0: db9f 02b9 d641 381b d914 1fbf b7f5 713c
000003c0: 6c0e 4934 b7a4 0480 2be4 de28 ac79 922e
000003d0: 1640 26be ec0c 88be 6141 34bf 39f9 5a3c
000003e0: a77d 7fbd 5163 44be 55c6 05bf 8d39 05bc
000003f0: 11e5 55be 3b34 a3bd 0a04 93be 56b7 b03a

layers.3.bias f4 [244]
0.07707633 -0.28503287 -1.0665435 0.031043181 -0.06550921 -0.09578346 0.09021156 -0.03574569
0.0027296594 0.056690753 -0.014367363 -0.046364494 -0.12482332 -0.07516194 0.008274077 -0.020135915
-0.09982919 -0.17228909 -0.03956008 -0.17778072 0.047130812 -0.14757937 -0.022140034 -0.10282081
0.014405223 0.03812863 -0.12904853 -0.034537464 0.06789044 -0.055688158 0.032937057 -0.073952004
-0.06467226 -0.04858067 0.0059416397 -0.11587242 -0.1021195 -0.033185195 -0.19789898 0.06577739
-0.04797019 -0.10885715 -0.10243925 -0.0700716 0.044055305 0.18124834 -0.13754933 -0.2838872
-0.0858604 -0.117806755 -0.04158215 -0.043427773 -0.099185295 -0.021805804 0.10934131 -0.09763276
0.022890354 -0.039003037 -0.05973624 0.025343971 -0.027233206 -0.21273361 -0.14976326 0.00045816938
0.036861494 -0.010680493 0.0234175 -0.047214102 -0.051242452 0.029462468 -0.12758678 0.022981685
-0.023109272 -0.0019565031 -0.0495098 0.061122414 -0.04532937 -0.017175974 0.0038154654 -0.0026979444
0.025337815 0.030250004 -0.08753457 -0.040867846 -0.045063403 -0.12482856 -0.031887244 -0.028830372
-0.06834537 -0.0012765072 -0.08472629 -0.027335677 0.066807866 -0.039377514 -0.058847576 0.05076566
0.04548581 -0.03627041 0.035137683 -0.046830945 0.03162331 0.05114851 -0.05142018 -0.07456365
-0.090765096 -0.075078875 -0.0082480535 -0.036461543 -0.027708372 -0.025362276 -0.014567398 0.01761636
-0.06956829 0.0088468725 -0.032265004 -0.11614117 -0.04511687 -0.0697435 -0.053509943 -0.03732961
-0.06413492 -0.05398931 -0.038938098 0.008711502 -0.051820364 0.0072534946 -0.02002447 0.11568463
-0.04950629 0.03805282 -0.03335592 0.052226406 -0.0143658295 -0.04629563 -0.0062089544 0.10112032
-0.027014043 -0.032519896 -0.036765404 0.010468872 -0.019142706 -0.0519351 -0.02312774 -0.008244349
-0.043674964 -0.08616563 -0.0281137 -0.022453275 -0.020439986 -0.04583758 -0.07937188 0.053597905
0.012348108 -0.027124211 -0.0048621707 -0.04280305 -0.09861144 0.043146346 -0.040501583 -0.039355267
-0.025043571 -0.018669061 0.012082036 -0.047225144 -0.06025992 0.015933113 -0.047676016 -0.0037358846
-0.07146403 -0.05259109 0.0074362406 -0.060099214 -0.04765033 -0.004226157 -0.040518902 -0.05569405
-0.05563408 -0.048757546 -0.052274343 -0.055814702 -0.0508468 -0.027177772 -0.058790542 -0.024758846
-0.0668076 -0.057670265 -0.057025615 -0.04690181 -0.022143157 -0.037749734 -0.05096904 -0.027787829
-0.041543193 -0.051039502 -0.05498486 -0.055511206 0.012108311 -0.07803091 -0.05076928 0.038014345
-0.028181462 -0.049736574 -0.05306196 -0.065597065 -0.054999817 -0.043932956 -0.07153133 -0.06723789
-0.048371937 -0.030079776 -0.04717655 -0.0541519 -0.05448538 -0.05180781 -0.021329222 -0.068077855
-0.036059294 -0.011332489 -0.0527977 0.00919566 -0.051442675 -0.05456868 -0.0473929 -0.049486004
-0.039225787 -0.045187242 -0.048422076 -0.04012066 -0.048982333 -0.042374603 -0.040097363 -0.042818125
-0.049474757 -0.06718259 -0.050411582 -0.044233426 -0.055105243 -0.06322588 -0.050106835 -0.06155696
-0.06156228 -0.05691625 -0.04424358 -0.0533079
00000000: 32da 9d3d d4ef 91be 7f84 88bf 454e fe3c
00000010: b129 86bd 1e2a c4bd d7c0 b83d 136a 12bd
00000020: 16e4 323b 9034 683d 1765 6bbc b2e8 3dbd
00000030: 5ea3 ffbd 81ee 99bd ff8f 073c 13f4 a4bc
00000040: 3f73 ccbd 8d6c 30be c009 22bd 260c 36be
00000050: 3d0c 413d 0c1f 17be 045f b5bc b893 d2bd
00000060: e203 6c3c c42c 1c3d 4c25 04be 2877 0dbd
00000070: 250a 8b3d 4419 64bd 02e9 063d 2674 97bd
00000080: e472 84bd 86fc 46bd 16b2 c23b 854e edbd
00000090: 0724 d1bd 33ed 07bd 08a6 4abe 4cb6 863d
000000a0: 647c 44bd 7ff0 debd abcb d1bd b381 8fbd
000000b0: 5673 343d 2a99 393e bbd9 0cbe aa59 91be
000000c0: 94d7 afbd ab44 f1bd 0b52 2abd 52e1 31bd
000000d0: a921 cbbd 16a2 b2bc 56ee df3d aff3 c7bd
000000e0: 8d84 bb3c a6c1 1fbd fdad 74bd 299e cf3c
000000f0: 2c18 dfbc d7d6 59be 8a5b 19be 7436 f039
00000100: 14fc 163d 3cfd 2ebc 0fd6 bf3c 9363 41bd
00000110: 9be3 51bd 465b f13c 1ca6 02be 1644 bc3c
00000120: a84f bdbc ad38 00bb caca 4abd 7f5b 7a3d
00000130: 4aab 39bd a1b4 8cbc e30c 7a3b ffcf 30bb
00000140: 4091 cf3c dbce f73c 5345 b3bd 0b65 27bd
00000150: 6794 38bd 1ea6 ffbd 339c 02bd ac2d ecbc
00000160: a8f8 8bbd 7950 a7ba fa84 adbd 12ef dfbc
00000170: 90d2 883d 514a 21bd 280a 71bd a7ef 4f3d
00000180: 544f 3a3d 4890 14bd 88ec 0f3d ced1 3fbd
00000190: 7287 013d 1a81 513d f79d 52bd d4b4 98bd
000001a0: 0de3 b9bd f4c2 99bd d822 07bc b358 15bd
000001b0: abfc e2bc 8cc4 cfbc 18ac 6ebc 2f50 903c
000001c0: d279 8ebd 79f2 103c 4f28 04bd 6cdb edbd
000001d0: 78cc 38bd aed5 8ebd 3e2d 5bbd efe6 18bd
000001e0: 2b59 83bd e523 5dbd 8e7d 1fbd b0ba 0e3c
000001f0: 9741 54bd b9ae ed3b 5b0a a4bc 10ec ec3d
00000200: 1cc7 4abd 46dd 1b3d 38a0 08bd 5beb 553d
00000210: a85e 6bbc 7da0 3dbd 7c74 cbbb 2c18 cf3d
00000220: 8e4c ddbc 9533 05bd 5297 16bd a285 2b3c
00000230: 2ad1 9cbc e6b9 54bd 6376 bdbc 4e13 07bc
00000240: 85e4 32bd 9b77 b0bd b44e e6bc eeef b7bc
00000250: c271 a7bc 30c0 3bbd b98d a2bd 7a89 5b3d
00000260: b84f 4a3c 9833 debc d852 9fbb 4052 2fbd
00000270: cbf4 c9bd 39ba 303d fde4 25bd fd32 21bd
00000280: 2d28 cdbc dcef 98bc bbf3 453c 276f 41bd
00000290: 1bd3 76bd 2986 823c ed47 43bd bed5 74bb
000002a0: bc5b 92bd c169 57bd b5ab f33b 982a 76bd
000002b0: fe2c 43bd 937b 8abb 26f7 25bd 721f 64bd
000002c0: 90e0 63bd feb5 47bd 9f1d 56bd f59d 64bd
000002d0: bc44 50bd eba3 debc 5ace 70bd 10d3 cabc
000002e0: 6cd2 88bd a837 6cbd b193 69bd 1d1c 40bd
000002f0: 9165 b5bc 779f 1abd e9c4 50bd 4da3 e3bc
00000300: 3229 2abd cc0e 51bd ce37 61bd b85f 63bd
00000310: f061 463c abce 9fbd 73f3 4fbd eeb4 1b3d
00000320: cfdc e6bc 94b8 4bbd 7f57 59bd c157 86bd
00000330: 7d47 61bd 0bf3 33bd 057f 92bd 05b4 89bd
00000340: a721 46bd dd69 f6bc 333c 41bd 62ce 5dbd
00000350: 102c 5fbd 6d34 54bd 9fba aebc 676c 8bbd
00000360: e9b2 13bd e7ab 39bc 6742 58bd 65a9 163c
00000370: 8eb5 52bd 6883 5fbd 0f1f 42bd d6b1 4abd
00000380: 38ab 20bd 4216 39bd 3a56 46bd 9055 24bd
00000390: b3a1 48bd fe90 2dbd 223d 24bd 0f62 2fbd
000003a0: 0ba6 4abd 0797 89bd 607c 4ebd 1c2e 35bd
000003b0: 09b6 61bd 927c 81bd d33c 4dbd 2723 7cbd
000003c0: bb28 7cbd 0421 69bd c238 35bd 6259 5abd
