models/MPC_horizon_6_obs_8.pt (torch_old, 288136 bytes, 8 tensors)

layers.0.weight f4 [128, 48]
0	0x3d176854	0.03696473
1	0x3f9083a4	1.1290174
2	0x3da4bfd0	0.08044398
3	0xbe12a968	-0.14322436
4	0x3d2c542d	0.042072464
5	0xbd63ee38	-0.055647105
6	0xbd403e99	-0.046934698
7	0xbe590d71	-0.21196534
8	0x3ab93812	0.001413109
9	0x3b184c99	0.0023239015
10	0x3c8eb3d5	0.017419735
11	0x3b1a3c52	0.002353449
12	0x3b05d54f	0.0020421331
13	0xbbb9ced2	-0.005670407
14	0xbb81ead1	-0.00396476
15	0xbc8b634e	-0.017015126
16	0x3a5da866	0.0008455574
17	0x3ae9a874	0.0017826692
18	0xbd1e9543	-0.038716566
19	0x3b69c075	0.0035667692
20	0xbb43af17	-0.0029859
21	0xbd1a185c	-0.037620887
22	0xbc008c38	-0.007845931
23	0x3d7394ab	0.059467953
24	0x3b46d54d	0.003033954
25	0x3b39e64e	0.0028366032
26	0xbb557d56	-0.0032575927
27	0x3b4bae41	0.0031079205
28	0x3bac7e43	0.005264075
29	0x3a3e7590	0.0007265443
30	0x3c8dfc8b	0.017332336
31	0xbc07be7a	-0.008285159
32	0x3c1c7b4c	0.009550881
33	0x3bbd3168	0.005773712
34	0x3b810e33	0.0039384603
35	0xbbbdaaa0	-0.0057881624
36	0x3b57e872	0.0032944945
37	0x3b9ae7b0	0.0047273263
38	0x3c0361a9	0.008018889
39	0xbc04991b	-0.008093144
40	0x3f0bdeae	0.5463666
41	0xbdb4a58f	-0.0882064
42	0x3c1d4f94	0.009601492
43	0x3f41ff5b	0.75780267
44	0xbda571a7	-0.08078318
45	0xbfd74f7a	-1.6821129
46	0xbf42cab4	-0.7609055
47	0x3ee702e7	0.45119402
48	0xbeaed860	-0.34149456
49	0xbd94cd89	-0.07265765
50	0x3e90e213	0.2829748
51	0xbeeded41	-0.46470073
52	0xbe416789	-0.18887152
53	0x3e18792b	0.14889972
54	0xbc924fa3	-0.01786024
55	0x3ef4f619	0.47844008
56	0xbd704f67	-0.058669474
57	0x3c6fa0b5	0.014625718
58	0xbd27a6fd	-0.040930737
59	0x3b8f4531	0.004372262
60	0x3e133445	0.14375408
61	0x3d449b42	0.047999628
62	0xbc74819e	-0.014923481
63	0xbd5d1c54	-0.053982094
64	0x3c7d2f8b	0.01545323
65	0xbdac7ee5	-0.08422641
66	0x3db26fcd	0.087127306
67	0x3c7f73e4	0.015591595
68	0x3df8f1c9	0.12155492
69	0xbd2a41b9	-0.041566584
70	0x3dcc53b4	0.099769026
71	0x3cd9e0c5	0.026596436
72	0x3d8cb217	0.068699054
73	0xbdd1a4ed	-0.10236535
74	0x3c8fdeaf	0.017562238
75	0xbba7d540	-0.005121857
76	0xbd8a07d6	-0.06739776
77	0x3dc4f8bf	0.09617757
78	0xbda1deb3	-0.07903805
79	0x3ddf76cb	0.1091133
80	0x3e04cfc4	0.12969881
81	0x3d8f2aa3	0.06990554
82	0xbda7b10d	-0.08188067
83	0xbdce9a67	-0.10088044
84	0x3cf71633	0.030161953
85	0xbcbaed0d	-0.022818113
86	0x3e1aa52f	0.15102075
87	0x3dbf6575	0.09345523
88	0x3cec623c	0.028855436
89	0xbf37cf5b	-0.71800774
90	0xbdc533b2	-0.09629001
91	0xbda742de	-0.08167051
92	0x3ebf67ff	0.3738403
93	0xbf1bc521	-0.6084767
94	0x3ef56ff6	0.47936982
95	0x3f83de41	1.0302202
96	0x3e77c2ed	0.24195452
97	0xbe961fb0	-0.2932105
98	0x3f0667ba	0.52502024
99	0x3e734834	0.23758012
100	0xbd95a213	-0.07306304
101	0x3b8040e2	0.0039139846
102	0x3eacc375	0.33742872
103	0x3c0dc955	0.008653958
104	0x3cfc4e58	0.030799076
105	0x3dc2bd92	0.09508814
106	0x3d8297c3	0.063766025
107	0xbc837cd2	-0.01605073
108	0xbe057fb9	-0.13037004
109	0xbdb0ccd9	-0.086328216
110	0xbdcda236	-0.10040705
111	0xbdf12e8b	-0.117764555
112	0x3d2eeb00	0.042704582
113	0x3c9136a9	0.01772626
114	0x3c90fcae	0.017698612
115	0x3c84bfae	0.016204681
116	0xbe0e0118	-0.13867605
117	0x3ce1de66	0.027571868
118	0x3db28e3f	0.087185375
119	0x3dc5fa0f	0.096668355
120	0x3d183782	0.03716231
121	0xbd015e4d	-0.031584073
122	0xbb52797b	-0.0032115865
123	0x3e094875	0.13406546
124	0x3de22141	0.11041499
125	0xbd79577a	-0.06087444
126	0x3d869178	0.06570715
127	0x3d830520	0.06397462
128	0xbd5783c0	-0.05261588
129	0xbd85f946	-0.06541686
130	0xbd070541	-0.032963995
131	0x3d394499	0.045231435
132	0x3d3466a6	0.044043206
133	0x3dadf219	0.08493442
134	0xbe0e65b3	-0.13905983
135	0x3cea7375	0.028619507
136	0x3de1c033	0.11022987
137	0x3daa7901	0.08323861
138	0xbf490ed4	-0.7853825
139	0x3f064fd4	0.5246556
140	0xbde4cc69	-0.11171801
141	0xbe78f1b4	-0.24310952
142	0x3e653433	0.22383194
143	0xbe2a3567	-0.16621934
144	0xb0dabe13	-1.591561e-09
145	0xa86de656	-1.3206089e-14
146	0x800413e5	-3.74479e-40
147	0x80010b99	-9.5996e-41
148	0xad97c9f6	-1.7256401e-11
149	0xabb4bf4e	-1.2842867e-12
150	0x8007122f	-6.49372e-40
151	0x0007e0b6	7.2346e-40
152	0x9863b285	-2.9429192e-24
153	0x00073858	6.63061e-40
154	0xb0f8083b	-1.8046714e-09
155	0x8005601a	-4.93652e-40
156	0xace022cc	-6.370326e-12
157	0xad2719d3	-9.498585e-12
158	0xab779e47	-8.797168e-13
159	0xb18a0e70	-4.01797e-09
160	0xa38d0efe	-1.52936e-17
161	0x8ff2c793	-2.3939916e-29
162	0xb29ce131	-1.8263195e-08
163	0x975e6fe7	-7.187331e-25
164	0xb135dff2	-2.6466265e-09
165	0xb0c5f5a8	-1.4403456e-09
166	0xb07e73fb	-9.256948e-10
167	0xb3a34b06	-7.603926e-08
168	0x98605ebd	-2.8999152e-24
169	0x00042453	3.80373e-40
170	0x00068bd8	6.0118e-40
171	0xac289cfb	-2.3961378e-12
172	0x998d8daf	-1.4636284e-23
173	0x8000dbf8	-7.891e-41
174	0xa8b9ad2e	-2.061423e-14
175	0xab91befa	-1.0355876e-12
176	0xaa1e3fa0	-1.4055293e-13
177	0x9a593805	-4.49198e-23
178	0x0072ab14	1.0530618e-38
179	0xaf317385	-1.6139097e-10
180	0xa700c198	-1.7868516e-15
181	0x94945254	-1.4976654e-26
182	0xaf7b6243	-2.2863227e-10
183	0xaf07d88b	-1.235511e-10
184	0x00011107	9.7944e-41
185	0x8000d98f	-7.8045e-41
186	0x8007b3fc	-7.07415e-40
187	0x0006d4b9	6.27323e-40
188	0x80073cb7	-6.64629e-40
189	0x000017a7	8.485e-42
190	0x8001a0e1	-1.49548e-40
191	0x0002b573	2.48763e-40
192	0x3f37c59c	0.717859
193	0xbbb5e64e	-0.005551136
194	0x3efef67d	0.4979743
195	0x3daa46a5	0.083142556
196	0xbd2663a1	-0.040622357
197	0x3d8e319d	0.06943057
198	0x3e80d8df	0.2516546
199	0x3d8cec50	0.068810105
200	0xbe124e49	-0.14287676
201	0x3decf83e	0.11570786
202	0xbe148a08	-0.1450578
203	0xbdd5fa73	-0.1044816
204	0x3d877028	0.06613189
205	0x3dcb9bbf	0.099418156
206	0xbe048a67	-0.12943421
207	0x3d9eebb7	0.07759803
208	0xbca6f3d3	-0.020379936
209	0xbdf3b76e	-0.11900221
210	0x3ce8b9c0	0.028408885
211	0x3d9bf6db	0.07615443
212	0x3d8dba93	0.06920352
213	0x3dee19c9	0.11626012
214	0xbcc4f338	-0.024041757
215	0x3c1f4442	0.009720864
216	0x3db1210f	0.086488836
217	0xbdb489f8	-0.08815378
218	0x3cad4b52	0.02115408
219	0xbd7ff392	-0.062488146
220	0x3c9b86c6	0.018985163
221	0xbdbf3197	-0.093356304
222	0xbdc720ff	-0.097230904
223	0xbd9a4c30	-0.07534063
224	0xbc2d8887	-0.010591633
225	0xbd389899	-0.045067403
226	0xbcfff3b5	-0.031244138
227	0xbda047ed	-0.07826219
228	0x3d025dca	0.031827725
229	0x3cb5d09b	0.022194197
230	0xbd4a0601	-0.049322132
231	0xbcce3d59	-0.025175737
232	0x3ebafde7	0.36521837
233	0x3f404801	0.7510987
234	0xbf371894	-0.7152188
235	0x3f1698b5	0.5882676
236	0xbec6dd98	-0.38840938
237	0xbeacc22f	-0.337419
238	0xbe836b11	-0.25667623
239	0xbf63c669	-0.88974625
240	0x3dffcd0e	0.12490283
241	0xbf5525e1	-0.83260924
242	0x3edbf5b4	0.42960894
243	0xbfffe1a3	-1.9990734
244	0x3c9977c1	0.01873386
245	0x3d044d14	0.03230007
246	0xbcfb0a9b	-0.030644706
247	0x3e3330ee	0.17499134
248	0xbb1b683b	-0.002371325
249	0x3acb2e7a	0.0015501522
250	0x3de371f8	0.11105722
251	0x3e0ab881	0.13546945
252	0x3e1c6644	0.15273386
253	0x3df102d8	0.117681205
254	0xbd9a8d40	-0.075464725
255	0xbd8c8ce7	-0.068628125

layers.0.bias f4 [128]
0	0xbb0996c6	-0.002099441
1	0x3e156dae	0.1459262
2	0xbe0782ec	-0.13233536
3	0x9de6da07	-6.110593e-21
4	0xbd15b789	-0.036551986
5	0x3cf4eaec	0.029897176
6	0xbd11eba6	-0.035625122
7	0x3d448878	0.04798171
8	0xb73316d6	-1.0674548e-05
9	0x3dd2e057	0.10296696
10	0xb8d8b397	-0.00010333134
11	0x3e2a4342	0.1662722
12	0x3d975de7	0.07390957
13	0xbdbad560	-0.09122729
14	0xbb1da4f5	-0.002405462
15	0x3db0af58	0.08627194
16	0x3d544fe6	0.05183401
17	0xbc17eabe	-0.0092722755
18	0x3c96d0a3	0.018410033
19	0x3dbd303b	0.09237715
20	0x3dec2b27	0.11531668
21	0xbc143927	-0.009046829
22	0xbc1d26ae	-0.0095917415
23	0x3caed020	0.021339476
24	0xbd8f753c	-0.070047826
25	0xbe16c2ab	-0.14722697
26	0x3c22a00c	0.009925853
27	0xb2649de0	-1.3307243e-08
28	0xbb1d8996	-0.0024038306
29	0x00024df1	2.11631e-40
30	0xbcba88c5	-0.022770295
31	0xbba0e4f3	-0.0049101054
32	0xae636959	-5.1707392e-11
33	0xbb4e5a01	-0.0031486752
34	0x3d80d5aa	0.06290753
35	0xbd92d5b4	-0.07169667
36	0xbbb92e7b	-0.005651293
37	0xb8860473	-6.390447e-05
38	0xbb89459c	-0.0041892063
39	0xbbbc9381	-0.0057548885
40	0x3df4c210	0.11951077
41	0x00066c8f	5.89956e-40
42	0xad884d26	-1.549567e-11
43	0x3d694957	0.056954708
44	0x80034ed1	-3.0378e-40
45	0xb8299215	-4.042879e-05
46	0xb915fed6	-0.00014304681
47	0xbd932dc5	-0.07186464
48	0x3d9902b3	0.07471218
49	0xbd8d04aa	-0.06885655
50	0x3d8b1dc2	0.06792785
51	0xbddaaf39	-0.10677952
52	0x93a69a4b	-4.2056436e-27
53	0x80073d98	-6.64944e-40
54	0x3d014b39	0.03156588
55	0xb82ebcaa	-4.166054e-05
56	0x3d33d93e	0.04390835
57	0xbd7e3f6f	-0.062072214
58	0xb920fa23	-0.00015351972
59	0x3d55785f	0.052116748
60	0xbba86af5	-0.0051397034
61	0x3d20ecc4	0.039288297
62	0x3dd6b50b	0.1048375
63	0xb7419646	-1.1538685e-05
64	0xad6cebef	-1.3467435e-11
65	0x3dae670d	0.08515749
66	0x3dc3dbe0	0.09563422
67	0x3bec1dc4	0.007205697
68	0x3c4a7f28	0.012359418
69	0xbbc2e33a	-0.0059474977
70	0xbd8ad1cb	-0.06778296
71	0xbabe526d	-0.0014520414
72	0x3e1ff7aa	0.1562182
73	0xbdfb4eb2	-0.12270869
74	0xbcb3e490	-0.021959573
75	0xbc698d90	-0.014254943
76	0xaba3a5ab	-1.1627829e-12
77	0x80003987	-2.0637e-41
78	0x3dd417d7	0.103561096
79	0x897bbcaf	-3.0301745e-33
80	0x3d1d4614	0.03839691
81	0xaf0b9241	-1.2693936e-10
82	0xb542f6bb	-7.262967e-07
83	0x3dfc1861	0.123093374
84	0xbd963474	-0.073342234
85	0xbba9c57c	-0.0051810127
86	0xbd3b3498	-0.045704454
87	0x3d122a7e	0.035685055
88	0xb2ead0aa	-2.7336075e-08
89	0xbdef60d5	-0.11688391
90	0xbb3b7ced	-0.0028608397
91	0xbc32cf6b	-0.01091371
92	0xb67e1e17	-3.7866464e-06
93	0x3d046fe3	0.032333266
94	0xbdbfbcad	-0.09362159
95	0xb54fc2df	-7.7397084e-07
96	0x39a04630	0.00030569872
97	0xbd99b130	-0.07504499
98	0x3da55c28	0.08074218
99	0xbbdb9774	-0.006701404
100	0xa0ee7010	-4.0392925e-19
101	0xbd358229	-0.044313584
102	0xbdae2786	-0.08503632
103	0x3d8ef793	0.06980815
104	0xbc992d72	-0.018698428
105	0x3d07b9f9	0.03313634
106	0xbe10b732	-0.14132383
107	0x3b0fc840	0.0021939427
108	0xbb8cb243	-0.0042937114
109	0xbd9587d3	-0.07301297
110	0xacbd3706	-5.377812e-12
111	0x3b4095dd	0.00293862
112	0x3dd06593	0.10175624
113	0xbe019f68	-0.12658465
114	0x3d88460d	0.06653986
115	0x3b78bffb	0.0037956226
116	0x3e3ae8a3	0.18252806
117	0xbd746f45	-0.059676427
118	0x3dbc9147	0.09207397
119	0xbd366815	-0.044532854
120	0x0001ce3a	1.65816e-40
121	0x8f86d790	-1.3296452e-29
122	0xbcc8357c	-0.024439566
123	0x3e031dc9	0.12804331
124	0x3dd8cd49	0.1058603
125	0xbbedcbbf	-0.0072569544
126	0xbcd18fbf	-0.025581239
127	0x3d11c604	0.035589233

layers.1.weight f4 [128, 128]
0	0xbca5bc72	-0.02023146
1	0x39fdefaa	0.00048434484
2	0xbca41d72	-0.020033572
3	0x800a421e	-9.42073e-40
4	0xbccf7384	-0.025323637
5	0xbc3f4717	-0.011674664
6	0xbc4ac55d	-0.012376157
7	0x3b3791b0	0.002801042
8	0x800a778c	-9.6124e-40
9	0xbce4bf65	-0.027923295
10	0x8004bfbe	-4.36126e-40
11	0xbc6ae979	-0.014337891
12	0xbc920926	-0.017826628
13	0xbc776f07	-0.015102155
14	0xbc32ea36	-0.010920098
15	0xbb4e569c	-0.0031484729
16	0xbc606ca3	-0.013697776
17	0x8003a21a	-3.33658e-40
18	0xbbcd673d	-0.0062684105
19	0xbc369a42	-0.011145176
20	0xbcf3e052	-0.02977005
21	0x3b00b9be	0.001964196
22	0x800ace8c	-9.9245e-40
23	0xbc813c77	-0.015775902
24	0xbad4ea98	-0.0016244231
25	0xbb71a87f	-0.0036874113
26	0xbbe29e36	-0.006915833
27	0x0004f72c	4.5601e-40
28	0x000295da	2.37428e-40
29	0x80036b74	-3.14053e-40
30	0xbb8ded1f	-0.0043312456
31	0x000a57a4	9.49794e-40
32	0x80046474	-4.03378e-40
33	0x80025138	-2.12807e-40
34	0xbc75b4e2	-0.014996739
35	0xbc36a4cb	-0.011147688
36	0x000b1ddc	1.020902e-39
37	0x000898aa	7.8945e-40
38	0xbc0866c6	-0.008325284
39	0xbbaea5e7	-0.0053298357
40	0xbc23485d	-0.009965983
41	0x800ae1be	-9.99336e-40
42	0x00058048	5.05196e-40
43	0xbcad98c0	-0.021191001
44	0x80063d2e	-5.7296e-40
45	0x0009e5dc	9.08977e-40
46	0x800b387e	-1.030456e-39
47	0xbb3c4971	-0.0028730298
48	0xbb78cc94	-0.0037963735
49	0xbcdcc6f3	-0.026950335
50	0xbb931aeb	-0.004489293
51	0xbcc665cf	-0.024218468
52	0x8008164c	-7.42683e-40
53	0x80013aab	-1.12882e-40
54	0xbbc46b89	-0.0059942645
55	0x0000822f	4.6701e-41
56	0xbbd19766	-0.006396222
57	0xbb401683	-0.0029310293
58	0x000b0666	1.012486e-39
59	0xba72a2da	-0.0009255834
60	0x8009040c	-8.27971e-40
61	0xbcdec8a9	-0.027195292
62	0xba72f65d	-0.00092682784
63	0x800b3e06	-1.03244e-39
64	0x800a814c	-9.64738e-40
65	0xbc81191b	-0.015759042
66	0xbc985b8a	-0.018598337
67	0xbbb1a831	-0.0054216613
68	0xbc4cd199	-0.012501144
69	0x80092112	-8.38383e-40
70	0xbcd2a75f	-0.025714574
71	0x80012592	-1.05313e-40
72	0xbbe4f22d	-0.0069868774
73	0xbc411ebf	-0.011787116
74	0xbc6713ba	-0.014103824
75	0xbc520590	-0.012818709
76	0x000a3eb2	9.40846e-40
77	0x0005fdc4	5.50211e-40
78	0xb988af64	-0.00026070618
79	0x000aa08a	9.75946e-40
80	0xbb5fabb2	-0.0034129438
81	0x800562e0	-4.94647e-40
82	0x8009baf4	-8.93586e-40
83	0xbc2035f3	-0.0097784875
84	0xbc0b8dfe	-0.00851774
85	0x0006a4f6	6.1019e-40
86	0xbc1d7670	-0.009610757
87	0xbb25544e	-0.0025227251
88	0x800885fe	-7.82751e-40
89	0xbba927b1	-0.0051622023
90	0x000939a4	8.47197e-40
91	0x80032ea3	-2.92237e-40
92	0x80045432	-3.97546e-40
93	0xbbd9fa77	-0.006652172
94	0xbc59dd45	-0.013297384
95	0x0002ae8a	2.46284e-40
96	0xbb6d9b8c	-0.0036256043
97	0x3a428644	0.000742052
98	0xbbea3a0b	-0.0071480325
99	0x8007912a	-6.94924e-40
100	0x00093c46	8.48142e-40
101	0xbc030aa7	-0.007998145
102	0xbba77c35	-0.005111242
103	0xbbb3a519	-0.0054823277
104	0x3816037c	3.5766032e-05
105	0xbcb2efdc	-0.02184289
106	0xbc95617d	-0.018234963
107	0xbcbc343d	-0.022974128
108	0x0000bd5a	6.7927e-41
109	0xbc585106	-0.013202911
110	0x0001dc13	1.70783e-40
111	0xbc95cb06	-0.018285286
112	0xbc8f6772	-0.017505381
113	0xbcbefacb	-0.023312947
114	0xbc776fc2	-0.015102329
115	0xbcbf513e	-0.023354169
116	0xbc08e5f4	-0.008355606
117	0xbc6035e6	-0.013684725
118	0xbcca0a38	-0.024663076
119	0xbcb92154	-0.0225989
120	0x0009614e	8.61426e-40
121	0x80026044	-2.18205e-40
122	0xbc4046a8	-0.011735596
123	0xbca24270	-0.01980707
124	0xbca97f7a	-0.020690668
125	0x00030076	2.75672e-40
126	0xbc345d25	-0.0110085355
127	0x3b8fcab7	0.004388179
128	0xb58eab78	-1.0629728e-06
129	0xa407345a	-2.9317802e-17
130	0x00000137	4.36e-43
131	0x800b57b8	-1.041658e-39
132	0xa35a75b2	-1.1842727e-17
133	0x0005f894	5.4835e-40
134	0xa3d79fa2	-2.3377954e-17
135	0xb6886ad5	-4.0655527e-06
136	0x000ac93c	9.90544e-40
137	0xabb221b8	-1.265702e-12
138	0x0005b599	5.24322e-40
139	0xae8c8ff2	-6.392033e-11
140	0x00049e8e	4.2422e-40
141	0xb28f8123	-1.6706116e-08
142	0x800885ec	-7.82726e-40
143	0xadb399af	-2.0418193e-11
144	0xaee9402a	-1.0607011e-10
145	0x800ae5c4	-1.00078e-39
146	0xa989dc87	-6.1222776e-14
147	0xb681f470	-3.872956e-06
148	0x80017dbe	-1.36943e-40
149	0xa7a7b207	-4.654483e-15
150	0x0003a022	3.32951e-40
151	0x0e065d2e	1.656164e-30
152	0x8001f592	-1.7993e-40
153	0xb11e5a5b	-2.3043387e-09
154	0xb36b3b19	-5.476895e-08
155	0x0007840f	6.90222e-40
156	0x8008ae3e	-7.9719e-40
157	0x800aecae	-1.00326e-39
158	0x86af7642	-6.600145e-35
159	0x0000b5e4	6.525e-41
160	0x0004f4ba	4.55133e-40
161	0x8009531e	-8.56336e-40
162	0x85577e70	-1.0132474e-35
163	0xa5838b85	-2.281942e-16
164	0x0002f3e4	2.71162e-40
165	0x800adda6	-9.97867e-40
166	0xb401547a	-1.2044794e-07
167	0xad7754dd	-1.4059168e-11
168	0x0008a1f7	7.92786e-40
169	0x80041d7a	-3.77916e-40
170	0x8009b1fd	-8.9037e-40
171	0x80054535	-4.84004e-40
172	0x000684be	5.98632e-40
173	0x00085658	7.65658e-40
174	0x8006bdc6	-6.19091e-40
175	0xaf51fb18	-1.9097646e-10
176	0xabdd37e7	-1.571851e-12
177	0x000427aa	3.81571e-40
178	0xb38af935	-6.471456e-08
179	0xb5d57394	-1.5903374e-06
180	0x8001cb74	-1.64821e-40
181	0x000070f2	4.0517e-41
182	0x8002b992	-2.50241e-40
183	0x0003fab1	3.65438e-40
184	0x8006d22f	-6.26413e-40
185	0xaa75644a	-2.1795166e-13
186	0x0000eb7f	8.448e-41
187	0xa4a2365e	-7.03484e-17
188	0x00088b44	7.84643e-40
189	0xa05e1b07	-1.8813074e-19
190	0x0d2a8f0d	5.2557486e-31
191	0x800b3b55	-1.031475e-39
192	0x8008a5cc	-7.9416e-40
193	0xa9519795	-4.65388e-14
194	0x9e1b2e25	-8.215174e-21
195	0xb10e27b8	-2.0686297e-09
196	0xb729faaf	-1.0131552e-05
197	0x80099082	-8.78359e-40
198	0xa2bc76d0	-5.10833e-18
199	0x000a9341	9.7118e-40
200	0x9ba29e9d	-2.6903153e-22
201	0xb39c0365	-7.2649335e-08
202	0x00024bed	2.10908e-40
203	0xa907d457	-3.0160197e-14
204	0x80015da0	-1.25422e-40
205	0x00043d00	3.89225e-40
206	0xad42d206	-1.1074258e-11
207	0x0001894a	1.41086e-40
208	0x8006521e	-5.80471e-40
209	0x800ac0cc	-9.87517e-40
210	0x8009a74e	-8.86537e-40
211	0x9ba4fd0a	-2.7295047e-22
212	0x000323e7	2.88386e-40
213	0x800937ba	-8.4651e-40
214	0xa571f211	-2.0985433e-16
215	0xab8db468	-1.0068725e-12
216	0x000b6338	1.045783e-39
217	0xb0a6c166	-1.2133057e-09
218	0x00034af2	3.02392e-40
219	0x80064e15	-5.79024e-40
220	0x8002ad1f	-2.45775e-40
221	0xa674407d	-8.4741904e-16
222	0xb72e8857	-1.0402952e-05
223	0x0003c798	3.47107e-40
224	0x9c7bc468	-8.3302783e-22
225	0x00070d7d	6.47687e-40
226	0xa1c11f74	-1.3086514e-18
227	0x0006d217	6.26379e-40
228	0x800806f0	-7.37173e-40
229	0xad0cda0a	-8.006493e-12
230	0x800848bb	-7.60775e-40
231	0xae07e488	-3.0898423e-11
232	0xad4e7b78	-1.173716e-11
233	0xb5971ec5	-1.1259332e-06
234	0xa4e0e101	-9.7525686e-17
235	0xae46da20	-4.521372e-11
236	0x800b503c	-1.038973e-39
237	0xb2462476	-1.1533407e-08
238	0x8007cdea	-7.16717e-40
239	0xa2deed38	-6.0424386e-18
240	0x90b5bd87	-7.1683925e-29
241	0xb53442e4	-6.7152564e-07
242	0xb429c978	-1.5812645e-07
243	0x80059640	-5.13077e-40
244	0x9f828253	-5.5272745e-20
245	0x000295a2	2.37349e-40
246	0xb54e5427	-7.686344e-07
247	0xb3c315b7	-9.084345e-08
248	0x0006f884	6.40164e-40
249	0x000846cc	7.60081e-40
250	0xb567ca53	-8.6348626e-07
251	0x0001388a	1.12118e-40
252	0x80194316	-2.319953e-39
253	0x00016854	1.29261e-40
254	0xb5b3826a	-1.3374495e-06
255	0xab3b2915	-6.649276e-13

layers.1.bias f4 [128]
0	0xbc71f108	-0.014766939
1	0xa8ecfd13	-2.6311017e-14
2	0x9752a8c4	-6.806767e-25
3	0x8003265e	-2.8927e-40
4	0x3ccf0aa4	0.025273629
5	0x3e76b027	0.24090634
6	0x3e5d83e8	0.2163235
7	0x3daf35c7	0.08555179
8	0xbb9c3e4a	-0.0047681676
9	0x80033841	-2.95687e-40
10	0x3ea3f809	0.32025173
11	0x800707e9	-6.45686e-40
12	0xbe2ecc89	-0.17070211
13	0xbd1a084a	-0.03760556
14	0x3dcea884	0.100907356
15	0xbde9c30c	-0.11414155
16	0x3e328bf5	0.17436202
17	0xbc216633	-0.009851026
18	0x3e06cdaf	0.131644
19	0x3da6b7e9	0.08140547
20	0x3d8ce5a8	0.06879741
21	0xbb841777	-0.0040311175
22	0x3d55de58	0.052213997
23	0xb7a79b10	-1.9980158e-05
24	0xaaefc0a0	-4.258859e-13
25	0x3df04129	0.11731178
26	0x3dba8006	0.0910645
27	0xb527631c	-6.235657e-07
28	0xbd1c66e9	-0.03818408
29	0xbe456b0e	-0.1927912
30	0x3d4af8ca	0.04955367
31	0x3cebce24	0.028784819
32	0x3e8b6f1b	0.27233204
33	0x3d8ccc29	0.06874878
34	0xba2dc35f	-0.0006628539
35	0x0000e0b7	8.0612e-41
36	0xb0c17ad4	-1.4077508e-09
37	0xac26bf12	-2.3696084e-12
38	0xb647d68b	-2.9778191e-06
39	0xb6a35fb0	-4.868918e-06
40	0x3e861c58	0.261935
41	0x3e82ed8e	0.25571865
42	0x3d50cb49	0.050975118
43	0xa1d82f87	-1.464931e-18
44	0xa3478941	-1.0816876e-17
45	0x3e55694d	0.2084095
46	0xbe833afe	-0.25630945
47	0x3ce97e35	0.028502563
48	0xbddbf643	-0.1074033
49	0x3d438ca8	0.047741562
50	0x3bcfbd0c	0.006339675
51	0xa55e39ca	-1.927501e-16
52	0xbc57de3d	-0.013175544
53	0x3d15c091	0.0365606
54	0xba3de017	-0.000724317
55	0xa060a220	-1.9027181e-19
56	0x3e2d17b4	0.16903573
57	0xbaee95aa	-0.0018202562
58	0x3e400e35	0.1875542
59	0x3ccd59df	0.025067268
60	0xbb25ebb7	-0.00253175
61	0x3dc334ae	0.09531532
62	0x3e176e63	0.14788203
63	0xba8cc301	-0.0010739268
64	0x3e065109	0.1311685
65	0xbc275fb1	-0.010215686
66	0xbac7a71e	-0.00152323
67	0x3d882ff7	0.066497736
68	0x3d2345a1	0.039861325
69	0xa9a84dd4	-7.4742e-14
70	0xbd39ab8d	-0.04532962
71	0x3ddccc14	0.10781112
72	0x3e2cc438	0.16871727
73	0xbc1a7046	-0.009426182
74	0xbc2f10cd	-0.010685158
75	0xb58f610c	-1.0682575e-06
76	0x3d5163ad	0.05112045
77	0x0004a4d5	4.26473e-40
78	0x80012cdb	-1.07927e-40
79	0x00050c20	4.63527e-40
80	0xbacf90af	-0.0015835966
81	0xbd201bc7	-0.03908899
82	0x3ebe96c8	0.37224412
83	0x3e06467c	0.13112825
84	0x3ce5bbff	0.028043745
85	0x3e600fcb	0.21881025
86	0xb9477d5a	-0.00019024816
87	0xba4ab7da	-0.00077330845
88	0x3d231c2c	0.03982179
89	0x3d916820	0.070999384
90	0x3c332f82	0.01093662
91	0xbc253379	-0.010083073
92	0xaf9509f5	-2.7110017e-10
93	0x3e0db1c3	0.13837342
94	0x3e0e5fbe	0.1390371
95	0xbb871189	-0.0041219634
96	0x3e053aaf	0.13010667
97	0x3dc0503e	0.09390305
98	0xbb8a774e	-0.004225648
99	0xb97c33c3	-0.00024051876
100	0x3e12d7c5	0.14340122
101	0xa9dfc89d	-9.93799e-14
102	0x3e44e221	0.19226886
103	0x3e5ee5eb	0.21767394
104	0xbe0bdc93	-0.13658361
105	0x80028626	-2.31794e-40
106	0x3e897b0c	0.2685169
107	0x3e58b116	0.21161303
108	0xbcaea7ef	-0.021320311
109	0x3dabc498	0.08387107
110	0xb88764ba	-6.4560634e-05
111	0xbac6addd	-0.0015158016
112	0xbc889b14	-0.01667551
113	0x3cea8481	0.028627636
114	0xba583535	-0.00082476746
115	0xbddd62b7	-0.10809844
116	0x8003ede3	-3.60844e-40
117	0xbc0b8923	-0.008516583
118	0x3dcb0958	0.099138916
119	0xbd0ef1ce	-0.03489857
120	0xb3b79588	-8.548801e-08
121	0xae72ef8b	-5.5237186e-11
122	0x3e4ff360	0.20307684
123	0x3def8ec0	0.11697149
124	0x3ad7e9c4	0.0016472866
125	0x3de626f7	0.11237901
126	0x3d515e13	0.051115107
127	0xbadfdb74	-0.0017078952

layers.2.weight f4 [128, 128]
0	0xbc1a2e3d	-0.009410438
1	0x00065582	5.81687e-40
2	0xb165f8ab	-3.3465237e-09
3	0x0f241424	8.089703e-30
4	0xbe238a2a	-0.15970674
5	0x3e1ace50	0.15117764
6	0x3e057310	0.13032174
7	0x3eb3d293	0.35121593
8	0xbb908202	-0.0044100294
9	0x80075c34	-6.75925e-40
10	0x3da1c15d	0.07898209
11	0x23dc6574	2.3895415e-17
12	0x3e9ee5f3	0.31034812
13	0xbf615f5e	-0.88036144
14	0xbed97b96	-0.424771
15	0x3e589805	0.21151741
16	0x3ed0b072	0.40759617
17	0xb9d9e7db	-0.0004156221
18	0xbbf32e56	-0.007421295
19	0xbe12e577	-0.14345346
20	0x3de2c70b	0.11073121
21	0xbb1e84aa	-0.002418796
22	0xbd966263	-0.073429845
23	0xbad3de55	-0.0016164283
24	0x3592a1bf	1.0924922e-06
25	0x3c3e2a0c	0.011606704
26	0x3ecbea1d	0.39827052
27	0xba68ec77	-0.00088853337
28	0xbcfb66f1	-0.030688735
29	0xbea473c1	-0.32119563
30	0x3cffdac5	0.031232247
31	0xbcc37ae9	-0.023862319
32	0x3e7bf9cd	0.2460701
33	0xbebb6f48	-0.36608338
34	0xbb285706	-0.0025686636
35	0x00005baf	3.289e-41
36	0x37ce99b1	2.4628682e-05
37	0xb28610b9	-1.5607258e-08
38	0xb2ee6541	-2.7752892e-08
39	0x3ad965c4	0.0016586115
40	0x3e102f6e	0.14080593
41	0x3e51f73c	0.20504469
42	0xbe12f8c5	-0.1435271
43	0x314b6cdd	2.960227e-09
44	0xb32edaeb	-4.0711637e-08
45	0x3e3b175b	0.18270628
46	0xbeeb1b12	-0.4591909
47	0x3d7c9a7a	0.061670758
48	0x3ea5b8fc	0.32367694
49	0xbe01bb1e	-0.12669036
50	0x3c4ed9fa	0.012625212
51	0x9fc3229b	-8.264296e-20
52	0x3c27dad2	0.010245042
53	0xbcaba51c	-0.020952754
54	0x25893552	2.3801843e-16
55	0x0004378e	3.87271e-40
56	0x3ea4cf62	0.3218947
57	0x3bc877c7	0.006117794
58	0xbdcb2df5	-0.09920875
59	0x3fa77aa5	1.3084303
60	0x3c066a78	0.008204095
61	0xbe07dc05	-0.13267525
62	0xbe1bc7be	-0.15212914
63	0xbc844204	-0.01614476
64	0xbd9d9429	-0.07694275
65	0xbe3d5a3b	-0.18491451
66	0x39cbee59	0.0003889676
67	0x3d012e3e	0.03153824
68	0xbc576ae3	-0.013148042
69	0xba93f66f	-0.0011288653
70	0x3ecac057	0.3959987
71	0xbf1aa8f0	-0.6041403
72	0x3ea513c9	0.32241657
73	0x3c72147e	0.0147753935
74	0x3badcc23	0.005303876
75	0x3971656f	0.00023021338
76	0x3d0495a8	0.032369286
77	0x2d1fe33c	9.08856e-12
78	0xadcece94	-2.3511228e-11
79	0x80065b89	-5.8385e-40
80	0x3b6880ba	0.0035477118
81	0xbe79fe88	-0.24413502
82	0x3e2dc5c8	0.16969979
83	0xbd03adf3	-0.032148313
84	0xbd339478	-0.043842763
85	0x3e091d39	0.13390054
86	0xbb67f51f	-0.0035393906
87	0xb7faeb8d	-2.991201e-05
88	0x3dd13d5b	0.10216781
89	0xbe22254f	-0.15834545
90	0xbe3bd49a	-0.1834282
91	0x3c6306dd	0.013856617
92	0xb54f3ab4	-7.7198933e-07
93	0x3d8e560e	0.069500074
94	0x3f00c817	0.5030531
95	0xbca4282f	-0.020038692
96	0x3eaf0811	0.34185842
97	0x3b7f0b2c	0.003891657
98	0xbe27d5fb	-0.16390221
99	0x37bf0f86	2.2776203e-05
100	0x3f106f74	0.56420064
101	0x310cdf17	2.0499493e-09
102	0x3eb23446	0.34805506
103	0x3e4f2f98	0.20233
104	0x3e4b1e39	0.19835748
105	0x25580f8c	1.8740281e-16
106	0x3e84076b	0.2578691
107	0x3e903d25	0.2817165
108	0x3e80075f	0.25005624
109	0x3ca4c72d	0.020114506
110	0x3a213670	0.00061497744
111	0xba2e7e8f	-0.0006656432
112	0xbe038ce9	-0.12846722
113	0x3edeafa3	0.43493375
114	0xbc057b99	-0.008147144
115	0xbf37d44d	-0.7180832
116	0x21e1b2fd	1.5293971e-18
117	0x3c0a565a	0.008443439
118	0x3e8f59f8	0.27998328
119	0xbd8cbdd9	-0.06872148
120	0x2826a956	9.25157e-15
121	0xb639c22f	-2.7680178e-06
122	0xbeee59b8	-0.46552825
123	0xbe00ccb2	-0.12578085
124	0xbd8f47a1	-0.06996084
125	0xbd2edfac	-0.04269378
126	0xbe78423d	-0.24244018
127	0x3b4df144	0.0031424323
128	0x3c3975bc	0.011319574
129	0x0004c382	4.37477e-40
130	0x183547c1	2.3429928e-24
131	0x0006fd1a	6.41809e-40
132	0x3df4c493	0.11951556
133	0xbe813cc8	-0.25241685
134	0xbe23efe6	-0.16009483
135	0x3e5f9bff	0.21836852
136	0x3b758649	0.0037464073
137	0x8007255a	-6.56248e-40
138	0xbdf268f9	-0.11836428
139	0x9a1bef79	-3.2246693e-23
140	0x3e202067	0.1563736
141	0x3e863360	0.2621107
142	0x3c3e3490	0.011609212
143	0x3e0a4e9f	0.13506554
144	0xbe5de1e6	-0.21668205
145	0xbb6f701b	-0.0036535326
146	0xbe729abe	-0.23691842
147	0x3da838e2	0.082139745
148	0x3c4cf4e4	0.012509558
149	0xbb0aa819	-0.0021157323
150	0xbd7c99d0	-0.061670125
151	0xb8f7be51	-0.00011813327
152	0xb12d59bd	-2.5225824e-09
153	0x3cfde8fe	0.030994888
154	0x3e51cfb5	0.2048939
155	0x3a537267	0.00080660585
156	0x3b513aab	0.0031925838
157	0x3e91941c	0.2843331
158	0x3d8ea569	0.06965143
159	0xbe04d983	-0.12973599
160	0xbdc66cee	-0.096887454
161	0x3f268729	0.6504999
162	0x3884c4c4	6.330901e-05
163	0x8003839e	-3.22722e-40
164	0x351ed3a1	5.916755e-07
165	0xb2d11ea1	-2.434473e-08
166	0x156fa85d	4.839848e-26
167	0xb852d1d7	-5.026333e-05
168	0xbc161310	-0.009159818
169	0x3e79e996	0.24405512
170	0x3e05d134	0.13068086
171	0xa38b52e7	-1.510552e-17
172	0x310a1b2a	2.0097084e-09
173	0xbe087c17	-0.13328587
174	0xbc17a9ae	-0.009256763
175	0x3d4b612c	0.049653217
176	0x3f03cdb8	0.51485777
177	0xbde42d74	-0.11141482
178	0xbf14cdaf	-0.5812635
179	0x311689d8	2.1906228e-09
180	0xbcae72cc	-0.021294974
181	0x3cddb5e9	0.02706428
182	0x2f5f21d5	2.0293751e-10
183	0x1c820f9e	8.606715e-22
184	0xbcefaa73	-0.029256081
185	0xba268b07	-0.0006353114
186	0x3e392709	0.18081297
187	0x3f941ada	1.1570694
188	0xbb51bdf4	-0.003200409
189	0xbeb9abe2	-0.3626395
190	0xbd81ecf8	-0.06344026
191	0x3b731c65	0.0037095782
192	0x3de729ec	0.11287293
193	0x3eed34a4	0.46329224
194	0x39c26ce6	0.000370837
195	0x3bf44690	0.007454701
196	0xbddeaac3	-0.10872414
197	0x3949278e	0.00019183589
198	0xbe27b778	-0.16378582
199	0x3e0760d6	0.13220534
200	0x3ed8c9a5	0.42341343
201	0xbb93661b	-0.004498256
202	0xbc4d51cb	-0.012531708
203	0xb609f6f6	-2.055834e-06
204	0xbd3a250e	-0.045445494
205	0x216fda46	8.126523e-19
206	0x24130ddf	3.1887293e-17
207	0x001dd203	2.738567e-39
208	0x3bad537f	0.0052894945
209	0x3e08d256	0.13361487
210	0xbdb99d73	-0.09063234
211	0x3ea77539	0.3270662
212	0xbd84ce55	-0.06484667
213	0x3de5f27f	0.11227893
214	0x3a073b76	0.00051587017
215	0xb8ae3474	-8.306737e-05
216	0x3c9bf756	0.019038837
217	0xbe68c634	-0.22731858
218	0xbea0f4da	-0.31436807
219	0xbcd65c8d	-0.026167179
220	0xaef65409	-1.12017125e-10
221	0xbeff2e4f	-0.49840018
222	0x3eb1e9f8	0.34748816
223	0x3a5954d5	0.0008290534
224	0xbda0009b	-0.078126155
225	0x3d8438c7	0.06456142
226	0xbe1b83c1	-0.15186979
227	0xb8adf0df	-8.2941486e-05
228	0xbee83d36	-0.453592
229	0x311baa33	2.2652216e-09
230	0xbd582f1b	-0.0527793
231	0x3d3e67f0	0.04648584
232	0x3e5241b5	0.20532878
233	0x2cc98796	5.7278167e-12
234	0xbe4e21c7	-0.20130073
235	0xbd677caf	-0.056515392
236	0x3e33ba42	0.1755152
237	0x3ca2fd17	0.019896073
238	0xb7de2125	-2.6479896e-05
239	0xbcbc09af	-0.022953836
240	0x3d05c341	0.03265691
241	0x3e094afd	0.13407512
242	0x3b405a14	0.0029350566
243	0xbe5cb902	-0.2155495
244	0x907dca1e	-5.0051158e-29
245	0x3a8b7475	0.0010639565
246	0xbe954188	-0.2915156
247	0x3ed269fb	0.41096482
248	0x2991bb2f	6.471765e-14
249	0x316fda9e	3.4903347e-09
250	0xbcb76fdd	-0.022392208
251	0xbe975d3a	-0.29563314
252	0xbdb9f9d6	-0.090808555
253	0xbea1e684	-0.31621182
254	0xbe9c403c	-0.30517757
255	0xbb3253e5	-0.002721065

layers.2.bias f4 [128]
0	0x3dc34d6e	0.09536253
1	0xbe300c4b	-0.1719219
2	0x8edc8199	-5.4358985e-30
3	0xbc52dce6	-0.012870049
4	0xbdc49736	-0.09599154
5	0xbb3c78a7	-0.0028758438
6	0xbd6cd511	-0.057820383
7	0xbc6e1ac9	-0.014532753
8	0xbc1b408f	-0.009475841
9	0xbdb8fb1a	-0.09032269
10	0xbbe253df	-0.006906971
11	0xbe6560ca	-0.22400203
12	0xbc1075e6	-0.008817172
13	0x25eb6c30	4.0839312e-16
14	0xbea37d2d	-0.3193144
15	0x9ba50fa5	-2.730707e-22
16	0xb21d0cf2	-9.141546e-09
17	0x3dd89c09	0.10576636
18	0x3e7dfc56	0.2480329
19	0x3ea88a39	0.32917956
20	0xb59c5b4f	-1.164948e-06
21	0xbbeef205	-0.0072920346
22	0x00120a17	1.656658e-39
23	0x8006ea07	-6.34966e-40
24	0x8fb42fe8	-1.7767823e-29
25	0x3ea9dc81	0.33176044
26	0xbe1a0413	-0.15040617
27	0x3ea148ab	0.31500754
28	0xbce0d791	-0.02744654
29	0x96840982	-2.133175e-25
30	0x00083faa	7.57522e-40
31	0x80057820	-5.0227e-40
32	0xbe142797	-0.14468227
33	0x3e4ba27d	0.19886203
34	0x80066abc	-5.89302e-40
35	0xb1a25017	-4.7239257e-09
36	0x3d4ed478	0.050495595
37	0x3e482b8c	0.19547862
38	0x3de93dc2	0.113887325
39	0xbc1210a0	-0.0089150965
40	0xbde282ab	-0.11060079
41	0xb80e4e22	-3.3928205e-05
42	0xbbd6f774	-0.0065602604
43	0xbe858480	-0.26077652
44	0xba454c27	-0.0007526301
45	0x3d003c39	0.031307433
46	0x00050609	4.61342e-40
47	0xbb7c8ac5	-0.0038534862
48	0x3eac4564	0.3364669
49	0xbd1a0ea7	-0.03761163
50	0x3cb162bc	0.021653526
51	0xb555091d	-7.9361945e-07
52	0xbea98464	-0.3310882
53	0x3e2eb04a	0.17059436
54	0xb02a8ed0	-6.204859e-10
55	0xbbf41686	-0.007448974
56	0xba0293af	-0.0004981113
57	0xbb834124	-0.004005568
58	0x8b71048d	-4.6418335e-32
59	0x0007dc41	7.2186e-40
60	0xbe8abaf0	-0.27095747
61	0xb6fc1cfb	-7.513559e-06
62	0xbd84f0ec	-0.06491265
63	0x3d75849e	0.059940927
64	0xbd010a25	-0.031503815
65	0xbd7456da	-0.05965314
66	0x3d82148c	0.06351575
67	0x3e9b1750	0.30291224
68	0xbe14355e	-0.14473483
69	0x0006acc7	6.12994e-40
70	0x3d985646	0.0743833
71	0xbe5fc116	-0.21851
72	0x9a47a15a	-4.1282574e-23
73	0x8c7ba7a5	-1.9386785e-31
74	0xbb3209f6	-0.0027166582
75	0x00006007	3.4448e-41
76	0xbc2f2d6e	-0.010691984
77	0xbaf6ae9f	-0.0018820352
78	0x3d5af617	0.053457346
79	0xbe66d3f8	-0.22541797
80	0xb8c520c9	-9.399799e-05
81	0x3e6fbf74	0.23412877
82	0x3e55e916	0.20889696
83	0xbe05faf2	-0.1308401
84	0x8001235c	-1.0452e-40
85	0x3cb89067	0.022529794
86	0x3eb4633e	0.35231966
87	0x00003fcd	2.2887e-41
88	0x3ea74d27	0.3267605
89	0xba3a9dfa	-0.0007118877
90	0xace4f505	-6.5073524e-12
91	0x3eaa7a6d	0.33296528
92	0xbcdc8396	-0.026918214
93	0x3d298635	0.041387755
94	0xbe9aa50d	-0.3020405
95	0xbc10ddc3	-0.008841935
96	0xbe2f377f	-0.17111014
97	0x3e1f9156	0.15582785
98	0xbd7f1eb3	-0.062285136
99	0xbeaccf3e	-0.33751863
100	0x3e0f83d6	0.14015135
101	0x8007cf90	-7.17308e-40
102	0x3e36e967	0.17862473
103	0xbe8dade4	-0.2767173
104	0x8000892e	-4.9211e-41
105	0xb92307e0	-0.00015547825
106	0x8001c3d9	-1.62092e-40
107	0x3e965880	0.29364395
108	0x3e91f675	0.28508344
109	0x3d928654	0.07154527
110	0x3db5338b	0.08847722
111	0x3e1ca961	0.15298988
112	0xbc078651	-0.00827177
113	0x3e2a0c24	0.16606194
114	0xbadfd6fb	-0.0017077619
115	0xb3d0c80e	-9.7221445e-08
116	0x80046299	-4.02712e-40
117	0x3e18c24d	0.1491787
118	0x3e03196f	0.12802671
119	0x8007512a	-6.71965e-40
120	0x3e149348	0.14509308
121	0x3c83982d	0.016063774
122	0x3ea98e06	0.33116168
123	0xb8e3f143	-0.00010869142
124	0xbd7e729c	-0.06212102
125	0x3def2c07	0.116783194
126	0xbc12489d	-0.008928445
127	0xbeaf2950	-0.34211206

layers.3.weight f4 [251, 128]
0	0xbe5d2958	-0.21597803
1	0xbe811e7b	-0.25218567
2	0xbaad6e8e	-0.00132318
3	0x3c2aa361	0.010414929
4	0xbe040c7f	-0.12895392
5	0x3c0b9274	0.008518804
6	0xbf49cac9	-0.7882505
7	0xbefcfc74	-0.49411356
8	0xbbc22503	-0.0059248223
9	0xbebb016a	-0.36524516
10	0x3c6f44e7	0.01460383
11	0xbd330f41	-0.04371572
12	0x3c69d854	0.014272768
13	0x3b6c6549	0.0036071113
14	0x3dca18d4	0.09868017
15	0x3998b2b6	0.0002912485
16	0xbbae75ed	-0.0053241164
17	0x3e1f4412	0.1555331
18	0xbdbb6d9d	-0.091517664
19	0xbec5843f	-0.38577458
20	0xb5b6fc64	-1.3633512e-06
21	0xbc8df79f	-0.017329989
22	0x3984678b	0.00025254147
23	0xa920a241	-3.566787e-14
24	0x3ad19c59	0.001599203
25	0xbd176278	-0.03695914
26	0xbd00702b	-0.03135697
27	0x3db77631	0.0895809
28	0x3e00dd61	0.1258445
29	0xba2391da	-0.000623969
30	0x80079322	-6.9563e-40
31	0x38136962	3.5145677e-05
32	0xbe086d67	-0.13322984
33	0xbdae014c	-0.08496341
34	0xafc816dc	-3.639603e-10
35	0x3bec32d5	0.007208208
36	0xbc0674a5	-0.008206521
37	0xbf045838	-0.5169711
38	0x3d96efc7	0.07369953
39	0xbb2f2f18	-0.002673095
40	0xbef49c66	-0.47775573
41	0x3b799328	0.0038082097
42	0xbbbe2457	-0.005802672
43	0xbfd37135	-1.6518923
44	0xbc5e1e40	-0.013557017
45	0xbe131f66	-0.14367446
46	0x80049a40	-4.22676e-40
47	0x3be36e26	0.006940621
48	0x3dcb3b32	0.099234
49	0xbed1202c	-0.40844858
50	0xbd836a4f	-0.06416761
51	0xbb2b702e	-0.0026159394
52	0xbebecf92	-0.3726774
53	0xbdec7e61	-0.11547542
54	0x3b6f3360	0.0036499128
55	0xbb238170	-0.0024948977
56	0xbc13bf54	-0.009017784
57	0xbc0163cf	-0.007897331
58	0xba041719	-0.0005038842
59	0x2ba69288	1.183568e-12
60	0x32ce0f8e	2.398863e-08
61	0x3b4e0a14	0.0031439112
62	0x3e0a81c5	0.13526066
63	0xbe38562f	-0.18001626
64	0x3e39ca83	0.18143658
65	0x3deaac7f	0.11458682
66	0xba946441	-0.0011321382
67	0xbe01cd58	-0.12675989
68	0xbed13545	-0.40860954
69	0x80004911	-2.6211e-41
70	0xbd9ded59	-0.07711286
71	0x3b794996	0.0038038245
72	0x377f03d4	1.5200076e-05
73	0x38f0955d	0.00011471913
74	0xbbe88751	-0.007096209
75	0xb64ff964	-3.0990568e-06
76	0xbbf3c51e	-0.0074392697
77	0xbc0fe987	-0.008783705
78	0xbe6123f0	-0.21986365
79	0xbfaead5c	-1.3646655
80	0xb869f851	-5.578279e-05
81	0xbe507f8b	-0.20361154
82	0xbdfe3f33	-0.12414398
83	0xbeaa4b8d	-0.33260766
84	0x3845f968	4.7200738e-05
85	0xbddfcdc0	-0.109279156
86	0xbefe4409	-0.49661282
87	0xb1ee068b	-6.9274555e-09
88	0xbe3ebeff	-0.18627547
89	0xbbeb4eeb	-0.0071810386
90	0x3b94814b	0.0045320145
91	0xbd86ec1c	-0.06588003
92	0xbf6b7c4d	-0.9198654
93	0xbe02acef	-0.12761281
94	0xbef1ea76	-0.47249192
95	0xbc562cc3	-0.013072195
96	0xbebceb76	-0.36898392
97	0xbe6558f4	-0.22397214
98	0xbea99688	-0.3312266
99	0x18d0aff7	5.394442e-24
100	0xbe0eda97	-0.13950573
101	0x3613df68	2.2034747e-06
102	0xbd4f8b91	-0.05067021
103	0x3e066914	0.13126022
104	0x00062739	5.65083e-40
105	0x3addb96d	0.0016916223
106	0xb9c5e9ad	-0.0003774887
107	0xbc2b15b2	-0.010442184
108	0x3eb151e5	0.34632793
109	0x3cee3031	0.029075714
110	0x3bd02b7d	0.0063528405
111	0xbf4d1614	-0.80111814
112	0xba4da0ec	-0.00078441086
113	0xbd8ed342	-0.06973888
114	0x3c364653	0.011125165
115	0xbbc33cdb	-0.0059581823
116	0xb511448f	-5.4116475e-07
117	0xbead9a7f	-0.33906934
118	0xbd7cf3f2	-0.061756082
119	0x8eb3c884	-4.4319996e-30
120	0x3f3eb667	0.74497074
121	0xbf64364e	-0.8914536
122	0xbe63cde0	-0.22246504
123	0x3b16023e	0.002288952
124	0xbfc4ceaa	-1.5375569
125	0xbd2d1f13	-0.042265963
126	0xbdceb369	-0.100928135
127	0xa85ef5d1	-1.23767785e-14
128	0xbe05ad5c	-0.13054413
129	0xbe3b76b7	-0.18307005
130	0x3b86ad68	0.004110027
131	0xbcdb0bcf	-0.02673903
132	0xbe2fac83	-0.17155652
133	0xbb867219	-0.004102957
134	0x3ef556a0	0.47917652
135	0xbe46f54d	-0.19429512
136	0x3b89ce3e	0.004205494
137	0x3e9a5444	0.30142415
138	0x3b6b5969	0.0035911447
139	0xbdd22dc7	-0.102626376
140	0x3c302048	0.010749884
141	0xbc03681f	-0.00802043
142	0x3e205407	0.15657054
143	0x39908c54	0.00027570373
144	0x3b91e63f	0.0044524963
145	0xbe7342ac	-0.23755902
146	0xbeb429ed	-0.35188237
147	0xbf09069b	-0.53525704
148	0x35e10649	1.6765636e-06
149	0xbbfd5355	-0.007730881
150	0x3b6cc339	0.0036127104
151	0xad9ddf59	-1.794802e-11
152	0xbaf529e3	-0.00187045
153	0xbd76ba7a	-0.06023643
154	0x3e705318	0.23469198
155	0xbea7bb29	-0.3275998
156	0xbdabb5dc	-0.08384296
157	0x3b9f6af1	0.0048650433
158	0x0006d85e	6.28631e-40
159	0xb5807ba6	-9.57273e-07
160	0x3e52d364	0.20588452
161	0xbe87b591	-0.26505712
162	0xb43a6dd1	-1.7362551e-07
163	0x3bd6e0a1	0.0065575396
164	0xbe259506	-0.16170129
165	0xbea30853	-0.31842288
166	0xbea9dc31	-0.33175805
167	0x3c1cd8b9	0.009573155
168	0x3e81136a	0.25210124
169	0x3b060591	0.0020450095
170	0xbc5f7a99	-0.013640069
171	0x3e2c21d1	0.16809775
172	0xbb42e782	-0.002974004
173	0xbe389d7a	-0.18028823
174	0x00057cbe	5.03927e-40
175	0x3ba24ff8	0.0049533807
176	0xbec3c83f	-0.38238713
177	0xbe842737	-0.2581117
178	0x3ba17cec	0.004928222
179	0xbb119fcf	-0.0022220497
180	0x3e907041	0.28210643
181	0xbdbcab56	-0.09212367
182	0xb9eee1be	-0.00045563088
183	0x3adc23a3	0.0016795289
184	0x3ab31c93	0.0013665132
185	0xbc24dd46	-0.010062521
186	0x3b28e123	0.0025768958
187	0x371057c4	8.603503e-06
188	0x3d40a404	0.047031417
189	0xb9f7a1de	-0.00047232112
190	0x3dfb8068	0.12280351
191	0xbe32bce5	-0.1745487
192	0xbc0ec2ee	-0.008713467
193	0xbe410979	-0.1885127
194	0xbe3252dc	-0.17414421
195	0xbf015958	-0.5052695
196	0x3e5f8b82	0.21830562
197	0x00010d4b	9.6604e-41
198	0x3d629a0c	0.05532269
199	0x3f0b99d3	0.5453159
200	0xb997b67e	-0.00028936932
201	0xb82c10ee	-4.1023763e-05
202	0xbb8f45b9	-0.0043723253
203	0xba96d3c4	-0.0011507203
204	0xbb3ebc61	-0.0029103982
205	0x3bc3d4d3	0.0059762984
206	0xbe6475e6	-0.223106
207	0x3dac621a	0.08417149
208	0xbc84dda8	-0.016218975
209	0xbe1f69d8	-0.1556772
210	0xbe862ea3	-0.26207456
211	0xbe301ffe	-0.17199704
212	0x39a51aaa	0.0003149112
213	0xbdaed3fd	-0.08536527
214	0xbd7d7b48	-0.06188515
215	0xb96aad60	-0.00022380566
216	0xbec16420	-0.37771702
217	0x3a79ed69	0.0009533973
218	0xbb4bcaaf	-0.003109615
219	0xbf1c935e	-0.61162364
220	0x3c3dca72	0.011583911
221	0xbe963ebb	-0.29344735
222	0x3e7fe483	0.24989514
223	0x3b6eb66f	0.0036424657
224	0x3eb32a8b	0.34993395
225	0xbef86114	-0.48511565
226	0xbdea4b64	-0.11440161
227	0x3f79bb5e	0.97551525
228	0xbeba3a87	-0.36372778
229	0xb7bfdbe2	-2.2871365e-05
230	0xbeba20e1	-0.3635321
231	0x3e8ee0fd	0.27906027
232	0x8000e467	-8.1935e-41
233	0x3be4b696	0.0069797738
234	0x3a65cbff	0.00087660545
235	0xbdcc3be8	-0.09972364
236	0xbf83cf05	-1.0297552
237	0x3e0ba972	0.13638857
238	0x3e1627c8	0.14663613
239	0xbd1449af	-0.036203083
240	0x3bef146a	0.0072961347
241	0xbe072883	-0.13199048
242	0x3b81b711	0.003958591
243	0x3afa82aa	0.0019112427
244	0xb9c3d187	-0.00037349408
245	0xbdec714a	-0.11545046
246	0xbdb1fc7b	-0.08690735
247	0x32d98b56	2.5325487e-08
248	0xbe90f898	-0.28314662
249	0x3eaf1f4d	0.34203568
250	0xbf24108f	-0.64087766
251	0xbb84610b	-0.0040398887
252	0x3d10a460	0.03531301
253	0xbe2dd9be	-0.16977593
254	0xbd3c0a3f	-0.04590821
255	0x3f2d37a8	0.6766305

layers.3.bias f4 [251]
0	0x3e16f10f	0.14740394
1	0xbf965a4e	-1.1746309
2	0x3e5bc8bc	0.21463293
3	0xbc97ab10	-0.018514186
4	0xbd0e2321	-0.03470147
5	0xbec5b1b0	-0.38612127
6	0xbd90e81d	-0.07075522
7	0x3d64c524	0.05585207
8	0x3ce8d2e3	0.028420871
9	0xbcc5b1c8	-0.024132624
10	0xbd7112df	-0.058855888
11	0xbe03f42d	-0.12886114
12	0xbdbd1b3c	-0.0923371
13	0xbd2fbf48	-0.04290703
14	0xb9bbaf61	-0.00035798087
15	0xbe49586a	-0.19662634
16	0x3d11770f	0.035513934
17	0xbd1bc7ab	-0.038032215
18	0xbd4d95e9	-0.050191794
19	0xbd893bbb	-0.06700846
20	0x3d9533d1	0.07285274
21	0xbcb7dfc5	-0.022445569
22	0xbd497305	-0.049181957
23	0xbd154cdc	-0.036450252
24	0xbdabf443	-0.083961986
25	0xbe12cf22	-0.14336827
26	0xbdb38dbd	-0.08767269
27	0x3d1009e9	0.0351657
28	0xbd12ebfa	-0.035869576
29	0xbce9d5f8	-0.028544411
30	0x3c86f2bb	0.016473165
31	0xbe4fc7c8	-0.20291054
32	0xbd9f9645	-0.077923335
33	0xbe0c0079	-0.13672055
34	0xbda06ccb	-0.078332506
35	0xbdc0e34a	-0.09418352
36	0xbe2b0be9	-0.16703762
37	0xbda6f0ec	-0.08151421
38	0xbe2bdd5a	-0.16783658
39	0x3d06019d	0.032716382
40	0xbd2a09fe	-0.041513436
41	0xbdc27237	-0.09494441
42	0x3d0b02a7	0.033938076
43	0x3d5ef609	0.054433856
44	0x3e0b268c	0.13588923
45	0xbdbf6424	-0.09345272
46	0x3d270c37	0.040783133
47	0xbe710703	-0.23537831
48	0xbe88466a	-0.26616222
49	0xbd9b6ad0	-0.07588732
50	0x3d8216a8	0.063519776
51	0xbd1e00e3	-0.038575064
52	0xbddc3492	-0.107522145
53	0x3b8824c2	0.0041547725
54	0xbce4e1a1	-0.02793962
55	0x3bc87a24	0.006118076
56	0xb9896bd2	-0.0002621101
57	0xbd4cde38	-0.05001661
58	0xbcb178f2	-0.021664117
59	0x3b9ca7b2	0.004780733
60	0xbcff2189	-0.03114392
61	0xbe09975d	-0.13436647
62	0xbd91cd20	-0.071192026
63	0x3caf5a13	0.021405255
64	0xbd210ab3	-0.039316844
65	0xbdd3b58e	-0.10337363
66	0xbb69ea8a	-0.0035692775
67	0xbd99db70	-0.075125575
68	0x3e05c7a1	0.13064434
69	0xbde65f28	-0.11248618
70	0xbb990286	-0.0046694903
71	0x3d10cfeb	0.035354536
72	0xbdc693ab	-0.09696134
73	0xbc585939	-0.013204866
74	0xbcd15180	-0.025551558
75	0xbd864ca6	-0.06557588
76	0xbd0dcf5b	-0.034621578
77	0xbd0db896	-0.034599863
78	0x3d25ef0c	0.040511176
79	0xbd9db7ab	-0.077010475
80	0xbd783a38	-0.060602397
81	0x3aea0b52	0.0017856157
82	0xbd2c3085	-0.04203846
83	0xbcb13017	-0.021629376
84	0x3d6467a6	0.05576291
85	0xbd76830e	-0.060183577
86	0xbb251b41	-0.0025193247
87	0xbcedb515	-0.02901701
88	0x3ced65b2	0.028979156
89	0xbc4a0b31	-0.01233177
90	0xbd2eed90	-0.042707026
91	0xbd3e3f9e	-0.04644739
92	0xbdd3c470	-0.10340202
93	0x3c97cf31	0.018531414
94	0x3bf2078a	0.0073861526
95	0x3c24cbc1	0.010058344
96	0xbd6e7e3f	-0.058225866
97	0xbd226c82	-0.039654262
98	0xbd567ad3	-0.052363228
99	0xbdcb7d2c	-0.09935984
100	0x3d0b4670	0.03400272
101	0xbd94fdc4	-0.072749645
102	0xbb4342ab	-0.0029794376
103	0x3c9a7486	0.01885439
104	0xbcc69fd0	-0.024246126
105	0x3d4366cc	0.047705457
106	0x3d4f203b	0.050567847
107	0xbd39306e	-0.0452122
108	0xbb5b0c2f	-0.003342401
109	0xbc8b1cb2	-0.016981456
110	0xbd560464	-0.05225028
111	0xbd64b54b	-0.055836957
112	0xbd455962	-0.048180945
113	0x3ca9fefb	0.020751467
114	0xbcd4c9ca	-0.025975127
115	0xbcfa883c	-0.03058254
116	0x3d63454a	0.055486
117	0xbd436c60	-0.047710776
118	0xbd780abf	-0.060557123
119	0x3c2132eb	0.0098388
120	0x3c1df570	0.009641036
121	0xbd80b65c	-0.06284782
122	0xbceb1d98	-0.028700635
123	0xbda42737	-0.08015292
124	0xbdeb9fc3	-0.115050815
125	0xbd056825	-0.032570023
126	0xbd69ae2a	-0.05705086
127	0xbc17e066	-0.009269809
128	0x3be1dd6d	0.006892851
129	0xbd6919cf	-0.05690938
130	0xbbe737ce	-0.007056213
131	0xbd21f8a6	-0.03954377
132	0xbd05375c	-0.032523498
133	0xbd78386c	-0.060600683
134	0xbd76beb6	-0.06024047
135	0x3c18880d	0.009309781
136	0xbd20d0ce	-0.03926163
137	0xbd904d4f	-0.070459954
138	0xbdbaf7c0	-0.09129286
139	0xbd944f9d	-0.072417475
140	0xbd0e6a8d	-0.034769583
141	0xbd09599e	-0.03353273
142	0xbd2b9124	-0.041886464
143	0xbd8affac	-0.06787047
144	0xbd048d0b	-0.03236107
145	0xbc74b500	-0.014935732
146	0xbd57dfcb	-0.05270366
147	0xbd010055	-0.031494457
148	0xbda5624f	-0.080753915
149	0xbd495250	-0.049150765
150	0xbc920bbf	-0.017827867
151	0xbcfd0d63	-0.030890172
152	0xbd3b6925	-0.04575457
153	0xbc175740	-0.009237111
154	0x3d8c1dcb	0.0684162
155	0xbd311149	-0.043229375
156	0xbd21259a	-0.0393425
157	0xbd91b6a4	-0.07114914
158	0x3ca03ad1	0.019559296
159	0xbd476316	-0.04867848
160	0xbcb928ff	-0.022602556
161	0xbd69a86c	-0.057045385
162	0xbd3e4e8d	-0.04646163
163	0xbd8fccb7	-0.07021468
164	0xbd06e3d3	-0.032932114
165	0xbd0eee8c	-0.034895465
166	0xbd19326c	-0.0374016
167	0xbcfb13fa	-0.030649174
168	0x3d159a41	0.03652406
169	0x3bb8a2d8	0.005634647
170	0xbd64b81b	-0.05583964
171	0xbd4e24bf	-0.050328013
172	0xbd27725c	-0.040880546
173	0xbd830aa1	-0.06398512
174	0xbd221bf1	-0.03957743
175	0xbd63fa52	-0.055658646
176	0x3c51e8b3	0.0128118275
177	0xbca35930	-0.019939989
178	0xbd1e5f1b	-0.03866492
179	0xbd839ffc	-0.06426999
180	0xbd5372ed	-0.051623274
181	0xbd2ec856	-0.042671524
182	0xbbb98737	-0.005661871
183	0xbc8b418a	-0.016999025
184	0xbd302e58	-0.043012947
185	0xbd2ac9d8	-0.0416964
186	0xbd6f3923	-0.0584041
187	0xbcc6d276	-0.024270277
188	0xbd29f1b0	-0.041490257
189	0xbd6304e4	-0.055424586
190	0xbcbd0de0	-0.023077905
191	0xbd43cf28	-0.04780498
192	0xbd55a880	-0.052162647
193	0x3ccd8e99	0.02509241
194	0xbd87f0b9	-0.06637711
195	0xbd537870	-0.05162853
196	0xbd5c31a3	-0.053758275
197	0xbd9a1b85	-0.0752478
198	0xbd6d2a29	-0.057901535
199	0xbd5bd538	-0.053670138
200	0xbd73b906	-0.059502624
201	0xbd0e4cf6	-0.034741364
202	0xbd7c8fdc	-0.061660632
203	0xbd2ae141	-0.041718725
204	0xbd346935	-0.044045646
205	0xbd85b1ce	-0.06528054
206	0x3caa3fbc	0.020782344
207	0xbd8dc26b	-0.06921848
208	0xbd28d2c3	-0.041216623
209	0xbd4cad13	-0.049969744
210	0xbd45212b	-0.048127335
211	0xbd628439	-0.05530188
212	0x3c5276fa	0.012845749
213	0xbd564556	-0.052312218
214	0xbd54c567	-0.05194607
215	0xbd636f18	-0.05552587
216	0xbd4fa837	-0.05069753
217	0xbd25d739	-0.040488455
218	0xbd38a82c	-0.045082256
219	0xbd416f97	-0.04722556
220	0xbd83223d	-0.06403015
221	0xbd8a641d	-0.06757376
222	0xbd3583ef	-0.044315275
223	0xbd3ca11b	-0.04605208
224	0xbd747444	-0.059681192
225	0xbcb8cca9	-0.022558527
226	0xbd882e17	-0.06649416
227	0xbd374ab0	-0.044748962
228	0xbd7ce485	-0.06174137
229	0xbd5c455f	-0.053777095
230	0xbd4c9392	-0.04994542
231	0xbd0656df	-0.03279769
232	0xbd8097a9	-0.06278927
233	0xbd5508ad	-0.052010227
234	0xbd8413c8	-0.064490855
235	0xbd8e2b4e	-0.069418535
236	0xbd7990b3	-0.06092901
237	0xbd5ebc41	-0.05437875
238	0xbd5e3254	-0.054247215
239	0xbd4de6cf	-0.050268944
240	0xbd436ad8	-0.047709316
241	0xbd313141	-0.043259863
242	0xbce2e003	-0.027694708
243	0xbd5bda3b	-0.053674918
244	0xbd97840c	-0.07398233
245	0xbd5eeded	-0.054426122
246	0xbd2ef4b8	-0.04271385
247	0xbd6163f0	-0.05502695
248	0xbd6444ff	-0.055729862
249	0xbd7163c9	-0.058933053
250	0xbd663c89	-0.056210075
