models/MPC_horizon_8_obs_6.pt (torch_old, 638545 bytes, 8 tensors)

layers.0.weight f4 [128, 38]
0	0xa6f4ea84	-1.6994467e-15
1	0xad53928f	-1.2026504e-11
2	0x0348559b	5.887299e-37
3	0x03ec6ac3	1.3895345e-36
4	0xb3d89061	-1.0084546e-07
5	0xa92cb1c5	-3.8345863e-14
6	0x042896aa	1.9817487e-36
7	0x043c16af	2.210971e-36
8	0xa42ca2b1	-3.743436e-17
9	0x091a6c68	1.8588048e-33
10	0xb31d9bcd	-3.669611e-08
11	0xaddc86ec	-2.5071022e-11
12	0xb3f57a44	-1.14309415e-07
13	0xae081291	-3.093931e-11
14	0xaaf60fec	-4.3709426e-13
15	0xa48c182f	-6.075629e-17
16	0xb47bd750	-2.3454527e-07
17	0xb1f7e03e	-7.2141395e-09
18	0xb5798659	-9.295523e-07
19	0xb17f6fbf	-3.7170904e-09
20	0x910f1b02	-1.1289033e-28
21	0xb05fdeb4	-8.144341e-10
22	0xaf9eee47	-2.890934e-10
23	0x04efb254	5.63524e-36
24	0x84c8dc56	-4.722212e-36
25	0xada14197	-1.8332709e-11
26	0xab80ef0a	-9.161294e-13
27	0xb33aadf5	-4.3464713e-08
28	0xb2f0580c	-2.7979716e-08
29	0x9501d3de	-2.6218476e-26
30	0x9f606394	-4.7516214e-20
31	0xb0c38a25	-1.422738e-09
32	0x038d8c8f	8.319506e-37
33	0x04d86c19	5.0880628e-36
34	0x020677df	9.879167e-38
35	0x13b12ad1	4.47233e-27
36	0x82d1d974	-3.0834602e-37
37	0x8180ecea	-4.735973e-38
38	0xbc01e241	-0.007927478
39	0xbb489694	-0.003060733
40	0xbbc6a8dc	-0.00606261
41	0x3b0590e3	0.0020380549
42	0xbbf2b3ca	-0.0074066864
43	0xbc409460	-0.011754125
44	0x3cc7b8d9	0.024380134
45	0x3bc46169	0.0059930575
46	0xbc5cd931	-0.013479517
47	0xbc58d838	-0.013235144
48	0xbc5f62b5	-0.013634373
49	0xbc5e6383	-0.01357353
50	0xbc5f8ca5	-0.013644372
51	0xbc5e6a7b	-0.013575192
52	0xbc5de127	-0.01354245
53	0xbc5ce556	-0.013482412
54	0xbc5fa76f	-0.013650759
55	0xbc5f27a2	-0.013620289
56	0xbc5fdb67	-0.013663149
57	0xbc5f0fea	-0.013614634
58	0xbc5a849a	-0.013337279
59	0xbc5eda3f	-0.013601839
60	0xbc5eb64c	-0.013593268
61	0xbc552563	-0.013009402
62	0xbc49a733	-0.01230793
63	0xbc5e5918	-0.013571046
64	0xbc5df84a	-0.013547966
65	0xbc5f68f2	-0.013635861
66	0xbc5f58c2	-0.013632001
67	0xbc5b27a3	-0.013376149
68	0xbc5c4587	-0.013444311
69	0xbc5eede1	-0.013606519
70	0xbc11a72b	-0.008889954
71	0xbcd12dec	-0.025534593
72	0x3c55aebd	0.013042149
73	0xbc6dc030	-0.014511153
74	0xbbd34b10	-0.006448157
75	0x3bb75464	0.005594777
76	0xbbfce83a	-0.0077181133
77	0xbcd73ef6	-0.02627514
78	0xbc987bb5	-0.018613676
79	0xbb1cb793	-0.002391313
80	0xbcc53201	-0.024071695
81	0xbc450dc7	-0.012027211
82	0xbb66323a	-0.0035125152
83	0xba8dc7c9	-0.0010816987
84	0xbc118739	-0.008882337
85	0xbc105dc8	-0.008811422
86	0xbc1245e9	-0.008927801
87	0xbc11faa6	-0.008909857
88	0xbc125253	-0.00893076
89	0xbc11fcb6	-0.008910349
90	0xbc11d466	-0.008900737
91	0xbc118acc	-0.008883189
92	0xbc125a45	-0.008932655
93	0xbc123476	-0.0089236405
94	0xbc1269b9	-0.008936339
95	0xbc122d71	-0.008921967
96	0xbc10d9d9	-0.008841001
97	0xbc121d97	-0.008918188
98	0xbc121308	-0.00891567
99	0xbc0f4bb9	-0.008746081
100	0xbc0bef84	-0.008540992
101	0xbc11f79a	-0.0089091305
102	0xbc11db28	-0.008902349
103	0xbc1247bf	-0.008928238
104	0xbc1242fd	-0.008927104
105	0xbc11092d	-0.008852285
106	0xbc115c3b	-0.008872087
107	0xbc122362	-0.008919569
108	0xbb8c6110	-0.0042840317
109	0xbc414ed3	-0.011798578
110	0x3c8d7efc	0.017272465
111	0xbccd5300	-0.025063992
112	0xbb17642f	-0.0023100486
113	0xbc4b02d6	-0.012390813
114	0x3f0fb139	0.56129795
115	0x3be5eb3b	0.007016567
116	0x3f925aed	1.1433998
117	0xbf7afd20	-0.9804249
118	0x3dc2fb6c	0.09520611
119	0xbc88d302	-0.016702179
120	0xbec9f98a	-0.39448196
121	0xbdd5ec59	-0.1044547
122	0x3cbb9499	0.022898005
123	0x3d5e8a75	0.05433126
124	0xbc070592	-0.008241074
125	0x3d16672b	0.036719482
126	0xbdf6318b	-0.12021168
127	0xbb1db98c	-0.0024066893
128	0x3d835699	0.064130016
129	0xbb8df04a	-0.004331623
130	0x3dc09615	0.09403626
131	0x3de8325b	0.113377295
132	0x3d04ebf9	0.032451604
133	0x3dfee60c	0.12446222
134	0xbde3657b	-0.1110334
135	0xbcf34601	-0.029696466
136	0x3d44ee25	0.048078675
137	0xbe11bb83	-0.14231686
138	0x3e0a52fb	0.13508217
139	0xbe1bb106	-0.15204248
140	0xbdc9480a	-0.098281935
141	0x3ca3c981	0.019993545
142	0xbe134b8e	-0.1438429
143	0x3d59fc0a	0.05321888
144	0xbc2eb781	-0.010663868
145	0xbd9aa7fc	-0.07551572
146	0x3f0f4a83	0.5597307
147	0x3f53df38	0.8276248
148	0xbf13fab6	-0.5780443
149	0xbe3463cb	-0.17616193
150	0xbeab5d5f	-0.33469674
151	0xbeb8f3a3	-0.3612338
152	0x3f11407e	0.5673903
153	0xbe5cb5df	-0.21553753
154	0x3ef77f49	0.48339298
155	0xbe3044a7	-0.17213689
156	0x3dc10b06	0.09425931
157	0xbc9c3de3	-0.019072479
158	0x3dc4d67d	0.09611223
159	0x3cbbef3d	0.022941226
160	0xbd903fb7	-0.07043403
161	0x3e13e8d4	0.14444286
162	0xbe1c7d7f	-0.15282248
163	0x3d3f6a52	0.046732254
164	0x3d5d6f68	0.054061323
165	0x3d1a5c36	0.037685595
166	0xbdaeaf3b	-0.08529516
167	0xbd913bc8	-0.070914805
168	0xbd22b270	-0.039720953
169	0x3c947286	0.018121015
170	0xbd529f23	-0.051421296
171	0xbdde3e4b	-0.10851725
172	0x3e1e7e8f	0.15477966
173	0x3d76d610	0.06026274
174	0x3e06b9b7	0.13156782
175	0x3d443753	0.047904324
176	0xbe032dda	-0.1281046
177	0xbda3b472	-0.079934016
178	0xbd13c891	-0.036079947
179	0x3cd97a2a	0.02654751
180	0x3cebb252	0.028771553
181	0x3db4db4c	0.0883089
182	0xbd23f67e	-0.040029995
183	0x3e0f891a	0.14017144
184	0x3ed5cd00	0.41757965
185	0x3f04c759	0.5186668
186	0xbf238b56	-0.63884485
187	0x3d71415f	0.058900233
188	0xbeddc2f4	-0.433128
189	0x3d765699	0.06014118
190	0xbbf52291	-0.0074809273
191	0xbbb632bc	-0.005560247
192	0x344f5744	1.9310124e-07
193	0x374c5f71	1.2181569e-05
194	0xbb62174b	-0.0034498747
195	0xbc026801	-0.007959367
196	0x34bcd8de	3.517552e-07
197	0x35fb8e05	1.874229e-06
198	0xbb9c5c65	-0.0047717565
199	0xbb052cf8	-0.0020320993
200	0xbc0676d0	-0.008207038
201	0xbbd93612	-0.00662876
202	0xbc0b477f	-0.008500933
203	0xbbda7c18	-0.006667625
204	0xbbc2d2f5	-0.005945558
205	0xbb9df4fb	-0.0048204637
206	0xbc0e72e8	-0.008694388
207	0xbbffef89	-0.0078105372
208	0xbc14cdaa	-0.009082237
209	0xbbfae530	-0.007656716
210	0xbb3e5afc	-0.002904593
211	0xbbefe26d	-0.007320693
212	0xbbe8c6b4	-0.0071037654
213	0xba70992f	-0.00091780996
214	0xb896916f	-7.1796465e-05
215	0xbbd755cb	-0.0065715066
216	0xbbc69f8c	-0.0060615
217	0xbc072a8f	-0.008249893
218	0xbc055950	-0.00813897
219	0xbb5a04f1	-0.0033267105
220	0xbb8a4975	-0.0042201825
221	0xbbf3d8bb	-0.007441608
222	0xbad35f4a	-0.0016126421
223	0x37751130	1.460714e-05
224	0x3795c64a	1.785452e-05
225	0xb90cb7f7	-0.00013419973
226	0xb9bb95ff	-0.00035779175
227	0xb9ac3b47	-0.00032850562
228	0xbb6221dd	-0.0034505047
229	0xbb4fcef6	-0.0031709052
230	0x2b4bb82b	7.237567e-13
231	0xad3b9e5e	-1.0664884e-11
232	0xbb0973fb	-0.002097367
233	0xbb75eb88	-0.003752442
234	0xad3bf46e	-1.0683994e-11
235	0xa805e917	-7.433526e-15
236	0xbab74a86	-0.0013984002
237	0xb96d33a8	-0.00022621325
238	0xbb917a40	-0.004439622
239	0xbb38a08b	-0.0028171863
240	0xbb9ccb6f	-0.0047849934
241	0xbb3af14e	-0.0028525176
242	0xbb1270ae	-0.0022344994
243	0xbabb4cde	-0.0014289876
244	0xbba47d7d	-0.005019842
245	0xbb82eb74	-0.0039953534
246	0xbbb48132	-0.0055085653
247	0xbb7afb5a	-0.003829679
248	0xb9fe4e38	-0.00048504933
249	0xbb641aa9	-0.003480593
250	0xbb55f369	-0.0032646304
251	0xb82d5754	-4.1327745e-05
252	0xb439157b	-1.7237282e-07
253	0xbb353f62	-0.0027656187
254	0xbb189738	-0.0023283493
255	0xbb9319d7	-0.0044891643

layers.0.bias f4 [128]
0	0xa2e9152f	-6.3177206e-18
1	0xbc5cade9	-0.013469198
2	0xbc117aa6	-0.008879339
3	0xbdbdede0	-0.09273887
4	0x3d999b16	0.075002834
5	0xbb96d505	-0.0046030306
6	0xbaa9c080	-0.0012951046
7	0x3df464d0	0.11933291
8	0x3cbf466d	0.023349011
9	0x3cf1b2db	0.02950423
10	0xbd807982	-0.06273176
11	0xbd4c78a1	-0.04991973
12	0xb4b5731f	-3.379764e-07
13	0x3e278b24	0.16361672
14	0xbd99b0b1	-0.07504404
15	0xbdf1d188	-0.11807543
16	0xa234bae1	-2.4493482e-18
17	0xa51381b9	-1.2794169e-16
18	0x3cd1999a	0.025585938
19	0x3de46664	0.11152342
20	0x3e5bb77e	0.21456715
21	0x3da0ca30	0.07851064
22	0xa7cde97d	-5.715208e-15
23	0x3d78d9e4	0.06075467
24	0xbb24a0b3	-0.0025120198
25	0xbd58cbec	-0.05292885
26	0xa3746ff5	-1.3250974e-17
27	0x00077428	6.84517e-40
28	0x3e17f73a	0.14840403
29	0xbc08736a	-0.008328298
30	0xbb78de78	-0.0037974399
31	0xbd8c3aeb	-0.06847175
32	0x3d8c3875	0.06846706
33	0x3cdc5feb	0.026901206
34	0x3dd4da6d	0.10393224
35	0x3af5e581	0.0018760414
36	0xbd33566f	-0.0437836
37	0xbde2652d	-0.11054454
38	0xbdca54b2	-0.098794356
39	0x3d922120	0.07135224
40	0xbcc2a569	-0.023760514
41	0xbde90e09	-0.1137963
42	0x3db58c03	0.08864596
43	0xbc4342e7	-0.011917806
44	0x3db31150	0.087435365
45	0xbd19f88b	-0.037590545
46	0x0004792f	4.10814e-40
47	0x0003f833	3.64544e-40
48	0xbb956bf0	-0.0045599863
49	0xbd574b75	-0.052562196
50	0xbdc36e1d	-0.09542487
51	0xbdbe55f3	-0.09293737
52	0xbde96369	-0.11395914
53	0x3b70aff9	0.0036725982
54	0x3dc0aeb7	0.09408324
55	0x3ddcd279	0.10782332
56	0x3d3468be	0.044045202
57	0x3c48d3e5	0.012257551
58	0xbc2405c4	-0.01001114
59	0x3da2d48a	0.07950695
60	0x8001981d	-1.46403e-40
61	0xbd7f732d	-0.0623657
62	0x3e31cebf	0.17364024
63	0x800438ce	-3.8772e-40
64	0xbc4394c7	-0.011937327
65	0x3d10fcc3	0.035397302
66	0xae601e50	-5.0958626e-11
67	0xbd34cfde	-0.04414355
68	0x3dda631f	0.10663437
69	0x3d7291b2	0.059220977
70	0x80060434	-5.52521e-40
71	0x3de531b0	0.11191118
72	0xbe0083a5	-0.12550218
73	0x3d203cd0	0.039120495
74	0x3d4e1040	0.050308466
75	0xba03bfc9	-0.00050258316
76	0x3c32eac8	0.010920234
77	0x3da29cc2	0.079400554
78	0x3e6bd63b	0.23030941
79	0xbdc9489c	-0.09828302
80	0x00072034	6.54401e-40
81	0x3de2afb9	0.11068673
82	0xbd68d2ff	-0.056841847
83	0x3d73bb3f	0.059504744
84	0x3ceab37b	0.028650036
85	0x3dbb7462	0.09153058
86	0xbc2edff8	-0.0106735155
87	0x3e407c7c	0.18797487
88	0xbe04efef	-0.12982152
89	0x959bc5b9	-6.291595e-26
90	0x3dcebf53	0.10095086
91	0xbd5ec4b3	-0.054386806
92	0xb8c10c53	-9.205253e-05
93	0xbcc68500	-0.024233341
94	0xbdd782e9	-0.10523016
95	0xa1ba2244	-1.261292e-18
96	0x3e425fdf	0.18981884
97	0x3e445ecc	0.19176787
98	0xbd190363	-0.037356745
99	0xab6608d3	-8.172466e-13
100	0xbbde9aa2	-0.006793336
101	0x3dcae83c	0.099075764
102	0x3e113aee	0.14182636
103	0xbc62d737	-0.0138452565
104	0xbb1a3a58	-0.002353331
105	0xbd4645de	-0.048406474
106	0x800374ac	-3.1736e-40
107	0x3d91c5b2	0.071177855
108	0xbd472c1c	-0.04862605
109	0xb691ea51	-4.3486148e-06
110	0x8002dcce	-2.62881e-40
111	0x3e238208	0.15967572
112	0x3cd028c7	0.02541007
113	0x3e10d557	0.14143883
114	0xbda8e0b3	-0.08245983
115	0x3d883c5e	0.06652139
116	0xbda801d7	-0.08203476
117	0xbdc071a6	-0.09396677
118	0x3e4d786a	0.20065466
119	0xbbc0c747	-0.0058831307
120	0x3dbe386a	0.09288104
121	0xb0428321	-7.0763134e-10
122	0x3cb51980	0.022106886
123	0xbd895db5	-0.06707326
124	0x3e45240d	0.19252034
125	0xbd0c80ed	-0.03430264
126	0x3d37859e	0.04480516
127	0x8001cc07	-1.65027e-40

layers.1.weight f4 [128, 128]
0	0x80054243	-4.82948e-40
1	0x800688dd	-6.0011e-40
2	0x00031124	2.81655e-40
3	0x9e2a183d	-9.0047374e-21
4	0xad4ee7d9	-1.1761225e-11
5	0x80012c0b	-1.07635e-40
6	0x0008827e	7.81496e-40
7	0x0003fc5c	3.66036e-40
8	0x00068bb3	6.01128e-40
9	0x00012430	1.04817e-40
10	0xabad8e22	-1.2331839e-12
11	0xaad582d0	-3.792717e-13
12	0x800976b0	-8.69097e-40
13	0xb1108dc2	-2.1035338e-09
14	0xab5a6465	-7.7588484e-13
15	0x9da55515	-4.376311e-21
16	0x000116f8	1.00075e-40
17	0x80048b0b	-4.17221e-40
18	0xadcf3fcc	-2.3561507e-11
19	0xb17ed845	-3.70848e-09
20	0xb487439c	-2.5194902e-07
21	0x9f05a548	-2.8300563e-20
22	0x800b6a7c	-1.04839e-39
23	0xb78a5976	-1.649254e-05
24	0x8004b458	-4.32037e-40
25	0x80076b1c	-6.81272e-40
26	0x000aba2c	9.85141e-40
27	0x8002616a	-2.18617e-40
28	0xac8080e7	-3.65229e-12
29	0x80092d6c	-8.42814e-40
30	0x8002a65a	-2.43347e-40
31	0x8005918c	-5.1139e-40
32	0xa70753f9	-1.8780535e-15
33	0xaedc6391	-1.0022128e-10
34	0xb2916ec1	-1.6930587e-08
35	0xafd8f526	-3.946436e-10
36	0xa5dbc232	-3.8122036e-16
37	0xa73ffdaa	-2.6644086e-15
38	0xaf9e4059	-2.8785754e-10
39	0xb1bcc659	-5.4940696e-09
40	0x840b03b4	-1.6341072e-36
41	0xa9336759	-3.9835624e-14
42	0x00078dac	6.93671e-40
43	0x000b4efc	1.038525e-39
44	0x800225d1	-1.97237e-40
45	0x800131ed	-1.09745e-40
46	0x8003cf87	-3.49953e-40
47	0x0009dd48	9.059e-40
48	0x00006d21	3.9148e-41
49	0xb42e0f64	-1.6210612e-07
50	0x80027623	-2.2605e-40
51	0xb311411b	-3.3819656e-08
52	0xafba25fe	-3.3860198e-10
53	0xaec0ba69	-8.764262e-11
54	0x9517d83e	-3.0664792e-26
55	0xadae42f3	-1.9811241e-11
56	0x92827309	-8.232512e-28
57	0x800229a9	-1.98616e-40
58	0x8004fd46	-4.582e-40
59	0x9114fde4	-1.1753377e-28
60	0x0004f28a	4.54349e-40
61	0xab064f13	-4.77161e-13
62	0xb411b56a	-1.3570175e-07
63	0x000b3960	1.030773e-39
64	0x8006dabb	-6.29479e-40
65	0xb225f40b	-9.659753e-09
66	0x8009411a	-8.49874e-40
67	0xb0fe3791	-1.8496725e-09
68	0xae3d047a	-4.29776e-11
69	0xabfb3d91	-1.7851711e-12
70	0x8002e7f6	-2.66883e-40
71	0xb5f39f0b	-1.8151198e-06
72	0x2a3eba92	1.694012e-13
73	0x8002d8ae	-2.61401e-40
74	0xb3a379c0	-7.612425e-08
75	0x80068dc9	-6.01876e-40
76	0x9836f376	-2.3645865e-24
77	0xae5e0fef	-5.0491108e-11
78	0xb4a02de6	-2.9835718e-07
79	0xb1c02051	-5.5916094e-09
80	0x800aa1cc	-9.76397e-40
81	0xb2592e88	-1.2641642e-08
82	0x8d7930aa	-7.6787626e-31
83	0x99dcdb2d	-2.2835991e-23
84	0xb285e5cb	-1.5587736e-08
85	0xaa795f22	-2.2148648e-13
86	0x00058786	5.07794e-40
87	0xb4261418	-1.5467265e-07
88	0x00028dba	2.34513e-40
89	0x80008a07	-4.9515e-41
90	0x00030db9	2.80429e-40
91	0xaa9a44ab	-2.7403543e-13
92	0x0008b574	7.99777e-40
93	0xa7db1462	-6.080681e-15
94	0xaeb17e3b	-8.071451e-11
95	0x800a5ec1	-9.52346e-40
96	0x00026ddf	2.23085e-40
97	0xaa287f71	-1.4965613e-13
98	0x00087c93	7.79373e-40
99	0x0006a6cf	6.10853e-40
100	0x8003a884	-3.35959e-40
101	0xa8bda063	-2.1052772e-14
102	0xb7b49815	-2.152849e-05
103	0xaa016503	-1.1492547e-13
104	0x0000861a	4.8107e-41
105	0x9e9adced	-1.6396757e-20
106	0x8003310e	-2.93104e-40
107	0xb40a3cba	-1.2874344e-07
108	0xae8073eb	-5.841357e-11
109	0x8008bb4a	-8.0187e-40
110	0x0002dfdc	2.63977e-40
111	0xa971f120	-5.3721892e-14
112	0x94fdaf75	-2.5615677e-26
113	0xaa8d53bd	-2.5104737e-13
114	0xb51dacf0	-5.8738715e-07
115	0xaf10aa39	-1.3157199e-10
116	0xacb01a1c	-5.0051196e-12
117	0x80033813	-2.95622e-40
118	0xa15b3d2c	-7.4281046e-19
119	0x0003a28c	3.33817e-40
120	0xb186899b	-3.915557e-09
121	0x80017de7	-1.37001e-40
122	0x80076fe8	-6.82993e-40
123	0xb24bf081	-1.1870839e-08
124	0xb409a6fa	-1.2819865e-07
125	0xab7776d6	-8.7916946e-13
126	0x094a2665	2.4332919e-33
127	0x00089173	7.86861e-40
128	0x0365374f	6.7360543e-37
129	0x3c3b55d6	0.011434039
130	0x3cba2cec	0.022726499
131	0xbbedd277	-0.0072577554
132	0x3df9ff20	0.12206864
133	0x3b0f2090	0.0021839477
134	0xb8fe8a5a	-0.00012137434
135	0x3e97ead4	0.29671347
136	0xbdedc8ab	-0.1161054
137	0x3e5fb5bd	0.21846671
138	0xbe12ae7e	-0.14324376
139	0xbd06d394	-0.03291662
140	0x319c882d	4.555679e-09
141	0xc0155adc	-2.3336706
142	0x3da6576d	0.08122144
143	0xbf51964b	-0.81869954
144	0x0006582e	5.82646e-40
145	0x1ff8ddcc	1.0539902e-19
146	0x3b43d354	0.00298806
147	0xbeecb5ac	-0.46232355
148	0x3e656101	0.22400285
149	0xbe813e01	-0.25242618
150	0x0308d1c7	4.020762e-37
151	0x3e80943e	0.251131
152	0x3b1da08e	0.0024051997
153	0xbe93ad14	-0.28842986
154	0x0001d588	1.68436e-40
155	0x80001dd5	-1.0702e-41
156	0xbf887a39	-1.0662299
157	0x3b9cb1ca	0.0047819363
158	0x3c6d982f	0.014501615
159	0xbf0b67d7	-0.5445532
160	0xbc9928d7	-0.018696232
161	0x3d31705a	0.043320037
162	0xbe3e10b1	-0.18561055
163	0xbe0717a2	-0.13192609
164	0xbe0e103d	-0.13873382
165	0x3d784a93	0.060617995
166	0x3e50b5f4	0.2038191
167	0xbe3f420d	-0.1867754
168	0x3dd2003f	0.10253953
169	0xbeceef30	-0.4041686
170	0x3e1b5c6e	0.15171978
171	0xbabc7f55	-0.001438121
172	0x3ec46d0d	0.3836445
173	0xbd7e5c5e	-0.062099807
174	0x80047648	-4.09773e-40
175	0xa5a9222e	-2.9339988e-16
176	0x3bb37b8c	0.0054773744
177	0x3ea897ed	0.3292841
178	0x3e97dc83	0.29660425
179	0x3e8398d7	0.25702545
180	0xbe005cbf	-0.1253538
181	0xbe6e2d14	-0.23259383
182	0x3e713ebe	0.2355909
183	0xbe8fff15	-0.281243
184	0x3ea2f7a7	0.3182957
185	0xbdb840b9	-0.0899672
186	0x3c8d0bd5	0.017217556
187	0xbe110011	-0.14160182
188	0x00071102	6.4895e-40
189	0xbbbb0bbd	-0.0057081864
190	0x3d9e69af	0.07735001
191	0x80083a4f	-7.55601e-40
192	0xbbbfd28f	-0.005853958
193	0x3da63000	0.08114624
194	0x80069c00	-6.06975e-40
195	0xbf3d668e	-0.7398461
196	0x3d54ac98	0.05192241
197	0x3e08647b	0.1331958
198	0x0007272a	6.56898e-40
199	0xbc38b123	-0.011272701
200	0x3f2f5ee3	0.6850416
201	0x3dbea19e	0.0930817
202	0x3ebfb2e3	0.37441167
203	0xb89b5aa3	-7.407858e-05
204	0x3eaa2c7e	0.3323707
205	0x3da7e930	0.08198774
206	0x3ec73ed2	0.38915116
207	0x3d6a13b4	0.057147697
208	0x00040727	3.69908e-40
209	0x3dcb855a	0.09937544
210	0x3e6548c2	0.22391036
211	0x3ca945a4	0.02066309
212	0xbe8bd384	-0.2730981
213	0x3e0b7345	0.1361819
214	0xbf133735	-0.57506114
215	0x3e155d17	0.14586292
216	0x3e00e89a	0.1258873
217	0x222e039d	2.358331e-18
218	0xbf321985	-0.6957019
219	0xbd354dde	-0.044263713
220	0xb74c72c7	-1.2186071e-05
221	0xbec10fea	-0.37707454
222	0xbdaa62d3	-0.083196305
223	0x91abaf13	-2.708694e-28
224	0xbea52a84	-0.32259
225	0xbf24cfe6	-0.6437973
226	0xbec1ba21	-0.37837318
227	0x000a313b	9.36016e-40
228	0x3c1079d1	0.008818106
229	0x3e3acefd	0.18243022
230	0xbcead3cc	-0.028665446
231	0x3edaa77d	0.42705908
232	0x3b3d9645	0.002892868
233	0xbcd83820	-0.02639395
234	0x35917f6c	1.0840427e-06
235	0x3e74b476	0.23896965
236	0xbe60f33c	-0.21967787
237	0xb6afcfb8	-5.239588e-06
238	0x947d4c4e	-1.2788284e-26
239	0x3ebfcc8a	0.37460738
240	0x3d70e992	0.0588165
241	0xbdffa9b4	-0.1248354
242	0xbd47eac9	-0.048807893
243	0xbd98f2e2	-0.07468201
244	0x3ee9ce90	0.45665407
245	0x3e02870e	0.12746832
246	0xbf8c85fc	-1.0978389
247	0xbb461d12	-0.003022973
248	0x3d6d7b32	0.057978816
249	0x1397348a	3.8169566e-27
250	0x3deb0834	0.11476174
251	0x3d91fad7	0.07127922
252	0x3e91b72d	0.28460065
253	0x3e90b331	0.28261712
254	0x3f111f85	0.5668872
255	0x80073956	-6.63417e-40

layers.1.bias f4 [128]
0	0xaa0d8530	-1.2569524e-13
1	0x3ce50be3	0.02795977
2	0x3db472fb	0.08810993
3	0x99abcc1c	-1.7763425e-23
4	0xbd01b862	-0.03166998
5	0x3e208878	0.15677059
6	0x3d95f030	0.07321203
7	0x3e2405cd	0.16017838
8	0x3d1a9729	0.037741814
9	0x3e160efe	0.14654157
10	0x1357fe0d	2.7262072e-27
11	0x3e23f7dc	0.1601252
12	0xa19423a5	-1.0038305e-18
13	0xb92c438c	-0.00016428361
14	0xb10dc397	-2.062938e-09
15	0x3dec0d31	0.115259536
16	0xac14c304	-2.114032e-12
17	0xbbc43cb1	-0.0059886803
18	0xbc2ac367	-0.010422564
19	0x9a33ffba	-3.7222907e-23
20	0xb85f368c	-5.3218144e-05
21	0x3e4ad627	0.19808255
22	0x3e0966ec	0.13418168
23	0x3dd1ab75	0.10237781
24	0x80074cd9	-6.70416e-40
25	0x00009e75	5.6844e-41
26	0x3d9d68f0	0.07686031
27	0xb91fbed9	-0.00015234518
28	0xb4248962	-1.532367e-07
29	0xaf661c62	-2.0928462e-10
30	0x3e086e4c	0.13323325
31	0xaa3dd42e	-1.6860187e-13
32	0x9c532f44	-6.9875133e-22
33	0xb3d4003f	-9.872064e-08
34	0xb9119974	-0.00013885443
35	0x3e6139d1	0.21994711
36	0x3c8673b1	0.016412588
37	0x3e88b2fd	0.26699057
38	0xbbe43b78	-0.006965097
39	0x3e045f69	0.12927021
40	0x3e33f14a	0.17572513
41	0x3c9aad54	0.018881477
42	0xad425ef6	-1.1048709e-11
43	0x3daa8834	0.0832676
44	0xbd6a5d35	-0.057217795
45	0x9b7f3ad9	-2.111212e-22
46	0xa7d414b1	-5.8864254e-15
47	0x3dbcbd15	0.09215752
48	0x3e5ea1fc	0.2174148
49	0xbc0f6375	-0.00875174
50	0x3e22316a	0.15839162
51	0xaef51fa2	-1.1146929e-10
52	0xbd1600d4	-0.036621884
53	0xbac1b812	-0.0014779589
54	0xb8a4ad69	-7.8524296e-05
55	0xbd7871a5	-0.060655255
56	0xbc828a7e	-0.015935179
57	0xbe079212	-0.13239315
58	0xbd6d4953	-0.057931256
59	0x3d07276a	0.032996573
60	0x3d1d7a2d	0.038446594
61	0x3e5eb738	0.2174958
62	0xa093f7be	-2.506671e-19
63	0xb89d6780	-7.505622e-05
64	0xbbbf0449	-0.0058293683
65	0xb186293a	-3.9046e-09
66	0xbdfcbdb5	-0.12340871
67	0x39ada584	0.0003312045
68	0xbd98b825	-0.07456998
69	0xb6b51440	-5.3965778e-06
70	0x3e41baf6	0.18918976
71	0x3dd60a78	0.104512155
72	0x3d948ceb	0.072534405
73	0x3e0c94d1	0.13728644
74	0xb0637b8c	-8.275769e-10
75	0x00053021	4.76443e-40
76	0xba043d05	-0.0005044493
77	0x3e8b05eb	0.27152953
78	0xaf781203	-2.2561868e-10
79	0xb42a8cf3	-1.5883761e-07
80	0xbb269a0f	-0.0025421416
81	0x3e69a275	0.22815879
82	0xbbf0f353	-0.0073532253
83	0x00003570	1.917e-41
84	0xbaccfb8f	-0.0015638935
85	0x3dc8944a	0.09793909
86	0x80070b7f	-6.46972e-40
87	0x3d769f46	0.06021049
88	0xaadf0370	-3.9615143e-13
89	0x3ddebdf3	0.10876074
90	0xb7a73bbc	-1.9935767e-05
91	0x0005d57f	5.35765e-40
92	0x3e28b414	0.16474944
93	0x3dad6854	0.08467165
94	0xbaf63d58	-0.0018786592
95	0x3ccdd8a0	0.025127709
96	0xbc347f95	-0.011016746
97	0x3dc61848	0.096726
98	0xb99cfea6	-0.00029944367
99	0x3e3c2d0d	0.1837656
100	0x3e04cc5f	0.12968586
101	0x3d8b74bf	0.06809377
102	0x3e091625	0.13387354
103	0xbc9b5c43	-0.018964892
104	0xbc2f83c3	-0.010712567
105	0x3df0bf0b	0.117551886
106	0x3d0513f6	0.03248974
107	0x3ba565e2	0.005047546
108	0xbc10b742	-0.008832755
109	0x3e351583	0.17683987
110	0xabfa451b	-1.7782749e-12
111	0x3e2eaa43	0.17057137
112	0x3e48c767	0.19607316
113	0x3da28425	0.07935361
114	0xb30f2f08	-3.3337557e-08
115	0x3e293a24	0.16526085
116	0x3a9d9ead	0.0012025438
117	0x9610cda3	-1.1697115e-25
118	0x3daccfbc	0.0843806
119	0xbaa2cf4c	-0.0012421398
120	0x3de0958d	0.109660245
121	0xba011458	-0.0004923991
122	0x3dd32e08	0.10311514
123	0x3d82dc35	0.063896574
124	0x3e329df9	0.17443074
125	0x3d9dbdd3	0.07702222
126	0xb579a59c	-9.300072e-07
127	0xbb0e423f	-0.0021706966

layers.2.weight f4 [128, 128]
0	0x38a7399f	7.973913e-05
1	0x3cd25198	0.025673673
2	0x3da1dc30	0.079033256
3	0x34247f32	1.5319964e-07
4	0x3da7273f	0.081617825
5	0x3e94b278	0.2904241
6	0xbec053a1	-0.37563804
7	0xbd4f4c10	-0.05060965
8	0xbaa41b41	-0.0012520329
9	0xbe722020	-0.23645067
10	0xb8ae5064	-8.3119405e-05
11	0xbe0ce1d4	-0.13758022
12	0xb99efe10	-0.000303254
13	0x3c0499ed	0.008093339
14	0x3981ca11	0.0002475535
15	0x3e8425a2	0.25809962
16	0xbad9d591	-0.0016619434
17	0xbc048706	-0.008088833
18	0xbc39aed7	-0.011333189
19	0x350c84d9	5.2347383e-07
20	0xb1f3e83f	-7.098634e-09
21	0xbec6c95f	-0.3882551
22	0x3e08b09c	0.13348621
23	0x3de627d6	0.11238067
24	0x0002cd3e	2.57298e-40
25	0xb2f4e55a	-2.8509636e-08
26	0x3d2eddc7	0.042691972
27	0x3b90eb77	0.004422601
28	0x3bb5e053	0.005550423
29	0x0006e606	6.3353e-40
30	0xbe883051	-0.26599362
31	0x3668bc52	3.468031e-06
32	0x390e7992	0.00013587464
33	0x3b71b729	0.0036882854
34	0x3995e3f1	0.00028589324
35	0x3e91f4fa	0.28507215
36	0xbe95afed	-0.29235783
37	0x3e90bd7c	0.28269565
38	0xbc1be453	-0.009514886
39	0xbd6bb3a3	-0.05754436
40	0x3e6562b3	0.22400932
41	0xbe3c7688	-0.18404591
42	0x38d84987	0.00010313378
43	0x3e45890f	0.19290565
44	0xbdc9dd5d	-0.09856675
45	0x33df185b	1.0388677e-07
46	0xad8c0db4	-1.5922243e-11
47	0x3cfe336f	0.031030385
48	0x3f27cd49	0.65547615
49	0x3bb86e1d	0.005628361
50	0x3d9e336d	0.077246524
51	0x38a07fef	7.653224e-05
52	0x3cfe9d51	0.031080874
53	0xbbd89b0a	-0.006610279
54	0x3b3da61e	0.0028938125
55	0xbec03bfe	-0.3754577
56	0x3e3c28fb	0.18375008
57	0xbe8c9854	-0.27459967
58	0x3e2de467	0.1698166
59	0xbe012a0f	-0.126137
60	0xbdb4fdfa	-0.08837505
61	0x3e9e8712	0.30962425
62	0xac8dd3c4	-4.0309717e-12
63	0xbb5afefd	-0.0033416145
64	0x3c47d5c1	0.012196959
65	0xb77da3bb	-1.5118097e-05
66	0xbe5675ca	-0.2094337
67	0xbe0099f2	-0.12558725
68	0x3ef6bd4a	0.4819129
69	0xbc0358de	-0.008016793
70	0x3ef9454b	0.4868568
71	0x3c0209e2	0.007936927
72	0x3e73b6b8	0.2380017
73	0xbe570cc2	-0.2100096
74	0xbb903ccb	-0.0044017783
75	0x375d110b	1.3176595e-05
76	0xbdade561	-0.08491016
77	0x3e56b125	0.20966013
78	0xbaa51d3a	-0.0012597211
79	0x3b293451	0.0025818537
80	0x3ab15384	0.0013528918
81	0x395b4638	0.00020911626
82	0x3acd2388	0.0015650848
83	0xaf382572	-1.6748006e-10
84	0x3bb25399	0.0054420945
85	0x3e273021	0.16326953
86	0x32b17cc4	2.0662249e-08
87	0xbdb556e2	-0.08854462
88	0x3b84e54a	0.0040556537
89	0xbd690f27	-0.056899216
90	0xb9c6483c	-0.00037819322
91	0x0001289f	1.06408e-40
92	0x3e93b0b2	0.28845745
93	0xbd639922	-0.05556596
94	0xbbf5741f	-0.0074906494
95	0xbb03756a	-0.0020058998
96	0x3b6284de	0.0034564058
97	0x3ed30009	0.41210964
98	0xbbcbe100	-0.0062218904
99	0x3e9bdb18	0.30440593
100	0x3dc9e670	0.098584056
101	0x3dcaed3f	0.09908532
102	0xbdb8b57a	-0.09018989
103	0xbe3660e7	-0.17810403
104	0xbf104c02	-0.5636598
105	0xbd912689	-0.07087428
106	0x3df7531a	0.12076397
107	0xbc00a29b	-0.007851268
108	0xbba2f75b	-0.0049733347
109	0x3be49206	0.006975415
110	0x383930fc	4.4153057e-05
111	0x3eb1da3b	0.3473681
112	0xbe21c02a	-0.15795961
113	0xbe54f129	-0.2079512
114	0x3a7f8e0b	0.0009748644
115	0x3ec9a0a1	0.39380363
116	0xbb292821	-0.0025811272
117	0x37827257	1.5550451e-05
118	0xbd0590a9	-0.03260866
119	0xb9955f8f	-0.0002849069
120	0xbe34d30a	-0.1765863
121	0xbbce43bf	-0.006294697
122	0x3e402b62	0.18766549
123	0xbd90903f	-0.07058763
124	0x3d94c016	0.072632
125	0xbc0e11c4	-0.008671228
126	0xbb92220f	-0.0044596265
127	0xba2c4e39	-0.00065729354
128	0x34bff35b	3.5753587e-07
129	0x3ea65df0	0.32493544
130	0x3ef43065	0.47693172
131	0x31d66633	6.2398384e-09
132	0xbeb85a97	-0.36006615
133	0xbec4c025	-0.38427845
134	0xbd9e2676	-0.077221796
135	0xbe1212c4	-0.14264971
136	0xbd6b40c3	-0.05743481
137	0xbd974443	-0.07386067
138	0xb7804aba	-1.5293586e-05
139	0xbe38fe43	-0.18065743
140	0x3887b250	6.470515e-05
141	0xbaeee565	-0.0018226324
142	0x3a3d31ec	0.0007217217
143	0x3eabc9ab	0.33552298
144	0xba0b7239	-0.00053194497
145	0xbbf167a2	-0.0073670903
146	0xbbd5c4cd	-0.0065237046
147	0x3504aa9c	4.94221e-07
148	0xaddc719f	-2.5061562e-11
149	0xbfa4ee0c	-1.2885146
150	0xbe020fc8	-0.12701333
151	0x3f45cd63	0.7726652
152	0x80034d13	-3.03156e-40
153	0x3212211e	8.5058485e-09
154	0xbe99c627	-0.3003399
155	0xbb98952d	-0.004656455
156	0x3b1309b8	0.0022436213
157	0x800219bf	-1.92907e-40
158	0x3e33407f	0.17505072
159	0x1eae05c8	1.8425358e-20
160	0xb956f34c	-0.00020499266
161	0xbb41a734	-0.0029549124
162	0x31c16e78	5.629598e-09
163	0xbeece00d	-0.46264687
164	0x3d73c5fc	0.059514984
165	0xbdd7ac33	-0.10530891
166	0xbc28cb70	-0.0103024095
167	0x3dd392e5	0.10330752
168	0xbd55843b	-0.052128058
169	0xbd8f9f51	-0.07012809
170	0xb79713fa	-1.8009905e-05
171	0x3ecdf5f9	0.40226725
172	0x3edc1b43	0.4298955
173	0x340342f9	1.222469e-07
174	0x25107727	1.253038e-16
175	0x3e9b1cfa	0.30295545
176	0xbecefcb6	-0.40427178
177	0xba77aa37	-0.0009447666
178	0xbe608d43	-0.21928887
179	0x390409cf	0.00012592155
180	0x3c250760	0.010072559
181	0xbbaafedc	-0.00521837
182	0x3b229502	0.0024808054
183	0x3d934595	0.07191006
184	0xbd13722b	-0.03599755
185	0xbd8d41b8	-0.068973005
186	0x3e9dc3df	0.308135
187	0x3d0c1e57	0.03420862
188	0x3e1340a9	0.14380135
189	0x3e393f74	0.18090612
190	0xb6750c54	-3.651502e-06
191	0xb9266516	-0.00015868651
192	0xbc9f5fbc	-0.01945483
193	0xb5da9187	-1.628462e-06
194	0xbf0ad10a	-0.5422522
195	0x3eda286e	0.4260897
196	0xbfb6eab0	-1.4290371
197	0x39376f97	0.0001749381
198	0xbf93fddd	-1.1561848
199	0x3d39f3cd	0.045398522
200	0xbeda8e8a	-0.42686874
201	0xbd86b5a3	-0.06577613
202	0x3904a1d4	0.00012648787
203	0x3301f005	3.025345e-08
204	0x3ec30a71	0.38093904
205	0xbe99b302	-0.30019385
206	0x39f6df5a	0.00047087186
207	0xb9e2bee1	-0.00043248295
208	0x3c0edf4c	0.00872023
209	0x3e457caf	0.19285844
210	0xbb042c67	-0.0020168067
211	0xa53bbcd7	-1.6283646e-16
212	0x3b9d916e	0.0048085963
213	0x3ceb2cb4	0.02870784
214	0x30c17306	1.407529e-09
215	0xbeb1265c	-0.34599578
216	0xba63bd9e	-0.0008687618
217	0x3e310b57	0.17289482
218	0x3b9aeda3	0.0047280355
219	0x80050e0e	-4.6422e-40
220	0x3c1a19b6	0.009405544
221	0x3d5b9d85	0.05361702
222	0xbbaec1bf	-0.005333155
223	0x3e7db838	0.24777305
224	0x3c2fbb21	0.010725767
225	0xbe1d4e19	-0.15361823
226	0x3b1802e4	0.0023195082
227	0x3e725249	0.23664202
228	0xbd8a28d2	-0.06746067
229	0x3f288acd	0.65836793
230	0x3e4b7a5a	0.19870892
231	0x3db23fab	0.0870355
232	0xbc17f6af	-0.009275123
233	0xbf89144c	-1.0709319
234	0xbd40d599	-0.047078703
235	0x3d975184	0.07388595
236	0xbb486c58	-0.0030582156
237	0x3cbad310	0.02280572
238	0x38542f39	5.058872e-05
239	0x3e86fd91	0.2636533
240	0xbefbefd4	-0.49206412
241	0xbe140c8a	-0.14457908
242	0x0d4088bb	5.932915e-31
243	0xbbc06edb	-0.00587259
244	0x3eb2de3b	0.34935173
245	0x3827497b	3.9884337e-05
246	0x3e91b3f2	0.284576
247	0x393fbe0c	0.00018285977
248	0x3d3f34e6	0.046681307
249	0xbac287cd	-0.0014841497
250	0xbde65aa7	-0.11247759
251	0xbdde1d43	-0.10845425
252	0x3f4d026e	0.8008183
253	0xbeac1b4e	-0.33614582
254	0x3b3e6b31	0.002905559
255	0x3bbf26d4	0.005833486

layers.2.bias f4 [128]
0	0x3e55c152	0.20874527
1	0xbe5f459c	-0.21803898
2	0x3e1873c1	0.14887907
3	0xbdb9d65f	-0.09074091
4	0x3dc5758a	0.096415594
5	0x0006e1a1	6.31953e-40
6	0x3e65e200	0.22449493
7	0xbc1002fb	-0.008789773
8	0xbcd025e3	-0.02540869
9	0x3dd121e6	0.10211544
10	0xb7b4b38c	-2.154128e-05
11	0x800079d0	-4.3698e-41
12	0xb3a4a7eb	-7.667389e-08
13	0x3d879adf	0.06621336
14	0xbb84585c	-0.0040388536
15	0xaace52f4	-3.665051e-13
16	0xba038685	-0.00050172984
17	0xba6e9e20	-0.0009102542
18	0x00026639	2.20342e-40
19	0x3e4b218b	0.19837014
20	0xbbe45609	-0.006968264
21	0x3e20618e	0.15662214
22	0xbe426b53	-0.18986253
23	0x3e78882e	0.24270698
24	0x3e245e6e	0.16051647
25	0x3e115254	0.14191562
26	0x0002e01a	2.64063e-40
27	0xbb90cbf6	-0.0044188453
28	0xbd32510e	-0.04353433
29	0x3db66b4b	0.08907183
30	0xbce72da2	-0.028220002
31	0xbe2b4807	-0.16726695
32	0xbe354a46	-0.17704114
33	0xb993c097	-0.00028181516
34	0xbd81a9df	-0.063312285
35	0x8007e076	-7.2337e-40
36	0xbdbf9cd5	-0.09356085
37	0xb3d20933	-9.7805604e-08
38	0x00001d82	1.0585e-41
39	0x960f3eff	-1.1571326e-25
40	0x8005f2bd	-5.46256e-40
41	0xbe33c241	-0.1755457
42	0xbc2d6f4b	-0.010585616
43	0x3dabff8b	0.0839835
44	0xbe8b795b	-0.27241024
45	0xbaca99f6	-0.0015457261
46	0x80047e01	-4.12544e-40
47	0xb8eb64fd	-0.00011224484
48	0xbbf434af	-0.0074525694
49	0x3e0f6564	0.14003521
50	0x3e16a969	0.14713062
51	0xbdbc71df	-0.09201407
52	0x3c16c464	0.009202097
53	0xb986d6c8	-0.00025718496
54	0x0004da1a	4.45582e-40
55	0x00040b40	3.71378e-40
56	0xbdd4f1f2	-0.1039771
57	0xbd085950	-0.0332883
58	0x3db67f63	0.08911016
59	0x3e03ace4	0.12858921
60	0xae71f75e	-5.5016762e-11
61	0x8006a2ac	-6.09369e-40
62	0xb803c58e	-3.141682e-05
63	0xbb8ae62e	-0.0042388653
64	0xba0250cc	-0.0004971146
65	0xbdb6bcce	-0.089227304
66	0x8005a9a5	-5.20034e-40
67	0xbc0cfcb7	-0.008605174
68	0xb94cd0d3	-0.00019532749
69	0xb2ac2027	-2.0038057e-08
70	0xbe40da00	-0.1883316
71	0xbbf92df3	-0.0076043545
72	0x800576df	-5.0182e-40
73	0x3e4e6335	0.20155032
74	0xbeafcd56	-0.34336346
75	0xbe1f29db	-0.1554331
76	0x3d9360d7	0.07196205
77	0xbd5455c6	-0.051839612
78	0xbdb19cda	-0.08672495
79	0x3deebcde	0.11657117
80	0x3d49aacf	0.04923516
81	0xbaa91e35	-0.0012902679
82	0xaae28f45	-4.0245078e-13
83	0x2e3fd335	4.361596e-11
84	0x3e1d0f95	0.15337975
85	0xbe9028e6	-0.28156203
86	0x00020287	1.84578e-40
87	0x3e0e9300	0.13923264
88	0xa9e786e3	-1.028186e-13
89	0x00069022	6.02718e-40
90	0xbe9f84fb	-0.31156144
91	0xb59e6198	-1.1800321e-06
92	0x3da612b1	0.08109034
93	0x3e165373	0.14680271
94	0x3d0541b2	0.032533355
95	0xbe562040	-0.2091074
96	0x93a5f36a	-4.189188e-27
97	0x943ba08c	-9.4727496e-27
98	0xb1f0a446	-7.003595e-09
99	0x8f99ef9e	-1.5179262e-29
100	0xb8823cfd	-6.210243e-05
101	0xbd8c62f6	-0.06854813
102	0xbd556cd5	-0.052105743
103	0xbc29cf18	-0.010364316
104	0x8007d674	-7.1978e-40
105	0x80030829	-2.78434e-40
106	0xbe416d3e	-0.18889329
107	0x3e3cce5b	0.18438093
108	0xbe75203a	-0.23938075
109	0x3e009965	0.12558515
110	0xbe087f63	-0.13329844
111	0x3da6ae7f	0.08138751
112	0x3e2de0f4	0.16980344
113	0xae174f41	-3.4403817e-11
114	0xbe71363f	-0.2355585
115	0xbdb9dc8a	-0.090752676
116	0x0006f30b	6.382e-40
117	0xbcc6cf82	-0.02426887
118	0xbe88c06f	-0.26709315
119	0xbd269bd5	-0.040675957
120	0xb9cae8cd	-0.00038701892
121	0x3de7eed6	0.11324851
122	0x3e800159	0.25001028
123	0xbe16c362	-0.1472297
124	0xbd269067	-0.040665057
125	0x3e6cb446	0.23115644
126	0x3d8beebb	0.068326436
127	0x3c880d97	0.016608043

layers.3.weight f4 [940, 128]
0	0xbe39cfba	-0.18145648
1	0x3f0430d0	0.5163698
2	0xbebb8a8c	-0.3662914
3	0x3e45072c	0.19241017
4	0xbdcb1360	-0.09915805
5	0x228e2350	3.8526566e-18
6	0xbf30256e	-0.68807113
7	0x3bb36524	0.0054747034
8	0xbd8c8a5c	-0.068623275
9	0xbe9a8860	-0.3018217
10	0x3c1b5db0	0.009482786
11	0x3a8c5f01	0.0010709466
12	0x3c379ae1	0.01120636
13	0xbe3f7994	-0.18698722
14	0x39b17767	0.00033849032
15	0x3b475682	0.0030416553
16	0xbb8b3e7a	-0.004249391
17	0xbb88e217	-0.0041773426
18	0xb482a31f	-2.4333073e-07
19	0xbe33e343	-0.17567162
20	0xbbb63a17	-0.005561124
21	0xbe7f46cd	-0.24929352
22	0xbc6d5e2b	-0.014487783
23	0xbe882ee2	-0.2659827
24	0xbe99a479	-0.30008295
25	0xbdf489f5	-0.11940376
26	0x35b9565b	1.3808707e-06
27	0xbb476f43	-0.0030431307
28	0xbdcb5ea9	-0.09930164
29	0xbe6132c3	-0.2199202
30	0x3c9b7edf	0.018981395
31	0xbe47a84f	-0.19497798
32	0x3e513df2	0.20433787
33	0xba3a8418	-0.00071150204
34	0xbe2d6c63	-0.16935878
35	0x32731d51	1.4151127e-08
36	0xbbbbd63d	-0.0057323263
37	0xbadea443	-0.001698621
38	0x370b9185	8.318927e-06
39	0xbbfc0e5b	-0.007692141
40	0xb0baca4a	-1.3590775e-09
41	0x3f28681b	0.6578385
42	0x3c18aba0	0.009318262
43	0xbe9a51ef	-0.30140635
44	0xbc7807b0	-0.015138552
45	0xbe47e59a	-0.1952118
46	0x38141c4e	3.531231e-05
47	0x3b89f3ae	0.004209957
48	0xbc5ca65a	-0.013467396
49	0xbef8be48	-0.48582673
50	0xbe9ddfaf	-0.3083472
51	0x3d508027	0.050903466
52	0xbe0a3123	-0.13495307
53	0xbb79bdcb	-0.003810751
54	0xba51f007	-0.0008008484
55	0xba657b19	-0.0008754
56	0xbe0c6185	-0.13709076
57	0xbed3ed4e	-0.41391987
58	0xbe82d731	-0.25554803
59	0xbea68979	-0.32526758
60	0x3bd9a03b	0.0066414154
61	0xbb2c1f27	-0.0026263685
62	0xbba82368	-0.005131174
63	0xbb842b94	-0.004033515
64	0xbb44a8c9	-0.003000783
65	0xbe1f4417	-0.15553318
66	0xb9ab4495	-0.0003266676
67	0x3c90bf3e	0.017669316
68	0x3c5adc2f	0.01335816
69	0x3a5b7f4c	0.0008373156
70	0x3db91c8c	0.09038648
71	0xbc2da53e	-0.010598479
72	0xb91c4189	-0.00014901733
73	0xbec623aa	-0.38699085
74	0x3e60680a	0.21914688
75	0xbd7e524e	-0.06209021
76	0xbe906e1d	-0.2820901
77	0xbe1bf8e0	-0.15231657
78	0x3ca7894e	0.020451214
79	0xbef91aaf	-0.4865317
80	0xbe4cc023	-0.1999517
81	0x3c56c71d	0.013108996
82	0xbbbc7a30	-0.0057518706
83	0xb2066f7b	-7.825174e-09
84	0xbe489642	-0.19588569
85	0x3dfe9780	0.1243124
86	0x00017030	1.32081e-40
87	0xbe3a31dc	-0.18183082
88	0xbbaf9f87	-0.0053595933
89	0x3b87cbcf	0.004144169
90	0x3ecd4fb0	0.4009986
91	0xbb8bb1a3	-0.0042631193
92	0xbe8900da	-0.26758462
93	0xbe86a650	-0.2629876
94	0xbec2588c	-0.3795818
95	0x3ee7e250	0.4528985
96	0x3b80dcc4	0.0039325673
97	0xbb8a9102	-0.004228712
98	0xbc1b02e9	-0.009461143
99	0xbb239a69	-0.0024963862
100	0x357f587a	9.5123653e-07
101	0xbd9a19c1	-0.075244434
102	0xbd9f3531	-0.07773817
103	0x3bd7b58c	0.0065829214
104	0x390bdc27	0.00013338086
105	0x3af60dd6	0.0018772434
106	0xbcc01006	-0.02344514
107	0xbea3a1db	-0.31959423
108	0x3e3746f2	0.17898157
109	0xbee28a5a	-0.4424618
110	0x3be8d23d	0.0071051405
111	0xbec68a0e	-0.38777202
112	0xbe95a029	-0.29223755
113	0xbbef17d5	-0.007296542
114	0x3e7772e8	0.24164927
115	0xbe10b2f9	-0.14130773
116	0x399b6414	0.00029638468
117	0xbd3099be	-0.04311537
118	0x3e99dbf8	0.30050635
119	0x3e003462	0.12519982
120	0xbb1ac684	-0.002361686
121	0xbe3fd1b2	-0.18732336
122	0xbe95f5c5	-0.2928907
123	0x3e91f07a	0.28503782
124	0xbcee0ccf	-0.029058842
125	0xbf3d3dd2	-0.73922455
126	0xbe1f5373	-0.15559177
127	0xbe44a289	-0.19202627
128	0xbf30a975	-0.6900857
129	0x3efaeb67	0.49007723
130	0xbdbbb435	-0.09165231
131	0xadaece25	-1.9873056e-11
132	0xbe96bc10	-0.29440355
133	0xb796fc02	-1.7998744e-05
134	0x3e8500dd	0.2597722
135	0x3ada283b	0.001664407
136	0xbd09cc6e	-0.033642225
137	0xbea4fc47	-0.32223722
138	0xbc01e7e6	-0.007928824
139	0xb7b9ac3e	-2.2133925e-05
140	0xbc02f40b	-0.007992755
141	0x3d25920a	0.040422477
142	0x3aedba84	0.0018137251
143	0xbb1efb71	-0.0024258757
144	0xbbe2d5da	-0.0069224657
145	0x3bf25ee8	0.0073965676
146	0x922bf128	-5.4255334e-28
147	0xbf07b01d	-0.530031
148	0x3b9a1d7a	0.004703221
149	0xbd4570b0	-0.04820317
150	0xbea903ef	-0.33010814
151	0xbe45f46e	-0.19331524
152	0xbe247bfb	-0.1606292
153	0xbe3f4c15	-0.18681367
154	0x9e2a37f6	-9.0112975e-21
155	0x3a227215	0.0006196809
156	0x3e8f7c55	0.28024545
157	0xaa44500c	-1.7436069e-13
158	0xa77bb349	-3.4930438e-15
159	0x3d89bb14	0.067251354
160	0x3c882f38	0.016624078
161	0x3c188439	0.009308868
162	0xbde274ce	-0.11057435
163	0x127d90e9	8.001134e-28
164	0xbe8644c8	-0.2622435
165	0x3ba37797	0.0049886215
166	0x320eb77f	8.30721e-09
167	0x3b947252	0.0045302296
168	0x15c96d3e	8.135561e-26
169	0x918cc1b6	-2.220749e-28
170	0xbc1a8506	-0.009431129
171	0xbd6dde73	-0.058073472
172	0xbeff4290	-0.4985547
173	0xbe6bcecd	-0.23028107
174	0x80041937	-3.76387e-40
175	0x3c13f141	0.009029687
176	0x3c8fad60	0.017538726
177	0xbd8be216	-0.06830232
178	0xbdbcd267	-0.092198186
179	0xb95dc841	-0.00021150803
180	0xbee4ff32	-0.4472595
181	0x3be4826e	0.0069735562
182	0xb878a3d8	-5.92804e-05
183	0xb82e92b0	-4.1621446e-05
184	0xbd7b61ea	-0.061372675
185	0x3e1f1556	0.15535483
186	0xbed1de83	-0.40990075
187	0xbd99bf69	-0.07507212
188	0x3bb60ae6	0.0055554984
189	0x3a591adc	0.00082818954
190	0x3bc97d04	0.006148936
191	0x3bd37eda	0.006454331
192	0xbbb0b08b	-0.0053921393
193	0xbd2657ab	-0.04061095
194	0x2937ef88	4.0841923e-14
195	0xbb4328ea	-0.0029779025
196	0xbbeab3f9	-0.0071625677
197	0xba1bfbd8	-0.00059503084
198	0xbfdfd20e	-1.7485979
199	0xbc3ba656	-0.011453232
200	0xb470e0a4	-2.2433466e-07
201	0xbe6e67fe	-0.23281857
202	0x3e37522b	0.17902438
203	0x3d955a3e	0.07292603
204	0xbdacf43d	-0.08445022
205	0xbe84a0a7	-0.25903818
206	0xac904cbd	-4.101246e-12
207	0xb4e09b69	-4.1836327e-07
208	0xbef26fd6	-0.4735095
209	0xb5aefb0b	-1.3037073e-06
210	0x36534480	3.1481322e-06
211	0xb0ed03c9	-1.7245095e-09
212	0xbf0ba355	-0.545461
213	0xbf4164a0	-0.75544167
214	0x00052403	4.72096e-40
215	0xbd8ae220	-0.06781411
216	0x35254a14	6.157509e-07
217	0xbb24b2b7	-0.0025130936
218	0x326d1e2a	1.3802074e-08
219	0x3bf47f1d	0.007461442
220	0xbe931ff1	-0.28735307
221	0xbe1a2d74	-0.15056401
222	0x18a35f6e	4.223087e-24
223	0xbfe96602	-1.8234255
224	0x000414ad	3.74759e-40
225	0xbb0a0881	-0.0021062198
226	0x3b54d5b2	0.0032476005
227	0xba89891a	-0.001049313
228	0xa43373c2	-3.891249e-17
229	0xbfbdb387	-1.4820412
230	0xbe8863d2	-0.26638657
231	0xbb769031	-0.0037622566
232	0x2de8b205	2.6454403e-11
233	0xb6c4f663	-5.8699384e-06
234	0xbe7be4f9	-0.24599065
235	0xbf12e4da	-0.5738045
236	0xbd244346	-0.04010322
237	0xbf2303cf	-0.63677686
238	0x3d60359c	0.054738626
239	0xbe18bfcb	-0.14916913
240	0xbc657e20	-0.014007121
241	0x3ba7b87d	0.0051184283
242	0xbf5d265f	-0.86386675
243	0xbddc2c13	-0.10750594
244	0x00015e42	1.25649e-40
245	0xbd674451	-0.056461636
246	0xbfe04ea5	-1.7524
247	0xbeb65277	-0.3560979
248	0x3baf7676	0.005354698
249	0xbe7241e3	-0.23657946
250	0xbe91c69f	-0.28471848
251	0xbd414d33	-0.047192764
252	0xbe2f5fae	-0.17126343
253	0xbee916b2	-0.45525128
254	0xbf1c5b2d	-0.61076623
255	0xbee2ddff	-0.44309995

layers.3.bias f4 [940]
0	0xbf8827c4	-1.0637136
1	0xbe7f76b6	-0.24947628
2	0xbdfbbc3d	-0.12291763
3	0x3d619a11	0.05507857
4	0xbe2f8af5	-0.17142852
5	0xbdd87bbd	-0.10570476
6	0xbe6ffd11	-0.23436381
7	0xbe171760	-0.1475501
8	0xbd7a76bf	-0.0611484
9	0xbec2f0cb	-0.38074335
10	0xbd801fa6	-0.062560365
11	0xbd2a930c	-0.04164414
12	0xbe12ba63	-0.14328913
13	0xbdea5e7c	-0.11443803
14	0xbe3bca77	-0.18338953
15	0xbe4e8f99	-0.20171966
16	0xbe36b441	-0.17842199
17	0xbe461e51	-0.19347502
18	0xba8a1630	-0.0010535177
19	0xbe4f345a	-0.20234814
20	0x3c94704b	0.018119952
21	0xbc4b362c	-0.012403052
22	0xbddb2a0d	-0.1070138
23	0xbc1ce416	-0.009575864
24	0xbe4211d9	-0.18952121
25	0xbd23aee9	-0.03996173
26	0xbdc29f4d	-0.095030405
27	0xbec1431d	-0.37746516
28	0xbe6117bd	-0.21981712
29	0xbced1f5f	-0.028945623
30	0xbe214d99	-0.15752257
31	0xbd8c4a88	-0.06850153
32	0xbd44158e	-0.04787212
33	0xbdae931e	-0.08524154
34	0xbea04a59	-0.31306723
35	0xbe039a5d	-0.12851854
36	0xbe29cd5d	-0.16582246
37	0xbe0f0a41	-0.13968755
38	0xbd1dd5ba	-0.038533904
39	0x3df0e1af	0.11761796
40	0xbeba1d08	-0.36350274
41	0x3b530238	0.0032197367
42	0xbdebd605	-0.1151543
43	0xbddc977f	-0.10771083
44	0xbe6d165e	-0.23153064
45	0xbdb2221b	-0.08697911
46	0xbdbe1e36	-0.09283106
47	0xbda78fb5	-0.08181707
48	0xbc2d7bce	-0.010588599
49	0xbcef0bc8	-0.029180422
50	0xbdd591c5	-0.10428194
51	0xbd99a498	-0.07502097
52	0xbdb15e8a	-0.0866061
53	0xbe7f1bb8	-0.24912918
54	0xbdf5a816	-0.119949505
55	0xbdd7234f	-0.105047815
56	0xbccac3de	-0.0247516
57	0xbdc6cb42	-0.09706737
58	0xbda6f19d	-0.08151553
59	0xbe2ce323	-0.16883521
60	0xbd85515b	-0.06509658
61	0xbe2463f7	-0.16053759
62	0xbe02dc27	-0.12779294
63	0xbe377645	-0.1791621
64	0xbd4831de	-0.048875682
65	0xbe1396f2	-0.1441305
66	0xbdb6ab36	-0.08919375
67	0xbe0ffb9a	-0.14060822
68	0xbe11b12e	-0.14227745
69	0xbe2c2be5	-0.1681362
70	0xbde52579	-0.11188788
71	0xbd1d9377	-0.03847071
72	0xbe8116b4	-0.25212634
73	0x3c245caf	0.010031863
74	0xbd15bf76	-0.036559545
75	0xbd75aa65	-0.059976954
76	0x3cf247db	0.029575279
77	0xbdf0692c	-0.1173881
78	0xbbb9d941	-0.0056716506
79	0xbe19f88e	-0.15036222
80	0xbe1f0186	-0.15527925
81	0xbe001f14	-0.12511855
82	0xbda619f7	-0.08110421
83	0xbc1d5140	-0.009601891
84	0xbc46b5e4	-0.012128327
85	0xbe37f52f	-0.17964624
86	0xbe38c0d1	-0.18042304
87	0xbd872f05	-0.06600765
88	0xbbb8faf6	-0.0056451513
89	0xbe3eecf2	-0.18645075
90	0xbe4748d7	-0.1946138
91	0xbdf52390	-0.11969674
92	0xbde821ac	-0.113345474
93	0xbdd3185c	-0.103073806
94	0xbe08e8e1	-0.13370086
95	0xbd918d29	-0.07107002
96	0xbd5c7511	-0.05382258
97	0xbdee3696	-0.11631505
98	0xbdfe8e5c	-0.12429497
99	0xbd9a3867	-0.07530289
100	0xbdf4a180	-0.11944866
101	0xbe0c73e8	-0.1371609
102	0xbe326b21	-0.17423679
103	0xbd9b1de5	-0.07574061
104	0xbd92c9f3	-0.07167425
105	0xbdab8919	-0.08375759
106	0xbe050e67	-0.12993775
107	0xbe43e379	-0.19129743
108	0xbd3c602d	-0.045990158
109	0xbd02c4e4	-0.03192605
110	0xbdd87a98	-0.10570258
111	0xbd8df69d	-0.069318034
112	0xbcd2c164	-0.025726981
113	0xbbffc683	-0.007805647
114	0xbe57edd3	-0.21086816
115	0xbe2424a1	-0.16029598
116	0xbd85f43b	-0.06540724
117	0xbd27deb1	-0.04098386
118	0xbd9eff2b	-0.07763513
119	0xbe6f84b4	-0.23390466
120	0xbd62d62e	-0.05538004
121	0xbd13b6c0	-0.036062956
122	0xbdeaedc3	-0.11471131
123	0xbdf8105a	-0.12112494
124	0xbb6ef279	-0.0036460443
125	0xbe75f04e	-0.2401745
126	0xbdb94f41	-0.090483196
127	0xbddf9a0a	-0.109180525
128	0xbd897139	-0.06711049
129	0xbe195011	-0.14971949
130	0xbe043bf7	-0.129135
131	0xbd88767e	-0.066632256
132	0xbd2a94d8	-0.041645855
133	0xbd87a307	-0.06622892
134	0xbdb0a656	-0.08625476
135	0xbd544bb8	-0.051830024
136	0xbc9207b2	-0.017825935
137	0xbd69c7d0	-0.05707532
138	0xbda2f81c	-0.07957479
139	0xbdaf0c2d	-0.08547244
140	0xbd9cdf4e	-0.076597795
141	0xbd8b8835	-0.06813089
142	0xbc6e5d86	-0.014548665
143	0xbdaaff5c	-0.08349487
144	0xbd690fcc	-0.05689983
145	0xbdeb6999	-0.114947505
146	0xbd9cf6bd	-0.07664249
147	0xbdb0017a	-0.08594032
148	0xbd35f356	-0.044421516
149	0xbe157824	-0.14596611
150	0x38e3ad8e	0.000108565306
151	0xbd753a60	-0.059870124
152	0xbc8e1bd9	-0.017347263
153	0xbd90e6b6	-0.070752546
154	0xbe1d31b6	-0.15350994
155	0xbd88f4d8	-0.06687325
156	0xbda24b3f	-0.07924508
157	0x3c20b9b7	0.009809903
158	0xbdfe0665	-0.124035634
159	0xbcf13f46	-0.029449116
160	0xbdaf6488	-0.08564097
161	0xbdbc9f3f	-0.09210061
162	0xbe06bb85	-0.1315747
163	0xbd571190	-0.052506983
164	0xbd12ced8	-0.035841793
165	0xbd149fd8	-0.03628525
166	0xbd1f9ddc	-0.038968906
167	0xbd66a329	-0.056307945
168	0xbdbf53d9	-0.093421645
169	0xbd4687ef	-0.04846948
170	0xbdb361e3	-0.08758905
171	0xbe2ea2df	-0.17054318
172	0xbd947aaf	-0.072499625
173	0xbcaa3fc5	-0.02078236
174	0xbd92d175	-0.07168857
175	0xbda0c2a9	-0.078496285
176	0xbe3b7413	-0.18305998
177	0xbdd024aa	-0.10163243
178	0xbe10588f	-0.14096282
179	0xbd5d37bc	-0.05400823
180	0xbd5e7243	-0.054308187
181	0xbcabed29	-0.02098711
182	0xbde0a5f1	-0.10969151
183	0xbcd395f1	-0.025828334
184	0xbd9da5c3	-0.07697632
185	0xbd886987	-0.06660753
186	0xbc893535	-0.016749004
187	0xbdca8e03	-0.09890368
188	0xbd3dbc5d	-0.046322215
189	0xbdae9234	-0.0852398
190	0xbd39abeb	-0.04532997
191	0xbe2ab900	-0.16672134
192	0xbd816c86	-0.06319527
193	0xbe15a332	-0.14613035
194	0xbd8e949b	-0.06961938
195	0xbd7cdf8b	-0.061736625
196	0xbd9c75c8	-0.076396525
197	0xbd31f9be	-0.043451063
198	0xbddd8422	-0.10816218
199	0xbd067b04	-0.03283216
200	0xbda21cc4	-0.07915643
201	0x3c07c5b1	0.008286879
202	0xbdc25c91	-0.09490312
203	0xbd88599a	-0.06657715
204	0xbdcf06a0	-0.101086855
205	0xbde185cf	-0.1101185
206	0x3bc2e32d	0.0059474916
207	0xbe118891	-0.14212252
208	0xbdd7542e	-0.10514103
209	0xbdc639fb	-0.09679028
210	0xbe212780	-0.15737724
211	0xbd34aedc	-0.04411207
212	0xbe0b30f7	-0.13592897
213	0xbe37bba6	-0.17942676
214	0xbd5a1a4b	-0.05324773
215	0xbc7c469f	-0.015397697
216	0x3a2ddb5f	0.0006632115
217	0xbd9ce9c1	-0.076617725
218	0xbd9d8fc5	-0.076934375
219	0xbe17c360	-0.14820623
220	0xbc4bb835	-0.012434055
221	0xbcf20279	-0.029542195
222	0xbd783baf	-0.060603794
223	0x3c8d31af	0.017235605
224	0xbd90b511	-0.07065786
225	0xbc24ee66	-0.010066604
226	0xbda1b9db	-0.07896777
227	0xbd2c4fda	-0.04206834
228	0xbd7034e5	-0.058644194
229	0xbe0b2b6f	-0.13590787
230	0xbd8b69ca	-0.06807287
231	0x3b9d63fb	0.0048031784
232	0xbd6e071e	-0.058112256
233	0x3a8eb947	0.0010888957
234	0xbdcd8125	-0.10034398
235	0xbdd63c0e	-0.10460673
236	0xbd4784bd	-0.048710573
237	0xbe2f9db5	-0.17150004
238	0xbda61d24	-0.08111027
239	0xbd9f62bf	-0.07782506
240	0xbb2b9967	-0.0026183964
241	0xbd73fdfc	-0.05956839
242	0xbe289fac	-0.1646716
243	0xbd839281	-0.06424428
244	0xbe170572	-0.14748171
245	0xbd8edea1	-0.06976057
246	0xbdda8009	-0.10668952
247	0xbcd113a8	-0.025522068
248	0xbbb57833	-0.0055380105
249	0xbd83e72f	-0.06440579
250	0xbd4cad98	-0.04997024
251	0xbd7e26e2	-0.0620488
252	0xbcd07566	-0.025446605
253	0xbd90433e	-0.070440754
254	0xbd508c5c	-0.050915107
255	0xbd1f56a9	-0.038901005
