models/MPC_horizon_6_obs_10.pt (torch_old, 288096 bytes, 8 tensors)

layers.0.weight f4 [128, 58]
00000000: ff3c 842c 0af3 2c8a 38be 0780 95ef 0000
00000010: 4bce 1b27 2f0f bcb3 08d9 0180 7bef 0200
00000020: e02f 0680 e794 4aab 9b10 5fa3 07cc 0100
00000030: 1f6c 51a4 444d 20ae 1071 0980 ae9d 600c
00000040: 514b 0680 fd2e 5dac 69cb 439c 43bd abad
00000050: 9135 ebaa 9427 3c85 2e99 b2a9 8a67 62b1
00000060: a67b 0580 ecc2 1da2 491d 0380 e5d7 20b0
00000070: de89 0000 a19e 9399 f843 0180 d498 06a7
00000080: cfa8 2ea4 7f3a 329e a898 0080 af64 57a5
00000090: 0425 0180 dc7e 0400 0a77 699c 7a76 dda8
000000a0: 6a06 0500 4b39 b5ac b90e d1a9 2fce f6a9
000000b0: 0d99 b99f c817 38ab ed15 0580 0586 978f
000000c0: 97c3 0880 f711 1027 3ecd 0500 3bef 8199
000000d0: 642c 5c28 0630 0880 3667 338a 4c6a 62ab
000000e0: 938c 8c0b 3f01 0280 2460 90be ae21 29bf
000000f0: 4a70 d4bf 6480 263f 88c1 cebd be92 a23e
00000100: 07bd e93c d9df a43c 9aff d43c a24b d93c
00000110: b4a5 29bd d0b8 f43b e01c b43d 943b 063e
00000120: 345a ae3d e3b5 303d 6206 c33c b1c6 7c3d
00000130: a1f9 25bd 6207 a03d a3e5 493c 9bba 76bd
00000140: 1f01 faba 828d ea3d 8ec7 d83d 631c ecbb
00000150: 43d7 c73d 8204 083e 52a3 3b3d 2a77 013b
00000160: b153 b33c df40 1f3d 364f b93d 4a1f fd3d
00000170: f5b5 35bd ed2a 8cbc 20a9 87bd 2158 923d
00000180: ab3f c2bb dffb d7bb f658 073e 5cd0 1e3e
00000190: 6fe5 483c e332 113e 9dd8 9fbc fd6d e6bb
000001a0: 7762 3dbc 3187 1abd fee8 163e 65f3 86be
000001b0: f880 853f 3b36 81be b994 61be f267 1a3f
000001c0: b9cf e4bd 24c8 83be fcac 0dbf e9dc 843e
000001d0: 7d68 0a3e b8bb 16bf 3b14 f5bb 8cf3 abbe
000001e0: 5bc5 b5bd b0c7 93bd 8049 17be ccb9 b03e
000001f0: 6c2e 35bd 53a3 163d 6097 683d dbde 92bd
00000200: 7206 cd3d 306a 1dbd 1b33 a3bc 60fa e73d
00000210: 2013 a73b 2dae fb3d 1216 6dbd a343 243c
00000220: 0fa6 81bc 4d34 353d e913 49bd 1b2b 173d
00000230: 9a9e cc3d 6191 eb3d af5a 64bd 3b40 3b3d
00000240: c8d4 ad3d 9c5e 873c f4e2 d9bc 2f60 aabb
00000250: c550 cdbd b85f ce3d e8eb adbd cd5c 493d
00000260: 0a5e be3d 2a7f b43d 95a3 c13d 014f fd3c
00000270: f5f8 3c3c 1fb2 923d 5d0f 5dbd 0d62 afbd
00000280: ac9f b03d a499 a23d e5da ca3d 18cd 55bd
00000290: fcc9 b03e fb3c 1ebe 16d5 0a40 6617 00bf
000002a0: 637f b6bf 9815 a5be caea 3abf cfaf 52bf
000002b0: 4c7d 6e3e ccd1 b33e fe21 f7bb 30a0 bdbb
000002c0: af16 0fb6 840e 0a37 6d25 25bc 9505 febb
000002d0: 73e0 6ab4 1dca 04b3 22a5 46bb 4189 fcbb
000002e0: 8471 d9bb 4348 99b9 5a1a ddbb ccf2 05bc
000002f0: e71b a4b4 fd83 9dbb e2c2 04b3 9c0e 01bc
00000300: 48b3 c2bb e3ab 04bc de88 fabb 7c90 8abb
00000310: e699 f4bb 18d6 0fbc 2b91 1ebb dade d4bb
00000320: 0dfa 4abb f2e5 0bbc dfa8 35bb 292b bcbb
00000330: 0320 abba 992d e8bb 9a97 dcbb 061f c8bb
00000340: f28e 67bb 3f2d e1bb 23bd 0eba afb6 19bb
00000350: ba09 c3bb 4c94 f0bb 67f7 53bb 4804 02bc
00000360: e726 f5bb 00bc f5bb 03d3 ccbb 8d2e fcbb
00000370: b3f7 2bbb 4780 a5bb 6c17 90b8 fdd2 ba3a
00000380: 43d0 ffb8 dffa 41ba 7d03 4839 c55c d0b8
00000390: 8120 91b8 8355 bfba eb4e acb8 71e7 7338
000003a0: fe10 913e e3e9 d63e 2c75 263f 7806 dd3f
000003b0: 7cdb 50bd a9ee 403e e152 cdba 7c8e f4bd
000003c0: a65e bebd fa4a 713d e9cd 823c 198d 623d
000003d0: bed2 44bc 596a 98bd b3d4 8e3d 7c6b cd3d
000003e0: dc0b b73c 7336 a73d 0836 a63d 9168 de3d
000003f0: 8b71 eabd 9791 ccbd c5a2 8a3b 798f 26bd
3.7584376e-12 -8.327209e-33 -7.11086e-40 8.5946e-41 2.1622403e-15 -8.757194e-08 -1.69692e-40 2.6958e-40
-5.68187e-40 -7.197146e-13 -1.20923706e-17 1.65027e-40 -4.5411233e-17 -3.6448414e-11 -8.67079e-40 1.7303782e-31
-5.78031e-40 -3.1432073e-12 -6.478299e-22 -1.9524498e-11 -4.1781555e-13 -8.846987e-36 -7.9313604e-14 -3.2946184e-09
-5.03534e-40 -2.1380658e-18 -2.86012e-40 -5.8514465e-10 4.9457e-41 -1.5263513e-23 -1.16218e-40 -1.8679084e-15
-3.7873222e-17 -9.435338e-21 -5.4763e-41 -1.868239e-16 -1.05114e-40 4.1285e-40 -7.7247087e-22 -2.458731e-14
4.61478e-40 -5.15069e-12 -9.2840185e-14 -1.0960362e-13 -7.860375e-20 -6.5402935e-13 -4.67043e-40 -1.4941372e-29
-8.04848e-40 1.9993753e-15 5.32805e-40 -1.3434912e-23 1.2222079e-14 -7.51912e-40 -8.637948e-33 -8.0438846e-13
5.413755e-32 -1.84118e-40 -0.2819835 -0.66067016 -1.6596768 0.6503966 -0.10095507 0.3175258
0.028532518 0.02012627 0.026000787 0.026525322 -0.041417792 0.0074683204 0.0879457 0.13108665
0.08513299 0.04314221 0.023806754 0.061712924 -0.040521268 0.07813908 0.012322816 -0.060236555
-0.001907382 0.11452772 0.10584937 -0.0072055324 0.09757855 0.1328297 0.04581005 0.0019754865
0.021890493 0.038880225 0.090483114 0.123594835 -0.04436298 -0.017110312 -0.06624055 0.071457155
-0.005928 -0.0065913047 0.1321753 0.1550917 0.0122617325 0.14179568 -0.019512469 -0.0070321546
-0.01155912 -0.037726585 0.14737317 -0.2635757 1.0429983 -0.25236687 -0.2202939 0.6031486
-0.111724325 -0.25738633 -0.5534208 0.2594979 0.13516422 -0.58880186 -0.0074792183 -0.3358425
-0.08875533 -0.07215822 -0.14774132 0.34516752 -0.044233724 0.036776852 0.056784987 -0.071714126
0.10010995 -0.038431346 -0.01992183 0.11327052 0.0050987154 0.12289081 -0.057882376 0.0100258915
-0.015826253 0.04423933 -0.049091253 0.036906343 0.09991188 0.11502338 -0.055750545 0.04571555
0.084878504 0.016524605 -0.026597477 -0.0051994543 -0.10025171 0.10076851 -0.08492261 0.049160767
0.0929528 0.08813317 0.09455029 0.030921461 0.011533965 0.0716288 -0.05396973 -0.085636236
0.08624205 0.07939461 0.09905032 -0.052197546 0.34529102 -0.1545295 2.1692557 -0.50035703
-1.4257625 -0.32243037 -0.7301451 -0.8229951 0.23289984 0.35121 -0.007541894 -0.005786918
-2.1321864e-06 8.228821e-06 -0.010079724 -0.0077521303 -2.1874602e-07 -3.0917466e-08 -0.003031083 -0.0077067916
-0.0066358466 -0.00029236273 -0.006747526 -0.008175563 -3.0567682e-07 -0.004806994 -3.091089e-08 -0.007877018
-0.005941782 -0.008097622 -0.0076457104 -0.0042286497 -0.007464635 -0.008779071 -0.0024195414 -0.0064962925
-0.0030971796 -0.00853871 -0.0027719063 -0.00574245 -0.0013055805 -0.007085514 -0.0067319395 -0.006107214
-0.0035333005 -0.006871849 -0.00054450537 -0.0023454835 -0.005952087 -0.007341897 -0.0032343508 -0.007935591
-0.007481444 -0.007499218 -0.0062507405 -0.007695979 -0.002624017 -0.0050506922 -6.870818e-05 0.0014253553
-0.00012198139 -0.00073997484 0.00019074786 -9.9354926e-05 -6.920193e-05 -0.0014597628 -8.216299e-05 5.815126e-05
0.28333277 0.41975316 0.6502254 1.7267599 -0.050990567 0.18841042 -0.0015664959 -0.11941239
-0.092953965 0.058909394 0.015967326 0.055310342 -0.0120131355 -0.07442159 0.06974163 0.10030267
0.022344522 0.08164682 0.081157744 0.10859788 -0.11447438 -0.099887066 0.0042308294 -0.04066417

layers.0.bias f4 [128]
00000000: 2fb9 c987 1436 0a3d dd52 90bd af00 94bb
00000010: 5e6b 7a3d bc68 72bd 1a3b d2bb 41af 1a3b
00000020: d6e6 ad3c 95a1 893d a9d9 b2b9 47ba dcbb
00000030: 9189 35bc 5b6f 0380 df06 883d 9a5f 993d
00000040: f306 d0b0 678d 56bb e27c a6bd 85df cf3b
00000050: 2f24 49bd cd91 4abc 8e2c 23bc 8a8c f03d
00000060: 2995 92bb 2de2 b03c a0ab 04bd 481b 6ab9
00000070: 20ac 4f3b 998d d63c 27e3 13b9 c1b3 0600
00000080: dd42 de3d f10c 26bd af2d 54bd 68c2 aab8
00000090: 61ee ebbc d74a b4b1 f610 d93d 115d 86b4
000000a0: 8e03 6dbd 378e 50bd 84e6 0b3e a67e ecbd
000000b0: 99c8 06b7 a451 e6bd e4a2 523d 90fd 24bc
000000c0: fd8e d305 f97e b23d f292 f5bc 9930 2fbd
000000d0: 5db0 2e3c 2f6f 263e 3cba c43d 3fb6 853d
000000e0: f30e c63c f758 663d 24de 953d fa9b 4ebd
000000f0: 9f7f d8b7 7c8e 093e a0bc e93d 0781 ffbc
00000100: 1c5a b9bd 78fb d53d 2c32 6b03 bacd 0a3e
00000110: 8c49 cc3d 9505 a23d b325 afbd 5325 89bc
00000120: abe1 81bd 89e1 aab6 3e4e 143e 328e 13bd
00000130: afa2 bc3d 7522 7fbb 4e40 1eaf 12df 253c
00000140: b7fd 973d 4b67 c33b f183 ff3d 66a1 04bb
00000150: d0b5 f13d e8b7 ac3d b4b3 0480 60af ddb7
00000160: cf26 edbb 2fbe b6bd b091 0f3e 61eb d0bc
00000170: df7f 7fbd 0ee1 163e 45cd 883d df29 f8ab
00000180: be04 833d 1fb2 a63b f9ae f5b1 38d7 473d
00000190: 3b39 b53d 54d9 58bd cc59 883d 9b98 ca9c
000001a0: 7c14 9eb3 9e61 048e 1137 af93 a6f0 aebc
000001b0: 4cba b5bd f03d d3bb 79f9 003e 1eb1 b23c
000001c0: 1884 0bbc 386d 11bc 2fc1 873d 1577 863d
000001d0: c84b 253d 6f11 14bc 0d2e 073e 2942 02b0
000001e0: 624e 023d 15d7 9abc 6f75 abbd 94ae 0692
000001f0: be95 dabb 58f9 97b4 5736 3fbc f0f2 7cb6
-3.035196e-34 0.03374298 -0.07047055 -0.004516683 0.06113755 -0.059181914 -0.006415737 0.0023602995
0.021228235 0.067202725 -0.00034112975 -0.006736073 -0.011080162 -3.15453e-40 0.066419356 0.07488938
-1.5135967e-09 -0.003273809 -0.08129288 0.0063437843 -0.049106773 -0.012363863 -0.009959353 0.11745556
-0.0044733477 0.021592224 -0.032390237 -0.00022326142 0.0031688288 0.026190566 -0.00014103633 6.15497e-40
0.10852597 -0.040539686 -0.05180138 -8.142443e-05 -0.028800191 -5.247198e-09 0.10598938 -2.502716e-07
-0.05786472 -0.050916877 0.13662153 -0.11547594 -8.033728e-06 -0.112460405 0.051424876 -0.01007022
1.989487e-35 0.08715624 -0.029977296 -0.042770956 0.0106621655 0.1625335 0.09605834 0.06528901
0.02417705 0.056237187 0.073177606 -0.05044172 -2.5808635e-05 0.1343326 0.114129305 -0.031189455
-0.0905039 0.104483545 6.9117888e-37 0.13555041 0.099749655 0.07911221 -0.085521124 -0.01674143
-0.06341871 -5.0926506e-06 0.14482972 -0.03602428 0.09210717 -0.003893045 -1.4392862e-10 0.010123985
0.07421439 0.005963241 0.12476338 -0.0020237803 0.11802256 0.08433515 -4.31807e-40 -2.6426918e-05
-0.0072372924 -0.089229934 0.14020419 -0.025502862 -0.062377807 0.14734289 0.06679777 -1.7633081e-12
0.06397389 0.0050871517 -7.1503305e-09 0.048789233 0.088488065 -0.052941635 0.066577524 -1.3406686e-21
-7.3611744e-08 -1.6317257e-30 -4.423051e-27 -0.021354984 -0.08873424 -0.0064465925 0.12595166 0.021812972
-0.00851538 -0.008876137 0.06628644 0.06565682 0.040355474 -0.00903736 0.1320116 -4.7387744e-10
0.031813033 -0.018901387 -0.08372008 -4.249813e-28 -0.0066706827 -2.8307363e-07 -0.0116706705 -3.7692334e-06

layers.1.weight f4 [128, 128]
00000000: 2a70 4b2c b706 21bd 7126 453e 9ffd 3e3b
00000010: eb03 eb3d 3432 33bf 381a 213c 98ea 6b3c
00000020: f1fe ed3d f428 793d 0dc5 8d3a 4d67 963b
00000030: 39c8 5f3c 5efb 0080 d863 f63e 0260 c63d
00000040: c0e2 10bc 4d38 56b9 f389 5bbd 4026 8d3e
00000050: 4bb9 2abe 6399 b0bd 4bcf 333c 51f4 aebd
00000060: d574 1a3c 7917 713d 6c35 01bc 5d9d 6d3b
00000070: 23b1 c8bd b310 42be c601 8b3a 45a2 0780
00000080: 4f31 cb3c fa7d 2b3e 624d 963e 9d3c beba
00000090: e0fd a33e 5890 81ba 6b23 31bf 9364 a204
000000a0: d87d 893e fb16 8c3d d3b0 d13d 562c 3c3d
000000b0: 936f 433b 50c6 9bbd 3298 41bd 637a b03e
000000c0: ade5 a831 3798 b2bd ed21 153e c1a5 673e
000000d0: 9459 06be fc16 4b3e f4cd 013e 0473 7c3e
000000e0: ff69 6c3d 6ef2 253d aa75 193d 8aef 35bd
000000f0: e3ca 6bb9 97ac e63d 767b 333e 891c 1cbc
00000100: 7cfb 783d 3867 083d 92ba ef39 54e3 733e
00000110: f1e3 3dbe 98b4 21bd cf9a a6bd 1847 283e
00000120: d58e 4ebc c6f1 b4ba 8f3b 04bd a679 023e
00000130: 81a1 9cbe 4293 873b cf41 8aa3 5bd6 a9bd
00000140: 927d 133e 9d0c 9fbd c649 043d cb5d 7ba3
00000150: 52a5 0d3d 7fac 18be 3959 e513 5ab7 0400
00000160: 1350 873c cff6 743e cec0 83be 34a7 bc3d
00000170: b332 e53d 692f dbbe cb40 4dbd 9dd6 5f37
00000180: a332 b33d e17f 4dbe f357 f4b8 1477 c63d
00000190: 8b4b dbbc f8b4 61bd d530 cbbe ade8 6122
000001a0: 39a0 113a dfa7 0480 5832 a3af 80ca 6cbe
000001b0: 5595 193e 8894 0a3c 37e9 563e 7454 68bc
000001c0: 43d2 413e 9125 b43a c76f aa3d 8a3f 61bc
000001d0: ef0f 923b 90ec d4bd 9d81 eebd 5e58 92a2
000001e0: 2f02 cc3e 4bb5 183e e1f0 9b3c 3a8e a62e
000001f0: 7ad5 253c 4394 a4b9 840c 59bc d1bd 53b9
00000200: 3fc6 1b30 f583 073e a752 09be 3835 8e3b
00000210: c699 8e3e 9e1d a1bf 8432 c93b b375 e03b
00000220: 83d0 4d3e 6abb 1e3d 5d70 1b39 8dce 923b
00000230: d731 78bc a074 0200 451a 96bd 8389 14be
00000240: 23c6 1d3b 107f 8cba 26f9 78bd ebc1 bf3d
00000250: 2b76 243f 7bd7 063e b2c2 d23b 1970 04be
00000260: 808a b63b 3177 eb3d 708a e63b 9628 00ba
00000270: 30ff 8b3d bb6e 963e 8bcc 72b9 b736 0480
00000280: 3014 a3be 602b eb3d 06c1 a13d 4c66 d039
00000290: 757f 1e3d ab77 8234 d60a cbbe b56a 0480
000002a0: d855 d4bc c73c 943c fd8b 983d 279a 4c3e
000002b0: 14a4 58b6 38ab 46bd 9276 62be ec7f c83d
000002c0: 09a4 3988 504f 9cbe 6628 c73d 1cbb e93e
000002d0: 9345 56bd 889b 9cbd cc19 89bd 2066 84be
000002e0: c0c2 553e 4cff 3cbe d670 f23c 1c73 abbe
000002f0: 819d 04b8 0a9b ffbd 3f24 443e 3fd4 fabe
00000300: 02b8 a03d d1f1 4abd 6a07 46b8 a4eb 113e
00000310: fad4 22be 84b2 1a3e c723 95be 4556 36be
00000320: e0e9 833e 774e 6f36 49ca 4b3d a3e2 d2bd
00000330: 7a69 293e 8e98 633a 06ee 0300 ec33 3a3d
00000340: e0eb 053d f2c6 363e ed3b bdbd 608d 6e0e
00000350: 73af 83be c49c e0be 4d52 0780 ab51 0580
00000360: 4d5c 023c 0f1a c83d e277 6a3e ab68 e8bd
00000370: a9c0 583d 7bd0 233e 7fbf 30bd b4d0 ca29
00000380: 8640 183e a609 4e3e 78c2 e72d 8ae3 5b3e
00000390: 1c3a fc3c 3eaf 493e f702 39be acab 0300
000003a0: a57b 8830 c99a 0080 8133 aa22 8e8f 41be
000003b0: 59f8 8d3c 3098 56bc 1f0f 3c3e cb52 10c0
000003c0: a74d ee3d 7290 6b3b 4fea 3d3e e12e e13c
000003d0: 7790 1c3f 70d8 44be 2bf9 7bbe 70a0 0680
000003e0: 2cbc c63e 704e a93c ca1f 863e 00bb 0680
000003f0: 2d7f 72bc 1c57 36b1 06c5 59bc e6f5 3d38
2.8910299e-12 -0.039313044 0.19252945 0.002914287 0.11475357 -0.6999848 0.009832911 0.014399193
0.11620892 0.06083007 0.0010816172 0.004589951 0.013658577 -9.0174e-41 0.4812305 0.09686281
-0.008843124 -0.00020429604 -0.053598356 0.27568245 -0.16672246 -0.08623006 0.010974715 -0.085426934
0.009427269 0.058860276 -0.007886272 0.0036257126 -0.09799411 -0.18951683 0.0010605387 -7.0106e-40
0.024803786 0.16747275 0.29355913 -0.0014513914 0.3202963 -0.0009884937 -0.6919467 3.817838e-36
0.26853824 0.06840321 0.10238805 0.04594072 0.0029821142 -0.076061845 -0.047264285 0.34468374
4.9155546e-09 -0.08720439 0.14563723 0.22621824 -0.13120109 0.19832987 0.12676221 0.2465325
0.057718273 0.040514402 0.03746573 -0.044417895 -0.00022486928 0.11263388 0.17527565 -0.009528288
0.06078671 0.033301562 0.00045724638 0.23817188 -0.18543984 -0.03947887 -0.08134996 0.1643337
-0.012607296 -0.0013804964 -0.032283362 0.12741718 -0.30591968 0.0041374275 -1.4989861e-17 -0.08292838
0.1440337 -0.07766078 0.03229692 -1.3626599e-17 0.03458149 -0.14909552 5.7895707e-27 4.33116e-40
0.016517675 0.23922275 -0.25733036 0.09211579 0.11191311 -0.4280961 -0.05011062 1.3341804e-05
0.087498926 -0.20068313 -0.000116512085 0.09690681 -0.02676942 -0.055104226 -0.39685693 3.0616364e-18
0.0005555186 -4.27563e-40 -2.96853e-10 -0.23124123 0.14998372 0.008458264 0.20987402 -0.014180291
0.18927865 0.0013744106 0.08322101 -0.013748059 0.004457466 -0.10396683 -0.116458155 -3.966694e-18
0.39845416 0.14912908 0.019035758 7.5740705e-11 0.010121698 -0.0003139098 -0.013247613 -0.0002019324
5.6670396e-10 0.13233931 -0.13410436 0.0043398403 0.27851695 -1.2587163 0.006140055 0.0068499683
0.20099072 0.03875295 0.0001482381 0.004480189 -0.0151486015 2.25508e-40 -0.07329229 -0.14505582
0.0024074398 -0.001071902 -0.06078448 0.09363159 0.6424281 0.13168137 0.006431901 -0.12933387
0.0055707097 0.11497343 0.007035546 -0.000488886 0.068357825 0.29381356 -0.00023155117 -3.8697e-40
-0.3185134 0.114828825 0.078981444 0.0003974907 0.03869577 2.4301457e-07 -0.39656705 -4.05621e-40
-0.02591984 0.018095387 0.07448576 0.1998068 -3.2282014e-06 -0.04850313 -0.22115543 0.09790024
-5.5864235e-34 -0.3052926 0.09724502 0.45650566 -0.052312445 -0.07646853 -0.066943735 -0.25859165
0.20875072 -0.18456763 0.02959482 -0.3348626 -3.161794e-05 -0.12480743 0.19154452 -0.48990056
0.07847597 -0.04954702 -4.7213784e-05 0.14250046 -0.15901557 0.15107161 -0.29128858 -0.17806347
0.2576437 3.5659448e-06 0.04975346 -0.10297134 0.16544142 0.0008682095 3.60893e-40 0.045459673
0.03269565 0.17849329 -0.092399456 2.9403834e-30 -0.25719795 -0.43869603 -6.72372e-40 -4.88474e-40
0.0079565765 0.09770595 0.22897294 -0.11348089 0.05291811 0.15997498 -0.043151375 9.006806e-14
0.14868364 0.20120868 2.6348021e-11 0.21473518 0.030789427 0.19695756 -0.18067537 3.37091e-40
9.930444e-10 -5.5526e-41 4.6133124e-18 -0.18902418 0.017330335 -0.013097808 0.18365143 -2.2550533
0.11635905 0.003594425 0.18546413 0.027488174 0.61157936 -0.1922319 -0.24606769 -6.08567e-40
0.3881544 0.020667285 0.26196128 -6.18096e-40 -0.014800829 -2.6534002e-09 -0.013291603 4.5290122e-05

layers.1.bias f4 [128]
00000000: 7f5c 253e 50b0 933d 9aa3 5f3c c6e1 499e
00000010: 5a1e 58bd da38 6ab8 3283 213c 7a9a 633e
00000020: e828 1f3e 689e 963e f7bb 193e c5ba 0300
00000030: a431 d03c 262c 2dbb e578 4abc 3fd3 889d
00000040: 27b4 8c3e 3ca7 983d b945 efbb f17d 27b9
00000050: 2991 eb3d 9f9b 2bbc af07 8c3d 60d6 3a3d
00000060: cd7e 103e 7ef5 bfbc 85d5 0780 427f 963d
00000070: 76c7 6e3e cdd2 143e a178 423e bf22 353e
00000080: db71 163e c13c aca4 5dd6 d13d ae22 65b6
00000090: 2276 c63d 445d 3cac 5ed8 aabb 3478 393e
000000a0: d671 ffbd 32bf e6bb 8739 2dbc cc86 ef3d
000000b0: af8f 7d3e 6751 db3d ff94 1f99 699c d5b6
000000c0: e1c5 97ba f7a5 a33d 4906 17bb c6d1 c7b7
000000d0: b230 ae3d c153 fdbb 3ab5 903e bfdb 0580
000000e0: 4a66 463e f5d8 cabb 1c7a b8bb 1cd5 e83d
000000f0: 7d2c 263e 6547 0f3e 8f9f 29ae 46a3 083e
00000100: 06f3 8f3e 9696 c3ba f178 0080 3d49 f0bd
00000110: 19d4 5f3e 2748 748d c8ce 80b9 6f37 b03d
00000120: c89d 9684 e253 1ebc 6df0 bcbb 94ef 8aa6
00000130: 6804 763d 5e98 feba ea2f 13bc ed96 9e3d
00000140: 6f22 423d efe4 adb7 4ef5 0380 2604 0780
00000150: ff76 36a0 0f9f 28bc b51b b43c d704 e3bb
00000160: d6e5 d73a f380 30bc 7771 173e cd82 f3ac
00000170: 333a db3d 4bb1 31bc e642 a7bc fa8a 973d
00000180: e620 4a3d cd48 e8bb 6a9f 83bb 75ef 963e
00000190: 87f2 8f94 5429 69a5 5939 4bb8 9727 2009
000001a0: 6d51 133e 7230 98bc 6e02 443e 008b 0bbc
000001b0: 7632 6f3e b526 0380 6093 b3bd 4363 1c3d
000001c0: d9dc 30bb 1f2d e03d c20d 0a3d fbd0 4cbd
000001d0: 0be9 3b3e 0379 f03b 63a9 7b3e dcc9 03bc
000001e0: 2ef6 23bc 7af1 fb3d bfdb 51af 1478 b53d
000001f0: cbe4 743e 706b a63d e404 00bc 38e3 0a9f
0.16148566 0.07211363 0.0136498455 -1.068754e-20 -0.05276332 -5.5842895e-05 0.00985794 0.22226897
0.15542948 0.2941773 0.15013109 3.42507e-40 0.025414295 -0.002642402 -0.012357925 -3.6217324e-21
0.27481195 0.074537724 -0.0073020128 -0.00015973278 0.115022965 -0.010474115 0.06837403 0.0456146
0.1411087 -0.02343249 -7.19445e-40 0.07348491 0.23318276 0.14533539 0.18991329 0.17689036
0.1469187 -7.469603e-17 0.10245965 -3.4143845e-06 0.09690501 -2.676818e-12 -0.0052137813 0.1811226
-0.12472884 -0.007041835 -0.010572798 0.11695632 0.24761842 0.10708886 -8.250197e-24 -6.366103e-06
-0.0011579358 0.0799064 -0.0023044518 -2.3820332e-05 0.08505382 -0.0077309315 0.28263265 -5.38008e-40
0.19374958 -0.006190414 -0.005629791 0.113687724 0.16227908 0.13992079 -3.8567868e-11 0.13343534
0.281151 -0.0014922197 -4.3386e-41 -0.11732719 0.21858253 -7.5275155e-31 -0.00024568127 0.08604323
-3.540973e-36 -0.009663554 -0.0057659657 -9.640611e-16 0.060062796 -0.0019424071 -0.008983592 0.077436306
0.04739612 -2.0729813e-05 -3.63505e-40 -6.44337e-40 -1.5455372e-19 -0.010291829 0.021985868 -0.006928067
0.0016471695 -0.010772931 0.14789377 -6.920997e-12 0.1070446 -0.010845493 -0.020417642 0.073995546
0.04934778 -0.0070887567 -0.0040168064 0.29479566 -1.453497e-26 -2.0223531e-16 -4.845238e-05 1.9277914e-33
0.1438653 -0.018577788 0.19141552 -0.008517027 0.23359093 -2.89392e-40 -0.08768344 0.0381806
-0.0026987104 0.10946106 0.033704527 -0.050003987 0.18350618 0.0073386445 0.24576335 -0.0080437325
-0.010007424 0.123019174 -1.9086509e-10 0.08860794 0.23915403 0.08125961 -0.007813666 -2.9410588e-20

layers.2.weight f4 [128, 128]
00000000: f8aa d03e 42e9 653d ed8a a43e b53a 9f38
00000010: 2eb9 b63c 88e6 c13a cd0d 80bc 6945 f33d
00000020: f55e 9d3e 96c0 b13d 5d8c 4a3d 61b1 0600
00000030: c9ab 3f3d 8c2e 54ba 457a 453e 436e 9d32
00000040: 023e 353e b48c 023e bc0e 16bc 76c9 653a
00000050: 2a25 93bc 9c99 cf3b 4970 0fbe 1c75 903e
00000060: 09f4 233d d3a6 fbbd 2681 0300 e838 8bbe
00000070: 20e9 84be b4e0 30bf e259 d4be ef4f 223e
00000080: 8e28 663e 0005 0833 1f7b 15bd 7e34 ad35
00000090: 6e98 233d 84e6 ddb7 2788 2fbc 226d 0c3d
000000a0: a381 80bf 3504 253b f1b3 61bb ef82 423d
000000b0: b463 d63e cd12 cf3e 2017 0e33 c71a faa1
000000c0: 4adc 693b 8020 f63b b5e0 1fbc 3056 413b
000000d0: 9118 543e af65 0fbc d53e 053e b399 0380
000000e0: e8c5 103f 43fa 9d3b 866a 8bbb 0f22 673e
000000f0: 42bd 02be 3291 a23e 57f8 a136 685d 283e
00000100: e413 c93e 9130 7428 3bbf 0600 ac5d c33c
00000110: c3bc c33e 0b39 5ba2 d60d 03bb 6c7e 5a3d
00000120: 0bd1 f822 b6b0 72bc 85fa f238 aace d030
00000130: c412 4bbf f18e ee3a 5a93 c73b 2b22 42be
00000140: 4410 1dbf 75a6 ae39 1467 8912 8787 0500
00000150: c926 bf35 6753 513c c113 50bf c30d abbe
00000160: 9cdd f83c ac2f c63c e131 6f3e 27f4 b216
00000170: 04e5 403f 826a 4dba 535d 4ebf 93d2 493e
00000180: 0c6f 1e3f 8663 3e3c 7df8 1bbc dfe4 a33e
00000190: 69da af0f fdaf 0000 a17b e33a 230b 0080
000001a0: 20a3 c6bd 9bf5 9e3d dd13 c83d 49f2 ebb9
000001b0: a550 8a3e 43a9 a82d 0569 ac3d 9113 a13c
000001c0: 55c5 0f3b b72b 62be 7892 49be 9b2d d7be
000001d0: 1cc7 74be a986 bf3e 6ef1 11be 5c2a 52bb
000001e0: b158 9d3c 5966 8abe cf3c 14ba 41d3 cc3d
000001f0: 464d 88bd 73d5 4c3d a8c3 84ba cc96 cc9b
00000200: baef dabb 412f 3739 0316 a0ba 79df 0580
00000210: 3839 5bbc 0249 0280 bc2d 11bc 55dc 9cbb
00000220: 7545 c1bb feac 94bc 9414 2abb e0e6 0a00
00000230: 9271 21bb 7c78 0080 ba2b 4cbc b40b 0a00
00000240: fcbe d1bb 6da3 423b b26b 0180 54bf 0400
00000250: 0363 57bc 6c0b 0800 a120 79bb 78f6 34bb
00000260: 1508 96bb d4fe 66bc 9c31 0880 482f 64bc
00000270: 8f0b babc 4b90 9ebc 5efa 67bc e867 d4bb
00000280: 253d 1cbc 425c 0800 34bb 83bc 8cd1 0480
00000290: 7533 febb 1545 0880 5076 0180 401e d1bb
000002a0: 50a7 7fbc 288d 0a00 149a 0700 66c6 1039
000002b0: d33b e1bb 8c64 afbb e654 0b80 7b85 0080
000002c0: c4b5 0380 3a2d 7cbb 085f 0300 5c96 0780
000002d0: b7c2 4ebc e219 0b00 f9e3 84bb a151 0080
000002e0: 7b96 88ba e5e7 9cb2 bc6d 0880 ecc1 75bb
000002f0: a24c 8bbc f59d 75bb 745d 0000 6afe 50ba
00000300: bf55 02bc 80eb 0880 f735 0600 5171 53bc
00000310: 30ed bdbb dc6b 0280 462b 0300 e4e3 89bb
00000320: 8152 0a00 5b49 0000 2833 0a80 3a17 0600
00000330: a59d a2bc 873f 0000 39af 0900 36cd 17bc
00000340: 513d 90bc 241f 0880 3833 0980 c4cf 0a80
00000350: b29f 0680 ec3a 0100 a077 89bc dda9 48bb
00000360: 2d41 a7bc 4c40 0000 6a96 b0bb dd09 0500
00000370: 5f1d 20bc 94fa 0100 78ea 65bc 026d 59bb
00000380: 0170 473b 37f8 0a00 06cf 0700 90b6 d5bb
00000390: 0eae 0580 7c05 0880 4ca4 0200 5cb0 0500
000003a0: 455b cebb 89c8 0cbc c8dc 9cbb 86c4 0500
000003b0: a97e c2bb e36e 0380 fb16 6cbc 3b53 d6bb
000003c0: 5d9b 0180 4c48 abbb b2de a8bc c1c3 9cbc
000003d0: 8da7 a7bb 84b7 83ba e545 87bc bf0e 0900
000003e0: 3861 0300 f59d b7bb f458 0900 1e59 b53a
000003f0: 96b8 aabb a4dc 4ebc 790a 0580 1e2e 0900
0.4075544 0.056130655 0.32137242 7.592646e-05 0.022305097 0.0014793435 -0.01563158 0.11878473
0.3073651 0.08679311 0.049450267 6.14645e-40 0.046794686 -0.0008094094 0.19284923 1.8327347e-08
0.17699435 0.12748986 -0.009158786 0.0008765677 -0.017962057 0.0063354503 -0.14007677 0.28214347
0.040027652 -0.122876786 3.21836e-40 -0.27191854 -0.2595911 -0.6909287 -0.41474825 0.15850805
0.22476408 3.1669515e-08 -0.03649437 1.2904782e-06 0.03994029 -2.6452595e-05 -0.010713614 0.034283765
-1.0039562 0.002517951 -0.0034439529 0.04748815 0.41872942 0.4044403 3.3082983e-08 -1.6947747e-18
0.003568428 0.0075111985 -0.009758164 0.0029500835 0.20712496 -0.008752271 0.1301225 -3.30643e-40
0.5655198 0.0048210933 -0.004254642 0.22571586 -0.12767509 0.317514 4.8270845e-06 0.16441882
0.39272988 1.3555252e-14 6.19614e-40 0.023848377 0.3822995 -2.9710233e-18 -0.001999726 0.05334322
6.7441868e-18 -0.014812639 0.00011586122 1.5192729e-09 -0.7932551 0.0018200559 0.0060905637 -0.18958347
-0.61352944 0.00033311886 8.671326e-28 5.07796e-40 1.4241897e-06 0.012776232 -0.8128014 -0.33408937
0.03037911 0.024192654 0.23358871 2.8911533e-25 0.7534945 -0.00078360003 -0.8061115 0.19709234
0.61888194 0.011620408 -0.009519693 0.32010552 1.7340461e-29 6.3133e-41 0.001735557 -3.995e-42
-0.096990824 0.07761689 0.097694136 -0.0004500321 0.27014652 1.9174556e-11 0.084184684 0.01966265
0.0021937687 -0.22086988 -0.1968478 -0.42026982 -0.23904079 0.37407425 -0.14252254 -0.0032068705
0.01920733 -0.2703121 -0.0005654813 0.10001231 -0.06655364 0.05000825 -0.0010129111 -3.384642e-22
-0.0066814097 0.00017469843 -0.0012213591 -5.39344e-40 -0.013380341 -2.09861e-40 -0.008861002 -0.004787008
-0.0058981725 -0.018148895 -0.0025952207 1.001177e-39 -0.0024634344 -4.3222e-41 -0.012461597 9.22553e-40
-0.006400941 0.002969946 -1.30469e-40 4.35978e-40 -0.013146165 7.38781e-40 -0.0038013833 -0.0027612727
-0.0045786 -0.014098842 -7.5248e-40 -0.013927288 -0.02271059 -0.019355914 -0.014158813 -0.006482113
-0.009536062 7.6778e-40 -0.016080476 -4.42513e-40 -0.007757599 -7.59466e-40 -1.34278e-40 -0.00638178
-0.015603855 9.68992e-40 6.98121e-40 0.0001380682 -0.0068735867 -0.0053525623 -1.040646e-39 -4.7884e-41
-3.40712e-40 -0.0038479106 3.09597e-40 -6.96787e-40 -0.012619666 1.019475e-39 -0.004055497 -2.9283e-41
-0.0010420823 -1.8266244e-08 -7.74049e-40 -0.003749962 -0.017004315 -0.0037478183 3.3525e-41 -0.0007972481
-0.007955014 -8.19165e-40 5.70372e-40 -0.012905435 -0.005796097 -2.22364e-40 2.9103e-40 -0.004208075
9.47952e-40 2.6315e-41 -9.36706e-40 5.59345e-40 -0.019850561 2.279e-41 8.89378e-40 -0.009265235
-0.017607363 -7.45855e-40 -8.44893e-40 -9.92887e-40 -6.08301e-40 1.12973e-40 -0.016780674 -0.0030618825
-0.02041682 2.3065e-41 -0.0053890245 4.62716e-40 -0.009772628 1.81726e-40 -0.0140329525 -0.0033176546
0.003043175 1.007398e-39 7.17114e-40 -0.0065220073 -5.21617e-40 -7.36651e-40 2.4261e-40 5.22443e-40
-0.0062975013 -0.008592733 -0.0047870614 5.29677e-40 -0.005935509 -3.15285e-40 -0.014409776 -0.0065406836
-1.4757e-40 -0.0052271243 -0.020614002 -0.019136311 -0.005116409 -0.0010049199 -0.01651282 8.3181e-40
3.10382e-40 -0.0056035467 8.5843e-40 0.0013835763 -0.0052099926 -0.012625847 -4.62934e-40 8.43063e-40

layers.2.bias f4 [128]
00000000: b265 2fbd 6bb9 04bc 247a f5b8 fb22 a4be
00000010: 3dce 7c3e 3456 c53d 0cc4 2fbb c44c a23e
00000020: 376c 0580 4fbd b93e f345 3cbe e14d 2abe
00000030: df44 2a3e 7612 c33d f6c7 21bc 9389 d73d
00000040: 8ca3 9bae a53f 0280 4438 e1bb 8cbb e1b4
00000050: 8447 113e f590 3bbb ab6c ee3d e565 a3be
00000060: 4ba9 8c3e 8395 0abb d284 003e 01d1 ad3e
00000070: e497 953e 39cf cbbc 6924 703e 42ab d0be
00000080: 1b0d 61be 80a6 ebac 4055 dab8 e58a bebe
00000090: fe66 a9be 41c8 cc10 16f0 8eba 24a9 643d
000000a0: a40b ffbd 366a b43e 8619 bbbd 9358 d43e
000000b0: 6d41 0780 485d 0600 1b0f 0380 d063 ad3d
000000c0: fcdf 9395 7103 c0bb c28b 27ba 8a12 73be
000000d0: 740e 17bc 1362 a2bd c840 90be 01cc bbba
000000e0: a991 483d 1d5c 0100 dfcb c0be da1e d9bd
000000f0: a18b 803e fc75 d4bb 0b9b 23ba 49b1 b83e
00000100: eaab 0280 1af0 413e bd64 263d b865 b83c
00000110: ecb7 b93d f28e 0bbe 9091 0100 fa11 0600
00000120: 0a67 243e 71a4 adbd 3ec7 20bc ce51 64b9
00000130: bb9f 0180 d92d a13e 493e afb7 fdb7 473e
00000140: ad4d fb3e c0e9 8d3e c89e 0580 11c6 55b8
00000150: 321d 15be acf6 02be 3bc6 0180 36fa ebbd
00000160: 1456 3fbe 65a6 0700 85f8 3ab4 cdee c73e
00000170: d15e 99be 1037 2a3e b26a 293e 8ea1 ea3c
00000180: 59f4 173d 11a6 9ebe fdec 523e 04da 4dbe
00000190: 2a1c 9e3d 88f9 8b9c 1c69 4cbe 15f9 013d
000001a0: ed72 69bb 809c 2da3 103a a53c e2af 343e
000001b0: b532 d23d 7b68 8a3d 9ba2 3cbc 42a6 433e
000001c0: 353c 243e be96 0400 35da 0100 b2ed 2e3d
000001d0: ea6f 75af e7de d93c f7d5 963d 7978 0480
000001e0: 31ad 4cbe b49e 39be f590 e13e 1ea9 86bd
000001f0: bf53 5fba 0896 293e 556a 0700 8dd4 0180
-0.042821594 -0.008100848 -0.00011705261 -0.32057938 0.24688049 0.096355826 -0.0026819734 0.31699193
-4.97998e-40 0.36277243 -0.18386059 -0.16631271 0.16627835 0.095250055 -0.009874335 0.10524287
-7.077636e-11 -2.06502e-40 -0.0068731625 -4.2045974e-07 0.14187437 -0.0028620337 0.116418205 -0.31913677
0.2747291 -0.0021146245 0.12550667 0.3394852 0.29217446 -0.024879085 0.2345139 -0.4075566
-0.21977656 -6.697587e-12 -0.00010410929 -0.37215343 -0.3308639 8.077235e-29 -0.0010905291 0.055825368
-0.12453392 0.35237283 -0.091357276 0.41473827 -6.66319e-40 5.84476e-40 -2.80925e-40 0.08466303
-5.972621e-26 -0.0058597852 -0.000639137 -0.23737541 -0.0092197545 -0.079288624 -0.28174424 -0.0014327766
0.048967037 1.2488e-40 -0.3765554 -0.106015876 0.25106528 -0.0064837914 -0.000624106 0.36072758
-2.45342e-40 0.18939248 0.040623415 0.02250944 0.090682834 -0.13628748 1.44053e-40 5.57462e-40
0.16054931 -0.0847863 -0.009813128 -0.00021774249 -1.49136e-40 0.3148029 -2.089063e-05 0.1950378
0.490827 0.277174 -5.16137e-40 -5.096762e-05 -0.14561918 -0.1278941 -1.62947e-40 -0.11522333
-0.1868518 7.0254e-40 -1.7413011e-07 0.39049378 -0.29955152 0.16622567 0.16544607 0.028641488
0.037098262 -0.30986074 0.20598216 -0.20102698 0.077202156 -9.262751e-22 -0.19961971 0.031731684
-0.003562148 -9.411489e-18 0.020169288 0.17645219 0.10263578 0.06758209 -0.011513378 0.19106391
0.16038592 4.21418e-40 1.70113e-40 0.042707153 -2.232238e-10 0.026595546 0.07365029 -4.1056e-40
-0.19987942 -0.18126947 0.44055906 -0.06575225 -0.0008519254 0.16561139 6.80993e-40 -1.68084e-40

layers.3.weight f4 [241, 128]
00000000: 8840 fdbf eec0 6d3b 12a7 56bc f519 133e
00000010: 1c7e 8ebe 5eda 37be 94f3 893b 40e8 87be
00000020: ecbc 6fb9 dbd5 863d cec8 983d 8412 a3be
00000030: a0a5 8cbe 498a 1abd 475e 863b b632 363e
00000040: c653 0539 05e0 912f 4fda ddbb 7bfd 953b
00000050: 3517 08bf 6fdb 3fbc 6157 263d 518b 16be
00000060: 6fd9 653d d2ff 3f3c 2eb4 b0be 0fd5 acbe
00000070: eba0 3c8b 4d26 873e 36c4 bfbd c67e 0a3b
00000080: 7404 8dbe 7ceb 0080 e020 223c 9453 bbbf
00000090: 3188 c7bf 78f0 0105 30d3 27bc b31b 2a3d
000000a0: 960e 03bd 9ce6 a9bd d540 c4be 3742 65be
000000b0: befc 5734 42f0 23ba 5701 b433 3cff 013d
000000c0: 1afc 8a3a 36c8 3f3b c6cf 2339 3421 9cbe
000000d0: 24fd da3a 472e b2bd 1634 80ab 67e9 27bc
000000e0: 975c d1bd 92a9 002e e065 0c32 03b0 05be
000000f0: 5686 50bf 743e 573c 1195 19bc 7913 09be
00000100: 479b 4836 8cf6 e8be d937 b03d 8701 8bbe
00000110: 4bb5 92bd b9c4 d2be 0629 9fb9 b512 cb37
00000120: 7945 3fbc 6074 b9be 2677 e7bb 731b 84bb
00000130: a3f0 1b1f 6815 c5bd 71dc 243b ae93 b0bd
00000140: f9f5 a2bd 3193 5d3d 8b01 bdb0 2aff 5f3b
00000150: 7a37 e4be 41a0 efbb a66f 0480 8148 adbe
00000160: 6769 c0b2 297a a02e 86cf 703c 5fd1 c8bd
00000170: f5c8 6ebd 01a7 17bc 6b90 8b06 b8e8 eba7
00000180: 7379 d2be 3947 c2be 7fae 0b3e c9b7 889d
00000190: 150d 1ebe fa6d 901e b77e e43d 4943 a8bf
000001a0: b4f8 663c 164b b2b9 111f 883e cd22 e6bd
000001b0: c3eb d1be d723 23be fed8 5ebc 0e1c 18be
000001c0: 98a3 033f 137b 16b6 bee3 0380 73cb 8324
000001d0: 9d6d 3bbb 003d 6e3c b57d d0bf dee1 5a3a
000001e0: 5936 84be da5e 07bd 02fe 91bd b039 f0bb
000001f0: 82ad 0fbc dc25 d1be eb62 932f 7e96 a0b5
00000200: 7102 4d3e 5a95 973b 6390 cc3b 09de 8d3e
00000210: af20 32be 495e e7bc 5133 1a3a bbdd a2be
00000220: b3f4 0a36 885a 21bf b7ae ed3d 7cd6 9c3c
00000230: 5f48 2dbe 82d6 80be 2cca 4dbc 8751 84be
00000240: e415 a3ba eb35 55b1 e264 7939 d2e2 81bb
00000250: 2546 55be 34c0 183b 10bd 86be e2ef 253e
00000260: cdec 45be 72b1 a03b 3b86 babe 5b64 6fbe
00000270: a0e3 68bf fa97 773c 567f 2dbe 6781 643d
00000280: ca26 9b3e 8439 819e 272b 30bc 7cc7 ed3e
00000290: aac0 ec3e b7f0 01ad c326 b53b 9b27 1fbe
000002a0: 3eaf 8d3e bad6 dfbe 7149 53bd 1e9e 00bf
000002b0: 9895 5233 88e8 4fbb 98a8 52b8 95e3 85be
000002c0: d0e1 fa39 6267 d43b 2520 cbbb 358c df3d
000002d0: 907b 86bb ca2c b4bd b2f8 233f c4f9 123c
000002e0: d928 18be 46a9 43b8 851f 8b3f 4836 c6bd
000002f0: ef37 05be 008e 37ba 2674 073c b309 82be
00000300: cb1a c23b 7c35 9cbe 9af7 e7bb a43e 34be
00000310: 3dc9 e4be 6601 313e dcc1 6f3a 4d97 09ba
00000320: 7ec8 82be f51c 90be 03ba 083c a190 c439
00000330: d932 36ac 45c4 3dbe de2b 08bc 8cc4 71be
00000340: 061b d5be f588 a0be d042 8837 7bfe 32ba
00000350: d3d7 d73c 38c6 d3bd 6da2 77b1 d31d 8dbc
00000360: 463f 073f db0a bf34 e665 09ba 4910 47be
00000370: 25c8 783e 2c06 6dbe e102 98be 145e 4fbd
00000380: 7756 fb3b 342b 833e a24e c6be d022 8c3e
00000390: e2b2 79be 97c7 f2bb 24f3 bc3d 4ce2 383e
000003a0: a91d 9fbb fcc7 79bb d146 99bd c188 8ebe
000003b0: ef43 733d 1d17 c0be a67a 2dbc e8e1 9ebe
000003c0: 8a28 17be ebcf 253a a762 1eb0 bff0 54be
000003d0: 8371 b83b 4f47 6cbd f104 d63d 9778 873b
000003e0: 9a41 41bd a791 6b3e 1bc8 9abe f916 233e
000003f0: 6af0 d03b 46ec c73d fc48 9a38 c643 423b
-1.9785318 0.0036278325 -0.013101356 0.1436537 -0.2783059 -0.17954394 0.004209945 -0.2654438
-0.00022863195 0.065837584 0.074601755 -0.31850064 -0.27470112 -0.037729535 0.004100594 0.17792782
0.00012715076 2.6534522e-10 -0.006770409 0.0045773364 -0.5316041 -0.011710032 0.040610675 -0.14701582
0.056115564 0.011718707 -0.34512466 -0.337563 -3.6328544e-32 0.2639641 -0.09363596 0.0021132692
-0.2754246 -8.4476e-41 0.009895533 -1.4634881 -1.5588437 6.109718e-36 -0.010243222 0.041530322
-0.031996332 -0.082959384 -0.38330713 -0.2238854 2.0115382e-07 -0.0006253758 8.382147e-08 0.03173755
0.0010603697 0.0029263622 0.00015622293 -0.30494082 0.0016707522 -0.08700233 -9.109404e-13 -0.010248519
-0.10222738 2.925444e-11 8.172236e-09 -0.13055424 -0.8145498 0.013137449 -0.009373919 -0.13386334
2.9892706e-06 -0.455006 0.08604402 -0.27149603 -0.07163485 -0.41165712 -0.00030357408 2.4208197e-05
-0.011674278 -0.362216 -0.007063764 -0.0040315925 3.3021577e-20 -0.096232235 0.0025155807 -0.08621918
-0.07957072 0.05409545 -1.3751998e-09 0.003417919 -0.44573575 -0.007312805 -4.07394e-40 -0.3384438
-2.2399673e-08 7.2976576e-11 0.014697915 -0.09805559 -0.058297116 -0.009256125 5.249819e-35 -6.5477917e-15
-0.41108283 -0.37944964 0.13640784 -3.618893e-21 -0.15434678 1.5292078e-20 0.111569814 -1.3145534
0.014097381 -0.0003400675 0.26586202 -0.112371065 -0.41000184 -0.1593164 -0.01360154 -0.14854452
0.514215 -2.242338e-06 -3.57205e-40 5.715685e-17 -0.002859927 0.014540911 -1.6288363 0.0008349697
-0.25822714 -0.033049442 -0.07128526 -0.0073310956 -0.008769395 -0.40849197 2.680943e-10 -1.1964728e-06
0.20020463 0.0046259584 0.006242798 0.27708462 -0.1739528 -0.0282432 0.00058822805 -0.31809792
2.0706036e-06 -0.63028765 0.1160559 0.019145243 -0.16922139 -0.25163656 -0.012560409 -0.2584345
-0.0012442437 -3.1026228e-09 0.00023784072 -0.0039638067 -0.2082754 0.0023307921 -0.26316118 0.1620479
-0.19328614 0.0049039656 -0.36430535 -0.23378126 -0.9097233 0.015111918 -0.16943106 0.05578747
0.3030303 -1.3682194e-20 -0.010752476 0.46441257 0.4624074 -7.3862505e-12 0.0055283024 -0.15542452
0.27672762 -0.4371851 -0.05158371 -0.5024127 4.903049e-08 -0.0031724293 -5.0224917e-05 -0.26150194
0.0004785196 0.0064820508 -0.0061989003 0.10915414 -0.0041040853 -0.08797605 0.64051354 0.008970682
-0.14859332 -4.664927e-05 1.0868994 -0.09678322 -0.13009618 -0.00070020556 0.008267438 -0.25398025
0.005923604 -0.30509555 -0.007079077 -0.1760202 -0.44684783 0.1728569 0.0009146014 -0.0005248681
-0.25543588 -0.28147092 0.00834513 0.0003749179 -2.5891982e-12 -0.18531902 -0.00831124 -0.23610133
-0.4162218 -0.3135449 1.6243575e-05 -0.00068280817 0.02634803 -0.103405416 -3.603556e-09 -0.017226135
0.5283092 3.558442e-07 -0.00052413193 -0.19439806 0.24295099 -0.23146886 -0.29689696 -0.05062683
0.0076702195 0.256189 -0.38731867 0.2737031 -0.24384645 -0.007409047 0.09226063 0.18055075
-0.0048558307 -0.0038113585 -0.0748421 -0.2783871 0.05939096 -0.37517634 -0.010588324 -0.31031728
-0.14761558 0.00063252327 -5.762026e-10 -0.20794962 0.005628766 -0.057685193 0.10450161 0.0041342485
-0.047181703 0.2300478 -0.30230793 0.15926732 0.006376316 0.097618625 7.3568866e-05 0.0029642447

layers.3.bias f4 [241]
00000000: 1cf1 8abe ca26 88bf bf75 1fbe 0c45 80bc
00000010: c0d6 133e 2b77 83bc 63be 513d d43a c33d
00000020: 3d54 cc3d 9f4e 2c3d ba63 41bc 33c8 7abd
00000030: b276 50be cd1f 4fbd a034 24bd 5699 8abc
00000040: 1541 30be 407a c6bc 9aa5 afbc 03a5 4fbd
00000050: db76 5bbe a0d9 3cbe 1eb4 c03d 7b9f 973d
00000060: 346f b8bd 9351 ac3c 5c5b c03c 4ac2 04bd
00000070: b290 f8bd d113 84bd 7338 073b 41c6 47bc
00000080: 774f b6bd 7e79 8a3d 3f5b 6d3d 1a4e c3bd
00000090: 8c86 e1bd e391 c5bb 64d4 06bd eb10 57be
000000a0: d94f 0b3d a599 90bd b784 6a3d e6f4 e0bd
000000b0: 7f9c b6bd 1446 cf3a 69c2 a13c 8af6 52bd
000000c0: b1b2 0fbe 2274 c2bc b911 f3bd 289c dc3d
000000d0: fe2e 64bd c57e 59bd c2c5 7a3d 05e8 8c3d
000000e0: 7e51 a1bd 3b2d d93d c0ef 01bd 6c5a 133c
000000f0: 5d73 993d 90a8 19be 92b7 013d 6dff 23bd
00000100: e9e0 68bd d901 06be 0c4e 99bb 6fe8 143d
00000110: 03c4 afbc 4ecb 29be ed03 37bd 493c 8cbd
00000120: 7344 69bc 464a 50bd 3ed1 e33c bdf4 70bd
00000130: bf92 203d f9c1 eb3c f6fa a73a 8fe1 153d
00000140: 3851 67bd 2ba8 90ba f32a 49bd af93 27bd
00000150: 35a2 4dbd f7f2 23bc d7f6 48bd 07a1 ccbd
00000160: 358f b23a 0489 1cbd f9d3 f4bc 61f0 91bd
00000170: a746 3cbc 602b 91bc 6010 3d3d 9e99 bbbd
00000180: f914 59bc b4d2 a7bd 8b7f 46bc 62b4 68ba
00000190: e8e4 983d 914f 34be 1f16 b2bd bc6e 943d
000001a0: c5fd 8fbb 4949 af3c 5b91 54bd e7e7 d93d
000001b0: c148 64bd fe5e 38bd 217f 55bd bf5d 45bd
000001c0: ed9b e1bc 99e2 9bbd e158 aabd deb7 dc3b
000001d0: c90d c5ba b0da 2f3d d79c 52bd 2eb3 9cbc
000001e0: 35a7 cdbc aa26 96bd 7faf e6bc c9a2 33bb
000001f0: 40a5 a83c 313e d7bc c266 1939 c85d 6dbd
00000200: a086 ab3c 74a6 053d 7cf5 80bd 1cb2 61bd
00000210: 66de 4dbd 859e 283b 44d9 9a3a 1e27 e637
00000220: a856 c7bc 117a 40bd 5eb2 bbbc 3b88 92bc
00000230: 84ce 933c a770 5cbd 64da d0bc 22ae b3bc
00000240: ca73 52bd 0599 82bd 14da 933d 19c7 043c
00000250: 3761 5d3c 047a b3bd 0e22 6e3c 933f 5ebd
00000260: 3744 1bbb 94b6 6a3d 8013 6dbd bec3 a2bb
00000270: 8673 a4bd 7855 3dbd f20f 6dbd 67cd 9ebb
00000280: cfdb 323d de69 75bd 50ad 64bd a4d8 a3bd
00000290: efce 4ebd ab63 b2bc 0878 57bd e343 18bb
000002a0: 9abf debd 117a 08bc 689c c2bc 421e 17bc
000002b0: 48ed 4cbd d64e 83bd b50c 50bd 49ec 4cbd
000002c0: af28 31bd 864b 31bd f822 01bd 8f7f 28bd
000002d0: 7d44 6bbd 4448 3dbd 1ce3 23bd 7a67 06bd
000002e0: e4eb 5dbd 5390 90bd 4ffc 4cbd bf8b 75bd
000002f0: 13ea 22bd c787 22bd 6413 34bd 62e1 42bd
00000300: 63c1 01bd 8af9 24bd 0155 5abd 55b0 c43c
00000310: 8fb8 fcbc d2f0 5fbd 1e64 7bbd 88e4 45bd
00000320: 4635 66bd aab9 50bd 94e9 81bd e92f bbbd
00000330: 4dec 3cbd b986 48bd 8074 2dbd 75c3 4ebd
00000340: 42b9 71bd bcd0 5cbd b175 48bd e592 4fbd
00000350: d868 62bd c0aa 64bd dc3c 32bd ac78 41bd
00000360: 1fa6 2dbd d01b 13bd 5159 05bd f4fc 36bd
00000370: f968 47bd 6f78 5dbd 772d 48bd b2d5 37bd
00000380: 10ee 6bbd d648 38bd 9e3b 16bd 3c08 48bd
00000390: c194 37bd 4fe7 23bd 0fca 4fbd 5766 47bd
000003a0: a6b2 74bd e2ec 60bd 33ee 60bd 82fd 4dbd
000003b0: ee34 5bbd f8e7 66bd c7bc 51bd 2fc9 11bd
000003c0: 8e34 3dbd
-0.27137077 -1.0636837 -0.1557226 -0.015657924 0.1443739 -0.016048035 0.051206958 0.09532705
0.09977005 0.042067166 -0.011803562 -0.06122608 -0.20357779 -0.050567437 -0.04008925 -0.01691882
-0.17212327 -0.024228215 -0.02144127 -0.050694477 -0.21432059 -0.18442392 0.094093546 0.07403465
-0.09005585 0.021034991 0.023481064 -0.03241185 -0.121369734 -0.06449092 0.0020633012 -0.0121932635
-0.089018755 0.06761454 0.057948347 -0.09536381 -0.11011991 -0.006029354 -0.032917395 -0.21002547
0.034011696 -0.07060555 0.057255473 -0.10984211 -0.08916568 0.0015813732 0.019746022 -0.05150465
-0.14033009 -0.023737017 -0.11868615 0.10771972 -0.055708878 -0.053099412 0.061223753 0.06880192
-0.078768715 0.1060433 -0.031722784 0.008993726 0.07492707 -0.15005708 0.031669207 -0.040038515
-0.056855116 -0.13086642 -0.0046784934 0.03635448 -0.02145577 -0.16581461 -0.04468148 -0.06847436
-0.014237511 -0.050852083 0.027809735 -0.05882715 0.039202448 0.028779017 0.0012815881 0.036592063
-0.05647394 -0.0011036446 -0.049113225 -0.040912326 -0.05020352 -0.010006658 -0.04906353 -0.09991651
0.0013623001 -0.038216606 -0.029886233 -0.07125927 -0.011491454 -0.017720878 0.046158195 -0.091601595
-0.013249629 -0.08194485 -0.01211537 -0.0008876977 0.074655354 -0.17608477 -0.086956255 0.072476834
-0.0043942654 0.02139725 -0.051896434 0.10639935 -0.055733446 -0.045012467 -0.052123193 -0.048185106
-0.027540172 -0.076115794 -0.083177336 0.006735786 -0.0015034016 0.042933166 -0.051419105 -0.019128408
-0.025104145 -0.07331593 -0.028159855 -0.002741026 0.02058661 -0.026274772 0.00014629497 -0.057950765
0.020938218 0.032629445 -0.062968224 -0.0551015 -0.050260924 0.002572925 0.0011814018 2.7436352e-05
-0.024333313 -0.04699141 -0.0229122 -0.017887225 0.01804281 -0.05381837 -0.025494762 -0.021933619
-0.051379956 -0.063768424 0.072193295 0.008104109 0.013511947 -0.08763507 0.014534486 -0.054259848
-0.0023691782 0.057303026 -0.057879925 -0.004967182 -0.08029847 -0.046224087 -0.057876535 -0.004846263
0.043666657 -0.059915416 -0.055829346 -0.08000305 -0.050490316 -0.021776041 -0.052604705 -0.0023233823
-0.10876389 -0.008329884 -0.023756221 -0.009223523 -0.050030977 -0.06411521 -0.05079337 -0.050030027
-0.04325169 -0.043284915 -0.03152749 -0.041137274 -0.057438362 -0.046211496 -0.04001151 -0.032813527
-0.05418004 -0.07058778 -0.050045308 -0.059947725 -0.03977401 -0.03968027 -0.043963805 -0.047578223
-0.03167857 -0.04027704 -0.053303722 0.024009863 -0.030849723 -0.054673024 -0.061374776 -0.048313648
-0.05620315 -0.050958313 -0.063433796 -0.091399975 -0.04612379 -0.048956607 -0.04234743 -0.05047937
-0.059014566 -0.053910002 -0.048940364 -0.0506772 -0.055275768 -0.055826902 -0.04351507 -0.047234222
-0.042394754 -0.035915196 -0.032555882 -0.04467483 -0.048684094 -0.054069933 -0.048871484 -0.04488153
-0.05760008 -0.044991337 -0.03667795 -0.048835978 -0.044819597 -0.040015515 -0.050729807 -0.048681583
-0.059740685 -0.05491341 -0.054914664 -0.050290592 -0.053517275 -0.056373566 -0.051205423 -0.035592254
-0.0461927
