models/MPC_horizon_7.pt (torch_old, 194284 bytes, 8 tensors)

layers.0.weight f4 [128, 33]
000000 16 21 8e 3e f6 21 38 3e 7e ee 87 3e 7d cd d2 3d
       0.27759618 0.17981705 0.26549143 0.102931
000010 d3 7f ae bd 93 3c 09 3e 94 c9 24 be ac e9 aa bd
       -0.08520474 0.13402013 -0.16092521 -0.083453506
000020 b6 86 36 3d 95 75 c9 3c d5 73 18 3e 2c ea 32 3e
       0.044562064 0.0245922 0.14887936 0.17472142
000030 04 a1 94 bc 21 9d 8a bd 0c 6b ba 3c ed b2 ed 3d
       -0.018143184 -0.06768251 0.022756122 0.11606393
000040 fc 46 1a 3e d0 8d 75 3c 6f 05 78 bd c7 d8 38 3e
       0.15066141 0.014987424 -0.060552057 0.18051444
000050 43 cc d6 bd 74 00 e1 bc 38 80 1b be 1e 99 ab 3b
       -0.104881786 -0.027466036 -0.1518563 0.005236759
000060 0d bd f3 bd 76 ca 54 bd 31 c3 0f 3e 51 67 d5 3d
       -0.11901293 -0.051950894 0.14039303 0.10420097
000070 d8 dd b7 b9 49 ec 5a 3e a2 e0 cb 3e 76 20 7a be
       -0.00035069766 0.21379198 0.3981982 -0.24426445
000080 a3 b2 bc be cb 10 03 be 22 72 90 bd 62 90 54 be
       -0.3685504 -0.12799375 -0.07053019 -0.20758203
000090 ab 5e cc bc dc ca d7 bc 09 ea 2c bd 80 9b 7a 3c
       -0.024947485 -0.026341848 -0.04221538 0.015295863
0000a0 1f e2 8c bd 1c 29 f6 bd f2 b7 74 3d 5f 77 3d bd
       -0.06879067 -0.1201956 0.059745736 -0.04625642
0000b0 07 30 8b 3d 99 21 ac 3c 64 8b 9a 3c 8d 36 41 bd
       0.0679627 0.021012114 0.018865295 -0.047171164
0000c0 ec 34 9c bd c1 21 b3 3d 2c 60 31 3e 95 f8 b5 3d
       -0.076272815 0.087466724 0.17321843 0.08885304
0000d0 89 d3 a2 38 17 26 78 bc 6d 03 a1 bd 7f 03 fa bd
       7.7641635e-05 -0.0151458 -0.078619815 -0.12207698
0000e0 61 d7 58 bc af 2a 50 3d 68 ac 08 be 2a 67 64 3d
       -0.013234944 0.050821956 -0.13347018 0.055762447
0000f0 4c 52 0b 3e 12 64 10 3d c1 2f 0f bd ef d3 4f be
       0.13605613 0.035251684 -0.03495765 -0.2029569
000100 d6 d2 a0 3e 94 55 aa 3c 83 0c 68 3d eb 95 92 3e
       0.31410855 0.02079276 0.056652557 0.28630003
000110 55 78 d3 3e a7 c0 22 3f 20 cd 80 3d 2f ce 49 3e
       0.41302744 0.63575214 0.062891245 0.19707559
000120 f4 ae 7b 3e f7 2f 40 3c 5a a3 9b 3d 8c 2e 8c bb
       0.24578458 0.011730186 0.07599516 -0.0042780098
000130 35 a9 de 3c 61 44 a6 bd 8d 6f 37 3d f3 c4 09 be
       0.027180294 -0.08118511 0.044784117 -0.13454036
000140 28 81 a8 bd ce 33 d5 3d 60 b4 99 3d d3 db a6 3d
       -0.082277596 0.104102716 0.07505107 0.08147397
000150 97 5e 31 3e 70 a9 df bd b7 48 b9 3d a5 dd a3 bc
       0.1732124 -0.109209895 0.090470724 -0.02000315
000160 c9 19 37 3e e2 d3 37 3d ae 53 06 3e 10 70 ed bd
       0.1788093 0.0448798 0.13117859 -0.1159364
000170 6e a6 e0 bd 39 a9 e4 bd ce 29 53 bd 45 b5 ec 3e
       -0.10969244 -0.11165089 -0.05155354 0.46232048
000180 ae 72 41 bd 43 15 72 be 1c 31 1d bf c1 59 c9 bb
       -0.047228508 -0.23640923 -0.6140306 -0.0061447327
000190 17 66 df bb ad fd 85 ba 8a f9 ac bb 1f e6 d9 bb
       -0.00681759 -0.0010222696 -0.005278771 -0.006649747
0001a0 4a 7c 95 ba e6 29 66 ba 3c 53 19 3a 8d cc e1 bb
       -0.0011404839 -0.0008780047 0.00058488897 -0.0068908394
0001b0 d2 94 e2 bb 4a 17 87 bb bf a2 f5 bb c2 df f4 bb
       -0.0069147134 -0.0041226493 -0.0074962075 -0.007472963
0001c0 6a 01 f0 bb 90 29 ed bb 4d 7c ce bb ea 39 f8 bb
       -0.0073243873 -0.0072376207 -0.006301439 -0.0075752633
0001d0 8e 1a fa bb 7d f5 e0 bb b9 0b 40 bb 57 90 e8 bb
       -0.00763256 -0.006865202 -0.0029303862 -0.007097285
0001e0 15 4d ea bb 10 18 ef bb 32 4d e8 bb aa 72 d9 bb
       -0.007150302 -0.0072965696 -0.0070892805 -0.0066359835
0001f0 d8 56 f0 bb 0e b3 f0 bb 06 73 f3 bb 56 88 1c 3c
       -0.0073345713 -0.0073455637 -0.0074294833 0.009553989
000200 d2 00 7e ba 1b 80 c1 ba b5 93 bb ba a9 52 07 bc
       -0.0009689453 -0.001476291 -0.0014310988 -0.008259454
000210 4e b4 c4 3e 50 4c 2c 3d 6d f5 6c 3e df 57 1e 3f
       0.38418812 0.042064965 0.23140498 0.6185283
000220 82 e7 8e bd bd 43 98 3e af cd 47 be e8 85 c6 3e
       -0.0697775 0.2973918 -0.19512056 0.38774037
000230 8f 75 2c 3e 91 19 ff 3d 48 94 e5 bd 33 af 48 3e
       0.1684172 0.12456048 -0.11209923 0.19598083
000240 e4 1b 12 3e eb d9 76 bd e8 e9 d6 3d 3a 6b 74 bd
       0.14268452 -0.060266417 0.10493833 -0.05967257
000250 1b c7 11 be 8f 3a 37 3b 72 5e d0 bd 8d 42 02 bc
       -0.14236109 0.0027958488 -0.10174264 -0.007950437
000260 63 10 db bd c6 4b 0c 3e 4e c2 08 be 69 2a 12 be
       -0.10696485 0.1370078 -0.13355371 -0.1427399
000270 64 5e 27 3c 66 f4 a3 bc d7 16 ef 3d d6 e0 42 3d
       0.010215376 -0.020014 0.11674278 0.0475777
000280 4f 23 fc 3e 9f db c6 3d ef 8e 9c be 5f 0d 8d bd
       0.49245688 0.09709858 -0.305778 -0.06887316
000290 6b ca 6e bc b1 4a c8 bb bd ca 32 bb d2 39 bc 2f
       -0.014574627 -0.0061124195 -0.0027281486 3.4238085e-10
0002a0 aa bb 07 37 fc bc b4 bb 23 d4 e3 bb da 1e 94 b5
       8.090321e-06 -0.0055156928 -0.006952779 -1.1035838e-06
0002b0 14 75 d5 38 0e ed a4 bb ce 69 a4 bb fd 95 fa b9
       0.00010178439 -0.005033142 -0.0050174957 -0.00047795466
0002c0 73 c9 ee bb 6f 53 fb bb 88 13 d8 bb ee c5 ca bb
       -0.007287198 -0.007669858 -0.006594125 -0.006188146
0002d0 47 30 5a bb b1 e7 00 bc 49 d1 01 bc 42 6e a0 bb
       -0.0033292936 -0.00786774 -0.007923433 -0.0048959563
0002e0 e8 a8 d0 b8 76 bc ba bb ce 30 c2 bb f7 7a d8 bb
       -9.949674e-05 -0.005698736 -0.005926228 -0.0066064554
0002f0 f0 0e ba bb aa 45 89 bb 83 d7 d9 bb db 23 da bb
       -0.00567805 -0.004189213 -0.0066480055 -0.0066571063
000300 0c 82 e5 bb 79 88 b4 39 22 d8 02 ba 54 79 e2 ba
       -0.007004028 0.00034433955 -0.0004991313 -0.001727859
000310 22 31 98 ba 0b 07 9a b9 d8 ca 17 bc 3f 44 31 bc
       -0.0011611322 -0.00029378416 -0.00926467 -0.010819494
000320 70 52 3a ba 04 af 86 3a d1 e9 29 bc 34 b7 13 bc
       -0.0007107621 0.0010275547 -0.010370688 -0.009015847
000330 de 1c 8e 3a 72 a4 2f bb 03 aa 36 bc ea 41 3d bc
       0.0010842343 -0.0026800898 -0.011148932 -0.01155136
000340 8b c4 19 bc 4e b8 3b bc 8a 2a 3a bc 8f 0c 39 bc
       -0.009385238 -0.011457516 -0.011362681 -0.011294498
000350 58 ef 3e bc e8 3c 34 bc 50 35 41 bc d6 0f 40 bc
       -0.011653744 -0.011000849 -0.011792496 -0.011722526
000360 68 01 3c bc aa fc 07 bc b3 eb 38 bc 9b f4 3e bc
       -0.011474945 -0.008299986 -0.011286664 -0.011654998
000370 02 47 3a bc ee 42 3c bc 08 5d 39 bc 43 8d 40 bc
       -0.011369469 -0.011490567 -0.011313684 -0.011752429
000380 02 03 39 bc b0 cc 40 bc 32 92 49 bc 7b 48 e6 bb
       -0.011292221 -0.011767551 -0.012302922 -0.0070276833
000390 f2 59 3f bc 5c be e2 bb 6e 45 08 bb ea c4 45 be
       -0.0116791595 -0.0069196653 -0.0020793336 -0.19313398
0003a0 3e 1e 64 3e 24 ca a1 be 01 66 2a 3e 89 77 16 3e
       0.22277161 -0.31599534 0.16640474 0.14694037
0003b0 cb 56 25 bd 6f cb fb 3d 6b 06 62 3e 00 1f f3 3d
       -0.040365975 0.12294661 0.22072761 0.11871147
0003c0 67 91 15 3e a7 e8 d6 3c fc 3b c4 3d f7 dd 1c 3d
       0.14606248 0.026233984 0.095817536 0.03829762
0003d0 74 66 0c 3d fa 37 d8 3d 84 5a b9 bc 8b 08 20 bd
       0.034277394 0.10557552 -0.022626169 -0.039070647
0003e0 4d 67 42 bd 9b 2c e6 3d c2 50 8e 3d c3 22 43 3d
       -0.047461797 0.112389766 0.06948997 0.047640573
0003f0 3d 27 6e bd e5 27 7d bd 15 31 d8 3d 7d 70 1e 3e
       -0.05814289 -0.061805625 0.10556237 0.15472598

layers.0.bias f4 [128]
000000 13 02 53 bd b8 c4 6f bd e0 d3 91 bc 4c 68 d9 bb
       -0.05151565 -0.058537215 -0.017801225 -0.0066347476
000010 9c 8d 8d 3d 41 19 89 bb f6 fe 36 bc b8 09 c1 3d
       0.069117755 -0.0041839187 -0.011169186 0.09425682
000020 24 60 1c bd c5 38 63 3d 5f d3 1e bc fd b8 df bd
       -0.038177624 0.05547406 -0.0096939495 -0.109239556
000030 b1 bc 42 3e e5 82 88 bc 15 06 15 3c ce c0 18 be
       0.19017293 -0.016663978 0.009095688 -0.14917299
000040 6c 58 dd bb 11 7a 83 bd 0b c0 39 3e 1d bc ec 3d
       -0.0067549255 -0.06419767 0.18139665 0.11559317
000050 04 7c 9c bd 12 13 af 3d 6d 9e 20 bd a7 87 48 bb
       -0.076408416 0.08548559 -0.039213587 -0.0030598433
000060 ca b5 d9 3d de 10 a8 bd 10 80 fd 3d 0d a6 8d bc
       0.10630377 -0.08206342 0.123779416 -0.017291093
000070 67 a1 07 80 79 d1 e1 b9 ee 46 d1 bd ae e6 66 bc
       -7.00749e-40 -0.00043071414 -0.10218607 -0.014093084
000080 2e a1 03 80 0d 67 47 3e 48 4c c9 bd ef aa 15 3e
       -3.33327e-40 0.19472905 -0.098290026 0.14615987
000090 02 5d 37 bd e1 aa c4 3c 6d ac 19 be 68 f4 bd 3d
       -0.044766434 0.024007263 -0.15007181 0.092751324
0000a0 4d f6 a6 a2 fa 11 19 3e a5 60 4a bc 95 d9 30 b8
       -4.525517e-18 0.14948264 -0.012352143 -4.216431e-05
0000b0 31 da 90 bd 24 a3 06 3e bb 04 47 3a d5 e6 7d 3c
       -0.07072867 0.1314817 0.00075919525 0.015496929
0000c0 cf 4d 3c bc d4 72 19 3e ac 3a 33 3e 54 34 63 3d
       -0.01149316 0.1498521 0.1750285 0.055469826
0000d0 f5 3e ad 3d 28 53 33 3e df 14 37 3e 6a e7 78 bd
       0.08459274 0.1751219 0.17879055 -0.06076757
0000e0 06 c6 b7 bd f0 bc 0c 3e 45 7d 32 bd 50 fd 64 3d
       -0.08973317 0.13743949 -0.043576498 0.05590564
0000f0 30 90 c3 bc 92 f1 03 00 42 6a 26 3e e8 93 9e 3d
       -0.023872465 3.62166e-40 0.16251472 0.07743055
000100 00 da 06 be 67 d6 46 3d da 65 db bd e1 46 0f be
       -0.13169098 0.048544314 -0.10712786 -0.13991882
000110 2d 74 2b be 91 47 08 be 51 33 05 80 03 83 2c bc
       -0.16743536 -0.1330855 -4.77586e-40 -0.0105292825
000120 d4 39 44 3e 05 d6 11 3e 69 8e d5 bb 88 72 95 ba
       0.19162685 0.14241798 -0.0065172208 -0.0011401931
000130 43 c3 15 bb 68 ca e7 bd a6 6e 89 bd f9 ae b5 3d
       -0.002285198 -0.11317903 -0.06710558 0.08871264
000140 88 62 3d 3e 72 14 6f 3c 2f 8c b6 bd de 65 49 3b
       0.18494618 0.014592277 -0.08913457 0.0030730884
000150 aa 99 b5 3d de 18 19 be 2d b6 a9 3c 4a 99 f5 3d
       0.088672 -0.14950892 0.020716751 0.11992128
000160 0c 2e 4d bb a8 5f 0c 3d 69 24 2b 3d bd 09 d5 bd
       -0.0031307964 0.034270912 0.04178277 -0.10402248
000170 a8 1d a6 bd ee ea f9 3d 2a ef 90 9b d6 a0 04 3e
       -0.08111125 0.122030124 -2.3977358e-22 0.12951979
000180 94 23 84 3d 1b e8 50 bb 58 12 13 be ae d8 9c 3d
       0.064520985 -0.0031876627 -0.14362466 0.07658516
000190 04 45 04 80 6a 3f d7 3d f9 f2 e6 bb 65 c0 36 3d
       -3.921e-40 0.10510142 -0.0070480076 0.044617075
0001a0 61 dc 04 00 95 02 90 9d 15 da 21 bc 01 a2 77 bb
       4.46399e-40 -3.8119152e-21 -0.009878655 -0.003778577
0001b0 38 ca 36 bd a0 7f 92 3d ee 13 4e bc 4a 0b af bc
       -0.044626445 0.07153249 -0.012577994 -0.021367688
0001c0 f3 47 df bd 60 47 3f bc d5 a1 5a 3d 4c b8 be 3d
       -0.10902395 -0.011674732 0.05337699 0.093124956
0001d0 99 44 0a bc 62 29 03 bc 60 b2 ae 9e a4 ac 12 a3
       -0.0084392065 -0.008005472 -1.849674e-20 -7.951234e-18
0001e0 ee 44 24 bd b7 8c cf bc d2 15 02 3d 04 79 b9 ba
       -0.0401048 -0.025335653 0.03175909 -0.0014150445
0001f0 2a ba af 3d 5b 42 32 b2 5f ad 19 3e 43 03 f6 3d
       0.0858043 -1.0376051e-08 0.15007542 0.12012341

layers.1.weight f4 [128, 128]
000000 1b ae 20 bd 53 67 af 3d e3 73 78 bd 77 a4 07 3c
       -0.03922854 0.085646294 -0.060657393 0.008278958
000010 d3 e9 23 bd 00 77 41 bc 00 46 02 3c c6 ff 64 3e
       -0.040017914 -0.011808157 0.00795126 0.22363195
000020 83 48 0b be 72 36 32 3e b1 f4 e7 bb 1d 4d 17 3d
       -0.1360188 0.17403582 -0.00707873 0.036938775
000030 84 7d 1a 3e 9c a4 04 3e 79 e4 3d bd 93 f7 9a bd
       0.15086943 0.12953418 -0.046360467 -0.07566752
000040 f9 ab dd bd 20 bf e5 3d 6d c2 98 3d b3 ff e2 3d
       -0.10823817 0.11218095 0.07458959 0.11083927
000050 27 eb 78 bc 4f 8d 7b bd 29 dc 91 3d 75 07 2a 3b
       -0.015192783 -0.06141406 0.0712207 0.0025944386
000060 9c 9f a0 bc 10 d7 f1 3d 9d 9b 14 3e 47 58 86 3e
       -0.019607358 0.11808598 0.14512487 0.26239225
000070 7f c4 02 80 0b e9 e8 9e 15 4e 22 be 3f 86 f0 39
       -2.5416e-40 -2.466034e-20 -0.15850098 0.00045876388
000080 11 40 04 00 83 b5 82 be 3f f2 0d bd dd 82 fc bb
       3.90325e-40 -0.25529107 -0.034654852 -0.00770603
000090 12 b8 44 3d d6 4c b8 3d e6 65 4d bc 67 39 07 be
       0.048027106 0.0899903 -0.0125365015 -0.13205491
0000a0 95 87 00 80 ff 3e 32 bd b9 0e 82 3e ac 75 3c b6
       -4.8638e-41 -0.04351711 0.25401857 -2.8082677e-06
0000b0 a2 c5 1e 3e ee 04 cb bd 78 f1 06 00 e9 70 60 3d
       0.15505078 -0.0991305 6.37636e-40 0.05479518
0000c0 cf e5 d3 ba 29 20 bd 3d ce 92 af bc af 56 0c be
       -0.0016166511 0.0923465 -0.021432307 -0.13704942
0000d0 d7 7a 3c 3d 98 e2 2c bd 90 5c 82 bc 26 3f a4 3d
       0.046015587 -0.042208284 -0.015913278 0.08019857
0000e0 88 74 92 bd 5b b2 96 3d 0e f0 87 3b 99 0b 2d be
       -0.07151133 0.07358237 0.00414849 -0.16898955
0000f0 2e ee 44 3e 31 ec 89 3a d2 89 73 3e df 38 2b be
       0.19231483 0.0010522661 0.23783043 -0.16720913
000100 5b e8 6a bd 45 61 80 bd 48 e3 32 be 41 25 25 3e
       -0.057350498 -0.06268553 -0.17469513 0.16127492
000110 60 08 62 be de a8 f4 3c a8 ee 05 80 b9 c6 47 3e
       -0.22073507 0.029865678 -5.44791e-40 0.195094
000120 37 72 78 3d 17 5b 63 3c cb 51 c7 3b 09 b2 bc 3a
       0.0606558 0.013876698 0.0060827485 0.001439632
000130 bd 72 02 3b 7c ae 72 bd 34 7e 88 bd 03 f4 09 3e
       0.0019904815 -0.059248433 -0.06664696 0.1347199
000140 be 94 16 3d 4d 74 75 3d 4f b8 f4 3d ee d7 75 ba
       0.036762945 0.059925366 0.119492166 -0.00093781843
000150 3d 69 81 3e ff 6a 4c be fd 43 13 3e 4c fa 08 3e
       0.25275603 -0.19962691 0.14381404 0.1337673
000160 e4 0d f0 39 13 54 0f bd 1e d1 d2 bc 2b ad bb bc
       0.00045786717 -0.03499229 -0.02573448 -0.022909721
000170 6b 74 e6 3d 05 87 e9 3d 3f dd 06 80 f4 7a c6 bc
       0.11252674 0.11402706 -6.30381e-40 -0.02422855
000180 46 6a 6b 3d f6 64 04 3b 4b ed f6 bd 6a 9a 13 3e
       0.057474397 0.002020178 -0.12056979 0.14414373
000190 75 fe 02 80 33 bc 66 3e b5 f4 10 bc 29 6a 02 3e
       -2.74953e-40 0.2253273 -0.008847405 0.1273581
0001a0 0f 76 33 ab 78 5a 0a 80 77 29 21 3c 4c 60 3e 3e
       -6.3757414e-13 -9.50809e-40 0.009836546 0.18591422
0001b0 5c 07 11 bd d3 7d 39 3c bf eb a9 bb 4b 4d 4c ba
       -0.03540741 0.011321503 -0.005185574 -0.00077935
0001c0 9d 47 fe 3b 28 5b 2d bc 71 ac b6 3d cb e3 4d be
       0.007760002 -0.010580815 0.08919609 -0.20106427
0001d0 43 61 ef 3b ef 35 ee 3a d0 09 ca a1 5d 7b af 2c
       0.0073052957 0.0018174032 -1.369065e-18 4.9874952e-12
0001e0 c7 20 09 bd 48 87 83 bd d6 35 8a bd e8 fd 6d 3a
       -0.033478525 -0.06422287 -0.0674855 0.00090786675
0001f0 49 44 56 bd 69 4c 02 00 1b a2 69 3e c4 f8 1b bc
       -0.052311216 2.11082e-40 0.22815745 -0.00951976
000200 63 6e 1b b4 b9 b5 00 a0 42 4e 24 af 90 5d 06 00
       -1.4475658e-07 -1.0902149e-19 -1.4943516e-10 5.84577e-40
000210 65 16 a9 b4 af 18 09 00 2b f7 03 80 41 6b 61 ac
       -3.1494997e-07 8.35374e-40 -3.64174e-40 -3.203396e-12
000220 57 ef be ad 5c a5 dc a9 11 6f 00 00 48 2f e4 aa
       -2.1706787e-11 -9.798648e-14 3.9843e-41 -4.0533744e-13
000230 55 64 50 b2 58 8c d2 a9 0f 46 21 b2 fb 69 3e ae
       -1.2130006e-08 -9.350219e-14 -9.387363e-09 -4.3295128e-11
000240 ea f4 c1 b1 12 c2 ba b8 61 92 29 b8 2c ed fd b4
       -5.644883e-09 -8.9053196e-05 -4.0429066e-05 -4.7297488e-07
000250 ad 25 a6 b7 e0 00 b6 b5 64 98 28 a8 ee 4d 03 80
       -1.9806286e-05 -1.3560311e-06 -9.358918e-15 -3.03462e-40
000260 ed 43 cd b5 a5 f9 01 00 ea db 4e b3 7b 12 7b af
       -1.5293459e-06 1.81391e-40 -4.8163123e-08 -2.2834883e-10
000270 94 ca 02 80 d4 0b 07 80 82 a2 33 a5 cd 27 08 00
       -2.56342e-40 -6.47092e-40 -1.5580835e-16 7.48962e-40
000280 f2 50 08 00 8e d6 a5 ac 7e da 4a b8 4a 6e 3a 9f
       7.63722e-40 -4.7134024e-12 -4.836404e-05 -3.947826e-20
000290 89 68 1f b8 6b 57 1f b4 d1 5c 3b b6 fe 85 c2 ab
       -3.800591e-05 -1.4839831e-07 -2.7919198e-06 -1.3821719e-12
0002a0 9d fb 07 80 5f cd 00 ae db bf 95 a4 11 aa 08 80
       -7.3311e-40 -2.9286237e-11 -6.4943465e-17 -7.95692e-40
0002b0 a9 76 5e af b1 0e 17 b6 70 ef 07 00 f1 bb 78 b6
       -2.0232939e-10 -2.2509305e-06 7.28742e-40 -3.7064276e-06
0002c0 6a 84 09 00 7e 99 b1 b1 9f e5 d6 af ba 0c d9 9f
       8.7402e-40 -5.168828e-09 -3.908953e-10 -9.192413e-20
0002d0 f9 fe 07 b7 97 cb 92 ad a9 76 0b b5 6e 9a 1c b4
       -8.1059925e-06 -1.668869e-11 -5.195421e-07 -1.4584813e-07
0002e0 ad 01 47 b7 a3 b3 1e b8 0e b2 5f aa f6 5f 8f ab
       -1.18617145e-05 -3.7837435e-05 -1.9868154e-13 -1.0187396e-12
0002f0 74 8b b9 a3 69 3f 00 00 f6 b6 03 ab cb 0c a8 ad
       -2.0116801e-17 2.2747e-41 -4.679446e-13 -1.910507e-11
000300 d3 82 21 b5 a8 1f c2 b2 e7 61 ce ab 71 7d 16 ad
       -6.016755e-07 -2.2598968e-08 -1.4664354e-12 -8.554366e-12
000310 29 ab 6c a3 24 12 22 b8 1b db 05 80 0d 7b b7 b0
       -1.282983e-17 -3.8640705e-05 -5.37778e-40 -1.3349976e-09
000320 20 27 5a b7 15 5f 23 b5 f6 37 00 80 a7 95 04 80
       -1.3002922e-05 -6.0860594e-07 -2.0075e-41 -4.21027e-40
000330 32 36 09 80 6b 17 6b b6 e4 5f 24 af 45 d5 33 b7
       -8.45961e-40 -3.503136e-06 -1.494978e-10 -1.0718887e-05
000340 2c dc 00 af 63 8d 0f b7 ac 07 00 80 cb ed 02 80
       -1.1719753e-10 -8.556383e-06 -2.752e-42 -2.68975e-40
000350 b6 ef 3d ad d4 4d dc ad 36 66 ca b4 32 37 b3 ac
       -1.0796633e-11 -2.5045667e-11 -3.76998e-07 -5.093614e-12
000360 b8 09 04 80 b3 c1 ce b7 f1 0b 63 b4 b3 9b 49 92
       -3.70828e-40 -2.4647312e-05 -2.1145367e-07 -6.361633e-28
000370 a7 2e ad b4 6d e3 a0 b3 ee 5f 07 00 6e c9 f0 b6
       -3.2257705e-07 -7.491949e-08 6.77262e-40 -7.176007e-06
000380 64 a4 2b b5 ee 16 0a 80 c0 56 c2 a8 52 56 35 b1
       -6.3941684e-07 -9.2658e-40 -2.1575948e-14 -2.6388034e-09
000390 c3 3c 08 80 7b 0f 33 ae d2 ca 87 b6 bb 85 84 b2
       -7.56481e-40 -4.0713637e-11 -4.046925e-06 -1.5427636e-08
0003a0 90 6b 01 80 16 ac 05 80 eb 65 07 80 55 44 00 a2
       -1.30422e-40 -5.2091e-40 -6.7941e-40 -1.738341e-18
0003b0 2a 6e 9e b1 08 ae 90 af 9d 76 09 00 53 ad 06 00
       -4.6109294e-09 -2.6317104e-10 8.6907e-40 6.1319e-40
0003c0 cf b7 98 b8 1e a5 02 80 41 8d 89 b6 fd f8 45 93
       -7.282162e-05 -2.42904e-40 -4.0993623e-06 -2.4987656e-27
0003d0 47 5f 00 80 83 23 07 00 3b 87 07 00 c3 d6 05 00
       -3.4179e-41 6.55588e-40 6.9136e-40 5.3622e-40
0003e0 8f db e0 af 3d 94 ad b7 92 ed a1 b6 e2 d4 00 80
       -4.0901368e-10 -2.0692236e-05 -4.8258307e-06 -7.6368e-41
0003f0 d5 b3 97 af 65 9b 02 80 84 d4 26 a8 0b 4a 39 b3
       -2.7594518e-10 -2.39416e-40 -9.260933e-15 -4.314101e-08

layers.1.bias f4 [128]
000000 ad 07 6b bd f5 89 40 b1 79 dc 9c bd b6 f7 dc bc
       -0.057380367 -2.8018097e-09 -0.07659239 -0.026973587
000010 76 4f 07 bd 28 f0 0e bd c2 04 c4 3d 54 42 70 bd
       -0.033034764 -0.034897 0.0957122 -0.058657005
000020 96 71 9f 3d 7a 63 85 bd 85 b4 49 bc 29 66 2e a1
       0.07785337 -0.06513114 -0.012311106 -5.90887e-19
000030 80 50 d7 3d 7c 18 8d 3d a8 f7 41 af 78 28 d8 3c
       0.10513401 0.06889436 -1.7641233e-10 0.026386485
000040 1c 29 0c 3d 4b 75 0f bc de ad 93 3d 5a 43 cd ba
       0.034218892 -0.008755992 0.07210897 -0.0015660331
000050 48 31 e9 bc ad de 74 bd aa fd f8 bc 11 71 72 3d
       -0.028465882 -0.059782673 -0.030394394 0.05918986
000060 82 34 e9 3c 5c 64 d2 bb cc 5a 9b bd 95 28 5d 3b
       0.02846742 -0.006420655 -0.075856775 0.0033746113
000070 d8 2f 07 00 7c d1 a1 3d 6a 93 b2 3d ee 50 f2 3c
       6.60012e-40 0.07901284 0.08719523 0.029579606
000080 3b ed ab 3d 6b 25 63 3d c3 16 cd b3 22 dd 21 bc
       0.083948575 0.055455606 -9.550197e-08 -0.009879382
000090 6b a8 8c 3d 33 39 4a bd d4 cd b6 b9 32 f2 28 07
       0.06868061 -0.049370956 -0.000348671 1.271009e-34
0000a0 a8 ce 39 ba 15 9d df bc e8 9f 34 3d 88 cf 79 b9
       -0.0007087984 -0.027296582 0.04409781 -0.00023823802
0000b0 8e 4c 1c bc b4 8f 2a bd 3e ff 96 3c 4a 81 a3 3c
       -0.009539736 -0.041640952 0.018432256 0.01995911
0000c0 47 b9 8a 3d be 51 86 bb 64 ff 0c bd f8 1a 3c ba
       0.0677362 -0.0040991 -0.034423247 -0.00071756495
0000d0 cd a7 82 ad 58 8e fd 3d da a4 06 bd eb 3b a4 bc
       -1.4853807e-11 0.123806655 -0.03287206 -0.020048102
0000e0 26 2e aa 3d f2 6b 11 b6 98 fb c4 3d 2c ab 65 bc
       0.08309583 -2.1669516e-06 0.096183 -0.014017861
0000f0 4e 6c e8 b7 7c 72 b1 bc 24 46 3a 3d 45 76 7f bb
       -2.7706988e-05 -0.021661036 0.045477048 -0.0038980406
000100 f1 2d 33 bd c1 e2 5e 3d 95 86 ac 3d 43 96 78 bd
       -0.043744985 0.054415468 0.08424107 -0.060690176
000110 70 c6 b2 3d 39 db bd bc cc a6 12 bc 62 b8 42 3d
       0.08729255 -0.023175823 -0.0089509 0.047539122
000120 6c f1 aa 3a 38 25 22 31 06 e5 cb bb e0 f7 93 3d
       0.001304192 2.359526e-09 -0.00622237 0.07225013
000130 e4 11 31 bc dc d5 56 bd 64 cc bc 3c f7 42 7d bd
       -0.010807488 -0.052450046 0.02304668 -0.06183144
000140 84 3b 44 bd 3f 5d dd af 43 85 b6 3d 9a e7 a6 3d
       -0.04790832 -4.026592e-10 0.089121364 0.08149643
000150 88 2c 06 3d fd 01 e0 bb c7 a3 df 3b b4 91 2a ba
       0.032757312 -0.0068361745 0.0068249437 -0.0006506697
000160 c9 af 33 3c c6 aa 25 bc 4b cb 26 bd f8 74 36 ba
       0.010967203 -0.010111516 -0.04072122 -0.0006960179
000170 78 fb 12 bd 22 c2 44 3d 48 3d 48 3d 4b 96 82 3d
       -0.03588435 0.048036702 0.048886567 0.06376322
000180 55 93 9b bb 69 8d 91 3d a7 30 c9 3d 0e 1b d7 3d
       -0.004747788 0.0710705 0.09823733 0.10503207
000190 07 ae 97 3d a2 c8 cd 3c eb 22 0d b8 79 76 2c 3d
       0.0740624 0.025120083 -3.364954e-05 0.04210517
0001a0 73 cd cc bc 82 af 7e 3d a7 ca 5d 3d 8e 71 0d bd
       -0.02500031 0.062179096 0.054148342 -0.034532122
0001b0 a9 57 8e bd e8 dd 35 bc 08 cd 29 bd 1b a4 21 bc
       -0.069503136 -0.01110027 -0.0414553 -0.009865786
0001c0 d7 cd d5 3d b2 2b 48 3d ce ff 0d bd a0 57 02 00
       0.104396515 0.048869796 -0.034667782 2.15105e-40
0001d0 a1 3d e7 8c e8 8a ca 3b f1 c0 26 bc 8c ed 41 bd
       -3.5628277e-31 0.0061811097 -0.010177837 -0.047345683
0001e0 8b 8d a0 3d 6d 7b 85 bb 68 66 02 80 8e c2 68 3d
       0.07839497 -0.0040735514 -2.20407e-40 0.056826167
0001f0 46 a9 f2 3c b0 e0 06 00 88 27 91 bc ef 7a 80 3d
       0.029621731 6.31616e-40 -0.017719045 0.06273448

layers.2.weight f4 [128, 128]
000000 5e c7 f3 bb 12 eb 0a 80 93 47 3f bc ea 1f 31 bc
       -0.007439538 -1.002682e-39 -0.0116747795 -0.010810832
000010 10 37 02 00 71 c6 35 bc 1a 95 1e bc 35 ab 17 bc
       2.03424e-40 -0.011094675 -0.009679103 -0.0092571275
000020 ce 69 14 bc 5c d8 b8 3a 4b ec 09 00 5f 7a 04 00
       -0.009058429 0.0014102566 9.11285e-40 4.1124e-40
000030 ff 47 9a bc 55 c3 81 ba d5 bf 04 00 40 ea 12 bb
       -0.018833159 -0.0009900132 4.36158e-40 -0.0022417456
000040 ca 0b 06 bb 29 f6 63 bc f5 5e f9 bb 94 2d 06 00
       -0.0020453804 -0.01391367 -0.0076101967 5.67363e-40
000050 96 2e e5 bb 62 74 73 bb 0a c3 d8 39 a5 cb 49 bb
       -0.006994079 -0.0037148227 0.00041344046 -0.0030791548
000060 79 e0 a2 3b f5 59 08 00 8f a9 09 80 ea 0f 02 00
       0.004970607 7.66954e-40 -8.87346e-40 1.8938e-40
000070 83 1a 08 80 71 0a 6a bb 4f c8 82 bb 2c e9 3d bc
       -7.44195e-40 -0.003571179 -0.003991164 -0.011591237
000080 fa 40 48 bc e6 96 74 bc c6 3b 08 00 8b 4e 36 3b
       -0.012222523 -0.014928555 7.56127e-40 0.0027817811
000090 7d 72 65 bc 59 32 16 bb 37 4a 9a bb b6 fc 00 80
       -0.014004347 -0.0022918193 -0.004708554 -9.0656e-41
0000a0 c2 7a 02 00 c1 69 35 bc 20 0e 02 80 4b b1 0a 00
       2.27708e-40 -0.011072577 -1.88738e-40 9.81956e-40
0000b0 25 35 b9 39 15 28 07 00 bf f2 16 bb 28 e9 0a 00
       0.00035325545 6.57227e-40 -0.0023032872 1.001996e-39
0000c0 81 d7 c2 bb c5 07 04 80 b0 c7 e5 bb af f0 06 80
       -0.0059461 -3.70129e-40 -0.00701233 -6.37354e-40
0000d0 f7 78 06 80 6e 51 1d bc 40 16 b0 bb 88 c8 78 3a
       -5.94407e-40 -0.009601934 -0.005373746 0.00094903307
0000e0 3d b8 52 bc c1 21 00 00 67 82 43 bc 9f 64 07 80
       -0.012861309 1.2109e-41 -0.011932946 -6.78945e-40
0000f0 62 d2 03 80 f8 0f 07 bc 39 42 fc ba f9 12 07 80
       -3.50978e-40 -0.008243553 -0.001924581 -6.49655e-40
000100 a7 15 84 b9 90 6b 32 b8 78 df de bb 93 9f d8 bb
       -0.00025193134 -4.2538682e-05 -0.006801542 -0.0066108196
000110 8e 61 47 bc 2d 13 67 bc 6f 66 8b bc d2 44 31 bc
       -0.012169255 -0.014103693 -0.017016618 -0.010819631
000120 de 1f 06 00 52 02 0a 00 f0 04 06 00 89 32 18 bb
       5.62445e-40 9.19187e-40 5.52784e-40 -0.002322348
000130 2a 0c 9d bc fd 99 9f bc 72 63 8d b9 8a 05 06 00
       -0.01917084 -0.019482607 -0.00026967708 5.53e-40
000140 59 c8 c2 bc 7e b6 08 80 b0 dd 21 bc 44 05 70 bc
       -0.023777174 -8.0015e-40 -0.009879515 -0.014649693
000150 15 5b aa bc 9a 63 1d bb 8e a1 cc bb e8 1d 09 80
       -0.020795384 -0.0024015666 -0.0062448448 -8.37248e-40
000160 ea 60 f9 bb 38 6c 03 80 cf f0 6f bc 17 a1 03 00
       -0.00761043 -3.14328e-40 -0.014644816 3.33295e-40
000170 9c c5 5e bc 6d d7 4f bc dd 26 b9 ba aa 52 e4 bb
       -0.013596918 -0.012685639 -0.0014125962 -0.006967862
000180 28 91 09 00 7a 9d 38 bc a5 d1 c5 bc df 64 cb bc
       8.78592e-40 -0.011268014 -0.024147818 -0.024828373
000190 d7 a7 58 bc db ac 16 bc e0 d7 04 00 ea f0 08 bc
       -0.01322361 -0.009196485 4.44783e-40 -0.00835822
0001a0 e7 2d 19 ba 09 53 67 bb 2f 92 61 bc 4b be 04 00
       -0.0005843327 -0.0035297296 -0.013767763 4.35606e-40
0001b0 de 7c 82 bc 8f 38 04 00 cb e8 31 bc 48 64 01 00
       -0.015928682 3.87631e-40 -0.010858725 1.2781e-40
0001c0 89 ce c6 bb a6 a4 6d bc 66 45 1c bc e9 11 02 80
       -0.0060671014 -0.014504587 -0.00953803 -1.90096e-40
0001d0 45 43 05 80 0d c8 6f bb 68 16 09 00 16 b0 04 80
       -4.83309e-40 -0.0036587745 8.34557e-40 -4.3051e-40
0001e0 36 63 39 bc 68 c9 04 80 c2 5b 05 80 94 11 91 bc
       -0.011315158 -4.39593e-40 -4.92094e-40 -0.017708577
0001f0 9c e0 1c bb ee 12 06 00 7f f7 9f bc 30 64 54 bc
       -0.0023937589 5.57804e-40 -0.019527195 -0.01296334
000200 42 3a 0a 3c 0a 8e 05 00 d8 fe 88 3d 17 c1 f6 3d
       0.008436741 5.10131e-40 0.066892326 0.12048548
000210 d7 b5 c2 bb 55 15 79 3d f7 68 86 3c f0 cf ab 3d
       -0.005942087 0.06081136 0.016407473 0.0838927
000220 a7 8b 13 3d f6 19 27 3d 74 5d 1c 3b ad 0a 47 8f
       0.036021855 0.040796243 0.0023859413 -9.8135136e-30
000230 3a f0 a7 3d 22 24 0d 3d 97 4d 06 80 81 74 0c 3d
       0.082001165 0.034458287 -5.78847e-40 0.034290794
000240 32 82 f2 bd 69 45 e4 3d 5c 6b 83 3d 71 c6 c0 3b
       -0.11841239 0.111460514 0.064169616 0.005883031
000250 b6 3e be bc 1e 5f 96 3c 47 fc 1b bd cf 3c a4 bd
       -0.023223262 0.018355902 -0.038082387 -0.08019411
000260 26 37 ee 3c 13 da 03 80 6a f5 cb 3b 54 e8 24 36
       0.029079031 -3.53737e-40 0.006224324 2.4573137e-06
000270 ed 04 04 00 33 d9 02 be f5 6d d7 bd e9 49 a4 3d
       3.69109e-40 -0.12778167 -0.105190195 0.0802191
000280 4f 37 f4 3d 9f 06 1c 3e 5c a9 22 39 cd 4f 19 3e
       0.11924612 0.15236901 0.00015512615 0.14971848
000290 4c b0 15 b9 31 79 08 3e 61 7d d6 3d 3f f3 01 00
       -0.00014275423 0.13327481 0.10473133 1.79096e-40
0002a0 e7 f4 87 3b 46 79 13 3e b7 b3 a2 bc 8e 07 02 00
       0.0041490677 0.14401731 -0.019861085 1.86381e-40
0002b0 35 24 9e bc e1 90 02 bb 74 7b 75 bb e4 70 0f 30
       -0.019304374 -0.001992278 -0.0037457617 5.2183524e-10
0002c0 c0 dc 53 3e fa 59 b9 39 85 e4 84 bd 5e 1b ff 3b
       0.20689678 0.00035352987 -0.06488899 0.007785245
0002d0 f9 0b 34 38 44 d2 6a 3d 65 ec 7c 3d bd fb be 3d
       4.2926495e-05 0.05732943 0.06174888 0.09325359
0002e0 83 5c 05 3d b1 cd d2 38 05 03 02 3d 03 61 eb ba
       0.03255893 0.00010051893 0.03174116 -0.0017957989
0002f0 0d f9 c9 b9 a1 54 18 bd 8d 1d b0 bd f9 91 d6 3b
       -0.00038523265 -0.037190083 -0.08599386 0.006548163
000300 74 96 89 bd a9 0d 92 bc 88 69 12 3e ac eb 16 bd
       -0.0671815 -0.01782878 0.1429807 -0.036845848
000310 ef cd 17 3e 49 68 1d 3e 4d 7c 2b 3e e8 09 1b be
       0.14824651 0.15371813 0.16746636 -0.15140498
000320 cb 01 be 15 d0 91 85 ae d5 a2 ab 3b ac dd 8f bc
       7.674322e-26 -6.074041e-11 0.005237917 -0.017561756
000330 68 0c 28 3e 86 b1 0a 3d e4 e6 89 bd 7c 75 e8 3c
       0.16410983 0.033860706 -0.06733492 0.028376333
000340 bb 37 19 3d 5c e5 e9 33 8a 2a b2 bd 1e 38 ba 3d
       0.037406664 1.0891628e-07 -0.0869952 0.09092735
000350 cd 30 0c 3e 90 1e f7 bd ce 4e 94 bd bd 6b b4 30
       0.13690491 -0.12066376 -0.07241593 1.3127345e-09
000360 b5 e9 5c bd 2e b1 38 3a 89 c2 f4 3d e8 e0 9e 3b
       -0.053933818 0.0007045445 0.11951167 0.0048485883
000370 81 3e 01 3e a7 73 ef bc 96 b9 85 bd 35 9b 38 3e
       0.126215 -0.029229952 -0.06529538 0.18027957
000380 2b 16 26 bb 06 13 57 3e 44 0a c2 3d b3 cd 90 3d
       -0.0025342803 0.2100335 0.09474614 0.07070484
000390 12 5f 90 3c df d1 52 3d 72 f9 e9 b2 84 de 0b 3e
       0.017623458 0.05146968 -2.7238205e-08 0.13659102
0003a0 25 4b 1f bd 52 5f 8b bd ba 93 e8 3d 88 a6 1f bd
       -0.038890023 -0.0680529 0.113563016 -0.038977176
0003b0 2f 8f 93 3e dd dd 44 3c c6 80 dd 3d 90 0a 7b bb
       0.28820178 0.012015787 0.10815577 -0.0038305856
0003c0 ae c3 88 3d e9 6f 30 b9 71 8c 83 3d 27 6e 00 80
       0.06677948 -0.00016826358 0.064232714 -3.9515e-41
0003d0 46 0b 01 00 55 c1 ed bc b5 07 a3 3a 2a 3d 3a 35
       9.588e-41 -0.029022852 0.001243821 6.9379405e-07
0003e0 46 64 f0 3d 01 64 21 3b 3a 25 09 80 bc 82 8a 3d
       0.11737876 0.0024626257 -8.39874e-40 0.06763217
0003f0 8b 3a da bc 82 55 06 80 6b 42 03 3e 60 d3 4b 3e
       -0.026639244 -5.81687e-40 0.12818305 0.19904852

layers.2.bias f4 [128]
000000 71 f4 b3 bb 1c 16 94 3d 99 19 73 3d d7 22 15 3d
       -0.005491786 0.072307795 0.059350584 0.03641018
000010 d8 c2 4c bd 07 1b db 3b c2 fc 8b bc 47 ae 82 3d
       -0.049990505 0.0066865715 -0.017088298 0.06380897
000020 8d ad da bc 2b e3 8d 39 16 56 8c 3c b9 c7 b3 ba
       -0.026694084 0.0002706287 0.017130893 -0.0013716138
000030 0a bc 88 bc e7 d6 dd ad ae a6 c4 bc 0e 0c dc 3c
       -0.016691227 -2.5220227e-11 -0.02400526 0.026861217
000040 8a cb 2c 3d f5 63 35 3d 26 b4 3f bd 25 16 51 bd
       0.042186297 0.04428478 -0.046802662 -0.05104651
000050 c8 36 4c 3c 75 a3 0b ba 9b a3 17 bd 14 09 52 bc
       0.012464233 -0.0005326786 -0.03702126 -0.012819547
000060 fa 72 09 3d 52 9f a8 3c cd 6f 16 b8 03 b7 26 b5
       0.033556916 0.020583782 -3.586691e-05 -6.2106136e-07
000070 2e 7c 01 3d ff 34 97 bd 00 fa f4 3c cf d2 0d bd
       0.031612568 -0.07383155 0.029904366 -0.03462487
000080 7f 05 b9 3d c0 45 da 34 d9 03 00 bd 8e 61 c8 b1
       0.090342514 4.0656414e-07 -0.03125367 -5.8318568e-09
000090 d7 12 f0 bb 72 c2 fd bc 85 f5 6b bc 48 7a ab 3d
       -0.0073264646 -0.030976508 -0.014401798 0.08372933
0000a0 2b 9a 62 3c d6 8e 86 3d 4d 93 26 3c e4 87 7c 3d
       0.013830702 0.065702125 0.010166955 0.061653033
0000b0 d4 c8 b9 3c a0 86 11 3c b2 e4 16 a2 f0 5d 26 bc
       0.02267877 0.008882195 -2.044986e-18 -0.010154232
0000c0 f3 e5 48 3d 6a d7 12 3d 19 46 43 3d 82 24 7a bb
       0.04904742 0.035849966 0.047674272 -0.0038168733
0000d0 c4 5a 6c bd 5a 37 95 3b 97 1a 16 bb 5f 68 9f bb
       -0.05770375 0.0045537176 -0.0022904032 -0.004864737
0000e0 d1 20 5f bd 00 2d 6b 3d 44 aa ab bc 34 27 2a bd
       -0.054474656 0.057415962 -0.020955212 -0.041541293
0000f0 67 b3 06 3c 44 52 db 3b 70 cd c8 ba ad 5a 81 3d
       0.008221484 0.0066931564 -0.0015320014 0.06316123
000100 43 ab 8e 3c f2 87 6e 3d c7 c0 59 3d 77 cd cd 3c
       0.017415648 0.058235116 0.053162362 0.025122387
000110 8a ac 9a bd 0a 9d 84 3d b6 79 33 96 1f f2 e8 3d
       -0.075524405 0.06475265 -1.449791e-25 0.11374306
000120 07 3b 9c 3b 33 47 17 3d 66 ee f9 3b 7e 95 67 bd
       0.004767779 0.036933135 0.0076272963 -0.05653905
000130 a1 1f 89 3c 5f 43 77 b5 95 93 5a b9 bb cb de bc
       0.016738715 -9.211271e-07 -0.00020845079 -0.027196756
000140 89 d6 0e bb ae 44 0b 3d 5c 7a 83 bd 3e 40 e1 3b
       -0.0021795353 0.034001045 -0.064198226 0.0068741133
000150 7c e3 78 ba 62 45 32 bd 7c 54 77 bd 38 d4 a2 bc
       -0.0009494347 -0.0435232 -0.060383305 -0.019876584
000160 8c 24 20 3d 62 9e 82 bc 44 ae 9c b9 9a 13 27 bd
       0.039097354 -0.015944663 -0.00029884477 -0.040790178
000170 83 91 21 3d 51 0b c5 3c c2 77 85 bb fd ef 02 bc
       0.03944541 0.024053248 -0.004073114 -0.007991788
000180 77 c2 39 3d b3 ee 25 3d c8 11 2b bc 26 99 d0 bc
       0.04535147 0.040510844 -0.010441251 -0.025463652
000190 bb 29 ca 3d 5a 30 82 3d 4b 5d bf 3d 4e d7 38 3d
       0.09871241 0.063568786 0.09343966 0.045127206
0001a0 cf 0e b8 3c 94 b3 83 b5 84 78 88 3d f0 37 4b 3d
       0.022467999 -9.812525e-07 0.066636115 0.049613893
0001b0 27 e9 b8 3d af 75 e9 bc 62 e8 8f 3c ac 6a e6 3d
       0.09028845 -0.028498499 0.017566863 0.11250815
0001c0 e2 3c 83 3d 20 c1 0e bd 3d 0b c9 b0 4c cb 95 3d
       0.06408097 -0.034852147 -1.4627869e-09 0.073141664
0001d0 57 94 71 3d 22 ef 9c 3d 6a a3 47 3a e7 a9 36 3d
       0.05897936 0.076627985 0.0007615598 0.044595625
0001e0 1e 04 83 bc ce 87 ad bc 2e 33 50 3d eb 03 49 3a
       -0.015993174 -0.02118292 0.05083006 0.00076681253
0001f0 e2 f8 b1 3c 81 3c 8b bd fe 58 88 b9 c7 5c 30 bc
       0.021725122 -0.067986496 -0.00026006246 -0.010764307

layers.3.weight f4 [84, 128]
000000 f2 46 12 3c 98 17 f6 be 1b df 35 3c 0e af 09 3c
       0.0089280475 -0.48064876 0.011100556 0.008403553
000010 2e bc 00 00 a8 be b4 bd d3 2b 8c bd fb 28 dc 3c
       6.7506e-41 -0.08825427 -0.06844296 0.02687501
000020 32 7b 05 3e f5 d5 d5 bb e6 5d b0 bb 40 76 76 3b
       0.13035277 -0.00652575 -0.0053822873 0.0037607104
000030 56 0f 9b 33 5c 73 95 37 67 63 2b bd 71 36 af 3d
       7.2205395e-08 1.7815903e-05 -0.041842844 0.08555306
000040 16 b7 11 be 29 b5 db bd a2 7c e1 36 03 6c 95 b1
       -0.14229998 -0.10727913 6.7200317e-06 -4.3487502e-09
000050 48 a6 41 bc f1 3f 80 a6 46 59 fe bc 71 77 79 3d
       -0.01181943 -8.899116e-16 -0.031048428 0.060904924
000060 1c 39 35 bd 51 91 2c bc fa 41 be ba d3 fc 00 80
       -0.044243917 -0.010532693 -0.0014515512 -9.0696e-41
000070 73 4e 04 3e 70 e5 1f 3d 36 1c 44 bc c6 d5 09 be
       0.12920551 0.039037168 -0.011969617 -0.13460454
000080 67 b2 32 3e a1 29 03 80 7d 09 0b 3e 50 fb 62 3b
       0.17450868 -2.9044e-40 0.13577838 0.0034634657
000090 b5 62 a7 bb b4 10 5c bb 38 28 06 bf 40 80 42 3e
       -0.0051082023 -0.0033579292 -0.5240512 0.18994236
0000a0 28 3b 16 bb a6 85 21 3d 01 50 3a bc 29 97 6e 3d
       -0.0022923443 0.039434098 -0.0113716135 0.058249626
0000b0 57 e8 fb bd 60 6f 06 00 da 92 00 80 01 dc 12 3c
       -0.12300175 5.90967e-40 -5.268e-41 0.008963586
0000c0 5b 91 ad 3c ec 70 1b 3c b1 0a 22 bf ba e0 83 2c
       0.021187475 0.009487372 -0.63297564 3.7481936e-12
0000d0 0d 8a 5e 3e 62 ad 80 bd 38 17 a8 ba b8 6d 09 3e
       0.2173235 -0.0628307 -0.0012824303 0.1342076
0000e0 a2 14 06 3c 2e 42 8a bd 0b 81 08 be 96 b4 62 3c
       0.00818363 -0.06750904 -0.13330476 0.013837
0000f0 81 e8 82 bb 52 5d 39 bd 76 8a 5f 3b cb 9b 8c bd
       -0.003995002 -0.045255013 0.0034109629 -0.06865653
000100 c7 ec a1 bc 00 6b 2c bc 86 be 24 bc 3f c4 80 b9
       -0.019766225 -0.010523558 -0.01005519 -0.00024560277
000110 eb 97 df be 12 b4 2c bd 8d 7c 03 80 26 81 29 bf
       -0.43670592 -0.042163916 -3.20187e-40 -0.6621269
000120 36 dc 6c be f9 22 ff be f8 b8 b1 2f c3 ce a3 3b
       -0.23130879 -0.4983137 3.232754e-10 0.004999013
000130 c9 9a 13 be 03 9c 12 1d db 34 10 3c fc e0 0f b9
       -0.14414515 1.9403595e-21 0.008801664 -0.00013721356
000140 8e d8 66 3a f8 c0 a8 bc 81 c1 b4 38 1b 64 75 bd
       0.0008806073 -0.020599827 8.619112e-05 -0.05990992
000150 6d 0f 4d 3d 25 41 79 3d 37 06 02 bf 51 80 4f be
       0.05006354 0.060853142 -0.50790733 -0.20263793
000160 57 76 40 3b 29 0b 00 bd 28 3a 60 39 b6 4b 82 be
       0.002936741 -0.031260643 0.0002138397 -0.25448388
000170 ed 6b 20 3c bd 12 b5 bd 8a 65 03 bc 3a 32 08 80
       0.0097913565 -0.08841465 -0.008019814 -7.52702e-40
000180 a5 3b f0 3d 10 20 f6 bd 56 67 b5 bd a6 b7 8b 3c
       0.11730126 -0.12017834 -0.088576004 0.017055344
000190 d0 e6 ce be ee 93 14 be db 33 a4 be 05 4a 65 be
       -0.4041047 -0.14509556 -0.32070813 -0.22391517
0001a0 3c 89 2f bc 89 1d 6b bb 4e f4 e1 3d ba 7e 81 bb
       -0.010713872 -0.0035875759 0.110329255 -0.0039518746
0001b0 09 83 b6 bc 13 12 00 be e3 c0 8c bc 0f ec 4a 3d
       -0.02227928 -0.12506895 -0.01718182 0.04954153
0001c0 15 12 00 bd 70 de 3f be 81 0b 3c 3a c9 1d e8 3c
       -0.031267244 -0.18737197 0.0007173345 0.028334515
0001d0 c3 d9 8d be 4f a1 0b 3e c7 98 d3 bd 92 6c 39 3d
       -0.27705202 0.13635753 -0.10331874 0.045269556
0001e0 3a d0 f7 ba f5 aa 92 bc de 4c 7e 3c 2d 83 98 39
       -0.0018906661 -0.017903784 0.015521256 0.00029089433
0001f0 6c 58 7b 3c c8 fa e3 3d 57 4d 06 bb 3e b9 ac 3a
       0.015340906 0.11131817 -0.0020492875 0.0013177765
000200 d5 7a e4 3a 49 8e a1 bc ad d9 1d 3d 05 93 32 bb
       0.0017431626 -0.019721167 0.03853767 -0.0027248275
000210 56 6b 11 39 74 cd 04 be 98 bd 5a bd 58 f4 d5 3d
       0.00013868263 -0.12968999 -0.053403467 0.104469955
000220 6a 7e 05 3d eb e3 fd 3b 7e 03 81 3b 1e fa b5 bb
       0.03259126 0.007748117 0.003937184 -0.005553498
000230 aa d9 5b b4 86 71 e3 b8 79 54 9d 3c 26 ca 94 bb
       -2.047515e-07 -0.00010845349 0.019205319 -0.0045406995
000240 19 e8 55 be 87 51 a8 be b3 11 b2 bb 06 ef 44 3a
       -0.2088932 -0.328747 -0.005434239 0.0007512424
000250 97 d0 d4 3b 45 65 d0 b2 37 1e 9d be c9 0c 75 3c
       0.0064945924 -2.4260439e-08 -0.30687115 0.0149566615
000260 ea 35 07 3e 4c 69 a6 3c 31 03 16 b9 29 0d af 9e
       0.1320416 0.020313881 -0.00014306304 -1.8534289e-20
000270 17 16 9b 3d 65 e2 89 3c d5 01 12 bd 26 38 2a 3e
       0.07572573 0.016831586 -0.03564628 0.16622981
000280 39 d7 03 3d 8e 5c 00 80 d4 70 1f bd 34 e5 87 3a
       0.032187674 -3.3202e-41 -0.03892596 0.001036799
000290 e3 f2 83 bc 4c 3d 8e bb f1 f7 7f be 64 58 52 be
       -0.016107028 -0.0043408033 -0.24996926 -0.20541531
0002a0 b0 08 11 bd 49 3b 46 3d 27 24 29 3c 3e d0 3f 3c
       -0.035408676 0.048396382 0.010323561 0.011707364
0002b0 53 b2 52 3e d0 61 e6 b8 67 82 44 39 23 27 96 ba
       0.20575838 -0.00010985474 0.00018740595 -0.0011455755
0002c0 f2 d5 d0 bd 1b db 4c 3d 65 d8 2e bf 0d ae 00 a9
       -0.10197057 0.050013643 -0.6829894 -2.8572674e-14
0002d0 6c a0 26 3d 7d 46 52 bd ac 28 52 3b 95 76 8f 3d
       0.040680334 -0.051336754 0.00320677 0.070050396
0002e0 43 74 84 b9 f3 69 77 bb 17 a2 00 3e 13 ac b6 3b
       -0.00025263624 -0.003775236 0.12561832 0.005574712
0002f0 18 fa 38 3b 83 54 d5 3d 71 81 0f 3b e0 a0 b7 bd
       0.002822524 0.1041651 0.0021897221 -0.08966231
000300 6a bd c2 3c 29 31 6e 3b 4d 97 37 3c 0d 32 c5 bb
       0.02377196 0.003634522 0.0112055065 -0.0060179294
000310 2a 46 47 3e 68 97 b4 3b 11 4d 03 80 5c 4d e4 be
       0.19460359 0.005511213 -3.03153e-40 -0.4459027
000320 9a cb 3d be a2 c0 d8 bd 18 7c 63 b9 c5 e6 23 bc
       -0.18534699 -0.10583617 -0.00021694636 -0.01000375
000330 a2 b4 ac 3e 8b 8d b9 a3 c1 20 b1 3a 18 d5 cd 39
       0.33731562 -2.0117686e-17 0.001351379 0.00039259414
000340 38 b0 a3 3b db df 7b bd eb 6a a2 3a fc 7d 51 bd
       0.004995372 -0.061492782 0.0012391483 -0.05114554
000350 ca dd 96 3d 32 5d 8d be 75 f6 86 3d e5 c2 0b be
       0.07366522 -0.27610165 0.06589977 -0.13648565
000360 c9 95 ca 3d 6f f9 c7 bd 85 e4 c4 ba 30 5a 15 3e
       0.098918505 -0.097643726 -0.0015021717 0.14585185
000370 69 d9 89 3d 84 cd 90 bb db aa 0b 3c 91 26 08 00
       0.06730921 -0.0044190306 0.008524622 7.48519e-40
000380 fe 64 e8 3d 0f 83 41 bc ab b1 81 be c6 ae 47 bd
       0.11347388 -0.011811032 -0.25330862 -0.04875066
000390 61 39 ba be 10 6a a5 be 90 1a cb bd 19 07 0a bc
       -0.36371902 -0.32307482 -0.09917176 -0.008424544
0003a0 4f 8d 77 3d 1d c6 33 39 3a 7f 78 3d 92 6d 12 bc
       0.060437497 0.00017144573 0.060668208 -0.008937256
0003b0 c3 05 3d 3c 31 18 ec bd ed 4f d0 bc 2a a0 04 be
       0.011537018 -0.11528052 -0.025428737 -0.12951723
0003c0 3b 80 bd bd 23 bc cd 3d 56 93 93 ba 2b f5 87 3d
       -0.09252974 0.1004565 -0.001125912 0.06638559
0003d0 59 25 a6 be 22 f4 96 be 07 01 60 3d 80 76 69 3d
       -0.3245037 -0.29483134 0.05468848 0.056997776
0003e0 2b ea ec bb cf 09 35 3e 7a 59 1d 3e a7 46 0a 3c
       -0.0072300634 0.17679523 0.15366164 0.008439696
0003f0 a2 d9 8b 3b f1 95 a1 3d bc 6d 9e 39 ce b1 9e bc
       0.004267887 0.07889927 0.00030217867 -0.019371893

layers.3.bias f4 [84]
000000 5f 66 8b bd ef e1 08 bc 40 2d 04 3c 80 7e b1 3d
       -0.06806635 -0.008354648 0.008067429 0.08666706
000010 a4 33 bb 3d 9f 84 39 bd ce 3a d3 bc 38 6c 57 bd
       0.09140709 -0.045292493 -0.025784876 -0.05259344
000020 2c cb 25 bc ac 87 92 3d 85 25 9d bc 25 e7 9c 3a
       -0.010119241 0.071547836 -0.01918293 0.0011970742
000030 ac 95 c9 3c 02 f4 86 3d 0e 6a c9 3d e1 db 8c bc
       0.024607502 0.065895095 0.098346815 -0.01719469
000040 fd de 4b 3d 54 95 c8 bc 4c 83 c0 bc d4 8e ab 3c
       0.049773205 -0.024485268 -0.023500107 0.02094213
000050 d5 8b 10 bc 9a c9 7f bb c8 61 7b 3d f6 58 63 bd
       -0.008822401 -0.0039030076 0.06137255 -0.05550476
000060 3e f6 e9 3c a8 78 41 3d 7d 32 aa 3a 41 d4 72 3d
       0.0285598 0.047234207 0.0012985017 0.059284452
000070 e4 8c 8d 3d 4f 5c 8c bc 31 94 8a bd 51 97 41 bb
       0.069116384 -0.01713386 -0.067665465 -0.0029539654
000080 07 ef 11 bd 29 76 98 3d d7 92 0e 3d 0e 3b 74 bd
       -0.035628345 0.07444412 0.034808006 -0.05962663
000090 30 76 60 3d bd 97 71 3b 3a 80 39 bd d0 3e 27 bd
       0.054800212 0.0036864125 -0.045288302 -0.040831387
0000a0 98 bf bf bd 83 f3 83 3d 8b cc 94 3d 08 92 b7 bc
       -0.093627155 0.064429305 0.07265576 -0.0224085
0000b0 ad 94 80 bd d3 46 e4 3c f8 7f 94 3c 3a 2a dd 3c
       -0.06278358 0.027865803 0.018127427 0.026997674
0000c0 66 f7 79 bd fd a3 6b 3d e1 b0 75 3d 57 0b 11 3d
       -0.061026953 0.05752944 0.059983138 0.035411205
0000d0 39 4f 4b bd 95 47 e2 bc 0a 7c a6 bd c7 0d 05 bd
       -0.0496361 -0.027622024 -0.08129127 -0.032483842
0000e0 db b3 84 bc c4 cd 9e bd a6 f4 95 bc 90 ed 19 3d
       -0.016199043 -0.077540904 -0.018305134 0.037580073
0000f0 6d c5 a1 bc 79 68 9d 3d 20 5c 0d bd b1 e5 15 3d
       -0.01974746 0.07685942 -0.034511685 0.036596004
000100 12 de 8d bb b4 ea 31 bd 4a 65 d8 bc d4 19 4e 3d
       -0.0043294514 -0.04343672 -0.026415486 0.0503176
000110 ba f4 a1 bc 51 05 6c 3b 72 a8 e9 bc a6 c4 95 bd
       -0.019770015 0.003601391 -0.028522704 -0.07312898
000120 e7 3e 84 bb 55 6e 28 3c a5 b0 54 bd 6f 73 cd bc
       -0.004035819 0.010280211 -0.051926274 -0.025079457
000130 95 68 7d bd e6 aa eb 3d df f1 3b 3d e8 20 41 3d
       -0.061867315 0.11507206 0.045884963 0.047150522
000140 ed 95 37 3d 49 4f 62 bd 7c 35 1f bd aa 49 9f bd
       0.044820715 -0.055251393 -0.038869366 -0.07777722
