models/MPC_horizon_8_obs_5.pt (torch_old, 515757 bytes, 8 tensors)

layers.0.weight f4 [128, 33]
00000000: 8bb2 3ebe 7cad 89be 81df f53f fc74 bcbf
00000010: bd78 95bd d05c 6b3d 5bc1 c43e bfe9 063f
00000020: fb8d 1a3e 8051 103e d6b2 bcbd cdb2 863d
00000030: 4b40 dd3d 5e3f 2e3e 756c f6bd 0343 b93d
00000040: 38d3 bd3d 80af d0ba e330 30bd 348e 9ebd
00000050: a633 e63d f374 1ebb b82a 8ebc 5173 75bd
00000060: ebd3 84bb 291d ed3d 66bc 243c 501e 0f3e
00000070: 9fdb e53f 3d1d a8be 6bb5 5abf adf9 b6be
00000080: a529 1bbf 2c14 a03b 10ca 99bb 53e2 06ba
00000090: 36ca b2aa 97cd 18bc 2ff0 16bc 8543 a9b7
000000a0: 6b6c 1a39 3b79 b0bb 3b79 b0bb bce2 e3ba
000000b0: a5da d2bb f715 d8bb 84ad c9bb 2d5e c3bb
000000c0: 796c 90bb 72b0 dbbb 72b0 dbbb d7df adbb
000000d0: ddf2 57ba 4243 bbbb 3bc4 bebb 84ad c9bb
000000e0: 4243 bbbb e06f a1bb 84ad c9bb 84ad c9bb
000000f0: 21ba cebb dc1e 6d31 fdec 8fbb 0832 8bbb
00000100: 3c61 05bb a345 8f3b 51be 9dbb 7c9f 06bc
00000110: 0e49 00ba 397b 5b3c 9cc5 dfbb ceff 88bb
00000120: c4fd 25bc 9c7e c2bb 847a 15bc 847a 15bc
00000130: e3a7 edbb f3fb 1abc 3bc2 1bbc f096 19bc
00000140: cf99 18bc ac83 0fbc 4948 1cbc 4948 1cbc
00000150: 4f07 15bc 034e ccbb c94a 17bc fedc 17bc
00000160: f096 19bc c94a 17bc 68cc 12bc f096 19bc
00000170: f096 19bc db5c 1abc 8919 20bc 59a4 cd3b
00000180: 65c1 a1bb 1662 0dbc f394 ca3b 3296 5abe
00000190: bfd9 f0bc c8cd a53d 6c0e 48be 5f62 7d3f
000001a0: 1815 8cbe 7d3a d83b e3a6 0ebe 2661 a5bd
000001b0: f4b4 613d af05 08be 92b2 cebd fb00 263d
000001c0: c40e 6a3d 4a1a a83d 7bd6 ec3a c494 dd3c
000001d0: 37f8 d43d 7e03 c33d 1a04 cc3b 6ecd 44bd
000001e0: 5350 c03a ae2f 27be 17f9 8a3d d449 c8bd
000001f0: ff00 23be 6d3d 96bd 3dee 923d 0b1e 4b3f
00000200: 1463 7dbe 5902 713f 8df2 32bf 8a9b 39bf
00000210: 6ffb 41bf 4ffe 0bbe f372 9fbf d51d 5dbf
00000220: 65cb 1b3e a624 b33e 2c8b 8ebe 3da6 e23e
00000230: 1187 603e 1511 f03d cc76 40bd a00c e93d
00000240: bfcc 563c f7fb e73d 21b8 24bd 8eaa d8bd
00000250: 6c16 543e e782 eb3b e575 a4bd f7e3 fc3d
00000260: 2501 d4bc c11a 91bd b4a8 5ebd b07a 473e
00000270: 7457 9ebc 98fe debc a060 893c 6da4 033e
00000280: e9f4 f53d ab33 b53e ce75 9cbf e925 9d3e
00000290: 8838 243f 2a64 b8ba 791f fab9 149f eb23
000002a0: 007a 0780 4878 7dba fa4f 1fb6 9aad 0680
000002b0: eb3b 0280 25ed 88b9 25ed 88b9 7cad 3bb1
000002c0: 8186 c4ba bbcf f9ba 6f45 7eba e32f 3aba
000002d0: 3587 16b8 e9c5 12bb e9c5 12bb 1793 6cb9
000002e0: 76b9 7eab df95 f5b9 ef55 13ba 6f45 7eba
000002f0: df95 f5b9 7045 e3b8 6f45 7eba 6f45 7eba
00000300: 42f5 a1ba 8830 fbb8 6331 a62b 83a3 082f
00000310: 2e6a 0829 52e5 e4b6 74b1 c9bb e590 beba
00000320: e761 9133 b133 5831 fa2c 98b9 cc24 57ba
00000330: 897c 3d34 970c 8e33 131e 24bb 131e 24bb
00000340: 3da1 7fb9 6697 6cbb 2e65 79bb 0e8e 57bb
00000350: 4de6 49bb a430 daba 1151 81bb 1151 81bb
00000360: a23e 1fbb ed27 58b8 d128 39bb f84a 40bb
00000370: 0e8e 57bb d128 39bb f6f0 08bb 0e8e 57bb
00000380: 0e8e 57bb 4cef 62bb 472e 77ba 57f8 8239
00000390: 7669 2eb8 0081 85b9 34e8 efb8 c1cf 0abf
000003a0: 7217 d03e 83bf 40bf 3d5e 073e 7f9f b4bb
000003b0: bc5e a7bc 885b 653e a0a0 253d c30d 6f3c
000003c0: 0e23 53bd e839 d43d 1632 853d 7752 643e
000003d0: 6b2c ba3c 6bfd a2bd 402c 41bd baf5 503e
000003e0: ec02 b1bc 980a 903c e7b6 373e e848 95bd
000003f0: e509 aabd 33f9 ef3d 6c36 eebc d605 683e
-0.18622796 -0.2689017 1.9208833 -1.4723201 -0.072984196 0.05746156 0.3842877 0.5270042
0.15093224 0.1409359 -0.09213798 0.06577072 0.108032785 0.1701636 -0.12032405 0.090459846
0.092688024 -0.0015921444 -0.043015372 -0.07741967 0.1124032 -0.0024178594 -0.017354354 -0.059924427
-0.004053583 0.115778275 0.010054683 0.13976407 1.7957648 -0.32834807 -0.8543307 -0.35737363
-0.6061042 0.004885217 -0.004693277 -0.0005145419 -3.1759464e-13 -0.00932636 -0.009212538 -2.0177811e-05
0.00014726973 -0.0053855455 -0.0053855455 -0.0017386298 -0.006434756 -0.0065944153 -0.006154718 -0.0059621544
-0.004407462 -0.0067043835 -0.0067043835 -0.005306225 -0.00082377886 -0.005714805 -0.0058217323 -0.006154718
-0.005714805 -0.0049266666 -0.006154718 -0.006154718 -0.0063088094 3.450558e-09 -0.004392265 -0.0042479075
-0.0020352146 0.004372315 -0.0048139472 -0.008216735 -0.00048936985 0.013396078 -0.006828977 -0.004180885
-0.010131303 -0.005935503 -0.009123448 -0.009123448 -0.0072526797 -0.009459483 -0.009506757 -0.009374365
-0.009314015 -0.00875942 -0.0095387185 -0.0095387185 -0.009095981 -0.0062348857 -0.009234139 -0.009268997
-0.009374365 -0.009234139 -0.008959867 -0.009374365 -0.009374365 -0.0094215525 -0.009771713 0.0062756953
-0.0049363845 -0.008629343 0.006182307 -0.21346357 -0.029400704 0.0809589 -0.19536752 0.9897823
-0.27359843 0.006598769 -0.1393085 -0.0807517 0.05510421 -0.13283418 -0.10092653 0.04052828
0.057142988 0.08208139 0.0018069291 0.027048476 0.10398906 0.095221505 0.006226075 -0.048047476
0.0014672376 -0.16326782 0.06785791 -0.097797066 -0.15918349 -0.07335935 0.071743466 0.79342717
-0.24744827 0.9414421 -0.69901353 -0.7250296 -0.7577428 -0.1367123 -1.2456955 -0.86373645
0.15214308 0.34988898 -0.27840555 0.44267455 0.21926524 0.11722008 -0.046988294 0.11379361
0.013110339 0.11327355 -0.04021466 -0.10579406 0.20711678 0.0071872356 -0.08030299 0.12348168
-0.025879452 -0.07085181 -0.054360107 0.19480395 -0.01932881 -0.02722101 0.016769707 0.12855692
0.120096035 0.35390982 -1.2223451 0.30692986 0.6414876 -0.0014067937 -0.00047707165 2.5546123e-17
-6.86614e-40 -0.00096691074 -2.3739399e-06 -6.1329e-40 -2.05166e-40 -0.00026116628 -0.00026116628 -2.7310696e-09
-0.0014993699 -0.0019059101 -0.00096996775 -0.00071024726 -3.588871e-05 -0.0022395796 -0.0022395796 -0.00022561509
-9.0496306e-13 -0.00046841704 -0.000562041 -0.00096996775 -0.00046841704 -0.00010837137 -0.00096996775 -0.00096996775
-0.0012356418 -0.00011977652 1.1808717e-12 1.2427219e-10 3.0290162e-14 -6.821626e-06 -0.0061551873 -0.0014539032
6.769897e-08 3.146152e-09 -0.0002902521 -0.0008207082 1.7647302e-07 6.6146804e-08 -0.002504234 -0.002504234
-0.00024378761 -0.0036100983 -0.0038054693 -0.0032891068 -0.0030807436 -0.0016646576 -0.0039464314 -0.0039464314
-0.0024298807 -5.1535597e-05 -0.0028253088 -0.002934156 -0.0032891068 -0.0028253088 -0.0020895577 -0.0032891068
-0.0032891068 -0.0034627495 -0.0009429198 0.0002498056 -4.158305e-05 -0.0002546385 -0.00011439659 -0.5422326
0.40642887 -0.75292224 0.13219543 -0.0055121775 -0.020430915 0.22398198 0.040436387 0.014590683
-0.051547103 0.10362607 0.06503694 0.22297083 0.022726258 -0.07958492 -0.04716134 0.20406237
-0.021607839 0.017583176 0.17940865 -0.072892964 -0.083026685 0.11717453 -0.029078685 0.22658476

layers.0.bias f4 [128]
00000000: eb7f d6bd e16f a1bb 67cc 12bc d8c0 02be
00000010: a486 51bd 7045 e3b8 f2f0 08bb cd93 f53c
00000020: 2fe0 b5ba 32dc bbbd 7466 77bd 6ffc 433d
00000030: 5a5a 7abc 823a 37bd 555a febc d23a ee3d
00000040: dee8 0000 3204 80bb 0e2b 6db8 2cfd cfbb
00000050: d8cf 73bd bd2e 8b3d 1e3a cfbd 6919 2cbc
00000060: 9e51 2c3e 0d86 13bc 56c0 1f3d c7b2 cf3d
00000070: 2b04 e3bd e8a4 20bc b59d ffa8 9dc9 c1ba
00000080: 7170 e03d 6cee 283e 2ee6 093e fe01 393d
00000090: a1d1 08bc 6aab 0e3e 1206 2cb7 535a a096
000000a0: 5a08 a83d b135 4f3e 04e0 2e3e 78ba 063e
000000b0: 90d0 503d 9377 223e 057f b93d a2a6 0280
000000c0: 8e9c 363e bbb1 603c a96c 043e 4b66 0100
000000d0: a1bb 14be b011 d83d a80f 2b3d 7161 0400
000000e0: 9d2f 24bb e3c1 4dbc cfcc 03be 21ee 55bb
000000f0: c186 0d3e 4670 b13d 5eca ed3d a04e 97bd
00000100: 2aae 098d 6a8c b8bb 30bd 059c 9252 1ab5
00000110: 3898 e23c 3c6b 94bd 59cc 213b 6412 f1bb
00000120: 0f7f 27bc ca36 b83d e159 d6bb d9d9 31b1
00000130: b103 12be d32a 6fb7 4911 d5bb 29a2 80bd
00000140: 3f5f c9bb 07f9 0ebe 1b80 b4ae 686b d73d
00000150: 3a6c 623e b5ee c6bd bab9 68bc 1ebe d33b
00000160: ca07 1abc 724e 203e 94b4 e6bb 5365 99a8
00000170: 03ed 223e 6e98 e13d 353e e1bd e6d2 10bc
00000180: 9c78 4c3e fdcb a2bc fc8c f99e b8bd 8495
00000190: 2697 48bd 5e56 fdbb eb8c 15b8 6d4d e2bd
000001a0: 1871 0000 8604 0abd f4a7 0400 cd69 cb3c
000001b0: ae69 313e 08fc e23d 6b32 563d c43c 853b
000001c0: ffe2 1e3e 63e7 76b4 2266 4dbd d339 0780
000001d0: 4ee1 00be e9a3 ba3d d8ed 0a3e 61b4 3ebc
000001e0: 6523 b6bd 868c 4bbd f1d0 1c3e 73f4 9dbd
000001f0: 7766 8c3c 2e4b 0fbb 4abd 0bbb 3f76 76af
-0.10473617 -0.004926667 -0.008959866 -0.12768877 -0.051153794 -0.00010837137 -0.0020895568 0.029977703
-0.0013876016 -0.09172858 -0.06040044 0.04784816 -0.015280331 -0.04473353 -0.031048933 0.11632313
8.3537e-41 -0.00390675 -5.65453e-05 -0.006347319 -0.059524387 0.06796024 -0.10118507 -0.010504105
0.1682801 -0.009004128 0.039001785 0.10141521 -0.11084779 -0.009804942 -2.8379082e-14 -0.0014784817
0.109589465 0.164972 0.13466713 0.045167916 -0.008350761 0.13932577 -1.0253412e-05 -2.5906397e-25
0.08204718 0.20235325 0.17077643 0.1315707 0.05098015 0.15865926 0.0905743 -2.43448e-40
0.17833158 0.013714249 0.12932076 1.28531e-40 -0.145247 0.105502486 0.041762978 4.02297e-40
-0.0025052794 -0.012558433 -0.12871097 -0.0032643157 0.13820936 0.086639926 0.11610864 -0.073880434
-4.2426027e-31 -0.005631973 -4.425053e-22 -5.7489626e-07 0.027660474 -0.07247016 0.002468845 -0.0073569287
-0.010223164 0.08994825 -0.006541476 -2.5880722e-09 -0.1425922 -1.4255481e-05 -0.0065023047 -0.062809296
-0.0061453874 -0.13962184 -8.2082084e-11 0.10518533 0.22111598 -0.097134985 -0.014204437 0.0064618727
-0.009401271 0.15654925 -0.0070405696 -1.7030355e-14 0.15910725 0.11015402 -0.10998193 -0.008839345
0.19967884 -0.01987266 -2.642221e-20 -5.36137e-26 -0.04897227 -0.007731243 -3.565561e-05 -0.11049924
4.057e-41 -0.03369572 4.27592e-40 0.024830723 0.1732547 0.110832274 0.052294176 0.0040660817
0.1551628 -2.2994713e-07 -0.05014623 -6.63592e-40 -0.12585947 0.09113295 0.13567293 -0.011639685
-0.0889347 -0.04969456 0.1531408 -0.077126406 0.017138703 -0.002186488 -0.0021322542 -2.2415579e-10

layers.1.weight f4 [128, 128]
00000000: d594 153e 1947 883b 8393 383c 04a4 943e
00000010: 168e 423e bde0 71ba aeb4 773b 27c0 72be
00000020: ba3f 433c 7468 963d 5ac3 433e 32b6 4fbd
00000030: cd1b 283c a967 853e 7193 aa3a 6d67 6cbe
00000040: 38ea 0800 45ef 48bc 9d2e e7b4 bf17 22bc
00000050: 882b 863c 53ea 06be 7867 863d 7af5 a73c
00000060: 342a 103e e867 c7ba c939 fe3e 573a 9cbd
00000070: 7a99 a7bc e0df 95bb 65e4 29a9 58b3 80be
00000080: 0c2e fa3d bf44 cdbd 0c84 24be 92a4 36bd
00000090: 0fb5 4bbc b83f 133f 36a1 3e9f 70aa e1a4
000000a0: 78fc 88be 3749 8f3e da69 80be 75af 00be
000000b0: 2b9d e13e 78f3 1e3e 1102 1dbc f417 0100
000000c0: b04d fa3e 47f7 9abe 159a 043f 56f1 e392
000000d0: 187e 113e e5f5 9abc 459d 833e 9a1b 0080
000000e0: 4705 32ba 6e4e b6bb 5d48 ebbe 60e0 1dbb
000000f0: 2d53 f13b d333 22bd 2df9 883e fe95 213d
00000100: ca3d da23 8918 f7ba 63b5 a3ac def8 9e2a
00000110: e315 71b9 5363 c4be d3bd 193e 4d53 02bd
00000120: 061b b73b 3950 643e 6ad0 a8be a820 3a37
00000130: 4ec1 223e dc28 f839 86b4 56bc 0438 abbd
00000140: 354d ac3a b5be 27be 6dbd 941d 3994 bcbb
00000150: 5353 a83c 6981 0a3e 5c6d 403b b3e9 ef3d
00000160: 1c2e e4b9 8007 c33d c586 07bc fe10 b218
00000170: 7fd4 403e 0f67 2dbd 5b90 533c 41db a0ba
00000180: cfc7 ecbd b09d 09be 714f 239c 3534 0080
00000190: 0642 13be a9de efba 9248 63ba d482 283c
000001a0: 0d1f 8489 a8b6 25be a08a 0080 99e5 3dbe
000001b0: 0618 64be d8f3 213c 38bc adbd c097 55be
000001c0: 4bf8 70be 57fc ef36 c144 433d 38ad 0100
000001d0: aca9 babd cec1 e63d 7a28 ac3d 1096 843c
000001e0: 8d09 073e 62a0 af3c df4b 1e3e ef7a d73d
000001f0: cf78 c23d 30d4 95bb af72 b9be 8c8c c22e
00000200: eaa4 993c 101e 95bb d6a9 ceba e63c 293e
00000210: 13d6 dfbe 96ae cd3a 821b 86bb 2a7d c4be
00000220: 4b52 10be caae d53e 1852 98bd ed73 5abe
00000230: 0dd9 b63c 3391 233e b415 c93d a3fa 113e
00000240: 8de1 0880 9c49 973d 0739 9935 6d60 36bc
00000250: 3b3e 4d3e db14 973e 0d98 8f3e 87bc c93b
00000260: cddb bcbe 79e7 0b3c 398e 963e c16f 19bd
00000270: 95a8 93be fbda 05bc 782e cbaa fae8 da3d
00000280: 0cd0 4d3e 64e2 943e d01e bebe 1005 f13d
00000290: f86f 47bb d277 f6bd 8e60 ad35 1fc6 2ca9
000002a0: 5301 683e 9d0e c03d 6eb4 803e 11c7 d03e
000002b0: 42bc 6b3d b9c6 62bd d100 823d 329f 0900
000002c0: f75f 3a3e e045 06be f645 7cbc f60e b222
000002d0: 58bc 7e3e e12d ccbc ae22 a8bd c9d9 0680
000002e0: 9f1d ad3b 5180 613b 5c2f a6bd b0f8 eb39
000002f0: 6690 dc3e 08b5 70be cc35 853e e504 8e3a
00000300: 6cfa 33ad ec26 0abc 390a 412c a4b1 2db7
00000310: 095d 383d 1939 f03e b7ca 98bd 0e2f 4cbe
00000320: dc5c 11bc ea87 8ebe aa61 6a3e ac6e 41af
00000330: ae6c 1dbe 2125 f5b9 3ee7 0abc d136 cc3e
00000340: 0f72 003c 5f3b 2ebe 1460 be22 dfa6 dabe
00000350: cd12 1fbe 08e6 d03e db1f dbbd 054a 4a3e
00000360: bdfa 3e3b bcc9 c53e 222e d0bb 76fd 822c
00000370: 3550 d23d c10d b33e eb89 653e b6e3 973b
00000380: 4fba d6bd e447 633d 9448 9d2e 5ef4 0480
00000390: 76f8 1f3d fc10 4abb abfc b63a f2b6 56be
000003a0: 07c0 47a5 c734 e53e b7d5 0400 fd15 65be
000003b0: a769 27bf d929 903d 8d89 313e 23af 383e
000003c0: ca26 d93d 490e e538 210f c43e f606 838e
000003d0: bb59 d7bd a6af b5be ddcd a73d 3f72 e53b
000003e0: c287 4ebd 5264 d03e 90e9 1ebe 299c a63e
000003f0: 1ef3 7a3e c7d0 daba ccdd 41be 3acd 9233
0.14607556 0.004158866 0.011265638 0.29031384 0.18999514 -0.0009226909 0.0037796902 -0.23706113
0.011917049 0.073441416 0.1911749 -0.050710864 0.0102605345 0.2605565 0.0013013912 -0.23086329
8.18706e-40 -0.012264078 -4.3061019e-07 -0.009893357 0.01637818 -0.13175325 0.06562704 0.020502795
0.14078599 -0.0015213462 0.49653462 -0.07628315 -0.020458926 -0.004573807 -3.772364e-14 -0.25136828
0.12215814 -0.10022878 -0.16065997 -0.04459054 -0.012433304 0.575191 -4.0367416e-20 -9.786693e-17
-0.26755118 0.27985546 -0.25080758 -0.12566932 0.44065222 0.15522563 -0.009583012 1.00428e-40
0.48887396 -0.30266783 0.5179761 -1.4385208e-27 0.14208257 -0.01891608 0.25705925 -9.902e-42
-0.00067909475 -0.0055635488 -0.45953646 -0.0024090037 0.0073646517 -0.039600205 0.26752606 0.039449684
2.3661776e-17 -0.0018851917 -4.6528766e-12 2.8239124e-13 -0.00022991704 -0.38357028 0.15013818 -0.031817723
0.0055879382 0.22296228 -0.32971507 1.1094067e-05 0.15894052 0.0004733269 -0.013104564 -0.083602935
0.0013145568 -0.16381343 3.9371135e-21 -0.005754974 0.020547545 0.13525929 0.0029362058 0.117144965
-0.00043521903 0.09522915 -0.008271878 4.602908e-24 0.18831061 -0.042334612 0.012912835 -0.0012272374
-0.11561548 -0.1343906 -5.403485e-22 -1.8728e-41 -0.14380655 -0.0018300611 -0.00086701766 0.010285098
-3.1807044e-33 -0.16182959 -4.9729e-41 -0.18544616 -0.22274789 0.009884797 -0.084831655 -0.2085867
-0.23532216 7.1521313e-06 0.04767299 1.53975e-40 -0.091143936 0.11267434 0.08406158 0.016184837
0.13187237 0.021438781 0.1545863 0.105214946 0.09495699 -0.004572414 -0.3622031 8.847065e-11
0.018755395 -0.004550703 -0.0015767168 0.16527137 -0.43718013 0.001569229 -0.0040926347 -0.38376743
-0.14093892 0.41734916 -0.07437533 -0.21333285 0.022320295 0.15973358 0.09818593 0.14255767
-8.15596e-40 0.07387087 1.1415985e-06 -0.011131388 0.2004327 0.295081 0.28045693 0.0061565074
-0.36886445 0.008539074 0.29405382 -0.037460092 -0.28839555 -0.008169885 -3.6092288e-13 0.10688968
0.20098895 0.29078972 -0.37132883 0.11768544 -0.0030431729 -0.12034573 1.2917606e-06 -3.8363515e-14
0.22656755 0.09377787 0.25137657 0.40776876 0.057552584 -0.055365298 0.06347812 8.83628e-40
0.1820067 -0.13112593 -0.015397539 4.8262837e-18 0.24876535 -0.02492422 -0.082097396 -6.2914e-40
0.005283072 0.0034408758 -0.08114502 0.0004500798 0.43078917 -0.23506558 0.26017606 0.0010835199
-1.0230577e-11 -0.008432131 2.7432624e-12 -1.0352964e-05 0.0450106 0.46918562 -0.0746054 -0.19939825
-0.008872237 -0.2783807 0.22888818 -1.7592566e-10 -0.1537349 -0.00046757705 -0.008477984 0.39885572
0.007839694 -0.17014836 5.160133e-18 -0.42705438 -0.15534516 0.408005 -0.10699435 0.19754799
0.002914115 0.38630474 -0.0063531557 3.722962e-12 0.102692045 0.3497143 0.22415893 0.0046352996
-0.10484754 0.055488482 7.152426e-11 -4.55004e-40 0.03905531 -0.0030832877 0.0013960799 -0.20968226
-1.732556e-16 0.44766828 4.44008e-40 -0.22371669 -0.6539559 0.07039232 0.17337628 0.1803556
0.106031016 0.00010922232 0.38292792 -3.2300696e-30 -0.105151616 -0.35485572 0.08193562 0.0070021446
-0.050422437 0.40701538 -0.15518785 0.32541016 0.24506804 -0.00166943 -0.18932265 6.835985e-08

layers.1.bias f4 [128]
00000000: 0624 f13d cc3f e83d 5cec 5f3e 5c7f 0391
00000010: f624 d03c a686 08bc 6ebb 013e 8fcc 2e3d
00000020: 9a99 a98d bf95 afbd 936a 883e 399c 94b9
00000030: 7823 88bd a12f d6bc 2981 813d 6061 0ca3
00000040: b7c2 48bb d0c6 513e 333f 23ba 2020 5a3e
00000050: 4134 b6bb 9a7a e2b2 bee7 8eb9 9e0d bc3d
00000060: 546c 6499 82bd 543c d2e3 25a5 8209 8dba
00000070: b435 91bd c250 0200 033f 163e d3ec 9ea5
00000080: 2abb b7ba 5f8e c63d 30d4 1abc 62b3 623d
00000090: 2658 3bbc 2f82 0700 40b7 6a3e 6a31 9bbb
000000a0: ae3c 87bb c961 5ebc b848 383e c9c3 143e
000000b0: b1be 363e 3def 8b3e f3c6 a3bc d789 043e
000000c0: ebd0 c5ab fcd2 e7bc a416 a6bd df0a ba87
000000d0: 9b1e 103e ef30 183e 431b 733d 8103 be3c
000000e0: 5ad7 d83d f4ff 51b2 0c47 bf9e 21ab c8bc
000000f0: 050c 0200 13ea 0280 5b9a dfa4 c64d 48bb
00000100: 07ad 3d3e 906f 2c9b d8e0 47bc 509a 063e
00000110: ec72 163e 2d9b 933a aa40 41b4 68aa d93d
00000120: c8d4 95bd a92d 84b8 1da7 92b8 fe85 1db9
00000130: ab04 dc3d aa05 713d b2a4 87b9 93e6 a23d
00000140: 76b1 12bc a7f0 6a93 c330 4e3e fc0a 073e
00000150: 7f45 92a3 62af f73c 7d4e 32bb 781d debb
00000160: 0309 cab9 43e1 d03d aad7 0c3e c374 923d
00000170: 3153 ed3d bbc4 28bb 9840 0ebd a875 a29b
00000180: 1d06 4bbd 535f 0700 def3 7f3d abd5 f43c
00000190: a247 253e e66f a9bb 64bc a9bc 7efd 763d
000001a0: f10a a43c a029 f53d 15c8 85b9 1daf 063e
000001b0: 9dda e03d bf0c ae3e 9c43 63b5 e308 753d
000001c0: 093c 0780 1e5a 5bb6 cf42 c1bb b721 7ebe
000001d0: feac 5bbd a872 e7bb 68c2 5c3e f98f 7dbd
000001e0: b8ee f33d 4e8f bb3d de92 9c3d 599f 793e
000001f0: 7dbf 5cbc ec91 06bc 4301 aa3d 112a 17bc
0.11774449 0.11340293 0.21867508 -1.0373323e-28 0.02540825 -0.008332884 0.12669155 0.04267555
-1.0452407e-30 -0.08573484 0.2664381 -0.00028345155 -0.0664739 -0.026145758 0.063234635 -7.610035e-18
-0.0030633637 0.20485997 -0.0006227374 0.21301317 -0.0055604284 -2.6365615e-08 -0.00027257012 0.09182285
-1.18092004e-23 0.012984635 -1.4388657e-16 -0.001076028 -0.07090321 2.12641e-40 0.14672475 -2.756911e-16
-0.0014017571 0.09695124 -0.0094500035 0.055346854 -0.01143459 6.8955e-40 0.22921467 -0.004736115
-0.0041271066 -0.0135731185 0.1799649 0.14527811 0.1784618 0.27330962 -0.019992327 0.12943207
-1.4055678e-12 -0.028298847 -0.08109787 -2.799256e-34 0.14074175 0.14862417 0.05935217 0.02319503
0.1058795 -1.2223598e-08 -2.0252296e-20 -0.024495663 1.87983e-40 -2.67641e-40 -9.697232e-17 -0.0030563935
0.18523036 -1.4263554e-22 -0.012199603 0.13144803 0.14692277 0.0011261456 -1.799805e-07 0.106282055
-0.073159754 -6.302755e-05 -6.99295e-05 -0.00015022603 0.10743078 0.058843292 -0.00025871914 0.07954135
-0.008953443 -2.9653603e-27 0.20135789 0.13187784 -1.5858784e-17 0.030234996 -0.0027207427 -0.0067784153
-0.00038535157 0.10199215 0.13754144 0.07151177 0.11588133 -0.0025752026 -0.03472957 -2.6876685e-22
-0.049566377 6.77044e-40 0.06248843 0.029887041 0.16140607 -0.00517081 -0.020719714 0.060300343
0.020024749 0.1197083 -0.0002551681 0.13152738 0.10979197 0.339941 -8.4662474e-07 0.05982293
-6.64385e-40 -3.2685998e-06 -0.005897857 -0.24817549 -0.053631775 -0.0070632286 0.21558535 -0.06190488
0.11910766 0.091581926 0.076452 0.24377193 -0.013473389 -0.008213501 0.08301022 -0.009226338

layers.2.weight f4 [128, 128]
00000000: cb8c 71be 7c79 573d cc16 b3bd 4d16 9bb4
00000010: 0cda d73e fba5 873c 01d3 12bd 9119 0dbf
00000020: 058e 4cb5 7ef8 7b3d e25d b83d 843e 073c
00000030: 5842 34bf 73bf 423e be34 db3d 6d32 6d35
00000040: 92f0 4dbf c5af d2bd 49ca 2abc f65d 063b
00000050: ff2c c23b 45b1 3d38 8b9a 2eba e8cd cc3e
00000060: 6866 fab5 13b7 b23e 9870 6eba ba52 703c
00000070: cd41 9dbe 3420 05b3 f52c 933e 9573 bbb5
00000080: a01b 2ab6 19b6 343e 210e ae3b 37e9 8d3d
00000090: 2b1c 89bc 96f9 f69d 87f8 c63e a2c6 9abb
000000a0: 4ffa 813c d40a cf3e 9323 fb3e faff 493e
000000b0: 62fe bcbd 5748 673d ba2f e03c d2a5 debd
000000c0: dd26 0580 db01 053e e8dd 20bf 6a7d 8816
000000d0: 6f96 70bd 1dc3 483e 51b7 e23e 2e53 d53e
000000e0: cd6a 82be 86db ceb9 a5d1 0000 8578 c93e
000000f0: 79d0 b597 9c40 0180 3477 0700 95d8 6f3c
00000100: 9424 393e a6bb 8537 78fd 713b 4443 a3bd
00000110: bb38 e63d 7391 dcbe 27c9 ec39 05ee 78be
00000120: 1e92 3abf 428f 6c3b c9bb 44bc 9ee3 d93a
00000130: 5ba1 3cbe 8e15 8c3d e112 2ebb 4aad 76bd
00000140: 9d7c c23b 75ae d7b5 772a c73d 1719 3bbd
00000150: 6b4a c238 528b 2ebe ba81 abbb 0706 033c
00000160: 3628 fa3b 0fa9 12bf eabb f13d b138 94bc
00000170: c087 a03e 2513 c735 ab39 023f 9fda 552d
00000180: 33ff 96be c831 8f0f 527a 303d 9d67 5d3e
00000190: 4eac d63e f3f6 18bc 4010 b93e dcc3 68be
000001a0: a6b6 f53d 1aa1 eb3d 839a 6736 b373 2cbd
000001b0: 105a a9be 4ce2 67bc 92a0 df3a dc86 79be
000001c0: 9bce 308a 8225 043c 03e7 08bb b38c 18bf
000001d0: a7a0 02bd b435 953c ac2d 233d 12b7 303e
000001e0: 245a 7ebe ff2e 353f 3faa 7e3e a84d b63e
000001f0: c681 a63b 9bf4 5c3c f31e cdbd 52f1 77bd
00000200: 6124 a0bc 03a3 83bc 96af 98bc 4f66 0880
00000210: a82e b5bb 5c10 0480 e773 32bc c5e4 cabb
00000220: e61c 0a80 1e1a 82bc 673e 93bc c432 0500
00000230: 5d9b 76bc 3981 4cbc a88a 88bc 2678 0a80
00000240: 93e2 55bc cda1 97bc 2465 f6bb 71ec 68bc
00000250: 2e9a 0800 f769 0680 8f67 0800 add8 173b
00000260: 8893 0800 2358 0cbc b7a6 0600 3a42 0b00
00000270: 07bb 52bc 4859 0780 2e45 b8bb ea05 0080
00000280: 3473 0580 9664 33bc 2e13 0a00 203e 98bc
00000290: 6039 0a80 7063 0a00 b605 9fbb c445 0000
000002a0: ad1b 0900 c0fd 8dbc 136b 1cbc b8ed d0bb
000002b0: 891b 99bc 75a8 77bc 32f6 21bc 0506 8dbc
000002c0: d6d3 0780 f21c 20bc 9867 f9bb 7466 0180
000002d0: da7e 39bc 2447 3fbc 4cf3 82bc 8eb6 11bc
000002e0: aab7 6cbb c2bf 0700 60e1 0480 a322 0ebc
000002f0: 685f 0880 987a 0a00 504d 0a00 afff 0980
00000300: d0d4 15bc 81fc 0800 0c06 0380 0f89 90bb
00000310: 19b4 50bc 7430 83bc c135 0880 4c51 043a
00000320: bc6b 48bc db3d 0980 29fd 0100 1e94 0700
00000330: eab1 5bbc a87a f2bb 0f2e 0800 92f1 37bc
00000340: 2e1d 0a00 1c17 0780 96aa a9bc bf6c 87bc
00000350: c168 0400 f70f a9bb 930d 0180 11fd 0a80
00000360: d3f0 4ebc 9c77 03bc 0d91 17bc b4fd cfbb
00000370: ad14 13bc 9b61 0880 3e5c 2dbc afcb 0780
00000380: dc0a 1fbc e44e 0980 3638 8cbc 32a4 4abc
00000390: a80c 05bc 6365 43bc 6595 66bb fc10 4ebc
000003a0: b20d 1cbc 5e82 11bc 1f8c 0a80 3606 73bc
000003b0: 08db 29bb 1da7 3fbc 92be 0a00 84b5 19bc
000003c0: 0fa8 0a00 ba34 0300 019a 0100 c610 16bb
000003d0: 02a4 02bc 66d3 0600 7f10 78bc 78f2 93bc
000003e0: 6d6b 88bc f2a1 7dbb 5fe4 29bc 3638 14bc
000003f0: 768c 0000 1b05 0280 b878 64bc e77f 59bc
-0.23588865 0.05260609 -0.087445825 -2.8887226e-07 0.42158544 0.016558638 -0.03584576 -0.55117136
-7.620259e-07 0.061516277 0.09002282 0.008254651 -0.7041373 0.19018345 0.10703419 8.836276e-07
-0.80445206 -0.10287432 -0.010424205 0.0020502782 0.005925774 4.5226207e-05 -0.0006660602 0.40000844
-1.8656256e-06 0.349053 -0.0009095757 0.014668161 -0.30714265 -3.0995764e-08 0.28745237 -1.3966225e-06
-2.5348054e-06 0.1764759 0.005311743 0.06929248 -0.016737064 -6.5373724e-21 0.38861486 -0.004723386
0.015866427 0.4043795 0.49050578 0.19726554 -0.09228207 0.056465473 0.027366508 -0.108714715
-4.73119e-40 0.12988989 -0.628386 2.2051132e-25 -0.058737215 0.1960568 0.44280484 0.41665024
-0.25472108 -0.0003945494 7.5206e-41 0.39349762 -1.1749477e-24 -1.15013e-40 6.8561e-40 0.0146390395
0.1808036 1.5942216e-05 0.003692476 -0.07971814 0.11241289 -0.4307972 0.00045163298 -0.24309547
-0.7287921 0.003609613 -0.012007662 0.0016623621 -0.18420927 0.06840049 -0.0026561546 -0.060223855
0.005935265 -1.6069522e-06 0.097248964 -0.045678224 9.264502e-05 -0.17045334 -0.0052339705 0.0079970425
0.007634188 -0.5728921 0.1180342 -0.018093439 0.3135357 1.4832227e-06 0.50869244 1.2156192e-11
-0.29491577 1.4120064e-29 0.043085404 0.21621557 0.41928333 -0.009336221 0.3614521 -0.22730964
0.11997728 0.11505337 3.451162e-06 -0.042102527 -0.33076525 -0.0141530745 0.0017061403 -0.24367851
-8.51295e-33 0.008065583 -0.0020889647 -0.5958969 -0.03189149 0.018214084 0.039838478 0.17257336
-0.24839073 0.70774835 0.24869631 0.35606122 0.005081388 0.013486053 -0.10015669 -0.060532875
-0.019548597 -0.016068941 -0.018638413 -7.71385e-40 -0.0055292435 -3.7321e-40 -0.010891891 -0.0061918222
-9.28722e-40 -0.015881594 -0.017974092 4.77389e-40 -0.01505169 -0.012481981 -0.016667679 -9.61456e-40
-0.013054508 -0.01850977 -0.007519381 -0.014216528 7.89993e-40 -5.89026e-40 7.71834e-40 0.002316992
7.87608e-40 -0.008565935 6.10819e-40 1.033948e-39 -0.012861974 -6.74877e-40 -0.0056234812 -2.122e-42
-5.00505e-40 -0.0109492745 9.25235e-40 -0.018584311 -9.38937e-40 9.54026e-40 -0.0048529757 2.5027e-41
8.36448e-40 -0.017332911 -0.009547013 -0.0063759945 -0.018689888 -0.015115847 -0.009885358 -0.017214784
-7.18841e-40 -0.009772526 -0.0076112263 -1.28589e-40 -0.011321748 -0.011674676 -0.015985154 -0.008893622
-0.0036120214 7.11638e-40 -4.48191e-40 -0.00867525 -7.68909e-40 9.62333e-40 9.4609e-40 -9.18241e-40
-0.009144977 8.25265e-40 -2.77676e-40 -0.00441087 -0.012738251 -0.016014315 -7.53967e-40 0.00050475146
-0.012232717 -8.48709e-40 1.82652e-40 6.95983e-40 -0.013409117 -0.0073998757 7.51207e-40 -0.011227028
9.28823e-40 -6.51139e-40 -0.020711225 -0.016531346 4.0492e-40 -0.005159374 -9.6705e-41 -1.009138e-39
-0.012630659 -0.008024123 -0.009250891 -0.0063473824 -0.008977097 -7.69698e-40 -0.010581074 -7.15916e-40
-0.009707179 -8.5482e-40 -0.017116647 -0.012368249 -0.008120693 -0.011926028 -0.003518426 -0.012577292
-0.00952475 -0.00888118 -9.68621e-40 -0.014833024 -0.0025917906 -0.011697558 9.86719e-40 -0.009381656
9.78643e-40 2.94421e-40 1.47082e-40 -0.0022898181 -0.007973673 6.26848e-40 -0.015140652 -0.018059954
-0.016652787 -0.0038701263 -0.010369389 -0.009046605 5.0388e-41 -1.85502e-40 -0.013944797 -0.013275123

layers.2.bias f4 [128]
00000000: 07b0 81bd e7b6 4abc 940f e2af b1b5 d5bb
00000010: 0ee3 af3d 7317 dcbc db24 ce3e bb3e 223e
00000020: 7278 b5b8 aed4 0600 c381 a53d 4433 31b7
00000030: d419 023e 878f f13d b423 fc3d a256 0400
00000040: d7d5 0f3d 83e9 d33e ad10 97b6 9156 363e
00000050: 004c 98b2 7e64 c7bd 4748 0580 efe3 88a5
00000060: afb9 64be 391f 79aa 2857 0200 c93e 8cb3
00000070: 3cbf 82be 6f49 b83d 2bfe 96a9 b7af d9bb
00000080: 3f0e 583d 2ce7 033e 2808 0280 a066 0680
00000090: 6a4d fab4 311d 63be 995a 06bc c2c0 b73d
000000a0: de8f 44be 7a78 063e 783d 28be 9707 fdbb
000000b0: 6c43 b3be a50b 86bc 7cd7 9dae 179c 9daf
000000c0: 595d dabd e181 5c3d 02c2 d5b9 1a6d 37a0
000000d0: a437 113b 6dd0 313e ae31 0300 717d b13e
000000e0: da10 80bb 4fce 83bb 2530 7cba edb2 9dbb
000000f0: 304c 15be a8b4 aabb 8d4f 25bc ac6a 1ebb
00000100: 662c a2bb 569b 1dbc 9e86 7b3d e2e1 69b0
00000110: 7b53 a73d af23 813e def9 a03d 9252 a1bd
00000120: 1097 373e 79b2 663e f9c3 9bbe fd4e c0bb
00000130: 95d9 eab8 0e95 723d fe91 53be 8ca5 62a8
00000140: f2d9 693e 10ae 7b3d 0c00 22b7 3fc7 0200
00000150: c3c0 47bc d8c7 57bb c9f8 53a1 0dd5 b5ba
00000160: 1537 c63d 4c11 e9bb bef7 153e 1d65 e93d
00000170: 8f87 45be 1440 21be b52b b1bb ca04 0b3e
00000180: 9da1 41bc b54c 0780 c629 0680 620a 9a91
00000190: 39a1 0200 3b4b 453e 5d4e 1cbf 3fe5 6bba
000001a0: 7198 c1be 7be0 bc3d e7c9 6e3d 985a 153d
000001b0: 5879 83bd d71e 8d3e 98dc 1eac c545 5fb7
000001c0: cb54 bfb3 af6b 92bd 003e 0380 5547 debe
000001d0: 184a 49bb 659e eebb a9db fb3d f524 0b00
000001e0: 844c 0db7 cd90 3cbe 0a16 edbb d07b 833d
000001f0: 64f6 d93c 4603 913e 6ddd a023 bf01 aebb
-0.06332403 -0.012372709 -4.112023e-10 -0.0065219034 0.08588229 -0.02686665 0.40262493 0.15844242
-8.653187e-05 6.27308e-40 0.08081391 -1.0561958e-05 0.12705165 0.11794954 0.12311497 3.9842e-40
0.035116043 0.41389093 -4.502092e-06 0.1780646 -1.772969e-08 -0.09735964 -4.85106e-40 -2.3746693e-16
-0.22336458 -2.2126475e-13 2.14937e-40 -6.5306786e-08 -0.25536525 0.08998381 -6.705429e-14 -0.0066432613
0.05274796 0.12881154 -1.86597e-40 -5.87828e-40 -4.6622455e-07 -0.22179104 -0.008200311 0.089723125
-0.19195506 0.13131896 -0.16429698 -0.007721852 -0.35012376 -0.016362974 -7.177811e-11 -2.8669042e-10
-0.10662336 0.0538348 -0.00040771073 -1.5536802e-19 0.0022158409 0.17364664 2.93328e-40 0.34666017
-0.003908259 -0.0040223966 -0.0009620211 -0.0048125894 -0.14579844 -0.005209524 -0.010089767 -0.0024172468
-0.0049491404 -0.0096195545 0.061407678 -8.5085905e-10 0.081702195 0.25222537 0.078601584 -0.07877077
0.1792872 0.2252902 -0.30422953 -0.005868791 -0.00011198517 0.05922418 -0.2066116 -1.25814174e-14
0.22837046 0.061445296 -9.655963e-06 2.55147e-40 -0.012191954 -0.0032925513 -7.1818845e-19 -0.0013872698
0.09678475 -0.0071126577 0.14645287 0.11396239 -0.19289993 -0.157471 -0.0054068216 0.13576046
-0.011818317 -6.70366e-40 -5.65998e-40 -2.4303315e-28 2.41507e-40 0.1926698 -0.6105707 -0.0008998699
-0.37811616 0.09222504 0.058298018 0.03646335 -0.06419629 0.2756259 -2.2575605e-12 -1.330808e-05
-8.909554e-08 -0.07149445 -2.97748e-40 -0.43413797 -0.003071433 -0.0072820657 0.12297756 1.023448e-39
-8.42207e-06 -0.18414612 -0.0072352933 0.064201 0.026606746 0.2832281 1.7441012e-17 -0.0053102667

layers.3.weight f4 [707, 128]
00000000: 9d52 86be 37aa 12ba e098 0980 1e78 a5bb
00000010: cce1 abbe 8d21 9bba ea37 1b3d 0b9b 1fbf
00000020: 13dc 95bb c36e 09b0 471a 7abf f8c1 babb
00000030: 9609 6fbe b8e0 eebc 251f d3bc 0436 0480
00000040: 58f2 e4be 5b8e 1cbf 56ba 4cb9 533a 45be
00000050: 6eae 73ba 86ff 37bf c5ef 0880 aaf0 573a
00000060: 284d 3ba9 7fa7 0700 db2b 0000 bc9f 63b8
00000070: e824 cb0d 1059 86be 565d 0100 68c1 d80e
00000080: cf9d a1be 82e3 48be 7089 0700 e330 0a00
00000090: f6b4 d1b5 ee98 4697 5b93 25bf 4f2b aebe
000000a0: ffe6 74bf cbac 02be 9f0c 07be 3e36 07bb
000000b0: bb33 cabb 6c7c bcbf d90a a7b5 ae93 0000
000000c0: a0ec 08be 7359 e8be 5927 6bbb 170a 9aa0
000000d0: 00e2 e5ba f405 04be e6a2 0380 37fd 1abe
000000e0: c322 edb7 74b3 ddbb d61e dabb 7ef1 4dba
000000f0: a18f 6c37 aa19 e7bc 47e0 14bd 7c20 01b3
00000100: d28a a1ba dac6 20bc 3957 c1bd 1679 8fb9
00000110: c822 a8be 482b 6cbf 7833 f7be 9f71 69bf
00000120: fcd1 2fbf ba6c 4cbf 7b44 e128 b5f2 cdbc
00000130: 1d79 8fb4 92e6 d4be 02b6 22b5 ec60 0980
00000140: 4027 8dbe 5fad 2cbe fc69 0680 a77f 0100
00000150: d3bc 8fbc c085 6e3d 4dcf 0180 bb5e c8ba
00000160: cfdd 83bd 45cf a9bc bccc abbe 6a00 d4be
00000170: 36c7 d69c 7fdd ffbb 9138 a6b9 2b63 c1be
00000180: 6257 43bf 67b1 0500 6aca 0900 2f4a 6b9c
00000190: 07cd 0280 095e 1e3d bd65 fabe 8dca a1bb
000001a0: cba1 43bc 4c76 13bd 0224 82be ea0c 7c3e
000001b0: 4ef8 c3be 0b66 a7be 2871 4d3a 9662 a8b4
000001c0: 5b17 0400 e5b6 68bf 43e3 0300 5f21 783d
000001d0: d05a 0700 9e5b f9b8 01ce cdbe a026 0380
000001e0: d8c2 69bb 2526 20bc a36e a939 69ce 38be
000001f0: 2666 90be 9e12 8abe aa27 b488 023d 91bb
00000200: e34c e43d 35a0 49b5 65f9 0700 517a c43b
00000210: 2e43 45be ec24 e1bd 8e91 86bd 42c5 27be
00000220: 8874 c4b8 71bc 1b9e d340 63be 33b6 e6ba
00000230: bda7 73be 7a3c f7be d841 2fbe 2d73 0200
00000240: b412 a2bf 7e04 dfbc 57d0 f0b9 1652 cfbc
00000250: 68b8 11b9 50fd 69bf 5e07 8d2f 80e7 96ad
00000260: 0e02 f6a3 18fe f4ac a2ef 0280 8dc4 32ba
00000270: cc4a 380d c8b9 60bf aaa9 e3a9 f378 f98c
00000280: a659 aebd dad4 b1bf 82db 0080 edc9 0300
00000290: 9d29 7bad 40d8 1e10 8438 21bf 2083 5dbc
000002a0: 1167 c1bf 36eb d23d 1c2e 84bd 5cf9 ac3b
000002b0: 1471 6ebe 2124 66bf 60cf c3b9 3965 e5a8
000002c0: 10ab 203d 4967 21be 3210 02b8 1140 89b0
000002d0: 9b81 a2bd f773 61be 2743 0480 55d9 2cbd
000002e0: fabc 7bb6 b92b a3bb 1d44 c2bb a44c 19b8
000002f0: 830e 80b6 f083 febc a08b 1ebd c83e 04bb
00000300: df83 ef3b 73be 003b dbf7 9bbe 7191 69b3
00000310: 0a42 13be f369 46bf d6e0 14bf 89bf b7bf
00000320: cb1e 8abf f87c 23bf ca3e 38a2 9844 5abc
00000330: 04e4 2eaf d0f9 59be 733b d9b0 193e 0300
00000340: 6392 a5bd 9e71 c53c 65b0 0500 45d4 0700
00000350: e24e 5bbb e508 82be 478f 619d 5a9d 273b
00000360: a61f 9d3d 89b5 d1bc e972 17bf 7040 fdbd
00000370: f072 5819 a554 26bc 381e 1d3a 66b2 00be
00000380: 4753 b4bf 7928 0380 e4c2 0a00 6901 0b8c
00000390: f554 0680 3f70 8abd 0f46 29be c7a9 8fbb
000003a0: cf1e f0bd 5ef4 48ba ece5 a0be 59d3 58bf
000003b0: dbe9 bebe 0ca0 41bd 52ea cdb7 f5ab afbb
000003c0: b344 9436 4810 b0bf 77bb 0500 29a2 2ebe
000003d0: 81a5 0900 77d7 81af a60a 0bbe 9f46 b8b4
000003e0: 4196 09bb 0d89 c6be a96a dab9 e3c8 09be
000003f0: 2fe3 1fbe cb71 bcbe 3ea4 0836 4e9f 16bc
-0.26234904 -0.0005594822 -8.8136e-40 -0.0050497195 -0.33570707 -0.001183556 0.03789512 -0.6234595
-0.004573354 -4.999771e-10 -0.97696346 -0.0056993924 -0.233435 -0.029159889 -0.025771687 -3.86719e-40
-0.44716144 -0.6115472 -0.00019524372 -0.1926053 -0.00092957064 -0.7187427 -8.20697e-40 0.0008237461
-4.1589264e-14 7.02935e-40 1.5732e-41 -5.426978e-05 1.2519726e-30 -0.26239824 1.25318e-40 5.3434355e-30
-0.3156571 -0.19618037 6.92152e-40 9.35892e-40 -1.562438e-06 -6.4170275e-25 -0.6467797 -0.34017417
-0.9566497 -0.12761228 -0.13188408 -0.0020631696 -0.0061707175 -1.472547 -1.2445627e-06 5.2977e-41
-0.13371515 -0.45380744 -0.0035881607 -2.6095292e-19 -0.0017538667 -0.12892896 -3.33943e-40 -0.15135656
-2.8268789e-05 -0.0067657772 -0.006656508 -0.00078561145 1.4100137e-05 -0.02821048 -0.0363467 -3.0064697e-08
-0.0012324697 -0.009813035 -0.094404645 -0.00027365302 -0.32839036 -0.9225354 -0.48281455 -0.91189
-0.68679786 -0.79853404 2.5009717e-14 -0.025140146 -2.6723947e-07 -0.4158216 -6.061456e-07 -8.61288e-40
-0.27569008 -0.16863011 -5.89033e-40 1.37629e-40 -0.017546093 0.058233023 -1.66201e-40 -0.0015287021
-0.06438791 -0.020728717 -0.33554637 -0.41406566 -1.4212827e-21 -0.007808387 -0.00031704133 -0.37770972
-0.7630521 5.22817e-40 8.99132e-40 -7.785086e-22 -2.57221e-40 0.038663898 -0.48905745 -0.004937476
-0.01194043 -0.03600149 -0.25418097 0.24614301 -0.3827538 -0.3269504 0.0007836991 -3.136417e-07
3.7572e-40 -0.90904075 3.57033e-40 0.0605787 6.75426e-40 -0.0001189031 -0.4019623 -2.89363e-40
-0.0035669114 -0.009774719 0.00032316623 -0.18047489 -0.28202933 -0.2696733 -1.0842681e-33 -0.0044323215
0.111474775 -7.5111467e-07 7.32314e-40 0.0059960266 -0.19263908 -0.109933704 -0.06570731 -0.16383842
-9.367714e-05 -8.2446004e-21 -0.22192697 -0.0017601907 -0.23794456 -0.48288327 -0.17114961 2.24988e-40
-1.2661958 -0.027223822 -0.00045931592 -0.025307696 -0.00013896974 -0.9140215 2.5652985e-10 -1.7155832e-11
-2.6672244e-17 -6.963107e-12 -2.69635e-40 -0.00068194495 5.678941e-31 -0.8778348 -1.0110257e-13 -3.8437318e-31
-0.08513193 -1.3893082 -7.8745e-41 3.47944e-40 -1.4276938e-11 3.13266e-29 -0.6297686 -0.013520032
-1.5109578 0.10298769 -0.06454107 0.0052787494 -0.23285323 -0.8989888 -0.00037347805 -2.5468006e-14
0.039225638 -0.15762056 -3.10095e-05 -9.986271e-10 -0.079348765 -0.22016893 -3.91432e-40 -0.04219945
-3.7511913e-06 -0.0049795774 -0.00592853 -3.654942e-05 -3.8163867e-06 -0.031068772 -0.038707376 -0.0020179022
0.0073094214 0.0019644767 -0.30462536 -5.4381818e-08 -0.1438066 -0.77505416 -0.5815557 -1.4355327
-1.0790647 -0.6386256 -2.496989e-18 -0.013322018 -1.5906215e-10 -0.21286702 -1.5805725e-09 2.97783e-40
-0.08084562 0.024102028 5.22456e-40 7.18996e-40 -0.0033463766 -0.2539741 -2.9852575e-21 0.0025575967
0.07672052 -0.025599258 -0.59159714 -0.12365806 1.119015e-23 -0.010152017 0.00059935777 -0.12568054
-1.4087914 -2.90025e-40 9.88269e-40 -1.0708595e-31 -5.8149e-40 -0.067596905 -0.16530631 -0.0043842527
-0.11724626 -0.0007665808 -0.31425416 -0.8469749 -0.37287793 -0.047271773 -2.4547018e-05 -0.005361075
4.4187414e-06 -1.3754969 5.26427e-40 -0.17054047 8.85891e-40 -2.361806e-10 -0.13578281 -3.4324054e-07
-0.00209941 -0.38776436 -0.00041659668 -0.13455538 -0.15614007 -0.36805567 2.036118e-06 -0.009193255

layers.3.bias f4 [707]
00000000: 9863 03be a9b5 06be 37c5 18bd a417 80bc
00000010: 97c9 48be dcfe 6fbf ef9e 70bc 8ce1 523e
00000020: d06e 22be 2ecb acbe 92b8 41be e02c 89be
00000030: 0a3d 8dbe 01dd 62be 2b64 ddbd ffd9 9bbc
00000040: 4a97 0bbe d217 c9bd 4e6f d73c 1e40 6dbe
00000050: 0c36 a53d ce34 39bd 766a 95be 8dbc 95be
00000060: da48 e5bd 0d59 a0bd 702f 49be c25d efbc
00000070: 55d6 a5be 54fb 0cbd c4d2 f5be 0a4b b43d
00000080: 8e5b 3cbe c888 9ebc b25a c5bd 59f6 c0bd
00000090: d9ea 46bd 885a 99be ba00 3cbe 0fec b1bd
000000a0: 34ad 17be 235c 18bd 55a6 8fbd 7805 b03c
000000b0: 12cd 22be a63e 7fbe b861 38be 3bc1 bbbd
000000c0: 5441 c4bd 34f3 08be 37fc 27bd cbd8 e1bd
000000d0: a591 4fbe f6d7 71bd 59d2 82bd 9595 4abd
000000e0: 2979 a7bd 981b 06be 9643 07be 4836 a0bd
000000f0: 766f 94bd 07cf 9d3a b56f 98bd 9091 10be
00000100: aa1e 4b3d a4e1 733d 65f6 893c c2c5 49be
00000110: b614 bbbd d2da 64bb 1cf4 04be 786b d8bd
00000120: 9da2 7f3b fba6 39bc f8b8 8cbe c913 b6bd
00000130: af5c e8bd 64ad 8fbe e58a 103e 08ea 13be
00000140: 87a9 70be e519 00be 5fdc 27bb 1078 afbb
00000150: 00df ffbc 0e4d 6a3b 9229 6cbc 01f6 4a3c
00000160: aeb2 b1be b893 36be 53a4 63bd 96f3 bebd
00000170: 8aaf 15bd 23eb 4fbc 1e74 d7bd 096d 0dbd
00000180: f9b9 48be 13d5 73bd a61d 4bbe 0feb 48bd
00000190: 937a 73be cacd 1ebe 9dbe e9bd 2f16 3bbd
000001a0: fe33 88bd cc7f 78bd eb37 1fbe c8d9 7bbd
000001b0: 09e9 633d 6807 68bc 3141 37be 7340 2fbd
000001c0: 820e 45be e1f1 81bd f1db 9fbd 983b 413d
000001d0: ec88 d9bd 1f7a 8e3d a10a cbbb 2788 093d
000001e0: 8c62 a9bd 687c 77bd df90 333c 7cd9 d5bd
000001f0: 7c2b 87bd 3694 05be 2f25 dfbd 7252 b4bd
00000200: a575 33bb 3024 973b c075 49bd aeb0 67bd
00000210: 7a09 e6bd 7a19 6cbd f5de dabd d0dc e0bd
00000220: 475d a3bd db88 2cbc 0e8e 9ebd d6ba febd
00000230: 4f04 acbd ccac 74bd 012b a6bd a496 7ebd
00000240: d65c d5bc d714 49bd 0839 12be 49ac 34be
00000250: 37a2 49bd abf9 93bd 40e4 45bd 6b1d 3a3d
00000260: dc01 a9bd a0d8 203c f43b 8ebd 87ff 98bd
00000270: c852 57bd 9cc0 24bd eaca 32bd 019f 46bd
00000280: 40d6 e63c cea8 98bd f579 173c 782d 0abe
00000290: 4a43 c83d 62cd b3bd 3a8c c4bc a189 7abd
000002a0: 0812 28be 973a 5bbd dbaa 31bd cdd9 a3bd
000002b0: c90a a6bd 729b b7bc 032a a2bd 1b2d 3abc
000002c0: 336f 26bd e361 bebd d417 083b 9ee9 a33d
000002d0: e135 1dbe 977d 8fbd ca60 43be df0e 28be
000002e0: 5171 a7bd 84d9 c2bd f46c 01be 9ec2 59bd
000002f0: 2e5d 64bd 3dc1 60bd 6876 b2bd 20f6 f6bd
00000300: ab5e 30be f210 19be 4f0d d0bd b7c0 21bd
00000310: 3346 b4bc 6115 c33d eadd 3b3c c450 2d3c
00000320: 1d8e adbd 4432 93bd 26e7 23bd d42a a4bd
00000330: f0df 5cbd 7f7b 8fbd 8fcb 87bd e1af 53be
00000340: 3fab acbd 8f28 7dbd 8e5c 12bc 98fd 3bbd
00000350: 14e6 ae3b 3160 c0bd c017 7bbd 5120 37be
00000360: c9b4 6ebd 4abc f1bb b052 d9bd cdc5 de3b
00000370: af6a c4bd 61f2 5fbd 67d2 66bd d7bf 98bd
00000380: 72fc acbd 3e0b 63bd ad6b 92bd 9d12 37bd
00000390: e955 60bd a5d9 11be 2996 f73c debd 58bd
000003a0: 96d5 6ebd 9c45 afbd 6bbd 96bc e62a 04be
000003b0: 436e 98bd 3db6 ee3d 54eb b9bd 75d1 d5bd
000003c0: 05c6 bebd a9a3 2abd 5348 483d 5a4d 53bd
000003d0: b2dc 4dbe 7abb 00be 434c 01be 23d3 76bd
000003e0: c1cd 51bd 2b66 99bd 4753 a5be a9f9 c7bd
000003f0: 90a2 c1bd c7c8 3fbe 7c85 04bd 37eb 30bd
-0.12830961 -0.13155235 -0.037297454 -0.015636273 -0.1960815 -0.9374826 -0.01468633 0.20593852
-0.15862584 -0.33748764 -0.18918064 -0.2679205 -0.27585632 -0.22154619 -0.10810121 -0.019024847
-0.13631931 -0.098189965 0.026298191 -0.2316899 0.08066949 -0.045216374 -0.29182786 -0.29245415
-0.11195536 -0.07829485 -0.19647002 -0.029219512 -0.32390085 -0.034419373 -0.48012364 0.08803375
-0.183943 -0.019352332 -0.096364394 -0.09421987 -0.048563812 -0.29951882 -0.18359652 -0.08687603
-0.14812165 -0.037197243 -0.07014147 0.021486983 -0.1589854 -0.24926242 -0.18006027 -0.09167715
-0.09582773 -0.13374025 -0.041012015 -0.11027678 -0.20270403 -0.059043847 -0.06387777 -0.04945906
-0.08177406 -0.13096464 -0.13209376 -0.07822853 -0.07247822 0.0012039848 -0.074431814 -0.14118028
0.04958979 0.05954136 0.016841123 -0.19704345 -0.0913481 -0.0034920466 -0.12983745 -0.10567373
0.0039006837 -0.011331315 -0.2748487 -0.088904925 -0.11345803 -0.28061974 0.14115484 -0.14444745
-0.2350217 -0.12509878 -0.002561353 -0.0053548887 -0.031234264 0.0035751495 -0.014414208 0.012387753
-0.34706634 -0.17829788 -0.055576634 -0.09323804 -0.03654436 -0.012690338 -0.105201945 -0.034527812
-0.19602193 -0.059529375 -0.19835529 -0.049052294 -0.23777227 -0.1550819 -0.1141331 -0.045675453
-0.06650542 -0.06066875 -0.15548675 -0.06148699 0.05564216 -0.014161922 -0.17895962 -0.042786073
-0.19243816 -0.06344963 -0.07805622 0.047175974 -0.10621819 0.069568865 -0.0061963354 0.03357711
-0.082707494 -0.060421377 0.010959833 -0.104418725 -0.06600091 -0.13044819 -0.10895764 -0.08804788
-0.0027383354 0.004612468 -0.04918456 -0.05656498 -0.11232276 -0.057641484 -0.10687057 -0.10979617
-0.079767756 -0.010530676 -0.077419385 -0.1243798 -0.08399259 -0.059735104 -0.08113671 -0.06215538
-0.026045244 -0.04909214 -0.14279568 -0.17643847 -0.049226966 -0.07225355 -0.04831338 0.04543821
-0.08252308 0.009817272 -0.06945029 -0.07470613 -0.05256918 -0.04022275 -0.043650545 -0.04849148
0.028178334 -0.07454072 0.009245385 -0.13493907 0.09778459 -0.08779408 -0.023992646 -0.06116641
-0.16413128 -0.053522673 -0.04337583 -0.080005266 -0.08107526 -0.02241299 -0.07918169 -0.011363293
-0.04063339 -0.09296014 0.0020766156 0.08003543 -0.15352584 -0.07006376 -0.19079891 -0.16411923
-0.0817591 -0.09514144 -0.12639219 -0.053164117 -0.055752926 -0.054871786 -0.087139904 -0.12058663
-0.17223613 -0.1494787 -0.101587884 -0.039490428 -0.02200613 0.09525562 0.011466483 0.010578338
-0.084743716 -0.07187322 -0.040015362 -0.08015981 -0.0539245 -0.07005977 -0.066306226 -0.20672561
-0.084311 -0.061806258 -0.0089332 -0.045896143 0.005337486 -0.09393347 -0.061301947 -0.17883421
-0.05827788 -0.007377182 -0.106114745 0.006798482 -0.09590661 -0.05467451 -0.056353 -0.074584655
-0.084465876 -0.055430643 -0.07149444 -0.044695485 -0.05476943 -0.14243181 0.03022297 -0.052915446
-0.05830916 -0.08558199 -0.018400868 -0.1290699 -0.07442906 0.11655853 -0.090780884 -0.104403414
-0.09315113 -0.041659985 0.0488971 -0.05158744 -0.2010372 -0.12571517 -0.12626748 -0.06025995
-0.051221613 -0.0749019 -0.32290098 -0.09764416 -0.094548345 -0.18728934 -0.032353863 -0.04319307
