models/MPC_horizon_8_obs_9.pt (torch, 671951 bytes, 8 tensors)

layers.0.weight f4 [128, 53]
00000000: 5b6b 51be e3b4 9fbe 6c45 86bf 94fb 5dbf
00000010: 6ef1 6f3e b865 a6bf 9449 a8bd d54c 9cbe
00000020: 9d2a 923d 0170 293e e7c1 a0bd e40b 1b3c
00000030: e2ee 64bd a763 2e3e fe5e 513d 6f03 193d
00000040: 1a20 a23d f744 e43b 741b af3d e02c fa3d
00000050: a2a5 e23c e784 e53d 6d32 b5bd 7104 ba3d
00000060: 5993 1e3e 647b 9fbb c30e 1cbd db9e 613d
00000070: f109 b6bd 1304 203e e237 ef3b 429e 0b3c
00000080: c406 073e 665c 1f3e 879b 69bd 4693 91bd
00000090: 149a 813d c168 3cbd 5681 053d 707c 943d
000000a0: 3072 a03d 7656 a4bd 37ff f33d 3d6f a03d
000000b0: 89a1 99bf f59b 353f 2cc8 873f 0352 69be
000000c0: b378 cbbf ded8 aa3d 4d34 903f 0f55 8b3e
000000d0: 3f16 f4be 9ef6 253f 5937 4dbf 44c9 ee3f
000000e0: 62f6 5abf cb1a ccbd 7ef4 2bbb 73ff 8bbe
000000f0: b8b8 d0bd 7269 903d b277 e23d 69d3 b5bc
00000100: 75a9 c63d 9f02 b73d 8d21 5ebd 3a43 4d3d
00000110: af25 ad3d ab1f 213e 7396 c13d 19e8 7a3d
00000120: b134 253e bdc7 f4bc b49a 663d a36e ce3d
00000130: 9051 d83d cdd0 823d a7e2 023e e86e ae3d
00000140: 9201 8dbd 2e20 88bd bd6e d1bb 4236 983c
00000150: 8b75 14bd b5ba 153e a5fe 823d adaa 3c3d
00000160: 47e3 eb3c 045d 67bc e170 91bd 9c1a 6abb
00000170: aa4f 5ebd 9eeb 3dbc b49a 833c 0a9e d53b
00000180: aa4c 4dbc 579e 763c 26d3 e2be 7fbc 613d
00000190: 31f7 333d 39d2 53bf 4f0e 43bf 6bf1 833f
000001a0: e372 003d 3c36 dd3e 2059 36bc febd 8ebb
000001b0: 6132 053a f823 abba 3cdb aabb 92f6 00bc
000001c0: 82ee 5538 8d9b 92b8 edf2 08bc 2107 27bc
000001d0: 05f0 18bc f3ca 18bc 9be2 24bc 3a51 23bc
000001e0: e2bd cfba 9117 0bbc 8c1b bebb 9a19 1bbc
000001f0: 2b6a 2abc ee30 1ebc f07c 1ebc f555 2abc
00000200: 4c8e 28bc fd06 e1bb 1ded 14bc 7cad 08bc
00000210: 7d2e a2ba 139d 14bc a1a7 12bc 8c0a fcbb
00000220: 70f5 04ba 7f1b efbb 074a 14bc b6ee fcbb
00000230: ab35 c5bb b1f0 e2bb b351 1ebc 9e7e 1ebc
00000240: 38b4 0bbc 3739 b1bb a230 13bc 0dd6 1fbc
00000250: 3adb 16bc 248c 09bc baf1 0abb dac1 fe38
00000260: d5b3 5e3a f1cb fdb9 93c5 6b3a 34b2 c739
00000270: ce94 bbbb 222e ffba 84f8 8db9 0e14 afbb
00000280: cb40 b3bb 74e2 333b 1492 5c38 9739 06bc
00000290: 374c 6bbb 5975 8fba 3f2f 9fba 5895 18bc
000002a0: 09cd 1ebc f504 1cbc 60fd 1bbc 3464 1ebc
000002b0: aa16 1ebc 5a91 d7bb 2a10 19bc a39e 0dbc
000002c0: d875 1cbc 7670 1fbc d514 1dbc fa23 1dbc
000002d0: ad6c 1fbc 1717 1fbc e79a 12bc f62f 1bbc
000002e0: a785 18bc 146d ccbb 271f 1bbc 25b5 1abc
000002f0: 2908 16bc a593 a8bb 9f6e 14bc aa0d 1bbc
00000300: c123 16bc 52b1 0ebc e3db 12bc 651b 1dbc
00000310: 4b24 1dbc ef32 19bc ad95 0bbc 39d2 1abc
00000320: 5c68 1dbc 1f97 1bbc cab7 18bc 6fc6 34bc
00000330: ac99 f83b 670b f4bb b24c 3b3c 338f 9bbc
00000340: 1dd8 e8b9 527b b63a 1903 baba 469e 4ebc
00000350: 153c f2bb 0193 50bb ea6f 24b3 6195 bc2e
00000360: 576d cbbb a986 61bb 9032 212f 0ca3 c730
00000370: 3fdb 3fbb b629 d4bb 082d 95bb 389c 94bb
00000380: 257e c9bb ccf1 c1bb e905 73b6 a925 4cbb
00000390: 3bd5 31ba 6fc9 9dbb 8ee2 e5bb 8ebc aabb
000003a0: 5005 acbb e174 e5bb 6c06 dcbb cbc1 aeba
000003b0: 5623 86bb 6d57 3ebb 81ba b1b5 f603 85bb
000003c0: e048 7cbb 368f 09bb 8350 14b3 e0d2 deba
000003d0: 9edb 83bb 6784 0bbb 2300 4eba f8c7 b4ba
000003e0: ec49 abbb 580c acbb 88c3 4fbb b634 06ba
000003f0: adfc 7fbb 86f1 b1bb 4c39 8dbb 1c3b 43bb
-0.20451109 -0.31192693 -1.0489936 -0.86712 0.23431942 -1.2999792 -0.08217159 -0.30527368
0.07137034 0.16546632 -0.07849484 0.009463284 -0.05589188 0.17030202 0.051115982 0.03735679
0.07916279 0.006966229 0.08550158 0.122155905 0.02766687 0.1120699 -0.088475086 0.090828784
0.15485896 -0.004867004 -0.038100015 0.055083137 -0.08888615 0.15626554 0.007300363 0.008521618
0.13186175 0.15562591 -0.057033088 -0.07108168 0.06328216 -0.04599834 0.032594047 0.07250297
0.078342795 -0.080243036 0.11913913 0.07833717 -1.2002422 0.70941097 1.0607963 -0.22785191
-1.589621 0.083421454 1.1265961 0.27213332 -0.47673222 0.6482943 -0.8016258 1.8655171
-0.855322 -0.09966048 -0.0026238258 -0.2734333 -0.10191482 0.07051362 0.11057986 -0.022195535
0.0970029 0.08936047 -0.054231215 0.05011294 0.08454453 0.15734737 0.09452524 0.0612565
0.16133381 -0.029880399 0.05629988 0.10079696 0.10562432 0.06387482 0.12781774 0.085172474
-0.06885065 -0.06646763 -0.006391375 0.01858056 -0.03624491 0.14622004 0.06396226 0.046061207
0.028794898 -0.014121298 -0.07101608 -0.0035721427 -0.054275192 -0.01159182 0.01606498 0.006519084
-0.012530485 0.0150524 -0.44301718 0.055111405 0.043936912 -0.8274265 -0.7619371 1.030805
0.031359565 0.4320544 -0.0111296475 -0.004356145 0.00050810544 -0.0013056984 -0.005214123 -0.007871287
5.1005285e-05 -6.990796e-05 -0.008358699 -0.010194571 -0.009334569 -0.009325731 -0.010063793 -0.009968096
-0.0015849436 -0.008489505 -0.0058016237 -0.009466553 -0.010401289 -0.00965522 -0.009673342 -0.01039647
-0.0102878325 -0.006867288 -0.009089735 -0.008342143 -0.0012373474 -0.009070653 -0.008951099 -0.007691687
-0.00050719734 -0.007296979 -0.009050853 -0.0077188862 -0.0060183606 -0.0069256653 -0.009663033 -0.009673743
-0.008526854 -0.005408432 -0.008983763 -0.0097556235 -0.009207541 -0.008395229 -0.002120121 0.000121477715
0.0008495425 -0.0004840787 0.00089939794 0.0003808901 -0.005724526 -0.0019468705 -0.00027078774 -0.005342967
-0.0054703704 0.002744821 5.2588133e-05 -0.008192441 -0.0035903582 -0.0010945007 -0.0012144818 -0.00931295
-0.009692439 -0.009522666 -0.0095208585 -0.009667445 -0.009648958 -0.0065786066 -0.009342233 -0.008643779
-0.0095495805 -0.009731403 -0.009587486 -0.009591097 -0.0097305 -0.009710095 -0.008948064 -0.009471884
-0.009309209 -0.006238589 -0.0094678765 -0.009442602 -0.009157219 -0.0051445537 -0.009059577 -0.009463707
-0.009163798 -0.008709269 -0.008963558 -0.009589051 -0.009591172 -0.009350522 -0.008519572 -0.009449535
-0.009607401 -0.009496479 -0.0093211625 -0.011033638 0.0075866785 -0.0074476483 0.01143186 -0.018989181
-0.00044411505 0.001392225 -0.0014191597 -0.0126109775 -0.0073924162 -0.0031825902 -3.828601e-08 8.575785e-11
-0.0062081027 -0.003441254 1.4660828e-10 1.4525496e-09 -0.0029274968 -0.006474699 -0.0045524873 -0.0045352243
-0.006149071 -0.005918717 -3.6213262e-06 -0.0031150377 -0.0006783788 -0.0048152725 -0.007015533 -0.0052104658
-0.0052496567 -0.0070024584 -0.0067146327 -0.0013332901 -0.004093568 -0.002904381 -1.3241807e-06 -0.00405931
-0.0038495585 -0.0020989901 -3.453216e-08 -0.0017000102 -0.004023983 -0.0021288635 -0.0007858297 -0.0013792505
-0.005227318 -0.005250495 -0.003170224 -0.0005119549 -0.0039060519 -0.005430403 -0.004309809 -0.002978987

layers.0.bias f4 [128]
00000000: 41d3 fb3d 5ecc 9e3d 0b34 febb da4a 16bc
00000010: c557 0ebb 89d2 80bd 9598 2abb 96c3 55bc
00000020: b01b a1bb 2bed 98bb fae5 5abb 7bf4 37b7
00000030: 1465 8a3d c5a8 83bd 70aa 22a4 0a0a e9a8
00000040: 1553 fa3d b52a b43d 08d6 c1ba 05ab a2ba
00000050: aea9 163d 95b2 efba 13f3 a53d e6ac 843d
00000060: 24d7 57bc bb8b 103d d1f1 18bb e9d0 b4ac
00000070: 97e0 0dbc faa3 c93c d71b 913c 3112 2cbb
00000080: 7f40 bb3d 8e61 61ae 757e f63d 5a24 0400
00000090: 01ec 503c ec08 1b8a 28c1 1fbc 5805 d9ba
000000a0: 5f29 97bb e6d6 4abd f12e f6bd 4202 a43d
000000b0: e801 d4bd 08f7 dcbd 7472 1dbc 12aa 83bd
000000c0: 4f6b 22b1 506c 803d 1605 c53d 5e3b 0200
000000d0: f8e9 0180 fde6 fd3c 253d e0bd d478 573d
000000e0: 328c 7bb3 6b0a 01bd bf6e 923d 376c 9d3d
000000f0: 608b 0f3d adc7 c43d cb52 01bc b98c 913c
00000100: 72b3 94b1 114f 06be 0fd7 b4bd 0e3f 11bc
00000110: 44af 253d db6c b03d 3d3b f9bb 01e7 b487
00000120: f6ad 5400 2573 0480 62c7 c4bb ec36 8a3d
00000130: dff5 c2af ed93 5dbb 1968 0bbe df35 bd3d
00000140: 3c0b 073e 1e03 0680 7096 b1bc 2f61 fc3d
00000150: eb9f aab7 fb4b 1b3e edd0 35a5 83ec 78bd
00000160: cf96 9abd 18fb 0100 ce21 633d 4ab0 b63d
00000170: 8be1 8d3d b067 62ba 7584 5bbd 319b f03d
00000180: 1edb 99bd 96ed 80ba 7353 afba e946 da3d
00000190: 5455 8fbd b315 be3d f47b 72bd 9d79 a23d
000001a0: 993f ce3d b021 58bd f8c1 31bd 2b39 8abb
000001b0: f15b 6c3b 611f 44b0 5dc3 89bd 1111 ff3d
000001c0: c413 03bd f05b 92ae 0d68 093d b306 c33d
000001d0: 8366 6a3c e6f9 edbd deae 4cbb 0b1f 01be
000001e0: 48ec f0bc 8e62 4dbd 7ceb abbd f5a2 a6bb
000001f0: cd0f db3d 204f 9dbb 44c1 0b3c c200 0500
0.12296153 0.07753824 -0.007757669 -0.009173119 -0.0021719795 -0.062901564 -0.0026030887 -0.01304712
-0.0049166307 -0.0046669445 -0.0033401237 -1.09645725e-05 0.0675756 -0.064286746 -3.5272517e-17 -2.587255e-14
0.12222878 0.08797208 -0.0014788518 -0.0012410587 0.036782913 -0.0018287475 0.08103003 0.0647829
-0.013173852 0.035289507 -0.0023337493 -5.1391014e-12 -0.008659503 0.024614323 0.01771347 -0.002625596
0.09143161 -5.1245723e-11 0.120358385 3.80382e-40 0.01275158 -7.4646566e-33 -0.009750642 -0.0016557379
-0.004613086 -0.04952135 -0.12020672 0.08008243 -0.10351926 -0.10789305 -0.009609807 -0.06428923
-2.36351e-09 0.06270659 0.09620111 2.04968e-40 -1.75768e-40 0.030993933 -0.109491624 0.052605465
-5.8568e-08 -0.031504076 0.071500294 0.07686656 0.035045028 0.09608398 -0.007893275 0.017767297
-4.3277675e-09 -0.13116099 -0.08830082 -0.008865131 0.04045035 0.086145125 -0.0076059387 -2.7219162e-34
7.776587e-39 -4.08648e-40 -0.0060052136 0.06748757 -3.5463096e-10 -0.0033810094 -0.13613929 0.09238791
0.1318788 -5.52131e-40 -0.02167818 0.12323224 -2.0340047e-05 0.15165703 -1.5770034e-16 -0.06077243
-0.07548296 1.81911e-40 0.05545216 0.08920343 0.069277845 -0.00086366665 -0.053593118 0.117483504
-0.075124964 -0.0009836431 -0.001337631 0.10658056 -0.06998697 0.092814825 -0.059200242 0.07933352
0.10070724 -0.052766502 -0.043397874 -0.0042182407 0.0036065544 -7.1348977e-10 -0.06726716 0.12454427
-0.03200127 -6.655643e-11 0.033546496 0.09522762 0.014306667 -0.1161993 -0.0031232159 -0.12609498
-0.029409543 -0.050142817 -0.083945245 -0.005085344 0.10696373 -0.004800692 0.008529965 4.5945e-40

layers.1.weight f4 [128, 128]
00000000: fa2c a4bd 79f3 b13c 5ab5 36bc 7770 253b
00000010: d57f 813a 1689 6cbe 5844 2993 45f4 0c3a
00000020: b0eb 073c a52d 823c f86e bfbb 826d 9939
00000030: 3ac4 86bd f2df 1f3e e809 6f19 43bf c137
00000040: 18e9 b63d d9ab b03d 55b4 0280 4a2e 383f
00000050: 8455 eb3e f5b0 79ba 7bca ddbd 273b f33d
00000060: 6111 95bb b62c a6bd 6e74 adba 6c33 9036
00000070: 1729 673b 2d37 26bd 11be 003c 3be1 ebba
00000080: f4f1 233f 375b 5335 1057 73bd 7049 43b1
00000090: e986 2cbe 3d08 0380 3746 78bd 7e94 aeba
000000a0: 296b 58bb 2864 7d3e ab29 15be aedf 5cbc
000000b0: 82a1 dfbd a558 01be ce9a dd3a 38de a4bd
000000c0: 24a9 3339 57dc 7f3c 0edd 533e 3ebe 0680
000000d0: 8f57 9ea2 0236 7a3e 355f 823d d673 8d3e
000000e0: af33 c59c 7290 593b 5b6e 63bc 0247 40bd
000000f0: a6fd bfbc f385 b53e 0ffe b2ba 7672 31be
00000100: 4617 36a5 bd63 5fbd 6ff4 953e cec5 14bf
00000110: 3a88 ce3d 282f a4bd 9b01 ad3b 6169 cc20
00000120: 8dcb 9799 4649 8e90 eb32 ed3b 9e80 b23d
00000130: d8d9 86b2 d81a dd3b 7045 a03c 96c1 463d
00000140: 724d 3dbd 3ed2 0500 98f5 51be 0118 80bd
00000150: 11ab 22b8 edf1 0f3e ffc3 f202 ad80 55be
00000160: c8fb 523e bb28 0380 f1ae 03be 5380 203d
00000170: 6d3f 9a3d ba25 163a a57b 2dbe 2623 d93d
00000180: e170 57be 0f04 15bb 3c6b 6e3e 6502 b63d
00000190: 8af7 07be fcb0 48bd 020d c93d 02b8 1fbe
000001a0: f47a b5bd 426c 1d3e 7f73 7eb8 01c1 50bc
000001b0: 7250 55bd 7687 b092 29be 5b3e 0cd1 613d
000001c0: d374 263c 8717 8938 ed57 6d3e c549 353e
000001d0: 5583 103e 5851 31be aa74 9aba 12c8 133d
000001e0: 56fe 263f 1c60 353e e0c0 9fbd a560 5dbb
000001f0: 1054 693e bedc 97bd e523 8ebd 0e66 0700
00000200: 143a 233e fcc6 4b3f a0d5 713b 2f98 68bb
00000210: aa78 2b3a c908 babe db7b 18ba e5d2 003c
00000220: df56 c53b b026 52bb 960b 60bb 66c6 94bb
00000230: 8048 763e e47f efbd 0a4d 0b30 0ef4 1f39
00000240: bada 7d3e 5959 a23e b51f 0480 ffd3 af3d
00000250: 699c dcbc ea64 683a 6d9b 293e 3779 f83e
00000260: 1bb6 883c b69b abbe 50c6 8fbb 09cc 0c38
00000270: 8cc4 043b f0ab 6d3e f3ff a03e 2761 13bc
00000280: d007 bd3e e9d4 5e38 b18a 9a3e ace3 7cbb
00000290: de0d 82be ab60 5eb2 66d1 b7bd ee67 09bc
000002a0: 21d3 81bb 0a45 183f e089 b3bd 9ed8 503d
000002b0: c398 cf3e 9b62 193f 6da0 b3bb 0128 76bd
000002c0: b29c 25b3 c1fa adbd 9443 103f 4ebd b61a
000002d0: f014 a134 073e 293f 22fc 4dbd 4e42 053f
000002e0: 2e04 1338 3f34 0abe 9d55 ff3e d359 56bf
000002f0: 299e a5be 4f4b 093f 9cdf 02bc 38c9 f63e
00000300: 6685 fc13 fd00 543e d3f6 213e d0e5 073e
00000310: 02cd 9f3e ca1f 9d3e 2e9f 3a3c 756d 882f
00000320: 747c 5b30 39c6 84a6 9ba8 083c d5ca 3f3e
00000330: 660a d832 a08e d3bb c756 46be f1ff 033e
00000340: a650 a43e a884 9098 bdc3 8f3e 7f78 23be
00000350: 45cd 9637 8004 0ebe ccc5 4ea3 2cd0 b5bd
00000360: b0f4 283c f14e 0580 1b7e 5abe a6ad 8f3e
00000370: df66 a53e 8396 1e3b 4c25 dbbe bf7a 093e
00000380: a3c5 5bbf e8ee 223b 7932 a2be 76cb 3c3d
00000390: 8208 bdbd 88ec 03bf 85cc 48be 5ef2 df3d
000003a0: 4d5c ef3c f2a0 0a3f 3ea9 f73c d938 15be
000003b0: 80b8 1f3e 6ccf bfb3 215e 983e fc72 76be
000003c0: cdfa 573b 1a25 ce3b 255a 1f3f 92bf b0bd
000003d0: eb8d 803e bf5e 743e 1482 f2bb f1ce eabc
000003e0: e0d9 af3e 95ff f5be 36c9 91be 1f00 493b
000003f0: b0cc d03e b00c d93e 049f 8fbd 4ed8 04a1
-0.08016391 0.021722542 -0.011151636 0.0025244036 0.0009880016 -0.23099169 -2.1364495e-27 0.0005376975
0.008295938 0.015890906 -0.005842086 0.00029264024 -0.06580396 0.15612772 1.2358011e-23 2.3096456e-05
0.08931178 0.08626527 -2.48362e-40 0.7194563 0.4596368 -0.0009524965 -0.10829636 0.11876517
-0.004549191 -0.08113997 -0.0013233551 4.2975207e-06 0.0035272294 -0.040579963 0.007857815 -0.0017996201
0.64041066 7.873636e-07 -0.0594092 -2.841798e-09 -0.16848339 -2.78462e-40 -0.060613837 -0.0013319401
-0.0033022857 0.24745238 -0.14566676 -0.013481064 -0.10919477 -0.12631471 0.0016907097 -0.08050197
0.0001713378 0.015616498 0.20689794 -6.19259e-40 -4.2918692e-18 0.24434665 0.063658156 0.27627438
-1.3049726e-21 0.0033197668 -0.013881291 -0.04694272 -0.023436379 0.35453758 -0.0013656038 -0.1732882
-1.5793869e-16 -0.054538477 0.2928805 -0.58114326 0.10084577 -0.08016807 0.0052797324 3.4628678e-19
-1.5695248e-23 -5.612202e-29 0.007238736 0.08715938 -1.5698717e-08 0.006747585 0.01956436 0.04852446
-0.046216436 5.34598e-40 -0.20503843 -0.062545784 -3.8783128e-05 0.14057131 3.56712e-37 -0.20849867
0.2060386 -2.90118e-40 -0.12859704 0.03918488 0.07531629 0.00057276676 -0.16941698 0.10602407
-0.21039154 -0.0022738015 0.23283094 0.088871755 -0.13278022 -0.04899691 0.09816934 -0.15597537
-0.08861342 0.15373328 -6.0665883e-05 -0.012741328 -0.05207867 -1.1140555e-27 0.21459259 0.055131003
0.010159689 6.5370514e-05 0.23178072 0.17703922 0.14112599 -0.17316186 -0.0011784036 0.036079474
0.65231836 0.17712444 -0.0780046 -0.0033779528 0.22785974 -0.0741515 -0.0694044 6.79459e-40
0.15940124 0.796005 0.0036901012 -0.00354911 0.00065411127 -0.36334828 -0.0005816796 0.007862781
0.0060223187 -0.0032066517 -0.0034186593 -0.0045402525 0.24051094 -0.11694315 5.0677385e-10 0.00015254339
0.24790469 0.31708792 -3.78716e-40 0.08585357 -0.02693005 0.0008865135 0.16563196 0.4852998
0.016688397 -0.33517236 -0.0043876544 3.3568624e-05 0.0020258753 0.2321012 0.31445274 -0.008995331
0.36920023 5.3127213e-05 0.30183938 -0.0038587851 -0.25401205 -1.29440805e-08 -0.089754865 -0.008386595
-0.003961936 0.59480345 -0.08766532 0.050987832 0.40546235 0.59916085 -0.0054817707 -0.060096744
-3.855957e-08 -0.08495093 0.56353116 7.5579274e-23 3.000382e-07 0.6611027 -0.05028928 0.520543
3.5051424e-05 -0.13496493 0.49870005 -0.8373081 -0.3234723 0.53630537 -0.007987883 0.48200393
6.3745284e-27 0.20703502 0.15816812 0.1327126 0.31211096 0.30688316 0.01139049 2.481603e-10
7.9848594e-10 -9.213068e-16 0.00834098 0.18729718 2.5150438e-08 -0.006456211 -0.1936904 0.12890603
0.3209278 -3.7357076e-24 0.28079024 -0.15963934 1.797698e-05 -0.13868904 -1.12091675e-17 -0.08877596
0.010312244 -4.87496e-40 -0.21337168 0.2806217 0.32305047 0.0024198599 -0.42801893 0.1342573
-0.85848445 0.0024861638 -0.31679133 0.046092473 -0.09230138 -0.51532793 -0.19609268 0.109349
0.029218817 0.54151833 0.030232068 -0.14572467 0.15597725 -8.9318604e-08 0.29759315 -0.240673
0.0032955885 0.006291044 0.62246925 -0.08630289 0.25108275 0.23864268 -0.0074007604 -0.02866313
0.34345913 -0.48046556 -0.28473824 0.0030670238 0.40781164 0.42392492 -0.07012752 -4.5009616e-19

layers.1.bias f4 [128]
00000000: dba5 88bc a764 7c3b 7bfa 523e 7e7a fbbd
00000010: 7e8b 023c 122d 313e 6396 5c3c 4738 e93d
00000020: b701 0000 667c 0ead 7f78 39ba 2a48 0200
00000030: ea8f 553e b9f5 0400 151b 4998 5ee6 0380
00000040: 4d43 5f3e f152 313e c3a8 82ba 45bc f53d
00000050: 0f32 56bc b642 d8ab 4a73 0100 379f f13d
00000060: 9a4d 67bd 573e 6a3e 18ab 1f3e db3a 743d
00000070: 9e7d aabe d014 0bb8 e556 f7bd ca40 533e
00000080: cc87 deb9 2d5c 51bd 233b bb3d f77b 883e
00000090: d578 893d 54a4 133e 5d7e b03d f068 7d3c
000000a0: 9c29 6bbb 9fb7 d63d 9c08 6db9 4657 883e
000000b0: 8aa6 ac3c 0769 edb8 cc95 203c 360e e008
000000c0: d004 053e e90a 1a3e 9fa9 a13e d3a7 243e
000000d0: 5a29 79a9 8c1f 533e 2166 0600 c947 0100
000000e0: d7b1 94ab d27b ff3c 1f09 4c3e c293 4b3d
000000f0: 96e8 8d3e 9bd6 62bd fc50 e3b9 ac96 13be
00000100: 0c67 213e 0b22 70ba b82a 01bc a31a 0600
00000110: 4932 e73d 5d0a fd3d adff 0300 a285 8e3e
00000120: f4f2 cdbd 5c36 83bd 3338 bcad 7076 f0bb
00000130: 7104 af3c 382c fd3d d694 f73d 5948 943e
00000140: 4912 6b3e 1e1f ccbd b651 a73d e3e3 5cb9
00000150: e0c2 f9ba 00bc 80bb c75d f3ba b32b bdb7
00000160: c16c 16be eecc 46bc 488e 1c98 bb30 0780
00000170: d332 b1b9 4a6b e0bb 4966 643e 94b7 cfbb
00000180: 3a6e 613e 8f6d c6bb 6ee1 c2bb 09c5 2abc
00000190: f9cc 38bc 78ae 3c3e f0dc b43d e20d 3bab
000001a0: f5ac 6a3e 54ed d03d eac3 c8af d75e 8e3d
000001b0: a11f 373d 9b6d 55be e2d9 0a3e 7d18 5e3e
000001c0: 1f0b 1ebb 75b0 023e 9914 0280 86c5 ac3d
000001d0: 48cf 5eb1 f192 eb3d 2efe 9bbd 3da7 4bbe
000001e0: b395 96bb 250f 8cba 6d65 0080 4da9 203e
000001f0: ab95 8a3e c697 9a3d beec c7ba 73bc c1bb
-0.016680649 0.0038512142 0.20603363 -0.12279223 0.007967828 0.17302349 0.013463589 0.11387687
6.15e-43 -8.0993875e-12 -0.0007075145 2.09559e-40 0.2085568 4.5549e-40 -2.5992314e-24 -3.58147e-40
0.21803017 0.17316796 -0.0009968508 0.119988 -0.013073458 -1.5366239e-12 1.33193e-40 0.11797946
-0.05647049 0.22875343 0.15592611 0.05962644 -0.33298963 -3.3159566e-05 -0.12077121 0.20630184
-0.00042444316 -0.051113296 0.09142139 0.26657078 0.067125 0.14418155 0.08617852 0.015466914
-0.0035882955 0.10484242 -0.00022605289 0.26629084 0.021075506 -0.000113206035 0.009801339 1.3484851e-33
0.12990117 0.15043224 0.31574723 0.16079645 -5.5324973e-14 0.20617503 5.8765e-40 1.17587e-40
-1.0565393e-12 0.031186972 0.19925354 0.04970146 0.2771651 -0.055380445 -0.00043357152 -0.14412946
0.15761966 -0.0009160346 -0.00788372 5.60568e-40 0.11288888 0.12355492 3.67226e-40 0.2783633
-0.10056105 -0.064068526 -2.1398083e-11 -0.0073383376 0.021364423 0.1236195 0.12088935 0.28961447
0.22956194 -0.09966873 0.08169882 -0.0002106573 -0.001905527 -0.0039286613 -0.0018567377 -2.2550905e-05
-0.14689924 -0.01213382 -2.0234361e-24 -6.6033e-40 -0.00033797938 -0.0068487274 0.22304644 -0.006339023
0.22014704 -0.006055541 -0.0059472835 -0.010422953 -0.011279338 0.1842593 0.08831203 -6.645501e-13
0.2291754 0.10201517 -3.6518993e-10 0.06951683 0.044707898 -0.20842592 0.13559678 0.21689029
-0.0024115515 0.12762626 -1.9106e-40 0.08436112 -3.2423078e-09 0.11502636 -0.0761684 -0.19888015
-0.0045954823 -0.0010685666 -3.6385e-41 0.15689583 0.27067313 0.0754848 -0.001525305 -0.0059123575

layers.2.weight f4 [128, 128]
00000000: 1496 0280 5327 d291 f58b 848e db31 0300
00000010: beca 0780 6bbd 0180 246d 0880 d300 0080
00000020: 940e 0a00 74db 0780 aaa1 0680 0b94 0a80
00000030: 06be 0300 945c 0500 4a64 0a00 7b83 0200
00000040: 2a10 0300 ad9f 0200 117a 0880 93e0 0680
00000050: b0dd 0380 c319 0380 48fb 0300 d23a 0700
00000060: db80 ca9c 3d6a 0700 4f66 0380 6a3a 0380
00000070: f566 0800 2e51 0a00 d000 0480 a41f 0500
00000080: 57c5 0500 372c 0180 e001 0880 c6f7 4188
00000090: 6829 0200 1c34 0800 643f 0680 116f 0600
000000a0: c2e7 0500 ccba 0400 844a 0100 bc8f 0380
000000b0: f4e1 0480 029a 0580 25f8 0580 6bca 0a80
000000c0: 9077 0580 b93a 0700 db5a 0280 984e 0480
000000d0: 83ab 0a80 1448 0280 bb6c 0480 7474 0200
000000e0: a13b 0800 390f 0480 ff51 0500 6cfd 0580
000000f0: c061 0600 ae60 0600 749c 0600 e074 0100
00000100: 3d25 0880 e2d1 0600 ee1a 0380 ec8a 0400
00000110: 2d2e 0680 7d1e 0180 2d44 0180 f67d 0400
00000120: 0aab 0280 ead1 0300 16d2 0980 541c 0300
00000130: 1e17 0400 7c86 0180 c3fe 0400 c6a2 0600
00000140: 512c 0600 03ff 0380 031f 0700 30a4 0900
00000150: fa37 0980 267c 0a00 749b 0800 be65 0700
00000160: a529 0680 6c8f 0a00 6237 0280 3fbb 0700
00000170: 3c88 0600 3dad 0980 dae6 0580 5eb1 0380
00000180: af62 0100 76b3 0680 0b00 0a00 69c7 0700
00000190: 3fb2 0900 f373 0280 711a 088a 1206 0400
000001a0: 5865 0680 72f9 0100 d2aa 0000 681b 0800
000001b0: 9119 0180 1462 0500 f44d 0380 e5c6 0680
000001c0: 3c78 0780 219c 0080 0501 0400 35c6 0680
000001d0: d6ad 0980 ab4f 0900 5cff 0600 aa57 0800
000001e0: 62ca 0400 cc9d 0880 5185 0700 2b35 0200
000001f0: a784 0580 087e 0780 00f5 0a80 f4f1 0480
00000200: 2343 8dba 35d4 88bb a0e3 9eba 0bb2 333a
00000210: 453f 38ba f317 0bbb c40a 2eba a2f6 3bba
00000220: 9c17 0b80 e475 0100 d81e 0a80 c23c 0000
00000230: 1d08 b5ba 940e 0400 ab7e 0280 f809 0a00
00000240: 0053 88bb 8f65 26ba d7ee 0980 8052 ecb9
00000250: 2cbd fcb9 e6f3 0580 cce3 0180 1dc9 1bba
00000260: b2a7 c5b9 0680 82b7 3c7d 4137 e919 ecb6
00000270: 527f a4b5 9b18 0380 ac66 62b6 7f1d 4dba
00000280: 443c 0a80 d547 9cba 9b0c a3ba 4788 b4ba
00000290: 4aa9 d8b7 c9ba 2bb6 282b 8cba c0ba 08ba
000002a0: 647d 0a80 45db 5239 a705 0180 7fe1 e3ba
000002b0: ef1e 2eba 4c71 0900 ced4 e3b9 a963 0900
000002c0: 2142 48ba 9777 42ba dd8e 37ba 15e1 3eb9
000002d0: 0005 0a00 4364 b3ba c50f 0380 82e0 0780
000002e0: b6ee 0280 69f1 34b3 1b14 4cb8 2025 e5ba
000002f0: 961e 12bb c287 acb9 64c1 0880 0b99 42ba
00000300: a587 95b8 79f3 0000 c462 0800 8ec7 0a00
00000310: e2bb 17b5 8dcd 56ba 26db 0300 6a6e 83b9
00000320: 1590 dcba d2d4 c438 5e00 0a80 ff7a 0200
00000330: 4261 333a da8a beba 925a bdba dd1c 84ba
00000340: c606 9aba 54d0 3a39 73ae 3237 595c 0780
00000350: ba38 0a80 9faf 0700 7dfa 0380 a160 0280
00000360: 072e c73a e01c 0480 3180 0980 8cba 0880
00000370: c858 0080 8886 0480 96e7 2bba cf63 0680
00000380: c8dd 84ba 2966 0a80 5664 0880 6649 0380
00000390: 92ca 0300 49f5 f835 cec7 21ba 9ace 0700
000003a0: c006 94ba 9c8d eb37 7108 0680 82b3 32b6
000003b0: f203 19b6 8aef 66ba 995f 8eb8 d80b c7b9
000003c0: 6b65 0600 9350 3bb8 a9a2 0100 b64d 9935
000003d0: 875a 0380 7d5d 6aa9 7c6d 25ba 9bd4 b8b9
000003e0: ba25 0480 345c 0880 c4ed 0980 65ec 7fb8
000003f0: f681 5ab9 2ae2 1fba a5f3 0780 4a5d 0880
-2.37509e-40 -3.3156393e-28 -3.2675286e-30 2.93391e-40 -7.15579e-40 -1.59786e-40 -7.73836e-40 -2.96e-43
9.23585e-40 -7.21573e-40 -6.09007e-40 -9.71463e-40 3.43674e-40 4.92388e-40 9.54332e-40 2.30837e-40
2.81305e-40 2.40952e-40 -7.78473e-40 -6.31575e-40 -3.55033e-40 -2.84748e-40 3.65649e-40 6.63949e-40
-1.3400547e-21 6.8096e-40 -3.12208e-40 -2.96462e-40 7.71618e-40 9.47477e-40 -3.67633e-40 4.70528e-40
5.2997e-40 -1.07697e-40 -7.35357e-40 -5.837008e-34 1.98525e-40 7.53377e-40 -5.73753e-40 5.90856e-40
5.42317e-40 4.34352e-40 1.18567e-40 -3.27069e-40 -4.48399e-40 -5.14425e-40 -5.48195e-40 -9.90969e-40
-5.02068e-40 6.63914e-40 -2.16264e-40 -3.95536e-40 -9.79882e-40 -2.09528e-40 -4.06347e-40 2.25447e-40
7.56075e-40 -3.72803e-40 4.88592e-40 -5.50088e-40 5.86079e-40 5.85695e-40 6.07138e-40 1.33762e-40
-7.48043e-40 6.26305e-40 -2.85167e-40 4.17178e-40 -5.67578e-40 -1.02773e-40 -1.16292e-40 4.12528e-40
-2.45028e-40 3.5081e-40 -9.01884e-40 2.85669e-40 3.75635e-40 -1.4008e-40 4.58733e-40 6.09405e-40
5.66911e-40 -3.66987e-40 6.53973e-40 8.85419e-40 -8.466e-40 9.62891e-40 7.9045e-40 6.79347e-40
-5.65952e-40 9.69805e-40 -2.03539e-40 7.1002e-40 5.99885e-40 -8.88666e-40 -5.41991e-40 -3.39134e-40
1.27236e-40 -6.15391e-40 9.1837e-40 7.14383e-40 8.90462e-40 -2.25266e-40 -6.553135e-33 3.6952e-40
-5.87368e-40 1.8132e-40 6.1279e-41 7.44515e-40 -1.01007e-40 4.94361e-40 -3.03471e-40 -6.22363e-40
-6.8598e-40 -5.6008e-41 3.67708e-40 -6.22116e-40 -8.8888e-40 8.55099e-40 6.42619e-40 7.66132e-40
4.39943e-40 -7.91291e-40 6.90673e-40 2.02744e-40 -5.06764e-40 -6.8806e-40 -1.006244e-39 -4.54138e-40
-0.0010777455 -0.0041756877 -0.0012122281 0.00068548386 -0.0007028471 -0.0021223992 -0.00066391774 -0.0007170235
-1.01866e-39 1.34127e-40 -9.2942e-40 2.1796e-41 -0.0013811622 3.72572e-40 -2.29111e-40 9.21931e-40
-0.004160285 -0.0006347531 -9.12199e-40 -0.00045074895 -0.0004820613 -5.46672e-40 -1.73554e-40 -0.0005942749
-0.0003769971 -1.5556823e-05 1.1532855e-05 -7.0363644e-06 -1.2256007e-06 -2.84333e-40 -3.3736387e-06 -0.00078245247
-9.39974e-40 -0.0011923263 -0.001243967 -0.0013773524 -2.5828038e-05 -2.558971e-06 -0.0010694014 -0.0005215816
-9.63337e-40 0.00020108845 -9.3863e-41 -0.0017385929 -0.00066421827 8.67163e-40 -0.00043455366 8.62271e-40
-0.00076392485 -0.0007418333 -0.0007002184 -0.00018203662 9.20149e-40 -0.0013686497 -2.81164e-40 -7.23387e-40
-2.69304e-40 -4.2129077e-08 -4.8656115e-05 -0.0017482378 -0.0022296063 -0.00032907544 -8.0406e-40 -0.0007423318
-7.1301394e-05 8.7342e-41 7.70114e-40 9.89942e-40 -5.652529e-07 -0.00081940816 3.54122e-40 -0.00025068532
-0.0016827608 9.385649e-05 -9.18487e-40 2.27794e-40 0.00068428006 -0.0014537231 -0.0014446548 -0.0010079403
-0.0011751286 0.0001781595 1.0650244e-05 -6.75977e-40 -9.38705e-40 7.0585e-40 -3.65365e-40 -2.18335e-40
0.0015196212 -3.777e-40 -8.72506e-40 -8.01604e-40 -3.1849e-41 -4.15603e-40 -0.00065576413 -5.86818e-40
-0.0010136897 -9.55003e-40 -7.70678e-40 -3.01837e-40 3.48175e-40 1.8548827e-06 -0.0006171436 7.16963e-40
-0.0011293516 2.8080125e-05 -5.54041e-40 -2.6628554e-06 -2.2801073e-06 -0.0008809498 -6.788894e-05 -0.00037965062
5.87395e-40 -4.4659315e-05 1.50187e-40 1.1422005e-06 -3.07982e-40 -5.2039526e-14 -0.0006310565 -0.00035253618
-3.80876e-40 -7.6776e-40 -9.11814e-40 -6.1016897e-05 -0.00020838514 -0.000609907 -7.30252e-40 -7.6815e-40

layers.2.bias f4 [128]
00000000: 9626 0000 c9d7 0db4 3a04 0080 42a8 f7bb
00000010: 76b2 c53d c62e c58d 9075 0fbe 761a 4a3e
00000020: fcb9 f33d c113 0ebc 190a cabd e880 f0bc
00000030: 0f09 f6bd 981b 543e 89a7 c7bd 58a1 faba
00000040: ba57 5bbb 2d1f 8fbe 1313 503e 4a59 c0be
00000050: 28ca 9da6 59e0 f7be 37c7 2fbd 1175 2f3e
00000060: be34 0480 6f09 0180 08ae c5bc b6aa c83e
00000070: d73b 1ab8 8106 8e3e 011e 09bf 0e48 38b5
00000080: 8c9d 0200 9375 18b8 a9ef 3abc c245 043e
00000090: 5f0c 2dbc 942e d5ac 78bd 0600 1a5f 41bc
000000a0: d751 78bb 02b5 793e 38bd 90ba 8c9b 3baf
000000b0: f441 0200 c13e 2bbd 945c b8b6 7fe7 49ba
000000c0: c8d4 e83e 4e8e 02be df27 20bb 6196 7cb9
000000d0: 009e 12bf 7840 41bc f21a acb4 30ee a3bb
000000e0: 840d 0900 fdd4 d39e 810c 0080 1201 0980
000000f0: 2fc8 0b3d 65c0 bdbd 2308 b6ba 4c4a 573d
00000100: a1a3 8ebe efc9 f19d 7ec8 16bd 637f dabe
00000110: ae05 9527 9db6 0680 90d5 9cbc 3747 0380
00000120: 8985 8aaa f509 cf84 8eb4 5991 f3d0 399e
00000130: c48e 0300 f123 9c8e 469a 0500 4a13 e8bb
00000140: 95f2 663e df2d 603d 45ac e7bb b250 0100
00000150: 4bec 0200 d276 0080 183c 6c3d 0608 ba3d
00000160: 31bd a2b6 beb9 de3d 9a95 e1b1 7367 7a3d
00000170: 8dbf e1a0 8ff0 773e f303 0bbe 73ca ab90
00000180: 9093 42be 6076 a9bd bae7 0280 3ef8 8dbd
00000190: f50e 0600 5000 303e 6a43 8bbd 2950 18be
000001a0: 795f 5c3e c939 0880 9492 0580 4f8d 0780
000001b0: 4331 863d 1c57 d2bb 7e0e 1d3e 6172 7cad
000001c0: 43cc 0380 f3da a5a6 df09 62be 297b 873e
000001d0: f394 b6a2 b9d4 0b3e 6025 853e 079c 39bd
000001e0: a4b3 8dbb 96f7 36be a097 7fbd 6d79 0700
000001f0: 3942 0100 1db9 0200 4040 3e3d 61fb f23d
1.3842e-41 -1.321015e-07 -1.516e-42 -0.0075578997 0.09653179 -1.2152323e-30 -0.1400969 0.19736657
0.11900708 -0.008671702 -0.09865207 -0.029358342 -0.120134465 0.20713651 -0.09748752 -0.001912157
-0.0033469037 -0.27953473 0.20319776 -0.37568122 -1.0948858e-15 -0.4841335 -0.042914595 0.17134501
-3.86262e-40 -9.522e-41 -0.024130836 0.39192742 -3.677219e-05 0.27739337 -0.5356141 -6.8650195e-07
2.40188e-40 -3.6349124e-05 -0.0114096785 0.12917235 -0.0105620315 -6.0589953e-12 6.18982e-40 -0.011802459
-0.0037890577 0.24385455 -0.001104272 -1.7062812e-10 2.0733e-40 -0.041807894 -5.494405e-06 -0.0007702037
0.4547484 -0.12749597 -0.0024437828 -0.00024088613 -0.5727234 -0.011795156 -3.2057102e-07 -0.0050027594
8.31368e-40 -2.2428584e-20 -4.486e-42 -8.26903e-40 0.034126457 -0.09265212 -0.0013887923 0.05256109
-0.27859214 -6.4000963e-21 -0.036812298 -0.42675313 4.1361966e-15 -6.16522e-40 -0.019144803 -3.01054e-40
-2.4606383e-13 -4.867461e-36 -1.7173919e-28 -9.837028e-21 3.26721e-40 -3.849158e-30 5.1452e-40 -0.0070823776
0.22553475 0.054731246 -0.0070700967 1.20784e-40 2.68437e-40 -4.2625e-41 0.057674497 0.090835616
-4.850001e-06 0.10875271 -6.5653696e-09 0.061133813 -3.824324e-19 0.2421286 -0.13575725 -6.775953e-29
-0.19001603 -0.08274531 -2.66799e-40 -0.06932114 5.56379e-40 0.17187619 -0.067999676 -0.14874329
0.21520795 -7.55413e-40 -5.1176e-40 -6.9354e-40 0.06552365 -0.0064190757 0.1533756 -1.4349939e-11
-3.48782e-40 -1.1508521e-15 -0.22074078 0.2646115 -4.9488905e-18 0.13655366 0.26005077 -0.045314815
-0.0043243933 -0.17867884 -0.06240046 6.86408e-40 1.15592e-40 2.50077e-40 0.046447992 0.11864353

layers.3.weight f4 [988, 128]
00000000: 9397 0080 6f60 7bbb b0c4 8ab3 4821 0ebd
00000010: 52fa 2abd 0a30 7338 5320 84bf 94c4 69bf
00000020: b682 443e ff34 002f 2f13 33bf bf44 9bbe
00000030: d631 9cbe fc48 a7ad f068 7cbe a1e2 0d3c
00000040: 9bc6 dbbb 3b78 67af 024a 2fbe 448b 7ebe
00000050: 667a 9bb7 009a 229d 4646 663d 6935 ccbe
00000060: deda 0300 09b5 02b0 df47 28be 92e7 fbbe
00000070: b56d fabb afa9 f1be 0eff 293d 73a6 393b
00000080: 1dfd 0180 0f14 49bb b857 d1bc 62ee dabe
00000090: c2ae 75bc a735 a0b9 b621 b3b8 6d74 b1bc
000000a0: 8311 31bf f318 4bbf 42c6 c93b f939 0ab8
000000b0: 4942 0700 0993 81be ed5f d8bb 03fd 873b
000000c0: 1e58 443c ae1c ef3c ff68 0ebd 356e 8ab9
000000d0: ffbc 1cbf c248 b4bc a1d4 04b3 8181 863b
000000e0: 546b 0700 ef50 3fb9 2d13 3aa8 b951 0600
000000f0: 8b1a 37bf b3fe bcbe a185 013c eb85 6abf
00000100: f631 08af c44e 703a 4abd a6be 4efd b8be
00000110: b0ca feba 140a 2a2f 0c7b f2be d767 0500
00000120: 849b 66ba 974e c2b6 5545 a1a5 ce39 802d
00000130: 8657 5938 a3c0 86b8 ec9f 0300 0992 12bc
00000140: 9ab1 08bf 7414 0dbf 2218 69bc 6f95 0700
00000150: 1690 372f 4574 fc35 9143 92bf 1731 1abe
00000160: 09f1 0780 4ef8 babe a5d3 583a 09e6 b4be
00000170: c6be 0339 c020 94be c8f4 d8bc 1aed c934
00000180: ddd9 30bf 4961 a4bf d595 2f88 f5aa 4bbf
00000190: bc2c 0500 29bb afbe 0181 c9be a783 88bb
000001a0: cf5d 85be b2b7 7c1d d958 8bba f06a 1532
000001b0: 28e1 6dbb 63c6 683a b056 c3be 4c16 163b
000001c0: a375 26ad 8988 cab4 7ae4 ffbc 5ece 2dbf
000001d0: c959 aa38 5f0f fbbd 4996 16bf 5f99 64bf
000001e0: acf0 413c 6210 14bf 22fe c5be 1e38 0480
000001f0: b5b0 9389 adf7 6ab1 2caa e9be 7f5e 01bf
00000200: e322 0100 e5e0 95b9 2edd 87b9 12ad f8bb
00000210: 7a54 c7be 79df 31ba ac6c 94bb 2d68 19bf
00000220: 36ac febe 96dc 063b 9522 45bd d783 e0be
00000230: 1a21 943d 26ca 6bbe ce49 ebbe 6c8c 5f3a
00000240: 4ffb 9c3b 11c9 9c3e 3dc2 19bf 84a6 b3bc
00000250: 399b ec3a 7d8e 093f 9426 093d 4cdb 38bf
00000260: cb24 4a36 2909 1b39 5d76 bcbe c775 edbe
00000270: 5ef6 8f3a baa2 dfbe ac7b f43e 6ced a5bb
00000280: acbd 4d20 5041 813b 43c2 3ebb c5f2 ffbe
00000290: 8967 b33b d6d3 e83b cae0 633b 691c a0bb
000002a0: 6e04 403d a4c0 f9be 5526 e33b 3ae3 97bb
000002b0: 1e21 0ca9 741c 01be 94af 0fbc 5dfe 483b
000002c0: 014a 9ebf c32c 9fbd 3bf4 583c 0201 0dbc
000002d0: 05d4 a6be 6875 acbb 2657 c2b6 945a 92bb
000002e0: 802b 1236 be30 8c3b d6a7 2fba 0eb2 7f24
000002f0: 9941 bdbc d955 8fbe 1167 c43b abbb 05bf
00000300: 3711 ef3d c601 28bb df08 0dbe 836d c5ba
00000310: 1622 a93a 4d37 89b8 2f84 22be 0919 cbb6
00000320: 582b eb3b 4aa9 94bb 2749 a53b 0b25 47b5
00000330: fc59 47b8 ee36 083b 972d b3b4 ae45 093c
00000340: e43d 11bf 5286 44be 98c6 9f3b a419 05a4
00000350: a02b 9eb9 46d5 a53a 0d9d 97be b228 c6be
00000360: b602 743b 26bc babe f574 863b 167a 09bf
00000370: 8f22 22bb 4d25 05bf 6086 c4bd b7b9 15b9
00000380: dac6 0e3e 71a1 2dbe 4380 a3b2 1b79 20bc
00000390: 8788 2ba3 2436 dfbe fbcf 8fbe 6493 d2bd
000003a0: 60a0 d2be ad87 94ab 3d46 9239 f6b6 07b9
000003b0: 6161 66be e4ba f2bb ee86 aabe b772 9c39
000003c0: c54d 03b9 172e 90b9 e9a5 013f a7a7 49bf
000003d0: d288 793b 1946 e1be 543f 39bf ce77 74be
000003e0: 23d9 08bb 09e8 22be c664 f4bd 299c 0400
000003f0: 39a3 9234 abe4 0b38 924c debe 3e6c 81be
-5.4375e-41 -0.003835704 -6.461903e-08 -0.03469971 -0.04174263 5.7980455e-05 -1.0322365 -0.9131558
0.19190487 1.166036e-10 -0.69951147 -0.30325887 -0.30506772 -1.9018113e-11 -0.24649405 0.00865999
-0.006707025 -2.1052042e-10 -0.17118075 -0.24857813 -1.8534436e-05 -2.1520138e-21 0.05621936 -0.398845
3.54021e-40 -4.755099e-10 -0.16433667 -0.49200112 -0.0076424726 -0.4719977 0.041503005 0.0028327971
-1.82635e-40 -0.0030682122 -0.025554523 -0.42759997 -0.014995279 -0.00030557552 -8.541664e-05 -0.021661961
-0.69167346 -0.79334944 0.0061576674 -3.2955755e-05 6.66627e-40 -0.2530749 -0.006603232 0.0041500344
0.011983899 0.02918848 -0.0347681 -0.00026403522 -0.61225885 -0.02200735 -3.092703e-08 0.0041047935
6.8135e-40 -0.0001824533 -1.0329232e-14 5.8033e-40 -0.71524876 -0.3691307 0.007905395 -0.9161059
-1.2386878e-10 0.00091670104 -0.3256629 -0.36130756 -0.0019439068 1.546499e-10 -0.47359502 4.96428e-40
-0.00087969773 -5.7907996e-06 -2.797603e-16 1.4577586e-11 5.1818344e-05 -6.425499e-05 3.32876e-40 -0.00894595
-0.53396 -0.55109334 -0.014226945 6.96455e-40 1.6694943e-10 1.8809302e-06 -1.142687 -0.15057789
-7.29316e-40 -0.36517566 0.00082712836 -0.35331753 0.00012564202 -0.28931236 -0.026483908 3.7611682e-07
-0.69082433 -1.2842189 -5.2838274e-34 -0.79557735 4.75225e-40 -0.3432248 -0.39356235 -0.004166085
-0.26048133 3.344689e-21 -0.0010631337 8.697256e-09 -0.0036297534 0.00088796596 -0.38152075 0.0022901474
-9.462128e-12 -3.7724774e-07 -0.031236876 -0.67893016 8.1229555e-05 -0.12258791 -0.58823067 -0.89296526
0.011837166 -0.578375 -0.3867045 -3.87473e-40 -3.5555137e-33 -3.419227e-09 -0.45637643 -0.50534815
1.0435e-40 -0.00028587054 -0.00025913998 -0.007588991 -0.38931638 -0.0006785314 -0.0045295563 -0.59924585
-0.49740762 0.0020578257 -0.048128683 -0.43850586 0.07232876 -0.23026332 -0.45954746 0.00085276994
0.0047907005 0.30622151 -0.6006201 -0.021929987 0.0018051631 0.53733045 0.033484057 -0.7220962
3.0121762e-06 0.00014785364 -0.36809054 -0.4637892 0.0010983457 -0.43678838 0.47750604 -0.0050637033
1.7426933e-19 0.0039445534 -0.0029107488 -0.49989906 0.005474989 0.007105331 0.0034771436 -0.0048861993
0.046879224 -0.48779786 0.00693206 -0.004635242 -3.111497e-14 -0.1260851 -0.008769888 0.003066919
-1.2366334 -0.077722095 0.013241823 -0.008606197 -0.32583633 -0.0052630194 -5.791796e-06 -0.004466364
2.1781016e-06 0.0042782715 -0.000670073 5.544513e-17 -0.023102568 -0.27995184 0.005993732 -0.52239484
0.11673205 -0.0025635823 -0.13772915 -0.0015062544 0.0012903835 -6.54297e-05 -0.15870737 -6.052786e-06
0.007176798 -0.0045367824 0.005044121 -7.418718e-07 -4.75291e-05 0.0020784694 -3.337452e-07 0.008378429
-0.5673506 -0.19191864 0.004875969 -2.8861496e-17 -0.00030168612 0.0012652061 -0.29612008 -0.38702923
0.003723306 -0.3647167 0.004103298 -0.53701913 -0.0024739837 -0.5201004 -0.095959425 -0.00014278931
0.13943043 -0.16956116 -1.9034024e-08 -0.009794499 -9.298839e-18 -0.43595994 -0.28088364 -0.10282019
-0.4113798 -1.055369e-12 0.00027899622 -0.00012942762 -0.22498085 -0.007407533 -0.33306068 0.00029840108
-0.00012522105 -0.0002750016 0.50643784 -0.7877144 0.0038075936 -0.43998793 -0.72362256 -0.23873827
-0.0020881377 -0.15908827 -0.119332835 4.23362e-40 2.731338e-07 3.3353146e-05 -0.43417794 -0.25277895

layers.3.bias f4 [988]
00000000: ca77 0cbf 38ff bfbf 3225 11be 6a91 e3bd
00000010: c7dc 4abe 02f4 afbe 1adc b0be d01d 71bd
00000020: 91b7 3b3d 35f6 c1bd 8f27 a7be eb0d edbe
00000030: ab9c bfbc 352e 86be c413 9abe 5bb7 02bd
00000040: b7b4 c4be 217a 06bf 73c7 16be 76ab aabe
00000050: 4501 89be 4d86 abbe 2e9f 8cbe 26f7 2dbe
00000060: 66b6 afbe 332f 2abd 0644 3a3d 55b7 2dbe
00000070: 0205 f6be 1b03 a3be 71dd a2be 56c7 42be
00000080: b01d 71bd 0bc3 60be 12de 93be 9af0 69be
00000090: 5080 e0bd 8d4a b2bd 6aca 1fbd ff6e 8ebd
000000a0: ed4a d2bd b52e 7abd 5aea 43be 54a6 e9be
000000b0: 6337 e6bc 55e3 94bd 0652 9dbe bc67 e7bd
000000c0: 3212 19bf 6695 933d 30ae 503c a4e8 26be
000000d0: b843 38be 4d9b 8dbe 84cb fbbc 07c3 2bbe
000000e0: 2c92 7fbe 575d 933d 3b9a fdbd 37ad 91bd
000000f0: 49e7 d6bd 2016 b2bd 2855 58be 0c4b 9bbe
00000100: 622a a4be ca27 21bc fef3 42be 1df2 aabd
00000110: 4223 3dbe f7eb f7bd 1068 b2bd 3917 5fbd
00000120: 2196 d1bd de25 e8bd f90a 66be ae58 5fbd
00000130: e7ed 30be 9831 79bd 9bd4 11be f753 eabe
00000140: 5185 e1be e471 bbbd 6b08 20bd 4b2c c2bd
00000150: 1119 463d 31e6 cabd 0ea8 87bd 4d92 cabe
00000160: 0038 d2be 3b31 0e3e c4e8 02be 83b0 abbd
00000170: a2f5 90be f97d 02be 4533 80be 78e8 18bc
00000180: cb49 76bd c2f4 b3bc c114 42be a844 56be
00000190: 85af 9fbd 4698 00bf c01f 45bd b9cb f0be
000001a0: 0a7f fabe c9cb a63c fa2a 0abe 8da9 84be
000001b0: 9fa4 85be 39e6 19be 1a2e febd 714e 31be
000001c0: 513a 35bd 1244 f6bd fd29 46be 679d 64be
000001d0: 3c7b b4bd b98f e2bd a7f8 f3bd aefe 2dbe
000001e0: d90a 31bd 6b48 e7bd 94c1 6fbe beab 0ebe
000001f0: 263b dfbe bd36 94bd a336 8bbe 98a4 c9bd
00000200: 9d1b 00be 991b 44be f3bd 3bbe 4c0a 61be
00000210: 21cb f3bd 280d 173e b81d 08be 0dae 2cbe
00000220: 0e0e ecbd 534f 07be 9df8 8dbe 5f6e 2dbe
00000230: 51ca 55be 52b0 69be 87af b0be 7131 65be
00000240: 7e8c 1fbe 29d6 e4bd 22ba 1dbf 596c ebbd
00000250: 1833 04be 7975 ebbd 6aad ccbd 72a7 0a3c
00000260: fb99 54be 15db 763c 004e b8be 83a9 9ebe
00000270: d88e 13be dd2a 58be 0fd1 dfbd e834 02bd
00000280: a7ed 59be 5506 67be 1dc4 57be d1b9 b2bd
00000290: 87e5 52be 1fb3 eebd f7ab e3bd 65e3 e4bd
000002a0: 6768 fdbd 5ce3 d5bd 8cdc eabd 4697 a7bc
000002b0: c56e ecbd 0c07 87bd 2f72 e9bd 0907 4ebe
000002c0: c91f d4bd 494d c3be 5c93 77be 5f95 a6bd
000002d0: c560 b3bd 329c 3bbe bea5 6ebe fc34 24be
000002e0: 6f28 dabd 3efb dcbd 004c 6ebe c48e 58be
000002f0: fc26 7cbe 7ae2 fcbd 5a51 70be 3326 f9bd
00000300: 7f81 41be f5b3 54be 93f8 b1bd 0dfd 6cbd
00000310: dd81 9fbe a395 0bbe ab49 acbd 43e7 dbbd
00000320: 0671 97bd 2036 32be 406e a9bd 9178 73bd
00000330: f166 c9bd 4deb 1ebe 6a2d 85be 8eae 45be
00000340: f728 04bc 15e7 70be d5c5 a3bd e020 70bd
00000350: b83e d2bd 0c86 d6bd dc44 afbe 33bf f1bd
00000360: a7c2 8fbe 0100 bfbd d680 60bd 2fe7 e3bd
00000370: 1cfe e2bd eafb 25be 48a3 3dbd 2174 64be
00000380: 26fc b8bc 7d9b 7abd d5f7 5ebe d7fe eabd
00000390: fccb c6bb e47c f3bd 75e4 01be df37 1cbd
000003a0: 770f e4bd 00ae 5bbd d2b3 4fbe 482b 44bd
000003b0: ab60 20be db1a 08be 52be 89be 6d45 2dbd
000003c0: a9dd 00be 5109 efbd e34a 94bd 0d0e 27be
000003d0: 5258 cebd 23d9 d7bd 24b2 e5bd f29c a5bd
000003e0: 6e0a 0bbe bbde 493c aac5 63bd 8060 c2bd
000003f0: 65f8 c23c bb58 2d3c d933 3abe e842 2cbe
-0.54870284 -1.4999762 -0.14174345 -0.1111172 -0.19810782 -0.3436585 -0.34542924 -0.058866322
0.04582936 -0.094707884 -0.32647368 -0.4629968 -0.023390135 -0.26207128 -0.30093205 -0.031913143
-0.38419124 -0.52530104 -0.14724521 -0.3333394 -0.2675878 -0.335009 -0.27465194 -0.16988811
-0.34318846 -0.04154892 0.04547503 -0.16964467 -0.48050696 -0.31838307 -0.3180957 -0.19021353
-0.058866203 -0.21949403 -0.28880364 -0.22845688 -0.10961974 -0.08705626 -0.039011396 -0.069547646
-0.10268197 -0.0610797 -0.19132367 -0.4563471 -0.028102582 -0.07269923 -0.3072664 -0.11299083
-0.5979339 0.0720623 0.012736842 -0.16299683 -0.17994583 -0.27657548 -0.030736692 -0.16773616
-0.24958104 0.071955375 -0.12382933 -0.07113116 -0.10493333 -0.08695626 -0.21126235 -0.30330694
-0.32063586 -0.009836147 -0.19038388 -0.08346961 -0.18470481 -0.121055536 -0.087112546 -0.054465506
-0.10233713 -0.113353476 -0.22465123 -0.05452793 -0.17278253 -0.060838312 -0.14241259 -0.45767185
-0.44047025 -0.09152582 -0.039070528 -0.094811045 0.04836375 -0.09907187 -0.06623851 -0.39564744
-0.4105835 0.13885967 -0.12784106 -0.08383276 -0.28312403 -0.12743367 -0.25039116 -0.009332769
-0.06012897 -0.021967296 -0.1895323 -0.20924628 -0.077971496 -0.5023235 -0.048125982 -0.47030428
-0.48925048 0.020360844 -0.13492957 -0.25910607 -0.26102158 -0.15029229 -0.12411137 -0.1731508
-0.044245068 -0.12024702 -0.19351955 -0.22325669 -0.088125676 -0.11062569 -0.11912661 -0.16991684
-0.043223236 -0.112931095 -0.23413688 -0.13932702 -0.43599814 -0.07237003 -0.27190122 -0.09845847
-0.12510534 -0.19151153 -0.18334179 -0.21976584 -0.11903978 0.14751112 -0.13292587 -0.1686327
-0.11526118 -0.13213854 -0.2772874 -0.16936634 -0.20877959 -0.22821167 -0.34508917 -0.22382142
-0.15580937 -0.1117366 -0.6161214 -0.11495275 -0.12910116 -0.114970155 -0.099940136 0.008462774
-0.20761864 0.015066882 -0.3599701 -0.30988702 -0.1440996 -0.21110101 -0.10928547 -0.031788737
-0.21282063 -0.22561009 -0.21070905 -0.08726848 -0.2059537 -0.116552584 -0.11116784 -0.111761846
-0.12373429 -0.10443756 -0.11467847 -0.020457875 -0.11544565 -0.06593141 -0.11398732 -0.20119871
-0.10357625 -0.381449 -0.24177307 -0.08133959 -0.08758692 -0.18321303 -0.23305413 -0.16035837
-0.10652243 -0.10790108 -0.23271179 -0.21148211 -0.24624246 -0.123478845 -0.23468533 -0.12165489
-0.18897055 -0.20771773 -0.0868999 -0.057858516 -0.31153765 -0.136313 -0.084124885 -0.10737469
-0.073946044 -0.1740346 -0.08272982 -0.059441153 -0.09834088 -0.15519448 -0.2601121 -0.19304869
-0.008066407 -0.23525651 -0.07996718 -0.058625102 -0.10265869 -0.10474786 -0.34232223 -0.118040465
-0.28078195 -0.093261726 -0.054810368 -0.11128079 -0.11083624 -0.16209379 -0.046298295 -0.22309925
-0.022581171 -0.06118344 -0.21774228 -0.11474388 -0.0060667973 -0.11889055 -0.12684806 -0.03813922
-0.11135762 -0.053632736 -0.2028344 -0.04789284 -0.15661876 -0.13291495 -0.26903015 -0.042302538
-0.12584557 -0.11671699 -0.07240846 -0.16313954 -0.100754395 -0.105394624 -0.11215618 -0.080865756
-0.13578197 0.0123211695 -0.05560843 -0.09491062 0.023800084 0.010580237 -0.18183841 -0.16822398
