models/MPC_horizon_6_obs_6.pt (torch_old, 273212 bytes, 8 tensors)

layers.0.weight f4 [128, 38]
000000 a9 c6 0b bf ec 73 1c bd 92 68 c1 bf b3 3d 53 3e
       -0.54600006 -0.03819649 -1.5110037 0.20629005
000010 5e 46 fc bd c0 79 8d 3d fe 2d a8 3c ea fa f8 bd
       -0.12318109 0.069079876 0.020529743 -0.12157233
000020 88 78 f6 3d 4a 41 23 bd 71 81 27 3e da 12 a2 bb
       0.12034708 -0.039857186 0.16357972 -0.004946095
000030 1a ee 43 3e ea 46 37 3e 60 95 bd bd cd 92 c0 bd
       0.19133797 0.17898145 -0.09257007 -0.09403
000040 29 c6 23 3e 82 61 2d 3e 38 be e9 bd 92 65 4e bc
       0.15993561 0.16931728 -0.114132345 -0.012597458
000050 83 04 bf bb 3a fd cd 3b e6 64 49 3e 7a 89 1a 3e
       -0.0058293953 0.0062862905 0.19667396 0.15091506
000060 d0 31 2a 3d 80 ac 76 3d 8a 90 0d 3d e0 42 a9 3c
       0.04155141 0.060223103 0.03456167 0.020661771
000070 00 2e b0 bd f7 25 de bd 77 c4 ea 3d 4c dc 06 3e
       -0.08602524 -0.10847085 0.11463254 0.13169974
000080 a5 03 8d 3f 84 9f b5 be 80 1d 1c 3f 2a 7e 64 bf
       1.1016737 -0.35473263 0.60982513 -0.8925501
000090 a8 f7 f7 3c 95 0f 60 bf 4e c2 8d be 66 4f 1d 3e
       0.030269459 -0.87523776 -0.27687305 0.1536232
0000a0 92 ca 80 3f 52 53 14 3f 55 8e db 3d 6e b9 36 be
       1.006182 0.57939637 0.10720507 -0.17844173
0000b0 28 43 d0 3e 13 65 f7 be d6 49 07 3e 0c 20 5c bc
       0.40676236 -0.483193 0.1321176 -0.013435375
0000c0 dc d1 bb 3d fd d3 a3 bd 1a 64 d1 3d 74 30 4d bd
       0.09170887 -0.07999418 0.10224171 -0.050095037
0000d0 a6 a1 8c 3d 06 75 03 3d a5 1b 7e 3d 62 3b 8d 3d
       0.068667695 0.032094024 0.062038083 0.06896092
0000e0 87 c1 ce 3b d9 d9 1a be b7 0c 1b bd 1e 6f 49 3d
       0.0063096914 -0.15122165 -0.037853923 0.049178235
0000f0 fd 6b 15 3d 43 6d 87 3d bc 88 99 3d 53 23 bc 3c
       0.03647994 0.06612637 0.07496783 0.022966063
000100 58 18 0d be 13 5c 20 bd 5d c5 0d be b4 1c 7f bd
       -0.13778818 -0.03915031 -0.1384482 -0.062283233
000110 2f 50 a8 3d 67 7b b6 bd f7 55 e1 3e c2 9a af be
       0.08218419 -0.08910256 0.44010898 -0.34297758
000120 a9 c6 80 be af e0 85 be a7 2a d8 3d 39 e0 86 3e
       -0.25151566 -0.26147982 0.1055501 0.26342943
000130 fe 92 a6 bd e9 12 7b bf 78 6f 9c be 57 16 ec bf
       -0.08133505 -0.9807573 -0.30553794 -1.8444318
000140 e9 a9 af 3b f6 c5 61 3a 5c e2 de 3b eb 22 a9 3d
       0.005360831 0.00086125673 0.0068018865 0.08258613
000150 2c 0c 2d 3e e2 31 f5 3d 32 35 11 3e e7 d3 94 bd
       0.16899174 0.11972405 0.14180449 -0.0726698
000160 fa 1a 81 bc 0f 34 e0 bd f7 ed 83 bd ab bf 44 3e
       -0.015759934 -0.109474294 -0.064418726 0.1921374
000170 d8 22 54 3e 7e 19 9a 3d e7 12 48 3e de 4f 41 3e
       0.20716417 0.075243935 0.1953846 0.18878123
000180 0c 06 22 3e 36 fb 27 3e 03 7a b2 bd f5 de b0 bd
       0.15822619 0.16404423 -0.08714678 -0.08636276
000190 6c 47 db bd ef ea 12 3e fd 3c ae bd 57 2e 3e bd
       -0.10706982 0.14347433 -0.08507726 -0.046430912
0001a0 f1 07 c2 3d f5 13 8b bc 9c e1 b7 3d 61 db 11 3e
       0.09474171 -0.01697729 0.089785784 0.14243843
0001b0 f1 01 04 bf c7 3d df 3e 89 ba a1 be 11 4f 99 3e
       -0.5156546 0.4360182 -0.31587628 0.29943135
0001c0 8e ce 85 3f 36 56 3e bf 96 a9 7d 3e ad 68 04 bf
       1.045366 -0.743503 0.24771723 -0.5172222
0001d0 7f 0b 20 3f b2 82 f2 be a4 1e 5d 3c 28 63 11 3e
       0.6251754 -0.47365338 0.013496075 0.14197981
0001e0 87 e9 49 3d 70 ce 4f bd 6a 55 2a 3e 5c e3 0e be
       0.049294975 -0.050733984 0.16634145 -0.13953918
0001f0 32 f8 13 3e 00 30 3b 3d 63 60 12 3d e9 de c0 bc
       0.14450148 0.045700073 0.035736453 -0.023543792
000200 c6 cd eb bd aa d9 95 bd 67 d9 f7 bd 31 c5 0f 3e
       -0.115138575 -0.07316907 -0.12102013 0.14040066
000210 b7 3e 02 3e 53 af c5 3c c0 ea 6b 3d c0 c9 d0 3d
       0.12719236 0.024131453 0.057596922 0.10194731
000220 d2 88 f3 3d 97 fb 14 be 72 70 00 3e 48 d5 2d bd
       0.11891331 -0.14549099 0.12542894 -0.04243973
000230 fb 15 46 bd 17 aa 02 3e df ac 1e bc 24 18 1d 3d
       -0.048360806 0.12760197 -0.00968477 0.0383531
000240 90 d5 cd 3d 73 b1 09 3d 16 45 10 bf 08 5c 04 3f
       0.100504994 0.033616494 -0.56355417 0.5170293
000250 c6 d5 67 be 1b 3c 58 3e 57 f1 7b bd 2f 89 bd 3e
       -0.22640142 0.21116678 -0.061509456 0.37018725
000260 25 bd 3f bc bb a0 b0 bb 3f 93 78 ba 91 81 ef b9
       -0.01170281 -0.0053902543 -0.00094823906 -0.00045682167
000270 e1 0f 55 bc 4b 2e 3d bc ea 47 d6 39 2a 3c a8 38
       -0.013004274 -0.011546682 0.0004087084 8.022071e-05
000280 b1 ea 12 bc 69 36 01 bc 7c 0c 0d bc 4a 0d 6c bb
       -0.008967088 -0.007886508 -0.008608934 -0.0036018663
000290 5d b9 0a bc ca a6 d1 bb 79 de 13 bc 5d 84 08 bc
       -0.008467046 -0.0063980566 -0.00902521 -0.008332339
0002a0 44 52 11 bc cd 8c e1 bb 51 ec 0e bc 3f 29 06 bc
       -0.008869711 -0.00688324 -0.008723334 -0.008188545
0002b0 71 56 e3 b9 e6 59 06 bc 11 40 f1 bb f6 eb 03 bc
       -0.00043361218 -0.008200144 -0.0073623736 -0.008051863
0002c0 72 9c 0d bc 75 dd 7d ba d2 32 ef bb e1 47 0d bc
       -0.0086432565 -0.0009684184 -0.0072997594 -0.008623094
0002d0 09 74 05 bc e6 cc 0a bc 33 5d 10 bc 9c 3d ca bb
       -0.008145341 -0.008471703 -0.008811283 -0.006171895
0002e0 3b 5e 06 bc 95 32 d6 3a 5f 84 de 37 38 81 31 3a
       -0.008201177 0.0016341979 2.6526102e-05 0.0006771269
0002f0 94 2a 17 bb dc e8 a7 bb 2d 12 c7 3e a8 3e b7 bf
       -0.002306615 -0.0051241945 0.38881055 -1.4315996
000300 40 f5 df 3e 27 ae 7c 3d 1d 63 47 ba 10 20 ea bd
       0.43741798 0.061689522 -0.00076060166 -0.11431897
000310 78 78 e6 bd fe 44 28 3b db 82 82 bc ff ae 15 bd
       -0.11253446 0.0025675888 -0.015931537 -0.036543842
000320 81 f9 1e be 44 ed 90 3d 82 cb b0 bd d1 5a de 3d
       -0.15524866 0.07076505 -0.08632566 0.108571656
000330 7d 3f c5 bd 3c db f0 bd 81 5f 10 3e d2 f2 79 3d
       -0.0963125 -0.11760566 0.14098932 0.061022587
000340 de 28 99 3d 8d fb 9c 3c 34 d9 1d bd 21 1f c0 3d
       0.07478498 0.019162918 -0.03853722 0.09380937
000350 16 87 d4 bc cf 4a e9 bd 9e 92 1d bd 82 7f 4e 3d
       -0.02594332 -0.11391222 -0.038469903 0.05041457
000360 d6 81 01 bd 9f b6 85 bc 64 20 20 3d fb 3c e6 3d
       -0.03161796 -0.016322432 0.03909339 0.112421
000370 85 f3 a5 3c be c0 bf 3d 25 d6 05 bf 24 1f a7 3e
       0.02025772 0.093629345 -0.52279884 0.32640946
000380 92 51 73 be 13 31 39 3e ac a6 e8 3d 60 52 fe 3e
       -0.23761585 0.18085127 0.11359915 0.49672222
000390 15 f1 a5 be b4 02 03 3f 23 2f 31 40 43 67 0c 3f
       -0.32410493 0.51176 2.768502 0.54845065
0003a0 43 ae 81 bd ee 3b c5 3c 69 01 bf bd af cc 34 3e
       -0.06332066 0.024076428 -0.09326441 0.17656206
0003b0 ca d6 33 bd 30 dd 91 bb 2c 02 77 bd 04 85 c9 3c
       -0.04390601 -0.0044514164 -0.060304806 0.02459956
0003c0 8a c6 07 3e 47 16 40 bd a3 a5 f5 3d 09 45 93 3d
       0.1325933 -0.046896245 0.11994483 0.07190902
0003d0 3a 0c 49 3d b4 54 24 bd 93 d5 ac 3c 32 58 dc 3c
       0.049083926 -0.04011984 0.021097934 0.026897524
0003e0 6c 64 b5 3b 5f e3 ba 3d 5b 09 58 3d 3f 24 06 bd
       0.005535653 0.09125399 0.052743297 -0.03274941
0003f0 1c 25 d1 3c 5c 66 cc 3c 6a 62 d9 3c 4e b2 7a bd
       0.02553039 0.024951153 0.026536185 -0.0612052

layers.0.bias f4 [128]
000000 fc 49 74 3d 3b ce 17 be 8a cd af 3d f4 b0 21 3e
       0.05964087 -0.14824764 0.08584125 0.15790159
000010 df a8 02 bc fc 00 e6 bd 9f c9 94 bc 63 34 ca bb
       -0.007974832 -0.112306565 -0.018162547 -0.0061707958
000020 dc 9b 25 3c 5e eb 41 bd b5 71 3b 3e 98 43 c9 bd
       0.010107961 -0.047343604 0.18305095 -0.098273456
000030 8f 42 fc b6 fe 91 51 b8 63 dd a0 bc 27 a1 06 3e
       -7.5179337e-06 -4.996545e-05 -0.019636815 0.13147412
000040 b1 54 22 bd e4 b4 1a 3e 28 22 79 bc 8a eb 0a 3e
       -0.03963155 0.15108067 -0.015205897 0.13566414
000050 17 b2 14 bb 1e 39 f9 3b d0 28 05 00 08 58 42 bc
       -0.0022689158 0.007605686 4.73818e-40 -0.011861809
000060 dd ae 0a 3e aa a0 e6 bd 02 ee 7e 3c d0 79 81 bb
       0.13543268 -0.11261113 0.015559675 -0.0039512888
000070 c8 0a 4c 3d 21 b6 c8 bd 9c fe b1 bd b6 51 04 97
       0.04981497 -0.09800363 -0.08691141 -4.2754634e-25
000080 88 f8 41 be 0b 7d 19 b9 47 d1 41 bc f2 75 72 bb
       -0.18942463 -0.00014637799 -0.011829681 -0.003699657
000090 ee 5c 80 bd 87 3d 0c b8 4c f1 2e 3e bd 3c 88 3d
       -0.06267725 -3.3435903e-05 0.17084235 0.0665221
0000a0 6c ba 71 3d 6a bf 01 80 ae 50 e3 bd 85 16 c3 3d
       0.059015676 -1.60502e-40 -0.11099373 0.0952578
0000b0 e3 05 64 bd c1 76 e8 bb ea f4 b7 bd e7 81 ff bc
       -0.055669677 -0.0070942347 -0.089822605 -0.031189872
0000c0 7e 1e e1 3d 1a e4 7f bb 3a eb d8 3d 43 38 a7 bd
       0.10992144 -0.0039045871 0.10591741 -0.08165028
0000d0 8e 51 01 80 45 c4 6a bd 9c 4a ed bd 44 25 fd 3d
       -1.21092e-40 -0.057316083 -0.11586496 0.123606235
0000e0 8b 89 2d bc a2 9c b8 bd a6 a2 5b 3c 48 35 1d be
       -0.010591875 -0.0901425 0.013405478 -0.15352356
0000f0 68 c4 96 3d 47 1a 86 b8 53 1d 5b b8 91 50 be 3c
       0.0736168 -6.3945125e-05 -5.224098e-05 0.023231776
000100 d3 3d 3f bc 10 bc ee bd 9f d6 1a be 23 8d 06 3e
       -0.011672455 -0.11656964 -0.15120934 0.13139777
000110 6a 77 08 3d e7 8c 2d 3d e8 21 a4 3d d1 c9 3c bc
       0.033317007 0.042370703 0.080142796 -0.011522726
000120 c5 ec 03 3e 94 dc 08 be 41 e7 e6 3c b0 31 92 bd
       0.12883289 -0.13365394 0.028186442 -0.071383834
000130 a6 58 8b 3d 68 93 12 bb 31 7b 54 3d ac 0b bf 3d
       0.06804018 -0.0022365693 0.051875297 0.09328398
000140 30 8a 8c 8c 87 10 33 3e d7 0c 18 bd 9d b9 a2 bd
       -2.1653584e-31 0.17486773 -0.03712162 -0.07945559
000150 86 50 00 bd be 34 03 00 4a b0 41 bd 6d 14 0b 3e
       -0.031326793 2.94427e-40 -0.047287263 0.1358201
000160 fc a1 24 3e 5f 60 c3 bd d7 80 9c 3c c0 23 52 9f
       0.16077417 -0.09539866 0.019104404 -4.44988e-20
000170 cc d7 f4 bd 40 f0 1d be 7b ee ae 3d cb ea e6 3d
       -0.119552225 -0.1542368 0.0854158 0.11275252
000180 91 b1 6d 9c ba 6b e6 bc c1 6b f1 bb eb 33 3a 3e
       -7.864622e-22 -0.02812754 -0.0073675816 0.18183868
000190 ea b3 2b bb 30 ef d4 3d 14 ff a4 b9 9f 23 f3 bd
       -0.0026199766 0.10397184 -0.00031470566 -0.118720286
0001a0 e9 55 81 bd ba c5 4d 3e 8a 4a b7 a2 fa 50 22 3e
       -0.06315214 0.20094958 -4.968117e-18 0.15851203
0001b0 7e 11 49 bd 6d c7 94 bd 3c be 2d 3e fa d8 79 3d
       -0.049088947 -0.072646 0.169671 0.06099794
0001c0 47 1f 02 00 2b 90 88 bd 9f a1 f3 3d 29 0b 81 3d
       1.94891e-40 -0.06668123 0.11896061 0.06300957
0001d0 34 91 b7 3d 0b e7 94 3d f2 8f f3 ab 61 f9 63 3e
       0.08963242 0.072706304 -1.7306141e-12 0.22263099
0001e0 17 8d 6f b9 9c 84 0f bc 49 a8 77 b2 80 e9 60 8d
       -0.00022845376 -0.008759644 -1.4415556e-08 -6.9306395e-31
0001f0 95 81 43 bb c5 89 1e bb b1 64 c0 bd 6a 75 d9 bb
       -0.0029831876 -0.0024191004 -0.09394205 -0.0066363113

layers.1.weight f4 [128, 128]
000000 ee 1a a7 3b 4b 01 9d 3d 26 00 58 3d 18 54 95 3d
       0.005099646 0.07666262 0.052734517 0.0729143
000010 e2 83 1a 3c 05 c5 39 3d f1 3f 25 be be f7 c7 bd
       0.009430857 0.045353908 -0.16137673 -0.0976405
000020 b1 57 81 3e ce c9 b3 be d4 57 cb bd a0 21 f0 3b
       0.25262216 -0.35114902 -0.09928861 0.007328227
000030 39 d7 ab 3a 1a dd 79 b6 7c 77 1c 3e 8c ed 86 3d
       0.0013110406 -3.723259e-06 0.15279955 0.06588277
000040 6a b8 86 3d 9a db 77 3e 1c 73 ff 3c b0 fb e0 bc
       0.06578143 0.24204865 0.031182818 -0.027463764
000050 b2 7a 04 80 32 c5 6d 3c f3 01 01 00 56 b5 3e 3d
       -4.11357e-40 0.014512347 9.2535e-41 0.046559654
000060 80 4a e5 3c 79 fe 36 3e e8 65 d7 bd 1c e6 ff 39
       0.027989626 0.17870511 -0.10517484 0.00048808835
000070 36 1b 70 3e 5a c9 02 3e 00 39 28 3b 66 11 55 08
       0.2344788 0.12772122 0.002566874 6.411781e-34
000080 e6 a2 9c be b7 3d 01 00 af 06 4a bb 5f 53 a5 bc
       -0.30593032 1.13975e-40 -0.0030826738 -0.020181356
000090 be 0f c2 3c 61 cc ee 34 5f 64 30 3e 2e c6 e2 bd
       0.023689147 4.447966e-07 0.17225789 -0.11072956
0000a0 12 0c 10 bd 1a 44 06 80 0a 3b 2b be 48 db 9c be
       -0.03516776 -5.75443e-40 -0.1672174 -0.30636048
0000b0 31 30 dc 3c 91 06 0e bc bc 7c a9 3d cf 9b 42 bd
       0.026878448 -0.008668558 0.08275744 -0.047511872
0000c0 13 d1 2b bf 9a 4e 41 bb 1f fc 7c 3e 30 af f5 3d
       -0.67115897 -0.0029496313 0.24705552 0.11996305
0000d0 40 06 8c 93 bd 7c 8a bd e9 99 3f 3d 27 98 5d 3e
       -3.534713e-27 -0.06762073 0.04677764 0.21640073
0000e0 6d e2 70 3b e2 2f 70 3e b8 f2 5a 3d 76 ba 23 bd
       0.0036756054 0.23455766 0.05345413 -0.039972745
0000f0 0a a0 1d 3e fd b4 c9 ae ce da 68 b9 ca 92 1e 3e
       0.15393081 -9.172572e-11 -0.00022206755 0.15485683
000100 30 e2 92 bb 67 15 de 3a a4 3f e8 3c 0c 4a b3 3c
       -0.00448253 0.0016943634 0.028350659 0.021885894
000110 1d 6d a4 3d b0 b4 07 3e d1 94 5e be 7d 7f a0 bb
       0.08028624 0.1325252 -0.21736456 -0.0048980103
000120 8b 32 03 bd 23 d6 2b 3d c8 25 a9 3d d5 db d9 3d
       -0.032030623 0.041952264 0.08259159 0.10637633
000130 9a 20 7e 3e 23 83 2a 3e f3 a0 df bd 45 dc 27 3e
       0.24817124 0.16651587 -0.109193705 0.1639262
000140 df a3 c0 a5 d9 c6 fa 3d ba c4 0c bd 30 c5 cf bc
       -3.3417734e-16 0.122449584 -0.0343673 -0.025362581
000150 68 09 ae 3c bd a6 07 80 59 91 9f 3c 1b 7c e3 3c
       0.02124472 -7.02663e-40 0.019478487 0.027769139
000160 7b cf 50 be 82 22 77 3e b5 0d f6 bd d2 f7 07 00
       -0.20391648 0.24134257 -0.12014333 7.3175e-40
000170 5e 40 2c be 55 a9 16 3e 27 2b d5 3d dd 9b 80 bd
       -0.16821429 0.14713033 0.10408621 -0.062797286
000180 02 13 25 26 ec 79 1a 3b c1 89 d7 3d 31 71 19 be
       5.7271635e-16 0.0023571206 0.10524321 -0.14984585
000190 ba 7d 7a bb 57 cb 88 3e 73 fe f7 b6 cd a1 32 3c
       -0.0038221912 0.26717636 -7.3907954e-06 0.010902834
0001a0 e3 4c 48 bd c3 a4 6d 3d 82 d5 68 9a dd db a1 3d
       -0.04890145 0.058018457 -4.8148946e-23 0.07903264
0001b0 e4 7f f8 3d fc 6f dd bd 91 b8 62 be e5 d5 19 bc
       0.12133768 -0.10812375 -0.22140719 -0.009389375
0001c0 a2 10 00 80 6f 3c a9 be 36 40 87 bc b9 1b 93 be
       -5.967e-42 -0.3305392 -0.01651011 -0.28732088
0001d0 4f e0 0c 3d 00 46 22 be 08 83 05 00 93 ff 56 3b
       0.034393605 -0.15847015 5.06183e-40 0.0032806143
0001e0 65 56 1e 3a c9 8d 09 be 70 39 bb b2 93 85 54 99
       0.00060400955 -0.13432993 -2.1795785e-08 -1.0987118e-23
0001f0 76 ac 44 3a 47 bc e3 3a b7 a2 60 3e 5e b0 a4 bb
       0.00075025053 0.0017374837 0.21937071 -0.0050259074
000200 fe 95 70 bc da 37 cf bb 20 7f 55 bc b9 a8 13 bc
       -0.014684198 -0.0063237967 -0.013030797 -0.009012395
000210 bc a7 00 00 ac 7b ec ba 66 f1 fb bb ed f0 a7 bb
       6.0172e-41 -0.0018042228 -0.007688689 -0.005125156
000220 64 8d 10 bc 8d 63 c5 bb 20 59 24 bc 89 f2 1a bc
       -0.008822773 -0.0060238303 -0.010031015 -0.009457239
000230 0c b1 0a 80 1a 52 0b 00 b6 ad 06 bc 7d 0f f7 bb
       -9.81867e-40 1.039643e-39 -0.008220127 -0.007539688
000240 fb 39 37 bc f1 b0 03 bc c9 77 0f bb bf 3c 95 bb
       -0.011183257 -0.008037792 -0.0021891466 -0.0045543606
000250 80 1f 04 80 07 08 1f bc 76 9d 06 00 fb fe e4 bb
       -3.78642e-40 -0.009706504 6.075e-40 -0.006988404
000260 82 8b 25 bc 16 27 10 bc f3 bb d3 ba 7e d6 03 80
       -0.010104062 -0.008798381 -0.0016154036 -3.52452e-40
000270 3f 50 0b bc 6b 95 d6 bb 7a 2d 96 bb b4 34 09 00
       -0.008503019 -0.0065485737 -0.004583058 8.45426e-40
000280 26 e9 16 bc cc 0a 06 80 b2 3e 08 00 10 71 08 bc
       -0.00921086 -5.54886e-40 7.57175e-40 -0.008327737
000290 41 92 ed bb 3c 8e 00 80 40 89 9d bb bc 61 9b ba
       -0.007250101 -5.1024e-41 -0.0048076212 -0.0011854689
0002a0 d3 98 93 bb d4 d3 08 00 77 93 c8 ba 1f 94 5e bc
       -0.004504302 8.10674e-40 -0.0015302737 -0.0135851195
0002b0 e8 3f 94 bb eb 45 02 00 96 b2 39 bc 0b c2 e9 bb
       -0.00452422 2.08753e-40 -0.011334082 -0.0071337274
0002c0 3a 0c 03 bc c0 6e 08 00 71 68 14 bc e4 df 22 bc
       -0.0079985205 7.74414e-40 -0.009058104 -0.009941075
0002d0 fc 52 02 00 d8 e9 06 bc 30 61 22 bc d9 a4 1c bc
       2.1344e-40 -0.008234464 -0.009910867 -0.009560787
0002e0 b6 56 18 bc 09 a7 86 bb 19 86 2f bc d9 82 f8 bb
       -0.009298017 -0.0041092676 -0.010713124 -0.0075839576
0002f0 09 3a 18 bc ae 8e 0a 80 ae 1d 08 80 4b 4b 09 bc
       -0.00929118 -9.69539e-40 -7.45331e-40 -0.008379768
000300 96 5c 06 00 3f 4a 04 bc e7 8c 5e bc c4 90 05 bc
       5.84227e-40 -0.008074342 -0.013583398 -0.008152191
000310 7a a6 c5 bb a8 c5 23 bc 5b dd d9 bb 80 9f 0a 00
       -0.0060318084 -0.009995855 -0.006648702 9.75573e-40
000320 90 6b 02 bc 7d 37 1b bc cd 09 02 bc c8 06 19 bc
       -0.007960215 -0.009473679 -0.007936907 -0.009339996
000330 45 a5 0e bc b3 ce 36 bc db 3b 18 bc ec 12 2c bc
       -0.0087063955 -0.011157679 -0.009291614 -0.010502558
000340 04 d8 06 00 66 fd 0f bc 7d 21 10 bc 1e d9 f3 bb
       6.28505e-40 -0.008788442 -0.008797047 -0.007441654
000350 9a f7 fc bb 76 cf 04 80 50 18 da bb 79 18 22 bc
       -0.007719946 -4.41765e-40 -0.0066557303 -0.00989353
000360 7c 62 d9 bb c0 71 f2 bb 79 cd c3 bb 04 d8 04 00
       -0.0066340547 -0.007398814 -0.005975422 4.44834e-40
000370 88 02 86 bb 72 93 1b bc 41 2c 7c bc c6 9b 03 bc
       -0.004089657 -0.009495603 -0.01539141 -0.008032745
000380 22 96 0a 00 a8 b1 e2 bb 80 8e 10 bc 3e 5b b3 bb
       9.72212e-40 -0.006918151 -0.008823037 -0.0054735234
000390 2c 21 02 00 a0 d9 09 bc e0 06 0b 80 23 31 05 bc
       1.95571e-40 -0.008413702 -1.012657e-39 -0.008129391
0003a0 eb 03 df bb 1c 23 69 bc 40 f4 00 00 a0 d9 c3 bb
       -0.006805887 -0.014229562 8.762e-41 -0.0059768707
0003b0 52 cd 94 bb d6 c4 0a bc 84 83 ea bb bc f2 2b bb
       -0.0045410777 -0.008469781 -0.007156791 -0.002623721
0003c0 12 84 09 00 9a 48 46 bc 20 85 09 bc cf 4c 2d bc
       8.73897e-40 -0.0121022705 -0.008393556 -0.010577395
0003d0 0d 57 c6 bb d5 cc fb ba 48 3e 09 00 b4 b8 b2 bb
       -0.0060528577 -0.0019210825 8.48862e-40 -0.0054541472
0003e0 d2 ca 09 80 00 1b 44 bc 5a 7d 0a 00 36 a2 09 00
       -8.99278e-40 -0.011969328 9.63323e-40 8.8471e-40
0003f0 ae 88 00 00 04 ab 08 80 ae 29 08 bc 9a 33 07 00
       4.9031e-41 -7.96033e-40 -0.008310718 6.6136e-40

layers.1.bias f4 [128]
000000 e2 09 b3 3d ff 9d ea bb 02 df b7 3d 21 5f ba bb
       0.08742119 -0.007159948 0.08978082 -0.00568761
000010 87 38 b3 3d 0d e1 2e bc 77 f3 20 3d c6 78 cf 3c
       0.08751016 -0.0106737735 0.039294686 0.025326144
000020 91 ea 80 3e 22 1f 9d bb 0e 9e 1e 3e e1 6a 9d b9
       0.2517896 -0.004794971 0.1548998 -0.00030025005
000030 59 c5 0d 3d a8 5c 4b ac b7 e9 0c 3e 19 1b a5 ba
       0.034612034 -2.889947e-12 0.1376103 -0.0012596577
000040 03 ac b2 3d 79 df 3c bc dd db 56 3d c5 4b 7f af
       0.08724215 -0.011527889 0.05245577 -2.3219034e-10
000050 99 33 97 b1 f7 bc 10 b1 c7 4f 09 3e 2d 07 41 3e
       -4.4005444e-09 -2.1062172e-09 0.13409339 0.18850394
000060 82 f1 fa a2 e9 dd a1 3d 69 f7 43 3c ec d6 93 3e
       -6.8018342e-18 0.07903654 0.011960843 0.2887491
000070 2e 3b ec 3d 72 86 55 bd da 24 61 3e ce bb 00 3e
       0.11534725 -0.05213017 0.21986714 0.12571642
000080 3d a0 70 3a 77 ec b3 3d 69 c6 e5 b8 43 28 8e 3e
       0.0009179151 0.087853365 -0.00010956528 0.27765092
000090 fc 82 53 bc 09 10 12 bc a6 1d 31 3e bd 0e 16 b3
       -0.012909647 -0.008914956 0.17296466 -3.4938e-08
0000a0 df c9 3a 3e 94 82 25 bc 8f f9 f9 3c ea 8c 3d 3e
       0.1824107 -0.010101933 0.030514507 0.18510786
0000b0 56 e8 5f bb 22 e7 03 bc 66 7e 20 3e 72 8d 50 bc
       -0.0034165583 -0.008050712 0.15673217 -0.012729036
0000c0 d2 da 1f 3d 4c 37 d1 3d 14 90 0e be fa 5e 39 92
       0.039027043 0.10215625 -0.13922149 -5.8492775e-28
0000d0 16 d4 a8 3d 93 2b f5 3c 6a 5c 28 3e c0 77 d3 3d
       0.08243577 0.029928004 0.16441503 0.10325575
0000e0 fc 29 fb bb 3f 8a f0 3d 62 67 c7 ba e9 6b 22 bc
       -0.007664917 0.11745118 -0.0015213306 -0.009913423
0000f0 28 f3 4d 3e b3 53 21 3e 48 29 01 80 a5 bb 59 bc
       0.20112288 0.15754585 -1.06644e-40 -0.013289367
000100 28 de ea bd 9a 19 0f 3d 71 07 8c ba 8d 1c c4 3c
       -0.11468154 0.034936525 -0.001068337 0.023939395
000110 b5 70 10 ad c7 8a b6 3d c5 3e fd 3d 83 57 ce 3d
       -8.210478e-12 0.089131884 0.12365488 0.10075285
000120 64 8f 75 bc 67 fa 11 3d 59 f7 16 3e 07 40 8f b0
       -0.0149878 0.035639193 0.14742793 -1.0422817e-09
000130 dc 8b 50 3b af d9 d4 3d ac ec c9 3d a7 68 b0 ba
       0.0031821644 0.10393082 0.09859595 -0.0013458923
000140 bb 47 de ad 38 b2 27 b3 56 e0 6b 3e 6e dc 69 3e
       -2.5270333e-11 -3.9044806e-08 0.23034796 0.22837994
000150 cb dc 0c 3d 27 2d fe 3d 36 86 7f 3e a6 23 09 bc
       0.034390252 0.12410956 0.24953541 -0.008370316
000160 04 66 1a aa b6 55 f0 bb 2b 99 98 3d d3 27 1d 3a
       -1.3713341e-13 -0.0073344363 0.074510895 0.0005995009
000170 63 56 e0 b3 a7 db b9 3d a2 06 d4 3d 32 73 28 3e
       -1.04465265e-07 0.090750985 0.103528276 0.16450194
000180 a7 da 57 3e 1e 39 67 3e c9 7b 27 ba f8 72 b4 bb
       0.21079503 0.22580382 -0.000638899 -0.0055068694
000190 a4 dd af bb ae 99 8e bb 58 b0 a6 bc 47 bc 2b 3e
       -0.005366998 -0.004351816 -0.02034776 0.16771041
0001a0 02 4f fb bb 63 2b a1 bd 60 c6 ca 3b 54 b9 1b ba
       -0.0076693306 -0.078696035 0.006188199 -0.0005940397
0001b0 2c c6 8a 3c d6 44 22 3e 2a c3 17 3e 29 e5 8c 3e
       0.016940199 0.15846571 0.14820543 0.27518585
0001c0 cb 47 26 3e 61 c5 3d 3e d0 86 b4 3d 9a 87 03 3e
       0.16238324 0.18532325 0.08814776 0.12844697
0001d0 e8 81 9a 9f 42 a2 2f 3e 18 ff 32 3e 5d 05 e2 a1
       -6.543645e-20 0.1715174 0.17480123 -1.5315775e-18
0001e0 c6 1e 06 80 d4 b1 f2 bd 3f 95 12 3e bc 0c 19 3e
       -5.62052e-40 -0.11850324 0.14314745 0.14946264
0001f0 07 36 f9 3d 97 e5 e9 ba ce c9 61 3e c3 1f d0 3d
       0.12168508 -0.0017844912 0.22049639 0.10162308

layers.2.weight f4 [128, 128]
000000 f7 e6 3c bc c2 91 05 00 4f f2 ea bb aa 99 09 00
       -0.011529676 5.11466e-40 -0.0071699987 8.81644e-40
000010 a5 6d 2f bc d7 c2 07 80 d7 86 70 bc c2 8d 87 bb
       -0.010707294 -7.12744e-40 -0.014680586 -0.004136772
000020 60 08 09 bc e4 68 09 80 ff 67 08 bc 3e e1 05 00
       -0.008363813 -8.64147e-40 -0.008325576 5.39979e-40
000030 f5 3d 9a ba a4 6e 05 00 62 22 aa bb 82 4b 0b 00
       -0.0011767732 4.98868e-40 -0.005192087 1.037278e-39
000040 4b 17 2e bc 17 39 04 00 ca 4e a4 bc 56 52 0b 80
       -0.010625671 3.87822e-40 -0.0200571 -1.039727e-39
000050 e2 b2 0a 00 56 77 01 80 44 66 6c bc 22 94 8d bb
       9.82526e-40 -1.34645e-40 -0.014428679 -0.0043206373
000060 34 47 0a 80 cb b3 e6 bb e3 49 9d bb ba 2a 2b bc
       -9.43898e-40 -0.007040476 -0.0048000677 -0.0104471985
000070 89 53 e5 bb 81 38 a6 bb fd 1e f1 bb f0 69 d1 bb
       -0.0069984836 -0.0050726538 -0.0073584304 -0.0063908026
000080 71 f8 6c bb dc df 5a bb 92 cb 0a 00 ae ef ef bb
       -0.0036158825 -0.003339759 9.91382e-40 -0.007322273
000090 64 ac 08 00 6c da 98 3a 6a a0 4d bc 68 7e 09 00
       7.96526e-40 0.0011661774 -0.012550453 8.71865e-40
0000a0 14 76 50 bc 70 6c 05 80 79 c0 43 bb 60 30 73 bc
       -0.0127234645 -4.98078e-40 -0.0029869361 -0.0148430765
0000b0 da 3b 06 80 ae 3c 0a 80 be 20 98 bb 0a 83 09 80
       -5.72484e-40 -9.40123e-40 -0.004642575 -8.73527e-40
0000c0 28 6e 61 bc df 6a de bb 11 c6 35 bb 4c 22 01 00
       -0.013759173 -0.0067876424 -0.0027736465 1.04139e-40
0000d0 1b 7d b3 bb 24 21 92 bb 85 95 7d bb e5 1d 4d bb
       -0.00547756 -0.004459517 -0.0038693857 -0.0031298336
0000e0 3c 6b 99 ba 48 2d 57 bc ce e6 05 80 1c 67 4c bb
       -0.0011704932 -0.0131333545 -5.41975e-40 -0.0031189388
0000f0 a3 95 0a bc c0 64 89 bb e1 4f 01 80 2c 60 0b 80
       -0.008458528 -0.0041929185 -1.2049e-40 -1.04469e-39
000100 8a f1 bd bb 6a 22 ff bb 78 10 03 80 2d ce f2 bb
       -0.005796616 -0.007786085 -2.81414e-40 -0.007409832
000110 cd 18 04 00 64 54 1d bb 6f 6a 10 bc f6 0d 25 bc
       3.76239e-40 -0.00240066 -0.008814438 -0.010074129
000120 72 a6 0a 00 e1 d4 aa bb 4f 0d 94 bb ef 2f 06 80
       9.78064e-40 -0.0052133654 -0.004518188 -5.68208e-40
000130 a8 e5 76 bc 64 49 01 b9 42 d4 e5 bb 0e 26 09 80
       -0.015069403 -0.00012329739 -0.0070138285 -8.40171e-40
000140 64 01 09 80 1c cd 01 80 bd 0b 84 bc 02 54 01 bc
       -8.27018e-40 -1.65415e-40 -0.016118878 -0.007893564
000150 55 f5 ca bb 0c 0a 63 bc e2 ca 5d bc 64 cc 06 80
       -0.0061937966 -0.013857376 -0.013537141 -6.24335e-40
000160 00 48 09 80 e2 de 21 ba 01 ce 30 bb 79 63 02 bc
       -8.52348e-40 -0.0006174875 -0.0026978257 -0.007958286
000170 e4 cc 09 00 6d 49 32 bc 16 f2 63 bc 04 64 71 3a
       9.0002e-40 -0.010881764 -0.013912698 0.0009208324
000180 64 4b 22 bc 2e 9e 1f bc da 43 0b 80 dc f9 02 80
       -0.00990567 -0.009742303 -1.034531e-39 -2.73304e-40
000190 c4 3f 07 80 2f ce 0a 80 d1 f2 d8 bb b4 52 36 bc
       -6.65723e-40 -9.9232e-40 -0.006620743 -0.011128116
0001a0 ec 59 08 00 43 31 a1 bb 0a 5d c2 3a 98 59 0a 80
       7.66942e-40 -0.0049192025 0.0014828753 -9.50495e-40
0001b0 3c 5b b9 bb 0d 87 2a bc 52 3d 17 bc d0 60 c2 bb
       -0.005656628 -0.010408175 -0.0092309285 -0.005931951
0001c0 46 5b 53 bc 7b 9e 12 bc bd 12 92 bb 30 ef e8 bb
       -0.012900179 -0.0089489175 -0.0044578 -0.0071085915
0001d0 4a 92 09 80 82 fe d7 bb 71 98 ab bb a4 f3 09 00
       -8.78998e-40 -0.006591619 -0.0052366783 9.13921e-40
0001e0 da 5d 02 80 d0 66 10 bc bc 8d 47 bb 60 83 e5 ba
       -2.17339e-40 -0.008813575 -0.003044947 -0.0017510466
0001f0 ae 43 4d bc 9c 69 01 00 0b 50 f7 ba 6e 2b bf bb
       -0.012528343 1.29721e-40 -0.0018868459 -0.0058340346
000200 c5 d5 04 3d be 54 86 bc 72 8c a1 3d 6f 75 d7 bb
       0.03243043 -0.01639783 0.07888116 -0.0065752785
000210 f4 26 47 3d 2b 28 6c 3c 25 bc 66 bd d6 35 e5 3c
       0.048621133 0.014413874 -0.056331772 0.027979773
000220 10 71 21 bc 2c cd db 3b b7 c2 4b 3e 69 67 5e 30
       -0.009853616 0.006707808 0.19898497 8.0910084e-10
000230 b4 cc 45 3d 74 ad 90 b8 de 22 4e be a2 07 33 ac
       0.048290923 -6.898763e-05 -0.20130488 -2.5441667e-12
000240 30 ef e6 bb d9 84 62 3b 58 c9 78 3d 05 d1 ad 36
       -0.0070475563 0.0034564047 0.06073889 5.180135e-06
000250 2d 4f 08 b9 d7 8c 20 b4 1f 6d 80 be 40 38 a2 3d
       -0.00012999466 -1.4952398e-07 -0.25083253 0.07920885
000260 9c 9a 29 37 9a 95 04 3d e3 90 62 be 09 68 8a 3e
       1.0109183e-05 0.032369234 -0.22125582 0.27032498
000270 de b3 6c bd 78 0b 46 3e f4 a6 a7 3e 2f b2 c7 3e
       -0.057788722 0.19340312 0.32744563 0.3900313
000280 46 3b e8 3d 83 c6 97 be 73 b7 2c 3b 6e 08 bb 3e
       0.113394305 -0.2964364 0.0026354461 0.3652987
000290 60 29 97 bb 16 d8 17 3e d4 86 27 bd 76 65 29 38
       -0.0046130866 0.14828524 -0.040900066 4.0387233e-05
0002a0 27 a7 44 bb 68 b8 d9 3b ec 40 2c 3d 13 fd d6 3d
       -0.0030006857 0.0066442974 0.0420541 0.10497489
0002b0 b2 bf 86 bb f9 c7 d8 3c 4c 2f a9 bd 19 9b 6a 3c
       -0.0041122073 0.026462542 -0.08260974 0.014319205
0002c0 21 a9 0e bf ac 4a d5 be a1 4b ed 3d 87 b1 04 00
       -0.5572682 -0.41658533 0.11586691 4.31027e-40
0002d0 06 76 80 bd 60 ca 43 3c 30 57 04 bf a6 04 8a bd
       -0.06272511 0.011950105 -0.5169554 -0.06739168
0002e0 72 6d 85 3e 36 7e 11 3e b9 34 c7 3a 7e 16 cd 3d
       0.26060063 0.14208302 0.0015198208 0.10014056
0002f0 c1 2f 1b bf 3a 8a da bd 0d ed 8f 14 af 08 b4 ba
       -0.6061974 -0.10670896 1.453281e-26 -0.0013735498
000300 19 5b c4 bd 84 da d6 be 09 63 94 3b fa 78 19 3e
       -0.09587688 -0.4196359 0.0045284075 0.14987555
000310 24 96 a9 36 ad d3 04 be 88 7e 95 3e c9 15 68 be
       5.054071e-06 -0.12971373 0.29198098 -0.2266456
000320 72 17 4e ba 5b 5a 8f 3e 3a 46 c1 3e cc 13 0a 3a
       -0.000786177 0.27998623 0.3774889 0.0005267232
000330 45 5e 9b bd 0c 73 b4 bd b9 4e e1 3d 81 cb 88 b7
       -0.0758634 -0.08811006 0.11001343 -1.6307227e-05
000340 4c 1a 00 00 db ed 3e ac cb 5d 9b bb 57 93 a4 3b
       9.434e-42 -2.713266e-12 -0.0047414056 0.005022447
000350 d9 78 8a bd 5f da f1 be d0 b3 e4 3d 1e 7b a8 3b
       -0.06761331 -0.47236916 0.11167109 0.00514163
000360 83 e8 05 00 f2 54 c1 3e e0 90 ce bd e2 4b 63 3e
       5.42587e-40 0.3776012 -0.100862265 0.22196916
000370 ce f7 00 b7 b2 cc d0 3d dd d9 00 be 77 ad fa 3e
       -7.687091e-06 0.101952925 -0.12583108 0.48960468
000380 18 98 41 be 60 b3 f7 be 38 cf dc 3b e7 e0 a0 3b
       -0.18905675 -0.4837904 0.0067385696 0.004909623
000390 7b d3 4e ba 3e a2 6f 35 8c 9f a1 bd 0d a8 11 be
       -0.00078897894 8.927053e-07 -0.07891759 -0.14224263
0003a0 3c 4d 6b 3b b8 b3 8f be c9 35 e9 bd e6 86 25 3b
       0.003590419 -0.28066802 -0.11387212 0.0025257408
0003b0 89 e7 bf 3d 13 0d 56 be 93 5a 42 bd e0 f0 d4 3c
       0.09370334 -0.20903425 -0.04744966 0.025993764
0003c0 03 34 a3 bd 11 f7 3b bd 73 4f 8d bd 1f 53 93 3e
       -0.07968905 -0.045889918 -0.06899919 0.28774354
0003d0 d7 d7 17 32 01 f1 85 bd 5d 86 d8 bd 3d 5b cd b7
       8.838433e-09 -0.065401085 -0.10572503 -2.448039e-05
0003e0 4f 4b ca a7 fb 53 a1 be e1 05 20 3c 78 fd e3 3d
       -5.6147912e-15 -0.31509385 0.009767027 0.1113233
0003f0 a5 33 d8 bd 9d cc 05 38 83 55 c8 3b dc 9b 6d bd
       -0.105567254 3.1900232e-05 0.0061137094 -0.058009967

layers.2.bias f4 [128]
000000 f8 8b 13 bb 96 86 5f 3d 49 f1 8d bd 25 a9 d5 bd
       -0.0022513848 0.05457171 -0.06930787 -0.104326524
000010 fd 78 02 3e 23 e2 d5 bd 99 95 18 3d 7e 94 63 bd
       0.12741466 -0.10443523 0.037252042 -0.055561535
000020 c5 b9 0d b6 ff 75 0f 3e 77 b2 84 3d 32 5e cd bb
       -2.111877e-06 0.14009856 0.06479352 -0.0062673325
000030 19 7b 10 bc 58 18 72 3d 21 18 9b 3e ce 67 02 80
       -0.008818411 0.059105247 0.30291846 -2.20909e-40
000040 db f9 18 bb 44 8f 72 3a 45 82 78 3e 90 7d 04 00
       -0.0023342285 0.00092529156 0.24268444 4.12385e-40
000050 58 e8 05 00 e0 15 d8 3d 71 7d f7 95 1d f1 93 bd
       5.42527e-40 0.10551047 -9.996042e-26 -0.07223723
000060 ce c8 5f 3e 38 30 01 00 7d d8 02 00 89 fa f3 bb
       0.21853945 1.09133e-40 2.61332e-40 -0.0074456376
000070 bc 80 f2 3d 5c 80 bc bd 37 89 10 3e cb dd 33 3d
       0.118409604 -0.0920417 0.14114843 0.04391269
000080 57 9c 88 ba 86 9a 04 be a7 01 ac ba 6c 67 39 3e
       -0.001042257 -0.12949571 -0.0013123051 0.18105859
000090 55 cf 3f 3c 68 ae 35 be 3c 9c 56 3d 2b 46 06 80
       0.011707147 -0.17742312 0.05239509 -5.76185e-40
0000a0 70 12 76 3c 9c 28 b1 be 8a b8 02 80 ba 77 02 3e
       0.015019044 -0.34601295 -2.49871e-40 0.12740985
0000b0 3e 55 92 b1 ae 18 06 be 32 2d 9d b7 04 13 53 ae
       -4.25885e-09 -0.13095352 -1.8736904e-05 -4.7992735e-11
0000c0 00 ed 9a 3d 6a 1f 1e bd 26 5d 8b 3b ef 73 02 00
       0.075647354 -0.038604178 0.0042530475 2.2526e-40
0000d0 af 64 24 b9 0e fd f4 3d e9 4d e9 bb 1a fc ee be
       -0.00015677766 0.11962329 -0.0071198833 -0.46676713
0000e0 0b 25 2b bb 90 91 c4 3d 2b da 24 3e 03 ce 4c 3e
       -0.0026114609 0.09598076 0.1609885 0.20000462
0000f0 f2 35 7d ba 60 f2 01 80 83 ea 69 3d 99 84 2f 3d
       -0.00096592226 -1.78783e-40 0.057108413 0.042851064
000100 6a fd 64 bb 71 64 df 3d dd 6d e6 bd 32 0e 00 92
       -0.0034941086 0.109078296 -0.112514235 -4.0407175e-28
000110 1b ca 96 ae 88 18 19 bd 08 34 cc 3d 07 09 1f 3e
       -6.8571114e-11 -0.03737691 0.09970862 0.15530787
000120 06 cf af bb 8b b3 0c 3e 24 c4 4a 3e a8 69 2e 3d
       -0.0053652553 0.13740365 0.19801384 0.04258123
000130 06 6f 0e bd 8c 9f 91 bb 84 ca 9f 3b 49 68 6b ac
       -0.03477385 -0.0044440683 0.0048764367 -3.3453398e-12
000140 88 7e 1b bc 5a 21 3d 3e 62 40 c5 3d 77 0f eb 3d
       -0.009490617 0.18469754 0.09631421 0.11477559
000150 92 03 53 b3 08 4e ea 3d fa bd 63 bc dc a3 c6 bc
       -4.9130513e-08 0.114406645 -0.013900274 -0.024248056
000160 77 c9 dc 3d 06 37 3e be 1e 71 25 3e 7a e9 21 be
       0.10780614 -0.18575677 0.16156432 -0.1581172
000170 eb 35 31 be b4 85 25 3e 29 c6 04 80 90 1c 74 3e
       -0.17305724 0.16164285 -4.38428e-40 0.2383902
000180 6a 40 2d 3e 8a 84 14 b7 e8 45 6a 3d 65 d0 89 bd
       0.16919103 -8.852347e-06 0.057195574 -0.06729201
000190 fc e1 7f 3d b1 82 14 bc 98 3a 95 3d 4d 10 20 bf
       0.062471375 -0.009064362 0.072865665 -0.62524873
0001a0 58 3f 5a 3d 4f 95 98 3d a7 72 0c be 5a a7 c8 2d
       0.053283066 0.07450353 -0.13715611 2.2811687e-11
0001b0 4e 64 45 3d 8e 4a 06 80 c7 63 3e 3e b8 de 2a ac
       0.04819136 -5.77758e-40 0.1859275 -2.4282087e-12
0001c0 6b e1 46 3d 10 da 11 be f2 42 2d 02 4f dd d8 bc
       0.04855482 -0.1424334 1.2729245e-37 -0.026472716
0001d0 17 9c 00 80 99 11 06 80 55 43 19 ba 25 49 4f 3e
       -5.5994e-41 -5.57326e-40 -0.000584652 0.20242746
0001e0 b4 c5 75 bb 24 24 03 bc ac dc 73 3e ea 62 7b a8
       -0.0037501873 -0.008004222 0.23814648 -1.39547475e-14
0001f0 13 27 83 bb 1f 0d e9 3d 9c 66 8a 3e 2e 5e 6e be
       -0.0040024607 0.11379456 0.2703141 -0.23278114

layers.3.weight f4 [232, 128]
000000 97 8d e9 ba a2 7f a3 be 22 c7 21 bd 7b 8b d0 bc
       -0.0017818686 -0.31933314 -0.03949655 -0.025457134
000010 fb e8 5e bd 4c e5 b4 3c bc 17 3b bb b9 15 b7 be
       -0.054421406 0.022081994 -0.0028548082 -0.3575876
000020 31 0e be a0 39 af 68 bc b0 f3 a6 3d ef 2b e8 3b
       -3.2196643e-19 -0.014201933 0.081519485 0.0070853154
000030 1b 63 37 bc b5 cb 65 bf 46 48 6f be 69 4c 04 00
       -0.011193062 -0.8976396 -0.23367414 3.94753e-40
000040 2c 41 fa 3a 78 0f 8a bd 12 e2 88 be 07 e1 05 80
       0.0019092909 -0.06741232 -0.26734978 -5.39902e-40
000050 2c 12 67 83 bc f8 d6 bc e4 8d c1 b7 e1 d0 6d 1a
       -6.790566e-37 -0.026241653 -2.3073466e-05 4.9179182e-23
000060 3c e4 0e 3e 52 6a 27 bb ec 11 1e a8 17 e7 4e 3c
       0.13954252 -0.002554555 -8.774648e-15 0.012628338
000070 08 6f 85 3d ff a9 67 bf 1d 7b c6 3c 2d a5 3d be
       0.06515318 -0.9049377 0.024228627 -0.18520041
000080 74 0a cc bb 48 24 77 bf 5c 83 60 bb a8 47 64 3e
       -0.006226832 -0.96539736 -0.0034257984 0.2229296
000090 24 d4 8c 3d 67 04 0b 3f 7f 1d 14 bf 11 c7 01 00
       0.068764 0.5430359 -0.5785751 1.63247e-40
0000a0 9e e6 39 3b 31 cc 08 2a 79 0b b6 ba 96 6e b5 bc
       0.0028366218 1.215007e-13 -0.0013888917 -0.022147458
0000b0 b4 7e a3 38 82 e1 cb be 28 3d 62 3a 79 71 b1 3a
       7.796046e-05 -0.39820486 0.0008630329 0.0013537846
0000c0 d7 d4 34 3f 94 71 cb 16 45 d5 00 be 20 cc 33 b3
       0.7063727 3.2868097e-25 -0.12581356 -4.1862336e-08
0000d0 2a 6e 9d bb da d7 01 bf 28 ac 05 3b ea 28 1c be
       -0.0048043923 -0.5071999 0.0020396803 -0.15249982
0000e0 a6 6c f8 be d2 13 0a c0 50 57 b0 be f7 13 98 be
       -0.48520392 -2.1574597 -0.34441614 -0.29702732
0000f0 de 5d 4c bb 73 77 b7 24 2d a8 6f bf 43 16 79 bd
       -0.003118388 7.9565954e-17 -0.9361599 -0.060812246
000100 ad 09 da bc 6c 61 c5 bc c4 c4 9e 9f 18 13 ed 3a
       -0.026615942 -0.024094306 -6.7241124e-20 0.0018087355
000110 ae 35 af 23 20 a4 25 3e a5 00 50 bd 6d 95 9c 3c
       1.8996272e-17 0.1617589 -0.050781865 0.01911422
000120 33 de 6f bc 2a 35 73 bf de a5 28 3c 3b 42 85 3e
       -0.014640379 -0.95002997 0.010293452 0.26027092
000130 97 71 3d 3b fe 4b 22 bb 53 02 bb be ca c7 88 3b
       0.0028906816 -0.0024764533 -0.3652521 0.0041742073
000140 bb ca f8 bb 33 02 ff 3c f1 c9 a2 be 22 6c 9b be
       -0.0075925267 0.031128978 -0.31794694 -0.30355936
000150 05 ea cb bb 5b fb 71 3d d9 db ac 3c 2a 09 bd 3c
       -0.0062229657 0.059077602 0.021100925 0.023075659
000160 57 16 86 be 1e e7 74 be d4 2e 05 be 01 cc 0d be
       -0.2618892 -0.23916289 -0.13006145 -0.13847353
000170 c2 7b 04 3d c5 37 7f bd a6 7f 44 a6 20 d0 0a bd
       0.032344587 -0.062309045 -6.8174156e-16 -0.03388989
000180 ae 3f 83 3d 4f 07 0c ba 4e ce cc 39 60 9b 61 be
       0.0640863 -0.0005341665 0.0003906362 -0.22031927
000190 59 24 0d ba a9 2f 70 bd 6d 73 43 bf cd bf 68 bf
       -0.00053841394 -0.058639202 -0.76348 -0.90917665
0001a0 ae ed d7 bd 6e f8 71 be 37 a1 77 3b 12 65 bc 2c
       -0.10543381 -0.23629925 0.00377853 5.3545024e-12
0001b0 7b 80 d2 be 10 e5 77 38 0f 06 07 bf 0b 3c be bb
       -0.41113648 5.910272e-05 -0.5274362 -0.0058054975
0001c0 67 0c a6 3d ab b4 30 3d 03 0f 08 00 6c 11 9a 3d
       0.08107834 0.04314105 7.40069e-40 0.07522854
0001d0 01 c7 b4 1b 45 ce e0 b9 da c9 10 3c 95 70 5c 91
       2.9907105e-22 -0.00042878292 0.008837188 -1.7389632e-28
0001e0 2c ba 8c 3c 99 dc 66 3c a8 48 63 3c f3 2b 37 b9
       0.017178617 0.0140906805 0.013872303 -0.00017468612
0001f0 94 48 01 bc b7 5b 05 bf 0a e0 53 3e ca ec cb 3c
       -0.007890839 -0.5209307 0.20690933 0.024893183
000200 fa ad 7e bb df 89 5c bf 89 d0 0c bf 49 61 80 be
       -0.0038861022 -0.86147875 -0.550057 -0.25074223
000210 6d d3 3a bd 70 96 1e bf db 9e e2 be 49 d5 2c be
       -0.045611788 -0.619483 -0.44261822 -0.16878237
000220 c7 07 69 b5 b5 a9 9e be 54 8c fb be 8a df 1f bb
       -8.681058e-07 -0.3098885 -0.491305 -0.0024394714
000230 a1 0e 80 bd b0 f3 38 bd 0f ea 94 ba f8 0d 16 b7
       -0.0625279 -0.045154274 -0.0011361259 -8.943949e-06
000240 17 4f b4 3b 53 e6 91 bf a8 c1 88 bc 98 b7 07 3a
       0.0055025923 -1.1398414 -0.016693905 0.0005177199
000250 79 98 02 00 89 b7 8e bf 83 ba 5b 3a 25 17 dc bc
       2.38368e-40 -1.114976 0.00083819794 -0.026866505
000260 e4 3f e2 bb 69 10 6a 33 17 71 9d b6 ec 23 b3 bb
       -0.006904589 5.4497296e-08 -4.69213e-06 -0.0054669287
000270 cb 0e 88 3d 61 30 46 3d 7c 07 61 bd 82 15 57 3d
       0.066434465 0.04838598 -0.05493878 0.052510746
000280 d5 9e 9d bb 1b 52 9f 0f ac 9f 8b 39 09 5a c5 3d
       -0.004810194 1.5710236e-29 0.0002663111 0.096363135
000290 7b 10 be be cd ed 8f 3d 58 84 ba 3d 1f 58 94 20
       -0.3712195 0.07027779 0.09107274 2.513049e-19
0002a0 ec 00 c3 bf a8 ef 4c bd 74 43 2e 3b 24 a8 92 bd
       -1.5234656 -0.05003324 0.0026590498 -0.071609765
0002b0 cf 4b f2 bb d3 67 09 a4 53 b7 11 ba 77 fc 47 3a
       -0.007394291 -2.9795082e-17 -0.00055586285 0.0007628868
0002c0 e7 14 19 bd af c7 2c 3e 8a 24 27 be 0f d1 a9 b9
       -0.03737345 0.16873048 -0.16322532 -0.00032389953
0002d0 93 c9 31 3b 0e 82 0f 3d 19 8a 45 bc d5 60 08 bf
       0.0027128204 0.03503614 -0.012056851 -0.53272754
0002e0 96 10 c4 3e 8d ed 22 bd b9 59 65 be 66 66 37 be
       0.38293904 -0.039777327 -0.22397508 -0.17910156
0002f0 76 0e 19 3c 20 75 01 80 a8 e5 23 3e d9 a4 3d be
       0.009341827 -1.33852e-40 0.16005576 -0.18519916
000300 25 bc 38 3c 43 b3 e2 3b b2 9b 44 3e 96 bb c3 b7
       0.011275326 0.0069183423 0.19200018 -2.3333163e-05
000310 8e 08 dc ba 56 36 9e bf 40 6b c6 3d c1 92 c7 3e
       -0.0016787217 -1.2360332 0.09688425 0.38979152
000320 db 6a 21 bc c3 83 e4 38 8f 3e 4d bd 40 33 bf bd
       -0.0098521365 0.0001089643 -0.05010849 -0.09335947
000330 05 40 b0 be 6d b3 98 3b 51 dc 16 bd 9a 5b ca 3a
       -0.34423843 0.004660061 -0.036831204 0.0015438676
000340 e0 fc f8 bb a4 7a 18 be 98 09 54 be f6 3b 1e be
       -0.0075985044 -0.14890534 -0.20706785 -0.15452561
000350 83 5c d6 3b 02 a9 14 be b0 a4 b9 bb 1a 55 12 3e
       0.00654179 -0.14517596 -0.0056653842 0.14290276
000360 4d 86 f9 3d bf 8f bd be 41 29 12 bd 8f 4a f3 be
       0.12183819 -0.37023732 -0.035683874 -0.4751782
000370 21 39 19 3f f1 77 4d bd 69 60 0f b8 62 84 12 3e
       0.59852797 -0.050163213 -3.4183646e-05 0.14308313
000380 a7 69 a0 3d 22 6b 95 3a 06 ae 5a bf 80 52 bd bd
       0.078326516 0.0011399726 -0.8542179 -0.09244251
000390 5e 25 5f 3c 98 9d 9d 3c e4 18 c1 bd 0c fa b5 8f
       0.013619749 0.019240186 -0.09428576 -1.7944293e-29
0003a0 3d ee 45 be 43 41 9a bd 98 20 b8 bf 05 f5 63 24
       -0.19329162 -0.07531979 -1.4384947 4.9430318e-17
0003b0 e4 79 c8 bd 9f 95 6c ba 82 c7 97 3e 92 46 ad bb
       -0.09788874 -0.0009024981 0.296444 -0.0052879537
0003c0 45 95 9f bd 00 bc 73 bf 09 2a 89 20 52 f5 d6 bf
       -0.07792143 -0.9520874 2.323652e-19 -1.6793616
0003d0 eb a9 00 b9 84 3c 38 b9 73 e3 2b 3c 60 b9 8a 3e
       -0.0001227033 -0.00017570151 0.01049124 0.27094555
0003e0 c8 88 2a 3c 58 93 91 3b 16 ae 7f bd 38 69 af 3b
       0.010408588 0.0044426136 -0.06242188 0.005353119
0003f0 15 3f 49 3c ab 8b 00 bd 20 2c db 3c ad 71 23 bd
       0.012283106 -0.031383198 0.026754439 -0.03990333

layers.3.bias f4 [232]
000000 26 23 a2 bc d7 0e 70 bc f7 0a 36 3d 1b 5a e8 bd
       -0.01979215 -0.014651976 0.04444405 -0.11345311
000010 9e 41 3a be f8 1a 5f bf 98 63 9d bc 53 c0 00 bd
       -0.18189093 -0.87150526 -0.019212529 -0.031433415
000020 f8 22 0a 3e 3b 7c 15 3d c0 ad e6 3b 1b be dc bd
       0.13489902 0.03649543 0.0070397556 -0.10778447
000030 bc 9a d7 bd c7 44 0a bc 4b cc 40 bd 5f bb 2b be
       -0.1052756 -0.008439249 -0.04706983 -0.16770695
000040 28 87 c6 bd 2a c2 0a be 83 e3 10 bc 29 d1 b7 bd
       -0.09693748 -0.1355063 -0.0088433055 -0.08975441
000050 9d 7d a2 bc 49 18 c8 3d 55 d0 17 bc 56 ef 9c bd
       -0.019835288 0.09770257 -0.009265979 -0.07662837
000060 05 81 60 bd cd 7b 7c bd f2 97 d4 3d 3e d2 6c 3d
       -0.054810543 -0.061641503 0.10380544 0.05781769
000070 1d 34 9f bd 83 5e 6f 3d be 8e 02 be 72 49 09 3d
       -0.07773612 0.058439743 -0.12749764 0.03351731
000080 4e 78 e2 bd a6 c5 fa 3c aa 89 b9 3c 42 31 36 3d
       -0.110581025 0.030611824 0.022648651 0.04448057
000090 82 5c 73 3c 20 b0 b6 3c 97 ea 21 bd 05 61 e2 3c
       0.014853599 0.02230078 -0.039530363 0.027634153
0000a0 94 1d 19 bc ab e8 84 be 0e db 8b bc d4 ea 39 bd
       -0.009345431 -0.25958762 -0.017072227 -0.045389965
0000b0 74 c5 9d bc e9 6f 71 bd c8 e9 1d bd 2d 63 35 bd
       -0.019259192 -0.058944616 -0.03855303 -0.044284035
0000c0 87 af 98 bc 1c 78 db bd 28 89 c3 bd 76 b3 d2 bc
       -0.018638385 -0.107162684 -0.09547645 -0.02572034
0000d0 64 d9 36 bd 4b 7a 60 bd 22 ef f4 3b 2d b9 89 3c
       -0.044640914 -0.054804128 0.007474796 0.016811932
0000e0 e0 44 a0 bd 9a 56 57 bd 1e 34 4c ba 37 0d 83 3b
       -0.07825637 -0.052572824 -0.00077897485 0.003999378
0000f0 60 57 ef bc 72 61 6a 3b 6d 5b 88 bb dd 5a 8f 3c
       -0.029216468 0.0035763648 -0.0041612894 0.017499382
000100 95 d7 01 bd a8 3e 1d 3d 34 38 29 3d 55 07 26 3d
       -0.031699736 0.03838983 0.041313365 0.040534336
000110 9a 29 1e be b3 f2 01 bd 20 a9 5e bd 37 9a b0 bd
       -0.15445557 -0.031725597 -0.05436051 -0.08623164
000120 b5 d3 6d 3c b4 87 5e 3c b2 a8 e0 bc ec 95 5e bd
       0.014515807 0.013582159 -0.02742419 -0.054342195
000130 71 1f 97 bd e7 38 9c 3c 7b 1e d3 bb 24 71 7e 3d
       -0.07379044 0.019070102 -0.0064428425 0.062119618
000140 85 77 72 bd 2a db b3 3c 90 bb 01 3c ee da 55 3d
       -0.059196014 0.021955092 0.007918254 0.05221074
000150 ef 7c 37 3c 2e ff 08 bd 02 2e de bc 2e 63 71 3d
       0.01119922 -0.033446483 -0.027121548 0.058932476
000160 72 49 de 3c c4 70 43 bd 69 7e d3 bc 33 64 eb bc
       0.02713463 -0.047714964 -0.025817113 -0.028734302
000170 ee 42 a4 bd 54 0c aa bc 9a 8a 5c bd 23 ca e1 bc
       -0.08020578 -0.020757832 -0.05384312 -0.027562207
000180 0a 43 ee bc 5f 5d 17 bd 74 44 57 3d 71 e8 3d bd
       -0.029084701 -0.03695428 0.052555516 -0.04636425
000190 a3 9d 8e bd 0a 43 00 3b 30 a4 2c bd aa b2 1b 3d
       -0.069636606 0.0019571208 -0.04214877 0.038012184
0001a0 ad f0 1f bc ea 6e 93 ba 2b 38 cc bc 02 87 cb bc
       -0.009761971 -0.0011248265 -0.024929127 -0.02484465
0001b0 80 da 12 bd c5 b9 09 3c 0b d1 81 bd f1 ec 5f ba
       -0.03585291 0.008406107 -0.063387 -0.0008542082
0001c0 16 81 38 3d 77 9e 08 3d 04 c0 b8 bc c0 90 6e bd
       0.04504498 0.03335425 -0.022552498 -0.058243513
0001d0 4f 2f ba bd 28 b5 30 bd 53 aa dc bc e7 d2 e1 3c
       -0.09091055 -0.043141514 -0.026936686 0.027566386
0001e0 a9 22 72 3b ad 6d 2e 3d bf 02 b5 bc bb 4a 92 3a
       0.0036946929 0.042585064 -0.022096036 0.0011161187
0001f0 c6 61 92 bc 20 bd 5f bd 21 44 0d bd 43 e1 7b bd
       -0.017868888 -0.054623723 -0.0344888 -0.061494123
000200 61 83 5f bd 1f 2e e9 bc 9a 33 04 bb 1a d6 21 bd
       -0.054568652 -0.028464375 -0.0020172358 -0.039510824
000210 28 6a 05 3e 55 42 c5 bb 85 88 cc bc 56 7c 37 bd
       0.13028777 -0.0060198703 -0.024967441 -0.04479631
000220 d0 76 55 bd a0 fb 26 bc 32 ee f8 bc 14 7d 50 bd
       -0.05211526 -0.010191828 -0.030387018 -0.050900534
000230 40 b6 52 bd e6 07 ce bc 6a 80 8b 3c 39 cc 77 3c
       -0.05144334 -0.02515025 0.017029006 0.015124374
000240 e2 d6 64 bd af d3 c4 3d d4 d8 0e bd ae 67 07 bd
       -0.05586899 0.09610688 -0.034874752 -0.03305786
000250 80 f7 02 bd 65 27 70 bd 01 60 5b bd bb 11 13 bd
       -0.031974316 -0.05863132 -0.053558353 -0.03590558
000260 e8 10 82 bd d7 3e 11 bd ba 47 dd bc 76 e8 12 bd
       -0.06350881 -0.03546032 -0.027011741 -0.035866223
000270 4f ad 0f 3d 8f 3d 4d bc 68 85 74 bd 62 82 69 3d
       0.03507739 -0.012526884 -0.05969754 0.05700911
000280 07 cd 2d bc 4a d6 85 3d 0d ed 0c bd a3 d0 78 3b
       -0.010607964 0.06535013 -0.034405757 0.0037966154
000290 62 87 22 bd 0b 6f d7 bc 06 5b f0 3c ec 8d 2c 3d
       -0.039679892 -0.026298067 0.029340278 0.042127535
0002a0 2b dd 09 bd dd 1f d9 ba 6e f6 28 bd 61 6f c6 3b
       -0.033658188 -0.0016565282 -0.04125064 0.006055758
0002b0 16 d5 48 bd d1 08 0d bd 8d 71 06 bd e6 b7 55 bd
       -0.04903134 -0.034432236 -0.032823134 -0.052177332
0002c0 ab 55 e7 bc be aa 0a bc e2 10 92 bc 66 ac 6e bd
       -0.028239092 -0.00846356 -0.017830316 -0.05826988
0002d0 d0 7d 24 bd 6f 17 82 bc c1 ab b2 bc 2d 88 3f bd
       -0.040159047 -0.015880315 -0.021810414 -0.046760727
0002e0 17 c5 2f 3c 30 dc 16 bd 8e 9f 24 bd 1f 11 ba bc
       0.010728142 -0.03683108 -0.040191226 -0.022713242
0002f0 76 57 8d bc ec 10 a2 3b 50 eb 58 bc 53 c2 95 bc
       -0.017253619 0.004945865 -0.013239697 -0.018281138
000300 f7 56 64 bd ea e2 0d bd fd 94 30 bd 92 c5 2c bd
       -0.055747 -0.03464023 -0.043110836 -0.042180605
000310 41 9e 52 bd f3 fd 1f bd 93 de c5 bc 60 22 3e bd
       -0.051420454 -0.039060544 -0.024153983 -0.0464195
000320 c3 c5 41 3d ae a7 fb bc 8b c3 eb bc c0 00 4f bd
       0.04730774 -0.030719604 -0.028779766 -0.050537825
000330 58 fc f5 bc fc 8b 96 3a ba b6 bb bc 84 be 52 bd
       -0.030027553 0.001148581 -0.02291428 -0.05145122
000340 e3 43 03 bd 7d 69 2f 3d be 6f dd bb 40 c3 27 bb
       -0.032047164 0.04282521 -0.0067577055 -0.0025598556
000350 a1 06 ce bc ac 75 47 bd 85 2f ee bc d7 96 a4 bc
       -0.025149645 -0.048696205 -0.029075393 -0.020091457
000360 d7 99 1f bc d5 6e 33 bd ee 4b 27 bd 09 9f 90 bd
       -0.009741268 -0.04380687 -0.040843897 -0.070615835
000370 5a db 24 bd 6a 05 21 bd 5e 6d 27 bd ba 57 2a bd
       -0.040248252 -0.039311804 -0.040875785 -0.04158757
000380 dc 91 71 bd 01 21 73 bd c7 b1 30 bd f0 73 c6 bc
       -0.058976993 -0.059357647 -0.04313829 -0.024225205
000390 07 8f 28 bd dc 2f 2d bd 57 f0 71 bd b6 d5 3a bd
       -0.041152027 -0.04228197 -0.059067097 -0.045613967
