models/MPC_horizon_6_obs_7.pt (torch_old, 278868 bytes, 8 tensors)

layers.0.weight f4 [128, 43]
00000000: 793d 9dbb 012e bbbb 93f8 07ab 1ba0 d0b2
00000010: 4e7d 87bb 50df 44bc af88 a9ad fa6f 8b32
00000020: 2398 c1bb a084 a9ba bf96 68bb a136 bbbb
00000030: ba2c 85bb 3e86 1abb 0dcb cdbb fbaf dbbb
00000040: 5cd6 80bb d70f 9abb 13eb cdbb 6f8b a9bb
00000050: 41b7 67bb 6689 e3bb 3e7d 7fbb ed99 baba
00000060: fe92 8ebb 2ee1 acbb b10a abbb fb21 a8bb
00000070: 20e8 e5b9 5696 acbb 74e8 6abb 4065 a3bb
00000080: 147b c5bb 17b2 bfbb 5814 cbbb d362 e6ba
00000090: ea37 0bb9 9958 bbb8 05fa 9138 32ce b0b7
000000a0: 025b 7737 ff0d abb9 e970 e436 ed55 3f3e
000000b0: 4894 4bbf 0144 293f c6e0 65bf 0eb1 4bbb
000000c0: 318d 10be 127f d63d 57fa 26be 8a81 493c
000000d0: cbaa f73d b7a8 303e 37a0 0d3d b773 093e
000000e0: b34b d13d 054d 9c3b c504 c93c 1cfb 6cbd
000000f0: 13a7 9bbd 5922 dd3c 3029 483d 6129 ad3d
00000100: 6ceb a0bd e00c 9bbd 7e78 c13d 2647 3c3e
00000110: 2711 083e b88f 80bd 227b 073e 5983 133e
00000120: 7658 b0bd 21c7 513d d83a ef3d 2985 d53d
00000130: 65e3 343e e66e 823c 1be8 553d e54d 3c3e
00000140: f276 45bf 4ff6 123e 4a74 453e 50e3 0b3f
00000150: 9df6 4e3f b88c 95bf a023 3b3f 0675 b33e
00000160: c0bc c43e 7258 1cbd 82a7 eb3c 5845 88bd
00000170: c52b aabd 8efe a8bd f079 86bd 1881 ba3c
00000180: 9492 8bbd b453 933d c35d f1bd 8b20 5d3d
00000190: 66b1 ddbb 2972 e7bd 70eb 0d3b fdc5 943d
000001a0: 7efc 9bbd eb7c fcbd 3d33 c93d 6e4c 323c
000001b0: 33b4 eabc 5079 9c3d 1b33 05bb 9436 dcbd
000001c0: a967 9d3d 24c2 123e 9dfd bb3c 58c3 64bc
000001d0: 004e 853d 96c6 a7bd a6bd 323c a83a 1a3d
000001e0: 1dc5 7ebd 6024 933d cba5 2ebf 8572 253f
000001f0: b9d7 133f 4e96 06bf 2949 1a3e 7933 ba3e
00000200: 7125 3dbf 57f8 113f 46b9 09be e016 813f
00000210: a03b 6dbd 5985 0d3d 65d7 f5bd 9f90 6e3e
00000220: 7c16 cebe c8f9 803d 92cf 15bd 596d 62bd
00000230: 42f6 c2bc c5ee 1a3d 0697 a5bd 5a20 003e
00000240: 5223 b3bb f277 d9bd 68f7 03bd 03e9 d7bd
00000250: b318 24be cfbd f23b 2294 edbd 51ea 3d3d
00000260: 336d 1fbc 95e3 dcbd a934 8a3d b003 00be
00000270: 8dad d63d 0a29 8abd e56e fe3d 1f81 7ebc
00000280: ef78 313d d3a7 083d 009f 913d 96a9 163b
00000290: faa7 e63d bbc2 21bf 385e 2c3f 1484 a43e
000002a0: 9afe 00bf a015 893e eb46 cc3e 1b26 8abe
000002b0: 60f1 3a3f f429 ffbd e24a 2bbf 7ea4 86bf
000002c0: bf12 e33c 944e a4bb 19e7 803e 44b7 08be
000002d0: c9fc c1bc e98a 2c3d 03eb f33d 21b1 67bd
000002e0: 6f8a 21be 021b e5bd 5903 cc3d 0707 68bc
000002f0: ddbf 27bd 6838 163c 6a6c 54bd df2d 1bbe
00000300: bd7c abbd c22a f83c 65ee 8a3d 7389 da3b
00000310: 1f0c 22be b092 863c e307 df3d 1f90 983d
00000320: 9fc0 84bc 27d3 e93c e336 30ba b3c1 a7bd
00000330: 620e dbbd 7805 29bd 8a80 6fbd 97d8 583d
00000340: 415e 733e 24bd 513f 553e 7b3e 0390 5e3e
00000350: a675 0ebf 5a35 6cbd 3834 a2bf bba7 eebe
00000360: 0b25 c5be 8689 353e 23a1 13be 380c be3c
00000370: 9830 833d e638 573e 36e2 b9be d801 bfbc
00000380: d093 113e b88c ec3c 59de 203e 240b 233e
00000390: 2521 b8bd abc0 063e 5c07 52bd 5c7a b4bd
000003a0: d1cb b6bd 8d7c 793c 0606 6cbd 7fc8 873d
000003b0: 37a7 71bd a744 363e 5b38 ca3c 1a2b 3a3e
000003c0: d55f 263e 0596 303d 8b07 f43d d780 083e
000003d0: bdc3 89bd c6ce 7c3b 5d1f c23d 17a9 043e
000003e0: 6374 c73d 7d95 df3a a163 1b3e fac7 fb3e
000003f0: fa0f d5be 4d26 ebbc f061 c73e c958 8abd
-0.004798588 -0.005712271 -4.83066e-13 -2.4287194e-08 -0.0041348105 -0.0120161325 -1.9273775e-11 1.623265e-08
-0.0059080287 -0.0012933202 -0.0035490242 -0.0057132994 -0.0040641697 -0.002357855 -0.006280309 -0.006704328
-0.0039318036 -0.0047015953 -0.0062841265 -0.0051740925 -0.003535703 -0.0069438694 -0.0038984562 -0.0014236547
-0.004351019 -0.005275867 -0.0052197804 -0.005131004 -0.0004385123 -0.005266945 -0.003584412 -0.004986435
-0.006026635 -0.0058500874 -0.0061974935 -0.0017577059 -0.00013276903 -8.9333575e-05 6.9607086e-05 -2.1076852e-05
1.4743537e-05 -0.0003262609 6.808074e-06 0.18685122 -0.79523134 0.6611939 -0.897961 -0.0031080875
-0.1411636 0.104734555 -0.16306435 0.012298951 0.12093123 0.1725186 0.03457662 0.13423048
0.102195166 0.0047699236 0.024538407 -0.057856664 -0.07600226 0.026993917 0.048867404 0.08455158
-0.07857403 -0.07570815 0.0944681 0.18386516 0.13287793 -0.06277412 0.13230565 0.14405574
-0.086106226 0.051215295 0.116811454 0.10425789 0.17664869 0.015922021 0.052223306 0.1838909
-0.7713462 0.14351772 0.19282642 0.54643726 0.8084505 -1.1683569 0.73101234 0.3505022
0.38425255 -0.038170286 0.028766397 -0.06653851 -0.083091296 -0.082516775 -0.065662265 0.022766635
-0.06815067 0.071936995 -0.11785462 0.053986114 -0.0067655323 -0.11301071 0.0021655224 0.07264326
-0.076165184 -0.12328514 0.09824226 0.01088248 -0.028650379 0.07640326 -0.002032465 -0.107525975
0.07685787 0.14331871 0.02294808 -0.013962589 0.06509018 -0.08192174 0.0109094735 0.037653595
-0.0621997 0.07184672 -0.6822173 0.6462787 0.5775104 -0.52573097 0.15066971 0.36367396
-0.73885256 0.5701956 -0.13449582 1.0085106 -0.05791819 0.034551 -0.12003974 0.23297356
-0.4025153 0.06297642 -0.036574908 -0.055280063 -0.023799066 0.037825365 -0.08085446 0.12512341
-0.005466857 -0.10618581 -0.032218367 -0.1054249 -0.16025047 0.007407881 -0.1160052 0.04636604
-0.009730625 -0.10785595 0.067483254 -0.12501407 0.10482321 -0.06746109 0.12423495 -0.015533715
0.043328222 0.033363175 0.07110405 0.0022989265 0.11262508 -0.6318776 0.67331266 0.32132018
-0.5038849 0.2677431 0.39897856 -0.26982197 0.7302456 -0.12459174 -0.6691114 -1.0518949
0.0277189 -0.00501425 0.25176314 -0.1335116 -0.023680108 0.042124663 0.11910059 -0.056565408
-0.15775464 -0.11186792 0.09961576 -0.014161832 -0.04095446 0.009168722 -0.051861204 -0.15154217
-0.08373401 0.030293826 0.067837514 0.0066692173 -0.15824936 0.016427368 0.10890176 0.07449364
-0.01620513 0.028543068 -0.0006722046 -0.08191242 -0.10696103 -0.04126498 -0.058472194 0.05294093
0.23766424 0.8192923 0.24535497 0.21734624 -0.5564827 -0.057668068 -1.2672186 -0.46612343
-0.38504824 0.17728242 -0.14416938 0.023199186 0.06405753 0.21017799 -0.36305398 -0.023316309
0.14216542 0.028875694 0.15709819 0.15922219 -0.08990697 0.13159434 -0.05127655 -0.08812401
-0.08925594 0.015227449 -0.057622932 0.066300385 -0.05899736 0.17799626 0.024685076 0.18180504
0.16247495 0.04311182 0.11915501 0.13330398 -0.06726787 0.0038575395 0.09478638 0.12955128
0.09738996 0.0017058101 0.15174724 0.49176008 -0.41613752 -0.028704787 0.38941908 -0.06755216

layers.0.bias f4 [128]
00000000: 7375 41bb 54f6 51bd 50b3 e73d 7d4f afbb
00000010: c161 163c 87e3 193e bedd 8b3d ae08 543d
00000020: 6647 823d e9d2 96bd 4687 a33d a2e3 c9bb
00000030: 691e d0bb 8a49 2a3e 67f0 16be 35e4 4a3d
00000040: 83d9 779f 3104 d93d 054d 6d3d 1c44 0100
00000050: 0da9 cc3d 563c 0080 039c 7a3d 7550 ffbb
00000060: e163 02be 7ae1 bf3c 7e00 efb9 1fa2 fdb0
00000070: 32b6 82b8 0fd0 323e 1f7c 3fbc 71aa 823d
00000080: eca7 0600 a10c 03bc a22c aa3d 4d84 fcbd
00000090: 147a 8d3d 2822 a2bb df7d d1bd df5b f4b6
000000a0: 889a 0280 dfa8 e43d ff68 d93d fa29 efbd
000000b0: 1466 003e 56d6 333d 4d9a faac 065f 4db9
000000c0: bc7c bdba 9500 11be a057 ccbb 5610 3d3d
000000d0: 6623 7d3c 150c 88b8 caff ca3c e2f5 1e3d
000000e0: 6a47 013d d886 393d d9db eaba e08f 9d3d
000000f0: 924d af3b 0184 c6bd 757d dbb6 00af 973b
00000100: 67f4 00af cc1e 0dbe 186e 413e 78b2 7b3d
00000110: 640f cdbd 1737 8d3d d169 5dbb 856a 483e
00000120: 806b 013e e2a4 44bd 47b4 12ba fd8e c93d
00000130: cf44 b9bd 770b 08be c50f 08bc e04d 49bd
00000140: fb92 14bc b969 b03d eb1e 18bd e3b5 04a6
00000150: 1f7a 10bc 797c 0300 5bd9 7a3d 85ea 0b3e
00000160: 431f 8dbd 6049 e83c 5390 2e3e 0c83 a63d
00000170: 45e0 16bc cefb 0280 d929 ecbd 926b ac3d
00000180: e2be 6db4 0060 863d 64a8 6fbd 9110 f1bb
00000190: a364 f93d 879a 30ba 985a e13d 9685 ab3d
000001a0: ce92 5abd 10d2 22bb 6b23 0cbc 6d0a c3bd
000001b0: ac53 c83d c698 47bb 5f50 113d 49e0 55bd
000001c0: cf37 983d 2009 f3bb 4e23 18a3 f90a 343c
000001d0: 874a b4bd 258b 64a6 5259 9b3d 19f0 273e
000001e0: 6d83 62ba a476 f03c 5044 043e 64ca e53d
000001f0: 5191 b7bb 2a12 153d fa1f cabd e660 4e3d
-0.0029519468 -0.051260307 0.11313498 -0.005350052 0.00917858 0.15028201 0.06829403 0.05176609
0.063612744 -0.07364447 0.07984786 -0.006161169 -0.0063512814 0.16629615 -0.14740144 0.04953404
-5.2484206e-20 0.105965026 0.05793478 1.16269e-40 0.099931814 -2.1644e-41 0.06118394 -0.0077915736
-0.12733413 0.023422945 -0.00045586 -1.845425e-09 -6.2328196e-05 0.1746218 -0.011687308 0.06380165
6.11252e-40 -0.007998616 0.08309294 -0.12329922 0.0690805 -0.0049479194 -0.10229086 -7.282462e-06
-2.39106e-40 0.11165022 0.106157295 -0.11677928 0.1253894 0.04390558 -7.122558e-12 -0.00019585722
-0.0014456729 -0.14160378 -0.0062360317 0.046158157 0.015450334 -6.487236e-05 0.024780173 0.03880871
0.031562246 0.045294613 -0.0017918303 0.076934576 0.0053498233 -0.096931465 -6.5413137e-06 0.004629016
-1.1728361e-10 -0.1378128 0.18889654 0.061449498 -0.10012701 0.06895273 -0.0033784995 0.19571884
0.12638664 -0.048008807 -0.00055963214 0.09841726 -0.09046327 -0.13285623 -0.008304541 -0.049146533
-0.009068246 0.08613915 -0.03713886 -4.60432e-16 -0.008818178 3.20159e-40 0.061242443 0.13663681
-0.06890728 0.0283553 0.17047243 0.08130464 -0.009208743 -2.74001e-40 -0.11531419 0.08418955
-2.2141788e-07 0.06561279 -0.0585102 -0.007356711 0.12177398 -0.00067368936 0.110036075 0.08375089
-0.05336266 -0.0024844445 -0.008553366 -0.09523473 0.09781584 -0.003045605 0.03547704 -0.052215848
0.0743252 -0.0074168593 -8.2474126e-18 0.010988944 -0.088032775 -7.9291967e-16 0.07585396 0.16400184
-0.00086408 0.029353447 0.12916684 0.112202436 -0.00560204 0.036394276 -0.0986938 0.05038538

layers.1.weight f4 [128, 128]
00000000: 38da 2fbb 6b2f 52be 6f41 3abe 0cab f23d
00000010: e079 04bf b61f d43d 5407 c03d a2a0 fbbb
00000020: 7a89 d93d 1b5a 433e 0480 1c3e 1e45 1e3b
00000030: 3f09 61bb 72e4 cb3d 4b44 003e 1521 07be
00000040: ebfd f321 7d1a a43e 6534 2cbe 6398 0700
00000050: 4a6b 01be 4968 0100 d450 12bf 0606 7cbc
00000060: f453 88be 22be bcbc e0e6 be3e 2012 0280
00000070: 2ccb 0437 d2ba 9c3e 93eb 803e 4a3b ad3d
00000080: 3435 0480 a125 9e3a 7913 9ebd 2c20 7ebd
00000090: 0203 833e f72c 653b e580 053e a7c6 20b8
000000a0: 863f 0500 e31c 72be 8d2e 2dbd 5db9 a13e
000000b0: 4178 663e 9e9f 703c 3bab 1729 99dd 16b9
000000c0: a5a6 b73e 2b35 7ebd c661 ebbc 7e47 dbbf
000000d0: aa81 c2bd 96d0 2e3b c7ce 933d db25 e9bc
000000e0: 1eec 94bd 4d30 9bbe 9d86 eb3a ef07 f83d
000000f0: 1c96 db3d e819 0bbe 3cde abb2 ee3c 47be
00000100: b6aa 18b3 35bb a6bd 8221 1cbe c626 ecbd
00000110: 53dc 96be ef89 babe 9dfa 833a 787e 1ebf
00000120: 2268 853e 9680 61be 9c60 7438 a3a1 ad3e
00000130: c441 fa3d 666e 73bd b8cd 31bc a5ba 773d
00000140: 5d41 88ba 5d38 533d 5ec4 503d a1ae ab39
00000150: 99f5 2f3c 70a7 0400 b053 a33e 0535 d03e
00000160: b41d 503d ffb4 0d3e 597b 21be a9df a7bd
00000170: e9ee 07bc 2baf 0780 4dc5 afbd 72ff a33d
00000180: 3115 123a 51e2 183e 3684 963e dd17 a1be
00000190: 4972 753e 1136 463a 08a9 133e 889c 2cbe
000001a0: a479 06bd c42e 0bbc f4b9 033c 80db 62bd
000001b0: 2a99 6abd 7934 123c e132 58be 586e 44bf
000001c0: 1028 01bf 288b cc3b 34bd 2eac eb3a dd3d
000001d0: bdd2 a9bd ac1b 0180 3e8b bebe a883 09bd
000001e0: 8058 5c35 5ce2 2dbd c8fc fd3c 855c 333e
000001f0: dc27 febb 167b 953e 9ce5 e6bb 813f 42be
00000200: 7879 0400 4b28 12bb 1f50 feba 664a 23b9
00000210: a3d8 05ba 91fa dfba e46b 4cbb 5998 14ba
00000220: f6ac 5639 7a51 e2ba f58d d4b5 6efb 0980
00000230: c048 0200 eb9b 31bb 6a0d adb9 0b54 0aba
00000240: b392 0480 c811 74bb 7be5 91b4 9404 0b80
00000250: db47 0bba c453 0980 acdc 23b8 12f7 0a00
00000260: 101b e5b8 2b89 93bb 8db0 0bbb 3826 0600
00000270: 643b 0300 b731 c4b9 a653 ebb9 0f1c cab9
00000280: 8c0f 0080 36e1 0980 0b00 47bb bb34 48bb
00000290: 8fe4 ebb9 fa76 0600 098d 9fba 3e49 0900
000002a0: 20b2 0980 78f3 e6b9 9874 33bb 8e91 2ebb
000002b0: 3035 aabb a656 3bbb 2466 0b80 388d 0a80
000002c0: 3a88 8bb9 aea8 0438 7e7d c1ba f469 4cb6
000002d0: d71d 32ba 4dfc 0580 786c 32bb 71ac 12ba
000002e0: 58fa 5632 b7f9 be38 24a2 0980 ec59 13bb
000002f0: cfd5 97ba 4f97 13b9 c543 0500 c8b9 74ba
00000300: 746a 0100 ca72 3abb 08db a9bb a5fa c6ba
00000310: b0ab 27bb 2807 81ba 5d73 0380 8b1f 4cb8
00000320: 1738 54b8 969d 3cba dba9 0800 35cd 1cbb
00000330: 50f4 c4ba c6aa 87bb 7c9f 0400 db1f 0cba
00000340: ed05 0700 ff76 a2bb 5b09 58bb b984 0700
00000350: 7c7b 0280 2a56 0a80 b271 8cbb a96f edba
00000360: b173 0ebb 49f1 6632 aaa2 02bb 6e32 d8ba
00000370: 0aa3 0400 7160 0180 1469 66bb 8069 69bb
00000380: 56d7 0a80 6911 6bba 3f55 08bb f272 9abb
00000390: 1497 daba 136d 0900 ba67 69bb 931e cfba
000003a0: f2c9 4cba e91b 0b00 c838 0900 1840 8eb9
000003b0: 55fd b3ba fedd 0500 0058 81ba ea68 483a
000003c0: faf5 8bb9 acff 0780 0135 0980 9830 55bb
000003d0: 6222 8fba 4094 0000 1109 01b9 8065 83bb
000003e0: 6276 0300 8e7b 42b9 e24c f0ba 195d 24bb
000003f0: 78f2 0980 b4ff 90b7 e106 7abb 895c 89b9
-0.002683295 -0.20525901 -0.18189023 0.11849031 -0.51748466 0.10357611 0.09376398 -0.007679061
0.10621925 0.19077341 0.15283209 0.0024150084 -0.0034337786 0.09955682 0.12526052 -0.13196214
1.6533532e-18 0.3205146 -0.16816862 6.97515e-40 -0.12638584 1.29246e-40 -0.57154584 -0.0153822955
-0.2662655 -0.023039881 0.3728552 -1.90173e-40 7.915118e-06 0.30611283 0.2517973 0.08458574
-3.86428e-40 0.0012065658 -0.07718558 -0.0620424 0.25588232 0.0034969428 0.1303745 -3.8331982e-05
4.81965e-40 -0.23643832 -0.042280722 0.31586733 0.2250681 0.014686493 3.3677254e-14 -0.00014387666
0.35869327 -0.062062424 -0.028733145 -1.7131193 -0.09497388 0.002667462 0.07217174 -0.028460434
-0.07271598 -0.30310288 0.0017969195 0.12110888 0.107219905 -0.13584101 -2.000808e-08 -0.19456837
-3.554552e-08 -0.08141176 -0.15247157 -0.11530833 -0.2946497 -0.3643336 0.0010069195 -0.61911726
0.2605601 -0.22021708 5.8264108e-05 0.33912382 0.12219575 -0.059431456 -0.01085227 0.060480732
-0.0010395456 0.051567424 0.05096852 0.0003274577 0.010739707 4.27407e-40 0.31899786 0.4066545
0.050809577 0.13838576 -0.1576971 -0.08196957 -0.008296707 -7.05687e-40 -0.08582554 0.08007707
0.0005572616 0.14930083 0.29397744 -0.3146352 0.23969378 0.0007561157 0.14419949 -0.16856587
-0.03283085 -0.0084950365 0.00803994 -0.055385113 -0.057274975 0.008923643 -0.21113159 -0.7673087
-0.50451756 0.0062421747 -2.4831916e-12 0.10802253 -0.08292148 -1.01762e-40 -0.37215608 -0.033572823
8.208517e-07 -0.0424522 0.031004325 0.17515762 -0.0077562165 0.2919547 -0.0070464145 -0.18969537
4.10917e-40 -0.0022301849 -0.001940254 -0.00015572607 -0.0005105829 -0.0017088224 -0.0031192238 -0.00056684535
0.00020473063 -0.0017266714 -1.5836546e-06 -9.16715e-40 2.09769e-40 -0.002710099 -0.00033007126 -0.00052768056
-4.19968e-40 -0.0037242044 -2.7175324e-07 -1.011833e-39 -0.00053131365 -8.56569e-40 -3.9067745e-05 1.006987e-39
-0.00010924612 -0.0045024357 -0.002131495 5.64723e-40 2.96812e-40 -0.00037421074 -0.00044885016 -0.00038549348
-5.577e-42 -9.0731e-40 -0.0030365016 -0.0030549008 -0.00044992982 5.93694e-40 -0.0012172769 8.52794e-40
-8.90419e-40 -0.00044050417 -0.0027382728 -0.002663705 -0.0051943287 -0.0028585582 -1.046832e-39 -9.69015e-40
-0.00026613643 3.1628348e-05 -0.0014762131 -3.0460042e-06 -0.00067946076 -5.49686e-40 -0.0027225297 -0.0005595154
1.2513361e-08 9.106419e-05 -8.84685e-40 -0.0022484018 -0.0011584106 -0.0001407538 4.83489e-40 -0.0009335545
1.30024e-40 -0.0028449767 -0.0051835813 -0.0015180899 -0.0025584511 -0.0009844052 -3.16891e-40 -4.8666767e-05
-5.0596977e-05 -0.0007195113 7.95617e-40 -0.0023926024 -0.0015026424 -0.004140231 4.24554e-40 -0.0005345323
6.44974e-40 -0.004958033 -0.003296456 6.9046e-40 -2.27969e-40 -9.49265e-40 -0.0042860145 -0.0018114942
-0.0021736438 1.3442624e-08 -0.001993338 -0.0016494521 4.2583e-40 -1.26432e-40 -0.0035157846 -0.0035615861
-9.95603e-40 -0.0008967133 -0.0020802764 -0.0047134096 -0.0016677105 8.65648e-40 -0.0035614804 -0.0015801959
-0.00078120746 1.020203e-39 8.46889e-40 -0.00027132104 -0.0013732115 5.38813e-40 -0.0009868145 0.0007645028
-0.00026695413 -7.34566e-40 -8.45534e-40 -0.0032530185 -0.0010920281 5.3182e-41 -0.00012305776 -0.0040099025
3.17974e-40 -0.0001854731 -0.001833346 -0.0025079905 -9.13501e-40 -1.7285209e-05 -0.0038151073 -0.0002619962

layers.1.bias f4 [128]
00000000: 35df 603e 5838 c1ba 7fa6 2b3e 5973 49ba
00000010: 1f72 12a2 cac7 123e d19d 9bb1 e96b 72b9
00000020: 22e5 4c3d 93b3 073e 5181 493d 550a f73c
00000030: 55b7 b8bd 5046 903c 1fc4 303e 22b3 873c
00000040: cdaf e53d d03b 0780 e08f 6bba 593f 873c
00000050: 399e 0b3e f1c7 b13d e7b6 063e 8dca 8ab8
00000060: e6fc 24b1 76fd af3d c9b5 35bc 82a2 43b8
00000070: 1783 7a3e 18a5 06bc 4f86 7fb2 2ec3 0a3d
00000080: 74a6 8c3e baef d03d b4ba 13b6 bd9a 133e
00000090: a014 7da0 fc8c bfbb 2676 bebb f2cb 993e
000000a0: 961d bc3d 8404 07a2 d45a 463e 73f3 16bc
000000b0: 5e70 0580 599d ee3d a43f 883d 88b5 d03d
000000c0: fe17 18be 48c5 d43d f0eb f03c 998f 023e
000000d0: 0f78 7fba 4898 bd3d bcd2 a8b4 e974 0200
000000e0: 20de efb9 1819 b53d 6040 0c3e caaa ad3d
000000f0: 4aa7 0300 f7e6 6a8a 9c81 62bc 18a0 7dbd
00000100: 6a56 083e 33fb 9f3c 5af8 3f3e c2d4 02b6
00000110: fcef 033e ff13 0700 7186 edb4 1626 f33d
00000120: 3e64 51b9 f2c3 743e 5370 1e3e 782b acbb
00000130: 68ce b33d e522 c8bc a2f3 9fbb 2577 81bb
00000140: e945 0400 7477 453e bc54 85bd 90ae 3ebc
00000150: 3f9f 0600 dd8f 343e bb2d 85ad d371 883e
00000160: 371f 4db9 6da5 133e 6928 9c3d c52b b63d
00000170: b99d 09b8 ae68 183e fbfb 83b5 a84a 863e
00000180: 04dd 543d 7d17 f6a7 a631 15b9 2257 0780
00000190: a9c1 233d 5b80 df3d 10b5 20be 1a0f a5bd
000001a0: 300f 3d3d 4db8 d4bc d992 28bc e1b7 ccbb
000001b0: 5a9c 4d3e 5d5c 23ae e5ee c5bb 3f2d fa3d
000001c0: 614a 133d aa38 1b3e ec1f 0b3e 62e3 bfb0
000001d0: ed44 193e 7da5 653e 4b48 28bc bcca 41b9
000001e0: 8d0f 183e d6b9 f539 3aeb 1c3e 8f89 373e
000001f0: aa73 38b7 a766 bab3 f05c 50be 0d54 d4ba
0.21960147 -0.0014741523 0.16762732 -0.00076847296 -1.9847105e-18 0.14334026 -4.5290354e-09 -0.00023119118
0.050023206 0.13252096 0.04919559 0.030156294 -0.09019343 0.017611653 0.17262314 0.01656491
0.11215172 -6.64305e-40 -0.00089859776 0.016509699 0.13634576 0.08680714 0.13155709 -6.618081e-05
-2.4008897e-09 0.08593266 -0.011090704 -4.664297e-05 0.2446407 -0.008218072 -1.4873492e-08 0.033877544
0.27470744 0.10201974 -2.2013382e-06 0.14414497 -2.1436758e-19 -0.005845664 -0.0058124242 0.3003841
0.091853306 -1.8298302e-18 0.19370586 -0.009213316 -4.99487e-40 0.116511054 0.066527635 0.10190874
-0.14852902 0.10389191 0.029409379 0.1275009 -0.0009745368 0.09257561 -3.1445768e-07 2.2561e-40
-0.00045751128 0.08842677 0.13696432 0.08479841 3.35518e-40 -1.131013e-32 -0.013824847 -0.061920255
0.13314214 0.01952896 0.18747082 -1.949535e-06 0.12884516 6.50022e-40 -4.424251e-07 0.11872499
-0.00019969136 0.23902872 0.15472536 -0.0052542053 0.08779603 -0.024430702 -0.004881338 -0.0039509707
3.92421e-40 0.19283849 -0.065103024 -0.011638299 6.0814e-40 0.17633004 -1.5140658e-11 0.2664934
-0.00019561952 0.14418574 0.07624895 0.08895067 -3.2810236e-05 0.14883682 -9.833597e-07 0.26228833
0.05196859 -6.830418e-15 -0.00014228243 -6.74106e-40 0.03997961 0.10913154 -0.1569407 -0.08059521
0.046157062 -0.025966788 -0.010288917 -0.006247506 0.20079175 -3.7143944e-11 -0.0060404413 0.12215661
0.035959605 0.15158334 0.13586396 -1.3961705e-09 0.149677 0.2242641 -0.010271142 -0.00018481439
0.14849682 0.000468685 0.15324107 0.17923568 -1.0994185e-05 -8.679972e-08 -0.20347953 -0.0016199365

layers.2.weight f4 [128, 128]
00000000: a043 36bb 8cf5 0000 88a4 e8bb 7a2e 0000
00000010: 4422 0380 cd51 c2bb d8de 0700 7081 0900
00000020: 076b f6bb b010 f5bb 9ca3 86bc 2fc1 a9bb
00000030: d355 1fbc 94fa e4bb dd43 2dbc 2797 b4bb
00000040: b551 62bc df51 0b00 dbd6 0000 14a6 79bc
00000050: 613c efbb 6598 5abc d1d1 bfb9 f901 0a00
00000060: 829c 0480 a5e8 4ebc e462 0900 ea21 0000
00000070: a2f1 a3bb 6c12 0b00 985a 0700 05bb 02bc
00000080: b8fd 38bb d38f c6bb 00fe 0680 7750 a1bc
00000090: b7ef 0900 71f4 0800 3277 0780 626e 3abc
000000a0: 8368 b1bb d74f 0980 2576 51bc a8bb 0800
000000b0: ee53 0480 4f45 5bbc 48c7 d2bb 8016 81bc
000000c0: 9bec 733b 79e6 28bc afba 20bc 3b7b c9bb
000000d0: d12f 0380 6f02 a23b 1292 0880 1ccf 0980
000000e0: c3ef 0880 ed63 e0bb 3a84 83bc 311d 07bc
000000f0: 85d1 0100 e8c8 0a80 edd4 38bc c1cd 61bb
00000100: eca1 9bbc e0a3 55bb 005d 47bc 4c45 0180
00000110: f6d9 7cbc e916 0580 773e 0680 5416 9ebb
00000120: ac67 0a80 fe07 10bc 1903 a4bb e05b 0a00
00000130: d72f aabb 9aba abbc 9adb 0a00 7b70 0680
00000140: 42e0 0980 4c37 56bc d72e 0dbc adad 0080
00000150: fea5 0880 4ebb 58bc e397 0a80 fb6d 6bbc
00000160: e650 0100 73d9 7cbc 52e4 f6bb e5cf 4dbc
00000170: 1404 0900 4f83 17bc 3378 0800 5238 05bc
00000180: c5d1 26bc fbab 0480 5434 0300 4846 0200
00000190: 7ebb 6ebc 058b 25bb f7ed 0cbc 7215 90bc
000001a0: 6633 82bc 1f1a 8cbc fbb1 4e80 2c70 0300
000001b0: 4b7c 95bc 04c1 0900 0621 0180 139c ccbb
000001c0: 30f2 2ebc 95b9 65bc 6fc3 b3bb 33ae 0600
000001d0: c7f1 d5bb 20e1 903a c247 0580 94e3 0a00
000001e0: 2bce 82bb db50 a3bc ef88 21bc ac0f abbb
000001f0: b10f 0200 c70f 0a80 368c 2abb 5404 0980
00000200: 1b8d 7b3e c26a 4bb9 0195 cdbd 630c e539
00000210: b9fc 0580 0868 7dbc 2b85 00b5 f96a ed37
00000220: 235c 06be f64e 0cbe 58f1 e33c efcb 893c
00000230: 8122 98bb 4392 be3d 14ab 04be f8fd 8e3d
00000240: 4064 2d3e a947 0100 b166 15bb 8ace 2f3d
00000250: 806d 1d3d 268b 813e 3343 043f a227 8cba
00000260: accf 0080 37ba 28be 19d2 803c 84b5 16b3
00000270: 080d 023e 0e39 b53b b3f5 0bb4 2d2a bf3d
00000280: c999 c83d 49e7 fc3b 7430 3a39 4239 85be
00000290: 3c19 c0a6 0114 c4bb 7dc4 3dba 98fe a5bd
000002a0: 37c2 2e3e 801b b833 01fe 243e 1036 a5bb
000002b0: 99ca 0600 649b 3ebf b2be e9bb 94d7 a9be
000002c0: 15aa ac3e fac3 bbbe 379b 45be 0d4f b83d
000002d0: 1bd6 ad3b f8d4 073e 0347 ff33 ef5b 0300
000002e0: 719e 693a cf91 9d3d d4af f2bd 013a d93c
000002f0: ad39 3691 4450 2fb7 b5a6 1c3e 62c3 08bf
00000300: 33ec 203e 9e63 97bd aeb4 213e f468 2434
00000310: f5cf 123e 31e8 0780 2140 86b5 a27c 983e
00000320: e8bc d4ba f995 403e 291c 043d ba32 9fbb
00000330: 1125 62bd 64d8 69bd 237d e93b 3fec 4abc
00000340: eaee 810c ed1c 823e 28dc 52be 1ea5 2e3b
00000350: b001 0380 958b 183e a8ff c1b9 438b 28be
00000360: 4d61 2bb8 3160 30be 8270 373e bd9f 333e
00000370: 0a99 5139 d324 df3e 98f8 db39 9dcf 723d
00000380: ad83 813d 7a43 a8b4 cc83 803b f9cf 52ab
00000390: 83cf 27be a96d 3b3d 10ca 1fbe c5b6 1cbf
000003a0: 1493 963e 97b8 1f3d 1977 9abb 071e bcbb
000003b0: eff0 1abe 73fb bca3 9781 633c a483 c03d
000003c0: cf35 cdbd e8d0 5cbb e98c 453d 655b 0780
000003d0: 16a8 ba3d fc65 a03e 335b 883a 4fde 2d37
000003e0: d400 5d3d 78e7 5d3c 2780 0abe 202e 013e
000003f0: 9052 05b0 1d24 3ab8 730f 5c3e 1463 beba
-0.0027811304 8.8086e-41 -0.007099692 1.6673e-41 -2.87799e-40 -0.0059301616 7.2279e-40 8.72953e-40
-0.007520083 -0.007478796 -0.016435437 -0.0051805 -0.009725052 -0.006987879 -0.010575262 -0.005511183
-0.013813426 1.03956e-39 7.7076e-41 -0.01523735 -0.007300899 -0.013341998 -0.00036586684 9.19063e-40
-4.23486e-40 -0.012628709 8.61995e-40 1.2166e-41 -0.00500317 1.016799e-39 6.75347e-40 -0.007979159
-0.00282274 -0.0060596257 -6.42131e-40 -0.019691689 9.12513e-40 8.22373e-40 -6.85608e-40 -0.011378856
-0.00541407 -8.5516e-40 -0.0127845155 8.02002e-40 -3.9745e-40 -0.013383224 -0.0064324476 -0.0157578
0.0037219885 -0.010308855 -0.009810134 -0.0061487234 -2.9266e-40 0.0049441378 -7.87084e-40 -9.00816e-40
-8.20694e-40 -0.0068478496 -0.016054261 -0.008246706 1.66997e-40 -9.90427e-40 -0.011281234 -0.0034454914
-0.018998109 -0.0032598898 -0.012168169 -1.16695e-40 -0.015432825 -4.67396e-40 -5.73421e-40 -0.004824439
-9.55545e-40 -0.008790968 -0.005005252 9.51314e-40 -0.0051936912 -0.020963002 9.97133e-40 -5.91363e-40
-9.06968e-40 -0.013074707 -0.0086171245 -6.2303e-41 -7.94231e-40 -0.013228251 -9.72842e-40 -0.014369483
1.20856e-40 -0.015432703 -0.007534542 -0.012561773 8.27982e-40 -0.009247615 7.77803e-40 -0.008131104
-0.010181849 -4.29037e-40 2.94278e-40 2.08883e-40 -0.014571069 -0.0025259864 -0.008601657 -0.01758835
-0.01589365 -0.0171023 -7.227016e-39 3.15746e-40 -0.018247744 8.9576e-40 -1.03682e-40 -0.0062441914
-0.010677859 -0.014021297 -0.005485944 6.13504e-40 -0.0065290662 0.0011053421 -4.8492e-40 9.99995e-40
-0.0039918623 -0.019936016 -0.009859308 -0.005220374 1.893e-40 -9.24015e-40 -0.0026023514 -8.28072e-40
0.24565546 -0.00019399359 -0.10038186 0.00043687513 -5.49837e-40 -0.0154666975 -4.78775e-07 2.8302415e-05
-0.13121085 -0.13701996 0.027825043 0.016820876 -0.004642785 0.09305241 -0.12955886 0.069820344
0.16932774 1.17542e-40 -0.0022796805 0.04292158 0.038434505 0.25301474 0.5166504 -0.0010692964
-7.4499e-41 -0.16477285 0.015725182 -3.5089684e-08 0.12700284 0.005530483 -1.3034769e-07 0.09334216
0.09794957 0.007718001 0.00017756392 -0.26020247 -1.3329516e-15 -0.00598383 -0.0007239057 -0.081052005
0.17066275 8.57317e-08 0.1611252 -0.005041845 6.23691e-40 -0.7445586 -0.0071333284 -0.33172286
0.33723512 -0.36672956 -0.19297491 0.08999453 0.0053050644 0.13264835 1.188728e-07 3.08486e-40
0.0008911854 0.076938264 -0.11849943 0.026516916 -1.4375041e-28 -1.0449501e-05 0.15297969 -0.5342313
0.15715103 -0.07392047 0.1579158 1.5311872e-07 0.14337142 -7.26143e-40 -1.0002442e-06 0.29782587
-0.0016230615 0.1880721 0.032253418 -0.004858342 -0.05521113 -0.05709113 0.007125513 -0.012385427
2.0019388e-31 0.25412694 -0.20591795 0.002664871 -2.76112e-40 0.14896996 -0.00037002307 -0.16459374
-4.0860195e-05 -0.17224194 0.17914012 0.17541404 0.00019988805 0.43582782 0.00041956152 0.059280027
0.06323943 -3.1341534e-07 0.0039219614 -7.489561e-13 -0.16387753 0.045758877 -0.15604424 -0.61216384
0.29409087 0.038994398 -0.0047139046 -0.005740884 -0.15130971 -2.0489494e-17 0.013885877 0.094001085
-0.10020029 -0.0033693854 0.048230086 -6.75635e-40 0.09114091 0.31327808 0.0010403156 1.0363364e-05
0.053955868 0.013543956 -0.13525449 0.12615252 -4.8502447e-10 -4.437949e-05 0.21490268 -0.0014525377

layers.2.bias f4 [128]
00000000: 50c8 02bc 90cc d23d 4a11 873e dca6 963e
00000010: 6e6a 0cbc 8078 cc3d 37d7 de3d 7e52 d4bb
00000020: 0df3 8abd b605 23ad 4835 63bc 57fb 32bc
00000030: 978d 6c3e 47bc 0780 5f14 f1bd e402 75bd
00000040: f76c 883e 01a3 c0bd d8fe b53d f3c1 43bd
00000050: 23e0 7694 1dd1 8cbe 0d56 113e b88d 0580
00000060: 5157 9ebb cd19 0600 dd1f 1f3e 6832 18a1
00000070: 5d1d 01bc 6746 0200 cd52 4e3e bbc2 19be
00000080: 1f03 56b0 2f6a f2be 6571 0880 1c00 2b24
00000090: 7cfe d0bd 4e22 ff3c 0c2f 19bc ecf1 ccbe
000000a0: eb18 653e 8447 883d 56fe 0580 d25c ba3e
000000b0: 1a28 3bbb a769 d53e c459 88bb daf6 47ba
000000c0: 6421 0700 1217 03be 041e 73be 2d35 8ab6
000000d0: 3a52 243e 2a29 5d3c 10cb 0580 a4bd f23e
000000e0: 0e91 b6a1 0b5a a6be 6550 3cbd 3907 303e
000000f0: d837 9cbd c8ed 3c3e 3db7 8c3d 4231 9d90
00000100: 9baf 85bb d271 e2bc 8360 0700 9584 4a3d
00000110: df30 0580 e3db 0280 d074 0000 501d 0eba
00000120: 03b1 2c3e 643d 423e b904 173d cb61 993e
00000130: d109 1c3e 1e00 2e3e 0ccc ea88 ca44 0080
00000140: eff0 eda7 efff 1d3e 3382 c5bb f9ca a5be
00000150: a700 893e d492 8d3c 2c3d 14bb ca4f f3bb
00000160: d690 0580 bd1f 2a3e 5566 86b6 9a7e 0280
00000170: d2e9 439c 5b15 cdbe 073a 443e 1d8b 6a3e
00000180: b386 ebb7 a6c9 e0bb c564 09bb cc61 2bbc
00000190: 7bc6 5b3e bcf7 06be 28fe f83c 5343 553e
000001a0: d913 9f3e 4782 0580 0c3e 983e 9497 0298
000001b0: 805f 92b9 f19a 07b2 7a63 95be b06e a7bd
000001c0: 309d a1be ced3 da3e 3658 8fac e44b 0a3d
000001d0: d09d 5bbb b029 3bbe 1975 df25 9f81 b83e
000001e0: 6596 833e bb0a 0f3e 0d62 bd3d 9364 da3e
000001f0: b2bb 313e 892c 0200 6f6f abbe cbde 8ebb
-0.0079823285 0.102929235 0.26380378 0.2942418 -0.008570297 0.09983921 0.10880893 -0.0064795604
-0.067846395 -9.266745e-12 -0.013867684 -0.010924182 0.23100887 -7.1039e-40 -0.117714636 -0.05981721
0.26645634 -0.094060905 0.08886498 -0.047792386 -1.2464029e-26 -0.2750329 0.14192982 -5.10017e-40
-0.0048321863 5.60269e-40 0.15539499 -5.1566315e-19 -0.007880536 2.08927e-40 0.20148773 -0.1501569
-7.785718e-10 -0.47346637 -7.75362e-40 3.7079807e-17 -0.10204789 0.031144287 -0.009349596 -0.40028322
0.22372787 0.066542655 -5.50416e-40 0.3639894 -0.0028557838 0.4168217 -0.0041610915 -0.00076280313
6.54827e-40 -0.1280177 -0.23741919 -4.118911e-06 0.16046992 0.013498584 -5.32023e-40 0.4741031
-1.2371195e-18 -0.32490572 -0.045975108 0.17190255 -0.07627839 0.18450081 0.068708874 -6.2001475e-29
-0.0040797717 -0.027642164 6.7747e-40 0.049442846 -4.76709e-40 -2.62551e-40 4.1904e-41 -0.0005421238
0.168644 0.18968731 0.03686974 0.29957423 0.1523812 0.16992232 -1.4131334e-33 -2.4677e-41
-6.6041935e-15 0.15429662 -0.006027484 -0.32381418 0.2675831 0.017281927 -0.002261947 -0.007425283
-5.11135e-40 0.1661367 -4.005424e-06 -2.29087e-40 -6.4822293e-22 -0.40055355 0.1916276 0.2290463
-2.8076907e-05 -0.006859976 -0.0020964604 -0.010460328 0.21462433 -0.1318044 0.030394629 0.20826463
0.3106983 -5.05912e-40 0.29734838 -1.6878634e-24 -0.00027918443 -7.893264e-09 -0.29177457 -0.08175409
-0.31565237 0.4273972 -4.074098e-12 0.03376378 -0.0033510812 -0.18277621 3.8763682e-16 0.36036393
0.2570068 0.13968937 0.09247217 0.42654857 0.17356756 1.99647e-40 -0.33483455 -0.004360055

layers.3.weight f4 [238, 128]
00000000: 255a b7bc b9f8 a13d b666 fcbd acd3 90bd
00000010: 6bad 03bc 9dc1 503e a11a ee3d 336a b6bb
00000020: bc20 8dbe fc7d 16b7 f03c 183b a98e 69bc
00000030: ce09 8c3d 596e b936 4ad7 78bc b6a6 c5be
00000040: e76d 3abe 7146 50be cde8 b63b 0b37 a3be
00000050: d427 34bb b332 9cbe 5bf5 30be c00d f138
00000060: 41fb 0abe dd9c 53b4 4520 84bc 2900 a693
00000070: 607b 3dbc 493b 0ead b1a8 703d 0c51 ec3c
00000080: b18b 83ba d347 02be fbe9 2b30 2d9a 481b
00000090: 58db d9be 0a9b 7f3d 2508 44bb da38 1bbf
000000a0: bb16 a3bd 0c7a 87be 100c 0280 6761 3c3d
000000b0: 8cb5 c53b d76e 6bbd 85d3 1fba d649 86be
000000c0: 293f da39 cf69 453d 5a16 dd2c 89a7 3cbc
000000d0: fbc0 cf3c 9729 9a3c 8ac8 6935 d611 093b
000000e0: 153e aa39 3f49 deba 60c7 423e 50d0 c5bd
000000f0: f98a febe ad8f babf a46e efbe f76e 93b3
00000100: c82d 2e3e 2507 23be 925d 29a4 c729 0abe
00000110: 84d1 cdb1 56ca f237 0451 18b1 417a 1e3b
00000120: 0535 37bf 1012 53be b46b 1e3d a1ff 503e
00000130: 2037 74be 3ede ee3e 776c 9ab8 ba77 132d
00000140: 1b5a cd3a 5ec2 1ebf bf3e b33b fec3 87be
00000150: 2d82 3d3e bd1c 9ebe 02cd 9abb 715c 2bbc
00000160: 8314 f72d 69ef 79ba a71f 34bb 5ce7 cfb9
00000170: 3300 0880 82d2 8cbe b759 263d e809 89bd
00000180: f67b 4dbb 56d4 64bb 16f6 833b af66 973b
00000190: 2bd5 58bd a5c0 68be 5734 cdbf 6ebd 7d3d
000001a0: a121 a03d 8702 49b9 5187 67bd 6862 88b8
000001b0: ca15 1a3c 0db2 4b3b a9dd 8d29 6bfe 023c
000001c0: 7616 3cbe b62c a1be 9165 c23b 2ae0 133d
000001d0: c68e 9b3c 51a4 4a9d f604 f7a2 af6c 1e3e
000001e0: 5112 8cbd 692d d8bd 21ac 96be 32d2 f7bd
000001f0: 5f64 6dbf ed52 9739 c399 560f e428 d9be
00000200: 6aba e03a f8c1 22be 3044 a4be ce9f efbd
00000210: d8a4 b33b 2e15 c9bc 6cdb 1ebe 5d80 613c
00000220: 20bc e9be 48bb 943b 44b3 aa3b d635 af3b
00000230: d0b7 abbb 6dc2 b8b7 a89f 47bd 4e5c c9be
00000240: a54b 0fbe 1986 833e 6864 0fbe 8c6c fa3e
00000250: fa13 53bb 1b90 b2be c849 83bf 905f ea38
00000260: 5219 28bf ef3e 73b8 c495 fabd 6b50 17a2
00000270: 1661 20bc 5d15 802b b9d7 49bd 78db 67be
00000280: 432e b53b 1ae2 2b3b 2ab8 afb6 e62a f425
00000290: 6bf9 45bd fb8c 04bf 9d9f 963a 1ab0 e9bb
000002a0: 1500 bcbc 92b4 933d 860e 0580 312d d23d
000002b0: 82ef 453c e7ed b5bc 3b50 70bb a696 96be
000002c0: 7bd3 cbb9 b62a 193e 2fe9 9434 7654 43ba
000002d0: 624d 153d a3d3 493d e8ab 9db6 99b2 093d
000002e0: e71b 0abb d388 1bbe 4653 523e b729 d0bd
000002f0: fb9f 7ebf 97df fcbf dae7 2fbe 9688 2728
00000300: 558f 433e cc07 e3bd c935 92b9 1d44 0fbf
00000310: 007c 9eb4 b92b 29ba 4240 19b5 6ca7 31ba
00000320: a118 8abf 11e7 853e 1d9b 0abe 3c21 e1bd
00000330: fc5d c6bd 8782 55be cee2 23b9 3854 ca2d
00000340: 16e3 ac3b 8c85 37be 950b d2ba d3bc 143e
00000350: 920e 2f3d 4204 32bf a439 a03b f931 44bc
00000360: aad7 cd37 2f11 8ebd 969e 8bbb 100e dcb8
00000370: 3f16 0680 4433 3abe 325a 383b cb74 3f3d
00000380: c013 533b ccc6 08bc 6a8d 3b3b de63 e9ba
00000390: bea9 9bbd 29cf 143e 7dbf 3bbd ab81 d2bc
000003a0: 1df2 f5bd 13fa cfb9 fe68 d5bc 3418 9cba
000003b0: 5451 f93b 49cf 073c 7c8c 262f 4034 7bbe
000003c0: 2ab6 743e b121 bbbe f87e 203a 05dd 3ebd
000003d0: be00 12bb 2f87 29a7 273a 15a3 8c25 193e
000003e0: 2b28 273e 4393 cbbd 9940 673d 881e 9dbb
000003f0: 5947 18be 97a0 53ba e424 4320 1934 05bf
-0.022381851 0.07908768 -0.12324278 -0.07071623 -0.008036952 0.20386358 0.11626173 -0.005566859
-0.27564037 -8.97003e-06 0.002322968 -0.014255204 0.068378076 5.526276e-06 -0.015188048 -0.38603753
-0.18205987 -0.20339371 0.0055819512 -0.31877932 -0.002748956 -0.3050743 -0.17281096 0.00011494337
-0.13572408 -1.9707973e-07 -0.016128669 -4.190445e-27 -0.011565059 -8.084929e-12 0.058754627 0.02884724
-0.0010036138 -0.12722711 6.2541944e-10 1.6593429e-22 -0.42550159 0.062403716 -0.002991208 -0.60633624
-0.0796332 -0.26460302 -1.87998e-40 0.045991328 0.006033605 -0.057478752 -0.00060968875 -0.26228207
0.00041627258 0.04819661 6.2836793e-12 -0.011514553 0.025360575 0.01881866 8.7091087e-07 0.0020915172
0.00032471181 -0.0016959085 0.19021368 -0.09658873 -0.49715403 -1.4575096 -0.467641 -6.865405e-08
0.17009652 -0.15920694 -3.672529e-17 -0.134925 -5.9901044e-09 2.8942868e-05 -2.2164963e-09 0.0024181756
-0.71565276 -0.20612359 0.038676932 0.20410015 -0.23849154 0.46653932 -7.3634954e-05 8.382567e-12
0.0015667112 -0.6201533 0.0054701264 -0.26516718 0.1850669 -0.308813 -0.004724146 -0.0104590515
2.8089758e-11 -0.0009534271 -0.0027484687 -0.00039654493 -7.34755e-40 -0.27504355 0.040612902 -0.066913426
-0.0031354404 -0.00349166 0.0040271385 0.004620395 -0.052937668 -0.22729738 -1.6031598 0.061948232
0.07818914 -0.00019169795 -0.056525532 -6.503315e-05 0.009404609 0.0031081468 6.30011e-14 0.007995228
-0.18367943 -0.31479424 0.005932518 0.03610245 0.018988978 -2.6819427e-21 -6.6954737e-18 0.15471147
-0.06839431 -0.10555536 -0.294282 -0.121006384 -0.9273128 0.0002886275 1.0580628e-29 -0.4241401
0.00171454 -0.15894306 -0.32083273 -0.11700402 0.0054822974 -0.024546232 -0.1551339 0.013763514
-0.4565134 0.004538927 0.0052093584 0.005346994 -0.005240418 -2.2025046e-05 -0.048736244 -0.39328235
-0.139937 0.25688246 -0.14003146 0.4891094 -0.0032207952 -0.3487557 -1.0256891 0.000111757894
-0.65663636 -5.7994326e-05 -0.12235597 -2.0506889e-18 -0.009788772 9.100877e-13 -0.049277995 -0.22642314
0.0055291965 0.0026227296 -5.236846e-06 4.2356322e-16 -0.048333567 -0.5177762 0.001149166 -0.0071315886
-0.022949258 0.072121754 -4.64388e-40 0.10262526 0.012081029 -0.022208167 -0.0036668915 -0.2941181
-0.00038876742 0.14957699 2.7736812e-07 -0.00074512453 0.03645075 0.049274098 -4.698977e-06 0.03361759
-0.002107376 -0.15188913 0.20539579 -0.101642065 -0.9946286 -1.9755734 -0.17178288 9.29998e-15
0.19097646 -0.110854715 -0.00027887363 -0.5596331 -2.9520015e-07 -0.00064533536 -5.709045e-07 -0.0006776962
-1.0788766 0.26152852 -0.13535734 -0.10992667 -0.09685895 -0.20850573 -0.00015629383 2.3002142e-11
0.005276094 -0.17922038 -0.001602518 0.14525156 0.042738505 -0.69537747 0.004889684 -0.011974805
2.453833e-05 -0.06936871 -0.0042608483 -0.00010493037 -5.58993e-40 -0.18183619 0.0028129932 0.04674224
0.0032207817 -0.008348178 0.0028618225 -0.0017806252 -0.07600735 0.1453215 -0.045836914 -0.025696596
-0.1200907 -0.00039668437 -0.02605104 -0.0011909069 0.007608572 0.008289167 1.5147522e-10 -0.2453165
0.23897615 -0.36549142 0.00061224354 -0.0465975 -0.0022278274 -2.3526745e-15 -8.0896204e-18 0.14955729
0.16323917 -0.09940197 0.05645809 -0.0047948994 -0.14870967 -0.0008072941 1.6529349e-19 -0.5203262

layers.3.bias f4 [238]
00000000: e395 5d3e 3f53 a0be c862 69bf 3560 d9bd
00000010: 197f 2f3d 0c89 e2bd c794 37bd ff54 923d
00000020: 5c50 0fbe 2d10 47bd 6579 a9bd 8195 ae3d
00000030: 6dc7 cdbc a8b5 223d 79a9 07be 1d38 b2bd
00000040: fa22 06bd 3111 31bd c88d 8cbc 1233 32bc
00000050: b20e 663c d368 a4bc 6290 84bd e080 043d
00000060: a829 dabd b386 19bc 9029 6ebd e5dd 22be
00000070: 94cd 323d 7b1f 41be 671e e0bd 2f00 a53d
00000080: f218 2abd 3af5 2fbd 8445 a13b 07e6 0ebd
00000090: 77f7 b93d fba5 433d f7cb 62bc 1dcb edbb
000000a0: 7320 b93d c6fe f8bd 3907 6ebd 1adf 17bc
000000b0: 5f32 a93d f006 2f3b ecd2 f7bd 86df 273c
000000c0: bca6 c3bd d93f 3ebd 88d4 85bd 6380 55bd
000000d0: 4fa8 e7bb 761b 73bd dec8 7fbc a08a d6bc
000000e0: 22e3 f8bc 6b0f 6dbd ce2b 26bd d476 bc3c
000000f0: 48ec b0bd bfb2 a2bc b330 2cbd 18e0 65bd
00000100: 0cda a5bd f53e d23d bf66 63bb 38de 48bd
00000110: 3341 e33b f896 5bbd 715f 8a3b 0d1d e03b
00000120: dca4 9fbc 176d d5ba fe3a 1bbd be4b 14bd
00000130: 787e 81bc cb72 6ebc d04e 86bc 1547 a7bd
00000140: e681 44bd 7d7d b33d 3a19 b9bc 88c8 4bbd
00000150: 7f91 493c 535c 03bd a455 77bb ac6f 3dbd
00000160: 6d3b 163c 9979 413c 18b7 24bc 59f7 cdba
00000170: 2666 81bd 515e 22be 797a c5bd a926 463c
00000180: 40e9 37bd 77b3 ce3d 3acf ce3c 01a9 f8bc
00000190: 6dc7 59bd cde7 c7bc da7b 37bd 777c 963c
000001a0: 442a 953d 23d4 9fbc 49ae 90bd 2adb 533d
000001b0: 9ae7 8ebd fbef 82bd 7bdd 453a 1228 05bd
000001c0: a18d abbd e0a4 493c c0a1 d63c d04c 23bd
000001d0: cc51 833b 1802 1bbb d650 243c 03a3 14bd
000001e0: 5f5b 623c 5235 3bbc 5714 48bd 5531 4d3d
000001f0: 95f3 4ebd 36f5 2fbd bdd4 2abd e6ee 0cbd
00000200: 97b5 1b3d e318 9bbc 1301 67bd fdc3 73bd
00000210: b411 d23b 4566 63bd f59b 06bd 12e5 c63c
00000220: 8963 5d39 4a29 10bd 8c55 10bd 8550 77bc
00000230: 6050 05bd ec1b 403b 14e4 dabc 191c 1d3d
00000240: be35 06bd 2ba6 4fbc b4af b4bc a34b 233d
00000250: 2779 b1bc c4b0 1dbd 01d2 8fbc 6011 b4bc
00000260: 410c 47bb 0f5f 9bbb db2f 18bd a0cd 20bd
00000270: 15c8 883b 5a04 9d3d 0567 8abc d285 c4bb
00000280: 64a2 3bbd 2ed9 963c b69c f6bc c948 51bd
00000290: f503 23bd f3ac c2bc 5556 84bc 2ab0 09bd
000002a0: 822e 01bc 4771 bbbc 9e2d fcbc bbe2 18bd
000002b0: f843 5dbd d2ad 4dbc cf3e 41bd a451 7bbc
000002c0: ce7e 88bc d6d2 bf3c af0e 89bb dd24 1fbd
000002d0: 503f 04bd 301c c5bb 59d3 0dbc 3680 61bd
000002e0: 191f 23bd 16fb 163c 4bc3 1bbd 8c59 0abd
000002f0: d6f2 fe3c 965c 22bd 0d6f ebbc 9980 44bc
00000300: 2331 10bd 29c4 03bd c78a 1ebd 68fe 45bd
00000310: ad0e 4cbd aa77 ecbc 341e 1fbd 5781 aa3c
00000320: 0c18 0dbd a45b 7ebd a5d4 e4bc 6135 32bd
00000330: 679f febc 19a5 fbbc 7947 37bd b4c8 cebc
00000340: 6706 0ebb 72b8 4ebd 17ff 563c b470 35bd
00000350: cf19 05bd d63e 51bd 0489 5abd 50e0 35bd
00000360: 075d 27bd 9be6 4dbd aae5 19bd b729 35bd
00000370: f938 2bbd ec3e 38bd 5307 1ebd 337e 17bd
00000380: 48ea 43bd c38f 25bd c820 10bd 95d0 1ebd
00000390: a59b 04bd 04e8 703c ab41 fdbc 63a9 06bd
000003a0: 6b55 20bd dd76 4abd 35e2 dcbc 2d77 33bd
000003b0: f9f0 17bd 1158 18bd
0.21639208 -0.31313512 -0.91166353 -0.10614053 0.04284582 -0.11061296 -0.04481962 0.07145118
-0.13995498 -0.04859941 -0.08275107 0.08524609 -0.025119508 0.039724022 -0.13248242 -0.08702109
-0.0327482 -0.043229286 -0.01715745 -0.010876434 0.01404159 -0.020069515 -0.06472851 0.032349467
-0.106524765 -0.009370494 -0.058145106 -0.15904959 0.043653086 -0.18859665 -0.10943299 0.08056676
-0.041527696 -0.042958476 0.004921617 -0.03488734 0.09080403 0.047765713 -0.013842574 -0.007256879
0.09039392 -0.12157969 -0.058112357 -0.0092695 0.08261561 0.0026707016 -0.12100777 0.010246163
-0.095532864 -0.04644761 -0.06534678 -0.052124392 -0.0070696245 -0.05935236 -0.015611855 -0.026189148
-0.030381743 -0.05787603 -0.04056912 0.02300588 -0.08638817 -0.019860623 -0.04203863 -0.056121916
-0.0809823 0.10265914 -0.0034698693 -0.04904005 0.0069352626 -0.053610772 0.0042228033 0.0068394006
-0.01948779 -0.0016283122 -0.037898056 -0.036205046 -0.015807375 -0.014553736 -0.016395003 -0.08167855
-0.047975443 0.08764169 -0.022595037 -0.04975179 0.012302755 -0.03207047 -0.0037740255 -0.046249077
0.009169442 0.011808776 -0.010053419 -0.0015713974 -0.063183114 -0.15856291 -0.096425004 0.012094178
-0.04490018 0.10092824 0.025245298 -0.030354025 -0.053168703 -0.024402523 -0.04479585 0.018369896
0.07283452 -0.019510334 -0.07064492 0.051722683 -0.06977768 -0.06393429 0.0007547957 -0.032508917
-0.08376623 0.012307376 0.026200175 -0.039868176 0.0040075537 -0.002365237 0.010029038 -0.036288273
0.01381573 -0.011426287 -0.048847523 0.050095875 -0.050525267 -0.04295846 -0.04170679 -0.03440752
0.038014974 -0.018932765 -0.05639751 -0.05951308 0.006410802 -0.055517454 -0.032863576 0.024279151
0.00021113282 -0.035195626 -0.035237834 -0.015094881 -0.032547355 0.0029313518 -0.026720084 0.038356874
-0.032766096 -0.012673895 -0.022056438 0.039867055 -0.021664215 -0.038498655 -0.017556192 -0.021980941
-0.0030372294 -0.0047415565 -0.037155014 -0.0392586 0.0041742423 0.076668456 -0.016894827 -0.005997398
-0.045809165 0.018414106 -0.030104022 -0.051094804 -0.039798696 -0.02376411 -0.016154448 -0.03361527
-0.0078846235 -0.022881163 -0.03078347 -0.037325602 -0.0540199 -0.012553649 -0.04717904 -0.015339289
-0.016662028 0.023415964 -0.0041826586 -0.038853515 -0.032286942 -0.006015323 -0.008656346 -0.055053912
-0.03982458 0.009215137 -0.038028043 -0.033776805 0.031121653 -0.039639078 -0.028739477 -0.011993551
-0.03520311 -0.032169495 -0.038706567 -0.048338324 -0.049818683 -0.028865654 -0.038847163 0.020813627
-0.03444676 -0.062099114 -0.027933428 -0.043507937 -0.031081868 -0.030718373 -0.044745896 -0.025242187
-0.0021671297 -0.05046887 0.013122342 -0.044296935 -0.032495316 -0.051085316 -0.053353325 -0.044403374
-0.040860202 -0.05026875 -0.03757254 -0.044229236 -0.04180238 -0.044981882 -0.038581204 -0.036985587
-0.04783085 -0.040420305 -0.035187513 -0.038773138 -0.032374997 0.014703754 -0.030915102 -0.032876384
-0.03914396 -0.049429763 -0.026963333 -0.043814827 -0.037095044 -0.03719336
