models/MPC_horizon_6_obs_5.pt (torch_old, 270136 bytes, 8 tensors)

layers.0.weight f4 [128, 33]
00000000: 663d bb98 73c7 4589 75e8 0600 1b0d 0200
00000010: 7750 eb91 34f2 0400 f441 0080 69f7 0080
00000020: 6f09 0580 6f09 0580 3124 0180 cde0 f2a0
00000030: 0be1 f2a4 41de 4e99 59f5 8093 96f6 0400
00000040: 56fc 90a7 56fc 90a7 4fb7 0500 7a6c 0180
00000050: 139a bb8a 5ed5 bd8e 41de 4e99 139a bb8a
00000060: 01e1 0680 41de 4e99 41de 4e99 480e 9c9d
00000070: be90 0500 f56a 0300 d569 0180 743e 0280
00000080: bcb9 0680 773f 4cbe 6c6c d83c d89b 57c0
00000090: 1d70 763f 2081 f0bd 3c56 09bd 820f 9bbe
000000a0: db1f b03d ac2e 23be 4b8b e5bd 92f8 62bd
000000b0: 0c00 0a3e 14be be3d e93c 613d 7a5d da3c
000000c0: 36df 1dbd 8193 e13d e4c9 ca3d b4ef 533b
000000d0: e7fc 0cbd 9459 53bd 5c50 0abc 4a18 f13d
000000e0: c1e5 6dbc 30c3 91bd 8e4d 103e bef8 90bd
000000f0: 00a7 ce3d ef1b 833e 9136 4f3d 669c aabe
00000100: dbf7 983e 10ed 61be 71aa 479b a524 9a89
00000110: 9c39 0800 8a53 0200 b185 709c d6a1 128a
00000120: ff2d 0880 c700 0800 bc12 2289 bc12 2289
00000130: 66be 0180 d70f 01a5 84ab 42a8 2040 c79e
00000140: 4ffe 269a 6b36 0580 7683 79aa 7683 79aa
00000150: b04d e085 ab8e 0780 6a31 9d93 63b9 8d96
00000160: 2040 c79e 6a31 9d93 0ba3 0100 2040 c79e
00000170: 2040 c79e ef27 40a2 e865 0580 3d69 0000
00000180: 925f 0080 ce52 0080 ad35 0080 53d3 3c3e
00000190: f12b f8be 1ecb 9d3e 4878 76be 2b18 2dbe
000001a0: dbcb 4ebc c777 103e ac7f 603e 3b70 18be
000001b0: f00d 933a 7c75 9b3d ee19 353e e4e9 0d3e
000001c0: b072 c53d 2c01 8fbd f717 e93d 3e60 69bc
000001d0: c6fc 013e ac09 793d 37b1 fa3c ea84 ce3d
000001e0: 6fa3 a03c 0105 15be 6246 2e3e 3a35 0fbd
000001f0: 6dbd 2d3e 4812 1c3d 850f 753d 31a4 df3e
00000200: b7ac 29be 5310 ac3e a102 17be 4fac 05bf
00000210: 4802 9ebb 8b0b 88bb 557a 2eb7 8aca 30ae
00000220: 0290 85bb 0c06 b8bb 78cb 5da6 08a3 7f2d
00000230: 11dc 95bb 11dc 95bb 1d31 08ba b4d0 d2bb
00000240: 46f7 dcbb c595 c1bb 9024 b6bb 5404 4cbb
00000250: eb11 e4bb eb11 e4bb 52a7 91bb 248e 00b9
00000260: 3bed a7bb 4101 aebb c595 c1bb 3bed a7bb
00000270: cfa4 7cbb c595 c1bb c595 c1bb 16fa cabb
00000280: d76e b5b8 bcab 0aba e1a8 3b38 3eec cc37
00000290: 7faa 2abb c41f 963e 9a1c f6be 6440 3a3f
000002a0: 59f4 23bf 6ec7 143c 7ee3 c23d c203 523d
000002b0: 9ad7 1b3e 2544 d6bd c441 1a3e c26c 1cbd
000002c0: da43 d73c 3b5c 07be c6d6 213e 8fec 46bd
000002d0: 1ae0 133e 00c7 f73c 9613 5c3d e33b 20bd
000002e0: e180 453e cdc0 0f3d a481 583d c8b5 81bd
000002f0: 6134 7c3d bd0f 82bc 7e27 d0bd b4bd 363e
00000300: a0a9 573e 7a86 c43b 14f5 bebe 719e 393f
00000310: ae8f e0be 4355 6a3d 7695 7bbb af1d fdbb
00000320: f54e 6d3b 7a8f b339 39ad b2bb f651 0cbb
00000330: b0f0 44ba 59eb 9439 9284 93bb 9284 93bb
00000340: 2e40 5cbb 78c6 99bb 1ea2 9abb 3c37 98bb
00000350: 5119 97bb c97c 8cbb 9635 9bbb 9635 9bbb
00000360: d1fe 92bb 9842 33bb 959b 95bb 9d42 96bb
00000370: 3c37 98bb 959b 95bb b962 90bb 3c37 98bb
00000380: 3c37 98bb 3015 99bb fd43 113c 5b82 57ba
00000390: 34f8 19bc b95d 603b ea3c 22bc 4ebf debe
000003a0: 263d cfbd 0121 26bf 66cd dfbd 8380 a53d
000003b0: 5be6 fd3d 0815 e53e 70b2 333b ce0f d0bd
000003c0: 9bfb 0d3e df04 653d 73d5 ca3c 5343 733d
000003d0: 4afa 66bd 6787 383e f462 263e 4bdd b7bd
000003e0: d2a5 be3d 0ea9 9dbc fa89 55bc 0101 95bd
000003f0: 47f7 e7bd 1ab4 0a3e 5694 353e 3b50 dd3d
-4.8400364e-24 -2.3806793e-33 6.34403e-40 1.88372e-40 -3.7126053e-28 4.54228e-40 -2.366e-41 -8.8754e-41
-4.62562e-40 -4.62562e-40 -1.04819e-40 -4.1145155e-19 -1.0533201e-16 -1.0694834e-23 -3.2553674e-27 4.558e-40
-4.024161e-15 -4.024161e-15 5.24936e-40 -1.3075e-40 -1.8065401e-32 -4.6797562e-30 -1.0694834e-23 -1.8065401e-32
-6.31729e-40 -1.0694834e-23 -1.0694834e-23 -4.1307623e-21 5.11101e-40 3.13875e-40 -1.29801e-40 -2.06075e-40
-6.17642e-40 -0.19946085 0.026418887 -3.368887 0.9626482 -0.11743379 -0.033529505 -0.3028527
0.08599826 -0.15935773 -0.11208209 -0.055412836 0.1347658 0.09313598 0.05498973 0.026655901
-0.03854295 0.11014462 0.09901789 0.003233892 -0.034420874 -0.0515991 -0.008442011 0.11772211
-0.01452011 -0.07117307 0.14092085 -0.07078694 0.100904465 0.2560725 0.050589148 -0.33322448
0.298766 -0.22063088 -1.6515967e-22 -3.710861e-33 7.5535e-40 2.13639e-40 -7.958213e-22 -7.060082e-33
-7.51184e-40 7.34963e-40 -1.950885e-33 -1.950885e-33 -1.60138e-40 -1.1194333e-16 -1.0806355e-14 -2.1096466e-20
-3.4533424e-23 -4.78699e-40 -2.2161252e-13 -2.2161252e-13 -2.1093397e-35 -6.94028e-40 -3.9681098e-27 -2.2896774e-25
-2.1096466e-20 -3.9681098e-27 1.50324e-40 -2.1096466e-20 -2.1096466e-20 -2.6041993e-18 -4.95735e-40 3.7752e-41
-3.4284e-41 -2.9705e-41 -1.9255e-41 0.18439989 -0.48471025 0.3081903 -0.24069321 -0.1690375
-0.012621845 0.14108191 0.21923703 -0.14886563 0.0011219364 0.07590768 0.17685673 0.13858753
0.096410155 -0.069826454 0.11381524 -0.014244137 0.12694082 0.06080024 0.03060208 0.10083945
0.019609181 -0.1455269 0.17019036 -0.03496287 0.16966791 0.03810337 0.059829254 0.43679956
-0.16569792 0.33606204 -0.14747097 -0.5221605 -0.0048220493 -0.0041517667 -1.0399691e-05 -4.0197658e-11
-0.004076005 -0.005615955 -7.695053e-16 1.4531272e-11 -0.004573353 -0.004573353 -0.0005195307 -0.0064335708
-0.0067433445 -0.0059077465 -0.005558558 -0.003113051 -0.006960144 -0.006960144 -0.004444995 -0.00012259983
-0.0051247156 -0.005310208 -0.0059077465 -0.0051247156 -0.0038550382 -0.0059077465 -0.0059077465 -0.0061943633
-8.651398e-05 -0.00052898726 4.4741555e-05 2.4428704e-05 -0.0026041565 0.2932111 -0.48068696 0.727545
-0.6404472 0.009080751 0.09516047 0.051273115 0.15218964 -0.10462216 0.1506415 -0.038189657
0.026277471 -0.13218777 0.15804586 -0.048565444 0.14440957 0.030246258 0.053729616 -0.039119612
0.19287445 0.03509598 0.05285801 -0.063335 0.06157339 -0.015876645 -0.101637825 0.17845803
0.210608 0.005997476 -0.37296355 0.7250739 -0.4385962 0.05721022 -0.0038388646 -0.007724486
0.0036210392 0.0003424844 -0.0054527787 -0.0021411157 -0.0007512672 0.00028404107 -0.0045018876 -0.0045018876
-0.003360759 -0.004692849 -0.004719033 -0.0046452563 -0.0046111722 -0.0042873365 -0.0047366126 -0.0047366126
-0.004485943 -0.0027352925 -0.004565666 -0.0045855776 -0.0046452563 -0.004565666 -0.0044063 -0.0046452563
-0.0046452563 -0.004671715 0.008866307 -0.00082210236 -0.009397555 0.003423555 -0.009902218 -0.4350533
-0.10119085 -0.6489411 -0.109278485 0.08081152 0.123974524 0.44742608 0.002741959 -0.101592645
0.13865511 0.05591285 0.024759984 0.059390377 -0.056391038 0.18020402 0.16248685 -0.08977755
0.093089715 -0.01924565 -0.013033384 -0.07275582 -0.11326461 0.13545266 0.17732367 0.10806318

layers.0.bias f4 [128]
00000000: 01e1 0680 9c07 a23d 0ba3 0100 19b6 0abe
00000010: d3a4 7cbb a482 eb3d ba62 90bb 9e88 62bd
00000020: 211b bc3d 47f4 0080 2e62 0ebc 479e 253e
00000030: e22c 343e b069 13be c05c e33d fefb b1ba
00000040: 7f48 9cb6 85fe 503c 19c2 d63d e67d b3bc
00000050: e7c7 42b4 ab96 493e 0a5d 1f3e 5e9d b1bd
00000060: c321 093e c933 2dbe 4763 f93d 6bb3 683e
00000070: 01a3 1e3e 1d8c dcbc bb5f 4c3c 480e 293e
00000080: 9a96 87bb f14f 1b3e 82e4 213e a5b6 fbbc
00000090: 854e 0a3e af49 363e c519 eabd beed 02bc
000000a0: 7a14 98bd 1396 d2ba c261 a9ba 8474 8c3d
000000b0: af98 36bb 20d3 92b7 ed48 863d 5b3a 433a
000000c0: f1f5 8bbd e03d a0bd 606e 393e e8ac a23d
000000d0: 4e44 9dba 5e4d f6bb 3664 0cbc 5c6b 503d
000000e0: d6e0 5cbb eca3 1dbe fb34 a0bb fc33 76ba
000000f0: a494 2f3e fee5 4eb2 da69 b13d 955e 4dbd
00000100: cf32 513d 2dd6 0700 abc0 d33d cda2 143e
00000110: e5f7 053e 69bb 04bd 61f0 d0bd 620c eda6
00000120: ce00 16bc 1f2c 12bb 83a7 ef9e 2371 61bd
00000130: 717e 28be a939 be3c a603 1ebd 59ea 0680
00000140: d39f 2e3e 5d84 0a3d 402a 58bb ea9c af3c
00000150: fdf1 42bd 7948 213e 0790 dd3c e058 1abe
00000160: 09f1 afbd 1e10 debd 99b5 35a4 4448 8c3c
00000170: 0fdd 113e 86ce 183e b315 a1a9 4d09 58bc
00000180: 0cee 55bd 3f28 413d 077a 87bd 0765 fe3d
00000190: 2d42 0600 e35f bebb 9c59 31bc 7d7b 413e
000001a0: 4cc3 ce3d 4b4c 23bd 455a 8f3b 5270 8e3d
000001b0: 5561 1abe 8c6b faba f7c4 c6bd 0584 9ebd
000001c0: 40ea 0500 85b5 423e 979f 02be efa9 393e
000001d0: 7061 dfbb f5be 0380 4cdc a9bc da01 04be
000001e0: 22c6 debd c3bc fa3d 3106 f7bd d3ac 64b9
000001f0: ac0c 39be 9fd1 fa3d bbf3 663d 06fc bdbb
-6.31729e-40 0.079116076 1.50324e-40 -0.13546027 -0.0038550391 0.11499527 -0.0044063004 -0.05530607
0.09184862 -8.763e-41 -0.0086904 0.1617366 0.17595246 -0.14395785 0.11101675 -0.0013579128
-4.657602e-06 0.012755995 0.1048624 -0.021910619 -1.8140382e-07 0.19686382 0.15562835 -0.086725935
0.13391785 -0.16914286 0.12177139 0.22724693 0.15491869 -0.02692228 0.012473996 0.16509354
-0.004137826 0.15167214 0.15809825 -0.03072674 0.13506515 0.17801546 -0.114306964 -0.0079912525
-0.074257806 -0.0016066454 -0.0012922811 0.06858161 -0.0027862003 -1.7502869e-05 0.06556878 0.00074473553
-0.06834019 -0.07824302 0.18108511 0.079431355 -0.0011998506 -0.007516547 -0.008568814 0.050883636
-0.0033703349 -0.15394562 -0.0048891283 -0.00093919015 0.17146546 -1.2043072e-08 0.08662768 -0.05013903
0.051073845 7.1968e-40 0.10339483 0.14515229 0.13082846 -0.03240529 -0.10202099 -1.6448535e-15
-0.009155465 -0.002230413 -2.537439e-20 -0.055039536 -0.16454484 0.023220854 -0.0385777 -6.35081e-40
0.17053156 0.033817638 -0.0032984167 0.021437127 -0.04759406 0.15750302 0.027046217 -0.15072966
-0.08590896 -0.10842918 -3.9401938e-17 0.017124303 0.14244483 0.14922532 -7.1536005e-14 -0.013185811
-0.052228972 0.047157522 -0.06615072 0.12421613 5.74752e-40 -0.0058097704 -0.010824587 0.18894763
0.10095844 -0.03986768 0.0043747746 0.06955017 -0.15076192 -0.0019105538 -0.09705537 -0.077400245
5.4321e-40 0.19014557 -0.12756191 0.18131231 -0.0068170354 -3.44009e-40 -0.020734929 -0.12891331
-0.108776346 0.12243035 -0.12061728 -0.00021808156 -0.1807124 0.12247013 0.056384783 -0.005797866

layers.1.weight f4 [128, 128]
00000000: dd0f 0a00 d1e5 7cbb 553b 0980 62db 92bb
00000010: 9215 0580 8647 bbbb 22d5 0600 0c6e 2bbb
00000020: 6da6 97bb 18b7 0780 f9cd 0400 3dbb a2bb
00000030: e7d5 73bb b9f7 a2bb cc55 edba 8d59 0300
00000040: 7305 0380 de36 18bb 419b adbb 0f01 84bb
00000050: 3905 0400 6a27 cfbb 353b d9bb 8283 a4bb
00000060: a552 adbb 47ef 0abb 4783 d2bb 3d64 d1bb
00000070: 345a 80bb 3ea5 aebb 17dd 60bb 1211 b3bb
00000080: 7f96 0600 1381 07bb c830 8ebb 7b55 b2bb
00000090: 9a81 8bbb 4a41 00bc 5e3d d5bb ef86 0600
000000a0: b937 afbb 1be1 0980 e847 0b00 3ceb b9ba
000000b0: 577b 0900 3b46 0200 45c9 c7bb 8e4f c7bb
000000c0: 85c9 babb 3cbf b0bb 5007 90ba 1db0 cebb
000000d0: 7d87 0800 d8fb 0a80 f642 c6bb e7c7 71bb
000000e0: bded e5bb bd46 2bbb d06e 0900 d92e 0980
000000f0: 7cd5 90bb e4e7 0980 dbd5 7dbb 3949 65bb
00000100: 59b9 98bb ac14 0a00 5dc7 debb 7399 b4bb
00000110: 55f3 6dbb fee5 3fbb 67d7 37bb ad7b 0800
00000120: f3e5 0280 3461 0080 ca9a 0480 d27a 8ebb
00000130: 9e47 3abb 3d8e a5bb d3eb abbb daf0 0980
00000140: 5358 8cbb ae99 bbbb d88d 0980 851b 7ebb
00000150: ee3c a9bb 6d10 c2bb 607f 04bb 2b60 12bb
00000160: efd5 d2bb 2dc2 3cbb 53b1 0a00 5b62 01bb
00000170: 5099 6dbb 8ce1 1ebc ea80 0500 378f 96bb
00000180: 9825 81bb e48a 8ebb dddb 6abb 8f9c dbbb
00000190: 867e 0180 edf2 0180 032e 0680 dc61 8ebb
000001a0: a8ca 46bb d46a 26bb c3a8 e0bb 8295 41bb
000001b0: d63b cfbb 5a77 0680 9c6c dcbb 1c65 a0bb
000001c0: 315f 0800 6e13 d6bb 7eb8 63bb c394 84bb
000001d0: 7879 0600 f6d7 0980 09f8 e4bb 7033 5cbb
000001e0: a552 a0bb 64dd e4ba 1b6a a0bb 7075 0480
000001f0: 5e0e afbb 8ba6 abbb fef5 d6bb 2bdd 0880
00000200: 51e7 0180 920f ba3d 5463 0400 6977 073e
00000210: 2f09 02bb 2652 3c3e ba84 17bc f5cc 63bd
00000220: a51a 6fbe 9b77 0000 8931 f9bb 0c23 a4bc
00000230: f3e6 063e 0b13 0a3e 566a dcbd 7028 bc3a
00000240: c4f3 1cba 08b5 c63d 3dce a93d bfa7 7f3d
00000250: 7a42 c0b3 cfef af3d cb44 963e d217 13be
00000260: 12dc 773b 2e9f 69be 8e28 403e cc77 923c
00000270: 39da 0c3d a84e b93d d05d bc3c 87cc 0b3e
00000280: e176 be39 44ea f2bd f743 99bc 2158 3c3e
00000290: da66 c53d 09e2 dbbd 9599 01be e479 25bc
000002a0: 761b f73d b314 85ba 40f2 bfba 5ad3 83be
000002b0: 0153 2a2d 76d4 1539 3817 f7bc 2797 1a3e
000002c0: afb9 e4bd 93fa 043d 5943 debe dba8 85bd
000002d0: 8ba1 20ba 8eb8 0dbb 6787 f53d 57b5 80bd
000002e0: 1db7 6abd 2cd0 7c3d a6ce a43a 2489 47ba
000002f0: 21b5 913d 9155 542a b58d f53d 5167 d53c
00000300: f79c 8abe d0fd e308 d443 34bc 2d62 7abd
00000310: 0b53 833d cc6b 01bd 1c30 69be 6fbd 30a8
00000320: b386 6ebc b973 d8b9 5f21 f72a 3915 6bbe
00000330: 5b98 073e 9f6b 8fbd cf17 97bd a3c2 0100
00000340: 7638 013e 9f0d 343e ae95 ca3a d5e3 89bd
00000350: 9d72 543d dd3b 08be 4b53 a0be eb42 043e
00000360: 0f2e 3a3e 2b02 8d3d 6d45 c4a9 5167 eebb
00000370: 4af7 c93d 1005 463e c39e 0000 277e f03d
00000380: 0c7d 543b 7e96 9e3c bf8a 073d 04b6 7f3c
00000390: 176e 0000 7106 9b3b 6a0a 7ebb 7f82 c4bd
000003a0: 5697 873d 0eb5 99bd 0593 9d3d 6d90 363e
000003b0: 041d d63c 5c26 c0b8 3faf a43e 22ec 84bd
000003c0: 53f7 0600 681a 4a3c dcf2 00bd 583d c8bd
000003d0: d3a8 a33a 27dd 0600 f97f 7d3d bea7 0abe
000003e0: 78da 00be 02f8 90bd db6a f73d ed57 0680
000003f0: b8b9 7a3e 763a 143e 812e 063e 42c6 3d3b
9.24046e-40 -0.003858913 -8.47804e-40 -0.004481719 -4.66915e-40 -0.0057153134 6.2747e-40 -0.0026158122
-0.004627994 -7.0853e-40 4.41231e-40 -0.004966168 -0.0037206353 -0.0049733785 -0.0018107235 3.07631e-40
-2.77461e-40 -0.0023226063 -0.0052980487 -0.0040284465 3.69216e-40 -0.006321837 -0.0066293725 -0.0050205598
-0.005289393 -0.002119975 -0.006424341 -0.006390123 -0.003917003 -0.005329757 -0.0034311467 -0.0054646814
6.05001e-40 -0.00206763 -0.0043393113 -0.005442319 -0.004257393 -0.007828066 -0.0065075597 5.99418e-40
-0.005347219 -9.07272e-40 1.035986e-39 -0.0014184485 8.70765e-40 2.08865e-40 -0.0060969912 -0.0060824817
-0.0057002925 -0.0053938907 -0.0010988507 -0.0063076154 7.83288e-40 -1.0087e-39 -0.006050463 -0.0036892833
-0.007016866 -0.0026134693 8.66272e-40 -8.43325e-40 -0.0044199806 -9.09706e-40 -0.0038732204 -0.003498627
-0.004660767 9.2577e-40 -0.0067986683 -0.0055114566 -0.0036308367 -0.0029281373 -0.0028051974 7.7905e-40
-2.66161e-40 -3.487e-41 -4.2287e-40 -0.0043481374 -0.0028424035 -0.0050523565 -0.0052466183 -9.12921e-40
-0.00428299 -0.005725107 -8.77403e-40 -0.0038773727 -0.005164734 -0.0059223683 -0.0020217523 -0.0022335153
-0.0064341943 -0.0028802261 9.81967e-40 -0.0019742462 -0.0036254711 -0.009697329 5.05423e-40 -0.0045947093
-0.003941249 -0.004350053 -0.0035836615 -0.006702013 -1.37224e-40 -1.78981e-40 -5.67519e-40 -0.004345162
-0.0030333195 -0.0025393264 -0.0068560555 -0.0029538576 -0.0063242717 -5.93828e-40 -0.0067268144 -0.0048948657
7.68832e-40 -0.006533078 -0.0034747417 -0.004046054 5.94588e-40 -9.03992e-40 -0.006987576 -0.0033599995
-0.0048926645 -0.0017460999 -0.0048954613 -4.0947e-40 -0.005342289 -0.0052383593 -0.0065600863 -8.14024e-40
-1.74816e-40 0.09085001 4.02974e-40 0.13229145 -0.00198419 0.18390712 -0.009247953 -0.055615384
-0.23350008 4.2906e-41 -0.007604782 -0.020036243 0.13174038 0.13483827 -0.107624695 0.0014355313
-0.00059872516 0.09702498 0.0829129 0.062415835 -8.952789e-08 0.08590662 0.2934936 -0.14364555
0.003782038 -0.22814628 0.1876547 0.01787939 0.0343878 0.090482056 0.022993952 0.1365224
0.00036328196 -0.11861089 -0.018709166 0.18392994 0.09638758 -0.10736472 -0.12656243 -0.010099862
0.12065785 -0.0010153264 -0.001464434 -0.25747186 9.681812e-12 0.00014288895 -0.030162439 0.15096723
-0.11168229 0.03246553 -0.43410757 -0.06526347 -0.00061275874 -0.0021624896 0.119887166 -0.06284588
-0.057303537 0.061721966 0.0012573793 -0.0007611683 0.07114626 1.8859069e-13 0.11989919 0.026050242
-0.2707288 1.3721737e-33 -0.0110025 -0.061128784 0.064123236 -0.031596944 -0.22772259 -9.8110395e-15
-0.014558482 -0.0004128495 4.389917e-13 -0.22957315 0.13241713 -0.07002949 -0.07377588 1.61658e-40
0.12619194 0.17583321 0.0015455985 -0.06732909 0.051867116 -0.13304086 -0.31313547 0.12916152
0.18181632 0.06885179 -8.716192e-14 -0.0072755 0.0986162 0.19337869 5.6953e-41 0.11742812
0.0032423167 0.01935887 0.033091303 0.015607361 3.9493e-41 0.0047309925 -0.0038763531 -0.09595203
0.06620662 -0.075052366 0.076940574 0.17828532 0.026136883 -9.1624184e-05 0.32164952 -0.06490351
6.39736e-40 0.012335397 -0.03148161 -0.097773254 0.0012486227 6.30347e-40 0.061889622 -0.13540551
-0.12583339 -0.07078554 0.12080928 -5.82555e-40 0.24484909 0.14475426 0.13103677 0.0028957282

layers.1.bias f4 [128]
00000000: e85d 94bb 45df 223e b7f8 4bbc 1921 883d
00000010: 1e33 1d80 e01f 06a9 915b ae3c bf34 79bc
00000020: a04f d43d 1cd5 5eba d858 aebb d558 99bb
00000030: c8b8 53a7 534d a23d cea3 b63d 2af5 78bb
00000040: 4fb5 983c 4d76 543d 9ea1 d58e 3a9a 4b3d
00000050: e56f efbb 219d 47bc 8917 27ba 09e3 bc3d
00000060: d57b 8e3d 9c6a f63d 7dca 6db3 d945 da3c
00000070: 3c18 99b7 e371 ca3d 9231 4cbb 248c a53d
00000080: b3ee 0000 486c c0aa a46c 3a3d dc9d 403d
00000090: 8d33 a4b4 dcb6 f83c f9b2 0180 0018 d13d
000000a0: ad8c d4b1 bad8 ec37 a05d 0abe e1be 478c
000000b0: f9e8 0100 66c7 6dbb fd5f 48bc 213c dc3d
000000c0: 0243 293e 6ce7 3bbc 1c43 31a6 0e47 d4b4
000000d0: 1492 cf3d 5a5a c93d dd63 4fbc c81b bfbb
000000e0: 990e 8bbc f0eb 643d a3a6 863d 349e 9b3d
000000f0: 8ccf b53d 5c86 8fbb 729c 053e 854e e33d
00000100: 8627 e1bc 742d b0bd a145 8196 5774 dbbb
00000110: 0aaa e1bb 5ac2 0400 6bb4 0dba 64ce 86b9
00000120: 14b8 18bb 00af 193d 94fc dcba a04b e0bb
00000130: d99a a8b9 dc11 113e 9b9f 4bba 7e92 90bc
00000140: 64b8 d13d 7d12 113d d6a8 8da2 61d8 4597
00000150: 1275 0c3c 3230 443d 4c27 6a98 ece5 d33b
00000160: 097e 253e f90e ee3a 09ab 543e 67ad c33d
00000170: dc9a 3bb3 c1f2 093d 04e5 063d 6865 e1b9
00000180: 9503 863d eb26 ee3d 0af5 0200 bf80 e3b7
00000190: 779a b9aa fca0 b6b7 bcc0 0000 a6c1 35b3
000001a0: eb49 443e 6bfb be3d 968f c3af e657 b9bb
000001b0: 6199 16bc 96c6 f53d df8b 39b0 53f8 26b3
000001c0: 91ab 713d 0d97 1e3d 9105 043d cc05 3299
000001d0: 9ebb 39bc 8795 9a3d 1d22 7e9d 229f 84ba
000001e0: 613e ebb5 2b1f 25bb 44c5 a03c cd47 293e
000001f0: 90fe f4bd b4b3 0a3e ba3c 383e 32b1 0400
-0.004527796 0.15905483 -0.012449435 0.06646938 -2.681567e-39 -2.9781624e-14 0.021283897 -0.01521033
0.1036675 -0.00085003837 -0.0053206496 -0.004679779 -2.9382302e-15 0.07924905 0.08917962 -0.0037987926
0.018641142 0.051870633 -5.2664186e-30 0.04970763 -0.00730704 -0.012183459 -0.00063740514 0.09222991
0.06957213 0.12032053 -5.5365025e-08 0.026644634 -1.8250306e-05 0.098850034 -0.0031157476 0.0808337
8.5629e-41 -3.4181187e-13 0.045513764 0.047025546 -3.0584889e-07 0.030360632 -1.56039e-40 0.10209656
-6.186005e-09 2.8234314e-05 -0.13512278 -1.5387843e-31 1.7541e-40 -0.003628218 -0.012229917 0.10753656
0.16529468 -0.0114687495 -6.150016e-16 -3.9539776e-07 0.10135284 0.09831686 -0.012658087 -0.005832169
-0.016974734 0.05588907 0.06574752 0.07598534 0.08877477 -0.0043800306 0.1304796 0.11098961
-0.027484667 -0.086024195 -2.0885016e-25 -0.0066972184 -0.0068867253 4.37062e-40 -0.00054056075 -0.00025712245
-0.0023303078 0.03752041 -0.0016859942 -0.0068449527 -0.00032158828 0.14166969 -0.00077676185 -0.017647978
0.10240248 0.035418022 -3.839689e-18 -6.392724e-25 0.008572834 0.047897525 -3.0263631e-24 0.006466618
0.1616136 0.0018162421 0.2076837 0.09554558 -4.3680174e-08 0.033678774 0.03293325 -0.00042990898
0.06543652 0.11628517 2.71574e-40 -2.712046e-05 -3.2969783e-13 -2.1771055e-05 6.914e-41 -4.231847e-08
0.19168822 0.09325298 -3.5572317e-10 -0.0056562303 -0.009191842 0.12000768 -6.7501377e-10 -3.8875736e-08
0.05900151 0.038718272 0.03223187 -9.203555e-24 -0.011336235 0.07548051 -3.3634256e-21 -0.0010118226
-1.7527019e-06 -0.002519558 0.019625314 0.16531296 -0.119626164 0.13545114 0.17991915 4.30908e-40

layers.2.weight f4 [128, 128]
00000000: 8cea 0a00 4545 03bc 5a2a 0380 8d4d 09bc
00000010: 975c 0200 be70 0180 1e6f a8bb 73da dcbb
00000020: 8efe a8bc 4150 0780 f4b9 0480 e35e 0880
00000030: 4054 0280 bd6d 8ebc 6984 2abc 4b6e 0700
00000040: 2680 48bc ab09 b0bb 0df8 0100 7bef 42bc
00000050: 0df2 0a80 9c14 0a80 cb93 7fbc f45c 81bc
00000060: 27a6 3ebc 2c3d c4bb ebc9 0800 19bc 41bc
00000070: fa11 0980 bad6 dbbb 6632 0a80 1232 82bc
00000080: 1bfe 0780 8477 0900 efaf 00bc 4edf 75bc
00000090: 24ab 0600 380c b9bb 89f9 0800 5b48 57bc
000000a0: e983 0580 f648 0100 03d1 37bc 4486 0580
000000b0: a613 0380 67df 0900 0618 0900 1870 fabb
000000c0: 68a1 01bc 3bb8 0880 880b 0a80 6177 0200
000000d0: c4b0 81bc e648 f9bb 8efb 9dbb 704a 0600
000000e0: bd4a 6fbc a40f 04bc f48e e6bb 9be2 c6bb
000000f0: 4a4d 45bc e2c8 0980 22bc b1bb a459 f4bb
00000100: 861b 0bbc 6ad0 7dbb 5e3c 0900 e932 0200
00000110: c27b 6cbc e760 0180 0196 0300 d4d1 0180
00000120: c664 0680 058b 37bc b8b6 0900 fa69 d4bb
00000130: c6a1 0580 d0b2 c3bb 6eb8 0500 17b1 b3bb
00000140: c190 59bc d36c 48bc 419b 0900 c678 0380
00000150: 30fa 22bc 55f2 5dbc 7eca 0980 693f 61bc
00000160: 05f3 aabb d133 eabb a38f 06bc 5af2 27bc
00000170: 3440 0080 9518 2fbc 62c7 37bc 37ee 0200
00000180: 62fe 13bc fecc 10bc 1ad4 0900 ddc2 0980
00000190: 2fc3 0a00 b155 0180 73e0 0680 4da1 0900
000001a0: 42cb 29bc 4214 98bb bc69 0a00 43d7 f6bb
000001b0: e9de 0800 7c84 09bc ec65 0280 4e59 0680
000001c0: 15de d8bb ec75 66bc 7f0a 42bc 4239 0300
000001d0: 51be 0500 85fd 09bc 747b 0480 d6b5 37bc
000001e0: baa2 0300 98db 0300 c020 18bc 5ebd 0ebc
000001f0: 5a1f c8bb 8f08 b6bb 8ddd 01bc 9357 0880
00000200: dc9a f9b9 e96c f8bc 755b fa3b 846d 3e3d
00000210: ba21 05bb 8e9d 1334 9c83 003e 09b0 463c
00000220: 21a2 3dbe bbfa 593b a206 c2bb 0eef 04bc
00000230: 4ab7 0400 569b 3bbe 8b1c 3fbe 0882 07bc
00000240: 623a 9cbd 265f d13d 94a4 b1b1 524f e13d
00000250: 1ef1 bf3c 2494 0bbb df9e c4bd 788d a0be
00000260: f58c 39bd b039 e6bd ae76 8738 06d0 07bd
00000270: 2bb7 093a c6d5 2a3e b5d6 c73a 08e9 5d3e
00000280: 1d42 449f ac2f e729 f7d1 a63d c6e2 223e
00000290: d1ef a136 d196 08be 5377 16a3 8fa1 dc3e
000002a0: 1018 b22e f33b 05bc 0c08 0f3f ce8b dda2
000002b0: 8a49 4031 05c8 153c 4c26 d0ba 6c13 a63e
000002c0: 8571 32bd 46bd c6b9 81d8 0480 6d22 bfb9
000002d0: 8a99 1c3e 1bfa 293e 9ba3 21be aab8 a5bb
000002e0: 40c7 043d f020 4b3d 9cb7 24be dbaa 61be
000002f0: ffe5 b4bd 0dea 9cbb 36fc 3dbc 62e9 3fbe
00000300: cb87 8e3e cf52 793e 8bba 8a93 8aaf 87bc
00000310: 7739 803e 0f82 c2a6 f3a8 0fbb 470f 133b
00000320: 5084 753b f79f 053e 4e38 98ba 85e6 b8bc
00000330: 0136 85bb f10f b7bc f207 883a 0e69 cf3d
00000340: e29d abbb 0f4f 9dbd dfc1 0429 50c0 90b2
00000350: 9d6e 74be 379d e13d c2b0 1538 b46b d13d
00000360: 8f1c 24bd 0b3c 6bbe 454b 253e 6f4e 3f3d
00000370: 461c 7338 6c51 12be d71d 0e3e 87da 1dbb
00000380: 252a cc3e b464 11bd 39e6 0400 14b7 d6ba
00000390: 93fa 39b5 2139 26ba 1748 0c32 b995 d5b9
000003a0: 2a03 83bd a2de c0bd 1196 1a27 8e18 543e
000003b0: 6ac1 aa3b f678 23bf a6c3 619b 6ee7 183a
000003c0: f42f 843d 9162 ea3a 40c3 c9bb 3281 c6b5
000003d0: 5987 30bb 136f 8f3e 0c1f eeb8 9c89 b5be
000003e0: 8156 d4b8 5811 9c3b 5929 65bc 9035 ce3a
000003f0: b429 f1be 73e4 30bd b51a 1b3d 0eec 0780
1.002495e-39 -0.008012121 -2.907e-40 -0.008380306 2.16886e-40 -1.3228e-40 -0.0051401993 -0.0067399084
-0.020629194 -6.71638e-40 -4.3405e-40 -7.68723e-40 -2.13894e-40 -0.017386312 -0.010407546 6.82414e-40
-0.012237584 -0.0053722463 1.8082e-40 -0.011897917 -1.005186e-39 -9.25748e-40 -0.015599201 -0.015791394
-0.0116362935 -0.0059887376 8.07118e-40 -0.011824631 -8.32968e-40 -0.006708947 -9.36435e-40 -0.015893016
-7.34004e-40 8.69394e-40 -0.007854446 -0.015006853 6.12407e-40 -0.0056472085 8.242e-40 -0.0131398095
-5.06498e-40 1.18009e-40 -0.011219266 -5.07343e-40 -2.82555e-40 9.06661e-40 8.35137e-40 -0.007642757
-0.007912017 -8.00773e-40 -9.22492e-40 2.26496e-40 -0.015831359 -0.007607567 -0.0048212474 5.77716e-40
-0.014605221 -0.00806037 -0.0070360843 -0.006069494 -0.012042353 -8.98583e-40 -0.0054240385 -0.007456975
-0.008490449 -0.003872896 8.48175e-40 2.01934e-40 -0.014433803 -1.26598e-40 3.29318e-40 -1.67108e-40
-5.87164e-40 -0.011202578 8.92067e-40 -0.00648236 -5.17211e-40 -0.005972244 5.25338e-40 -0.0054837572
-0.013279141 -0.012232977 8.82214e-40 -3.18832e-40 -0.009947345 -0.013546546 -8.9916e-40 -0.013748028
-0.0052169585 -0.0071472903 -0.008212957 -0.010250652 -2.3032e-41 -0.010687013 -0.01121697 2.69126e-40
-0.009032818 -0.008837936 9.02607e-40 -8.96423e-40 9.88374e-40 -1.22576e-40 -6.3153e-40 8.84383e-40
-0.010363402 -0.004641087 9.56285e-40 -0.0075329854 8.14649e-40 -0.008393403 -2.20234e-40 -5.8305e-40
-0.006618271 -0.014066201 -0.011843323 2.96047e-40 5.2745e-40 -0.00842226 -4.11629e-40 -0.011212787
3.33882e-40 3.54282e-40 -0.009285152 -0.008712141 -0.006107253 -0.0055552195 -0.007926357 -7.661e-40
-0.0004760836 -0.03032537 0.007640297 0.04649116 -0.0020314292 1.374776e-07 0.12550205 0.012126931
-0.18518879 0.003326102 -0.005921201 -0.008113636 4.33094e-40 -0.18320975 -0.18663232 -0.008270748
-0.07628323 0.10223226 -5.1700884e-09 0.11001457 0.023430403 -0.0021298015 -0.09600615 -0.31357932
-0.045300443 -0.11241472 6.4594075e-05 -0.03315737 0.00052534294 0.1668311 0.0015246483 0.21670926
-4.1559302e-20 1.02667305e-13 0.08145516 0.1590682 4.826092e-06 -0.13338782 -8.156784e-18 0.4309201
8.098777e-11 -0.008131969 0.55871654 -6.0050194e-18 2.798148e-09 0.009141927 -0.0015880554 0.32436693
-0.043565292 -0.00037906523 -4.45009e-40 -0.00036456008 0.15292946 0.16599314 -0.15785067 -0.005057414
0.032416582 0.04959196 -0.16085666 -0.22037832 -0.08832931 -0.004788643 -0.011595776 -0.18741372
0.27837977 0.24347995 -3.5020043e-27 -0.016563196 0.25043842 -1.3496707e-15 -0.002192077 0.0022439526
0.0037462898 0.13049303 -0.001161346 -0.022570858 -0.0040652757 -0.022346469 0.0010378344 0.101274595
-0.005237327 -0.07681095 2.9478044e-14 -1.685126e-08 -0.2387032 0.110163145 3.5688987e-05 0.10225621
-0.040066298 -0.22972123 0.16141994 0.04670566 5.7962046e-05 -0.14288872 0.1387857 -0.0024086551
0.39875904 -0.03549643 4.4993e-40 -0.0016381466 -6.9282504e-07 -0.00063409103 8.165464e-09 -0.00040738078
-0.06397088 -0.09417464 2.1453144e-15 0.20712492 0.005211045 -0.63856447 -1.8674781e-22 0.00058328256
0.06454459 0.0017882158 -0.006157309 -1.478975e-06 -0.0026936142 0.2801443 -0.00011354507 -0.3545655
-0.0001012506 0.0047628097 -0.013986909 0.0015732516 -0.4710213 -0.043186616 0.037867267 -7.27529e-40

layers.2.bias f4 [128]
00000000: 4ffe 20bc a6e9 5d3b 38dd 80bd f982 53bb
00000010: 8131 993d ae30 45bd b394 d03d fb32 0500
00000020: 5516 f93c 0639 52be c2d2 d83d 07d2 23ba
00000030: afad 843d 8906 0f3e 1dd1 5ebc dd32 563e
00000040: 01e5 6a3d 5634 bbb9 475c 963c 69e5 103e
00000050: d5b5 0180 5b67 c4bb 648b 233e 2f47 1cbb
00000060: a839 5abe fa22 553e 8af7 a23d db73 cbb9
00000070: 3b3f 8dbc 66cb 53b3 bbe4 ad3d e228 413c
00000080: 5e47 413e b59e 9b3a 8c64 0780 d135 103e
00000090: 3a97 8dbd 6e71 8490 82d3 803c dfe4 bf3c
000000a0: 1f8d 59b8 4efe 17bb 4ce3 bf3c 4d46 1bbc
000000b0: 9f4b a23d 6135 1d3d a432 a33d 2dce 0380
000000c0: f504 60bb cf9b 42be 53f2 0ebc 0d10 9cba
000000d0: 35ca 0500 d9a4 223e ec73 7d3e 7cc7 0700
000000e0: 2adf 733d cd3e 0700 8a9d bdbd 4a21 2a3e
000000f0: 6d9d f03d 3b5d a53d 9b8c 0280 2650 d43d
00000100: 7c0a 173d d50d c0ba 32c1 bbb8 f426 ec3a
00000110: d7e0 533d 11f5 82bb e527 a7bb 55b6 283e
00000120: 2de4 36a7 938a 8dbd 4c7c 60ba 1bac 3dbe
00000130: 1e1c 873d 93a3 83bc 9339 d03c 5376 81bb
00000140: 86ba 1eb8 991b c53d cf2e f83d 834c dabb
00000150: ddb7 52ad 5660 293e 11c4 043c e126 a83d
00000160: b4b9 4a3e c0ff b2a4 6c65 cabb 8e83 953d
00000170: 1a91 0080 7c14 57be e2a6 68be 79f2 e5bd
00000180: a986 af3d 7c16 21a7 bcc7 ce3c f0d1 0400
00000190: 8db6 cc38 6070 6d3c 3149 c0bc e6e7 7cbb
000001a0: 449b 0500 5bc7 91bb d589 3abe 5915 0300
000001b0: 6274 2a3e 3e7c 4e3d 73ce d3ba 6759 3e3e
000001c0: 0758 0080 07e8 c7bc d092 17be cc6e 0800
000001d0: 96ef 14ad c23d 763d 1a03 0480 f7a9 c4ba
000001e0: fb32 803d a80b 65bd 9c0d e73d 8390 ca3d
000001f0: 660e e33b 160d 51b8 e1c1 62b7 a985 9c3d
-0.009826257 0.003386119 -0.06292194 -0.003227411 0.07480145 -0.048142128 0.10184612 4.77466e-40
0.030406157 -0.20529565 0.10587074 -0.0006249253 0.0647844 0.13967337 -0.013599661 0.2091784
0.0573473 -0.00035706413 0.018354548 0.14150013 -1.57065e-40 -0.0059937662 0.15971142 -0.002384614
-0.21311057 0.20814124 0.079573706 -0.00038805496 -0.017242065 -4.9312256e-08 0.084908925 0.011789532
0.1887488 0.001187286 -6.78918e-40 0.1408303 -0.0691361 -5.2239586e-29 0.015725855 0.023424564
-5.186826e-05 -0.002319235 0.023423813 -0.00947721 0.0792458 0.038380984 0.07968643 -3.49468e-40
-0.0034182642 -0.19004749 -0.008724767 -0.0011906639 5.31716e-40 0.15883197 0.24751252 7.1441e-40
0.059538998 6.65377e-40 -0.09258564 0.16614261 0.117487766 0.08074423 -2.34111e-40 0.103668496
0.036875233 -0.001465256 -8.95284e-05 0.001801698 0.051728096 -0.0039964993 -0.0051011913 0.16475804
-2.5381268e-15 -0.069111966 -0.00085634436 -0.18522684 0.0659716 -0.01606921 0.025418079 -0.003950873
-3.784385e-05 0.096244045 0.12118303 -0.006661953 -1.1977944e-11 0.16540655 0.0081033865 0.082105406
0.19797403 -7.762845e-17 -0.006176641 0.07300483 -5.2053e-41 -0.21003908 -0.2271991 -0.112278886
0.08570606 -2.2355427e-15 0.025241725 4.42653e-40 9.761481e-05 0.014492124 -0.0234724 -0.003859037
5.14876e-40 -0.004448814 -0.18216641 2.83165e-40 0.16645959 0.050411455 -0.0016159549 0.18588792
-3.1578e-41 -0.024402631 -0.14802098 7.7443e-40 -8.466025e-12 0.06011749 -3.68455e-40 -0.0015004267
0.06259724 -0.05591932 0.11281893 0.09890845 0.0069292067 -4.984167e-05 -1.3515791e-05 0.07642681

layers.3.weight f4 [231, 128]
00000000: 41bd 86ba a3c6 c4be d310 893e 492c 36bc
00000010: ced8 413e f356 8f3e d79c 37be f013 67ac
00000020: a70d 39bc d811 9e3f 4cb4 43be f682 dfbc
00000030: d290 da3c 8795 04bf 1182 843e daf6 c7be
00000040: 3269 76be 88aa 85bb f319 263e f3da dbbe
00000050: 6600 6927 ce82 84bb 4922 fdbc 71cd 673e
00000060: 82fd c83e 5519 acbe b736 42be d701 d6bd
00000070: 3e97 f2bb 2b24 b5bb 2026 313e e988 9dbd
00000080: aa36 cfbe 9d98 e7bd 64c7 dc39 2e6d 3bbe
00000090: 76b5 ac3e 86ea 0dba f370 87be 4ab5 eabc
000000a0: 2446 4bbb ede2 eeba 482c 8c3d 48e4 da3a
000000b0: 1197 0fbe bd96 c4bd 1c59 83bd bbc9 2ab9
000000c0: eb49 6f3b bbe1 603e b703 193c 2532 3c3b
000000d0: c190 eba2 e306 09be b402 dbbe 0bbf 5b38
000000e0: 9dee 5abe 703d 88b9 b846 393e 64e3 adbe
000000f0: cfcc 2cbe dc84 2dbe 9e7e 0080 a0e1 d9bd
00000100: e222 af3e 5749 f6ba 0996 11bb 0d39 87bd
00000110: 630a d4bd 8954 513e 5880 d3bb 92ac 5cbe
00000120: e526 81bb 5554 903d 9a37 b6bb 4cd5 883e
00000130: 6406 22bd fdc2 a4bd e6d0 fcbd 5653 48bc
00000140: 1a91 dcbb f4ca fe3d b4d6 5fbe dbaf 36be
00000150: 25e4 f43b 28ed 053e 25a6 c83e 3a86 97bd
00000160: 01aa 933e e1d0 2838 cd61 33bc 4370 043d
00000170: fe31 bfbb 4add fa3e 1d6e d93e a553 363e
00000180: 5770 29bd 854c c8bb 7513 14be 3c10 dab6
00000190: 9029 e3bb 673d 503e b4fd 273f e7b7 e3bb
000001a0: 1b0b 6dbb aa00 dc3a a207 fc3e b8aa 8fba
000001b0: 88b5 0ebe bc9c 2b3d 593e 13bc a708 92bd
000001c0: 9d4b 07bb 4010 07be 05f3 ce3e 09a4 0b37
000001d0: 83a5 fd39 bc4c ddbd 220c a43a b621 cc3b
000001e0: 9b04 043d 90ce a3bc 3cf7 65bd eec2 b9bd
000001f0: 9876 00be bf26 573b 7803 ad3b ff45 073c
00000200: a695 583c 1623 8cbd d17d 4ca9 1fd7 b43c
00000210: c3e9 35bd 8faf 1abc 98eb 1dbe bfe2 0800
00000220: 90ea 84bb 4986 e73e c391 9bbe aa48 9b3d
00000230: 62f8 903c bea9 88be 6105 ccbc bdb8 0dbe
00000240: dd8b 0dbe b033 423b 980e 203e 48c8 a03d
00000250: f3e9 85a5 dec0 853c 8b72 88bf 2d2f 04a9
00000260: 0957 a03e 57dc bfbd 924b 463d 1525 89bd
00000270: bf2b ccbe a891 5736 b432 3cba f6fe c7be
00000280: fda7 84be a25e 723c c4cb 35b6 b14d e8bd
00000290: 8171 1aaf b9cb 8b3a a412 91be 0f3a 2abf
000002a0: 3d46 fb3b a526 293c aeb8 e9bc 7fcf 1dbc
000002b0: 3d47 283d 6ea3 93be 5733 733c 33ed 90b2
000002c0: 5a03 6cbc a924 6dbe 18d7 cf3b ace2 443c
000002d0: 86e0 0380 6a32 7bbd 6e81 323d f108 9234
000002e0: 4d2f 023a e572 ab37 1c22 cfbe 568a 063e
000002f0: 854f 68be 769c 2cbd 7772 0200 1c74 96bf
00000300: 1bc8 6c3d 3843 183c c036 e2a4 42fc babc
00000310: f274 dabd d998 f0bd 0e5c 9bb8 6c28 343e
00000320: 0ef9 1c3a b94c 49be 80f1 ffba 9b3f 44bf
00000330: 451e 713d 4e20 90be 1b06 00be b11f ca3b
00000340: f560 c1bb 713f 9bbf d2bb 82bf ef27 a0bd
00000350: db52 19bc 20b0 31be a5b8 783e b28a 79be
00000360: 5ce5 8abd 17d9 5032 5a3b 863b 1e89 22bf
00000370: dce7 39b9 2673 533e 35a8 f628 6c00 453e
00000380: bfe6 7f3c fa74 d43a 4faf ebb5 1e0e e1a4
00000390: a495 1abb 7891 0d3e ce80 813e 7a23 c1bb
000003a0: 1c03 82b8 ca69 913b a588 e03d fd48 7537
000003b0: f702 4d3e dfc0 10bc 2a56 cabb 9d30 18bc
000003c0: 2de1 9c32 43f5 343d 2535 213e b5bc b41e
000003d0: f6e4 1933 fdb7 0a3d 5329 be37 a1fe 4c3c
000003e0: 8b20 7b3f d709 cebd d422 6f3e e56d 8abd
000003f0: a77e b7bc aa41 993b 8bfe 4f3b c4de 793d
-0.0010279791 -0.38432798 0.26770648 -0.011118957 0.1893036 0.27996024 -0.17930923 -3.2838142e-12
-0.011294759 1.2349195 -0.19111747 -0.027284127 0.026680384 -0.5179066 0.25880483 -0.3905552
-0.24063566 -0.004079167 0.16220836 -0.42940482 3.2335462e-15 -0.0040439134 -0.030900137 0.22636963
0.3925591 -0.33613077 -0.18966185 -0.1044957 -0.0074032834 -0.005527993 0.172997 -0.07692129
-0.40471393 -0.113084055 0.00042110228 -0.18303367 0.33732194 -0.000541367 -0.2645336 -0.028650898
-0.003101715 -0.0018225588 0.068443835 0.0016700113 -0.14022471 -0.095990635 -0.06413481 -0.00016287614
0.0036512564 0.2196111 0.009339265 0.0028716412 -6.385014e-18 -0.13381533 -0.427755 5.239159e-05
-0.21380086 -0.00025985716 0.18093383 -0.33962548 -0.16875003 -0.16945213 -4.5422e-41 -0.10638738
0.342063 -0.0018790168 -0.0022214672 -0.066026784 -0.103535436 0.20442404 -0.0064545088 -0.21550205
-0.003941404 0.07047335 -0.0055608274 0.26725233 -0.039556876 -0.080450036 -0.12344532 -0.0122269
-0.0067311646 0.12441054 -0.21859246 -0.17840521 0.007473486 0.13078749 0.39189258 -0.073986486
0.2884064 4.0248855e-05 -0.0109486105 0.032333624 -0.005834817 0.48996955 0.42466822 0.17805345
-0.0413669 -0.0061126375 -0.14460547 -6.498796e-06 -0.006932445 0.20335923 0.65621495 -0.006949413
-0.003616995 0.0016784866 0.49224573 -0.0010960912 -0.13936436 0.04189752 -0.008987033 -0.071305566
-0.0020644434 -0.13189793 0.40419784 8.323238e-06 0.00048379236 -0.108056515 0.0012515823 0.0062296046
0.032230955 -0.019995958 -0.056143984 -0.09070383 -0.1254524 0.003282949 0.0052799545 0.008256434
0.013219273 -0.068426296 -4.5406228e-14 0.022075234 -0.044412386 -0.0094412705 -0.15421903 8.16025e-40
-0.0040562823 0.4521964 -0.30384645 0.07582219 0.017696563 -0.26692003 -0.024904909 -0.13840003
-0.13822885 0.002963286 0.15630567 0.078507006 -2.3230352e-16 0.016327318 -1.0659956 -2.9350806e-14
0.31316403 -0.09368198 0.048411913 -0.06696526 -0.39877126 3.212228e-06 -0.0007179186 -0.39061707
-0.25909415 0.01479307 -2.708971e-06 -0.113429435 -1.4046543e-10 0.0010665572 -0.28334534 -0.6649484
0.007668285 0.010324155 -0.028530445 -0.00963199 0.041083563 -0.28835624 0.014843783 -1.6871672e-08
-0.014405096 -0.23158516 0.00634278 0.012016933 -3.5605e-40 -0.061327375 0.043580465 2.7201125e-07
0.0004966155 2.043829e-05 -0.4045571 0.13138708 -0.22686584 -0.0421414 2.24733e-40 -1.1754184
0.057808023 0.00929337 -9.8104627e-17 -0.022825364 -0.10666837 -0.117479034 -7.4081225e-05 0.17593545
0.000598804 -0.19658174 -0.0019526929 -0.76659554 0.058866758 -0.28149647 -0.12502329 0.0061683287
-0.0059014508 -1.2128736 -1.0213568 -0.07820117 -0.009358133 -0.17352343 0.24289186 -0.24369314
-0.06782028 1.2156554e-08 0.0040964307 -0.63490474 -0.00017729349 0.20649394 2.7384435e-14 0.19238442
0.015618979 0.0016209178 -1.7559886e-06 -9.760211e-17 -0.0023587728 0.13825023 0.25293583 -0.0058941217
-6.199462e-05 0.00443766 0.10963563 1.4620132e-05 0.20020662 -0.008835047 -0.0061748223 -0.009288934
1.8263188e-08 0.044179212 0.1574293 1.9136289e-20 3.5831327e-08 0.03386687 2.2669008e-05 0.01251188
0.9809653 -0.100604706 0.2335313 -0.06759242 -0.02239926 0.004677017 0.0031737413 0.06100346

layers.3.bias f4 [231]
00000000: e8b7 10bf f32e c3bd d7f6 b5bb 9c3c b8bd
00000010: 5072 603c 9d14 c0bd 023b cb3b 68cf e53c
00000020: 159c 44bd 674c 863d 7adc 633d d8db 983b
00000030: 7574 2ebd 9851 203c f97f 8c3d b66f 25bd
00000040: 55fa c73d 9a08 d13d 0a5d ccbd 6f7b 173d
00000050: 4340 aabd 1478 d43c 3d22 983d ae6c 233d
00000060: 1c16 f33d 630a 0e3e 66b7 393e 1ca0 05bd
00000070: e3b1 b93c a3b9 d4bc 042e 1bbd 174e 04bd
00000080: c3fe e2bc 7cbb 6bbd 867d 113d 96f9 b8bc
00000090: 8e6b 25bd c51b bcbd d13a 0b3d 9a05 69bd
000000a0: 5826 513d 6c2d e33d 1fe4 45bd 1907 e53c
000000b0: d60d a43c 0011 90bd a846 eebc 0eb8 b9bc
000000c0: df4f 693c b5b9 a03d 9518 453d 48e2 533d
000000d0: cce0 5c3d f32d aabb be19 0abd 14ee a63d
000000e0: 9ec3 cb3c f54a b53c 9c0c d93b 8c92 3cbc
000000f0: 7bc6 2abd 303b 33bd 4b7e 70bd bc81 0abd
00000100: d58d 4d3d 4cc5 31bd 8a9e 21bc 4985 b43c
00000110: eab6 22bd 65e9 fabd d911 0d3d 14ac e33c
00000120: 9ce3 b9bb dba9 3d3d 461f a3bc 4907 b93c
00000130: c2ad c2bc 6ebf 80bd 677f 6fbd f080 bebc
00000140: 7778 34bd 77c0 123d 3bdb 00bd 7f3f a4bb
00000150: 3a95 463c 1a82 bb3b b5d7 13bc 35bc 7b3c
00000160: 9ef2 83bd 25b8 fbbb ed60 603d a57a c4ba
00000170: b281 3d3c 8694 c0bd 3011 833a a762 36bd
00000180: 4e07 0abb e05c 8cbb 6a63 fb3c 5269 993d
00000190: 5372 f43c 9a80 053b b664 18bd 9466 b6bc
000001a0: b582 233d bc0f 9c3d 52ee e1bc c7ce 0bbb
000001b0: 292a 00bc 5c8a 923c 372e 24bd 8a55 dabc
000001c0: 6f47 07bd d061 1abd b56b 0ebd 4068 eb3a
000001d0: 6a35 fabc 0b0e e4bc dcb1 7f3c 807d 9c3d
000001e0: 43cb e3bc 2014 cdbc 3857 493d 6be4 1bbd
000001f0: 7fa0 8ebc 857f 0ebd 45e9 dd3c 47f3 0fbd
00000200: 77bb 58bd afa9 8c3b 1393 3f3d 02ad 9abb
00000210: 3dce c8bb 9e55 833c 7bf4 333d 0765 ddbb
00000220: 166c 0b3b b4ba 8cbd 448d 12bd 66ac 58bd
00000230: 89e5 1abd 8aaa 58bc 6180 18bd bf9e 29bd
00000240: 0279 743c 5df8 6fbd d675 07bd 733e f5bc
00000250: 3e9d 61bb 1e57 16bd 62ae 823c f3c9 3c3c
00000260: b0af f9bc 64ef b0bd 3c8c 9cb9 a66a 1dbd
00000270: ae28 b8bc ff8a b1bc 7fca 08bd dffb 9e3b
00000280: 623c c5bc 0026 223c 7dac fbbc c68d fa3c
00000290: 0252 ecba 1a59 15bd 7f38 b7bc 4610 62bd
000002a0: 2e30 c0bd ff33 9cbc 3e9c e83b 146f 803d
000002b0: 3ca6 9abc 975f 35bd 6ded 56bc 4339 c7bc
000002c0: 5a7e e2bc 76ec e2bc 0b12 a9bc c563 00bd
000002d0: efe8 50bc 7ca3 89bb 82a8 a3bc 3049 c8bc
000002e0: e719 c1bc e04d 143d 6815 5cba 76c9 abbc
000002f0: e1ac 29bd fb15 ed3c 0645 88bb f987 12bd
00000300: 4b4b 073d 1f27 28bc ccb7 22bd 1e0d 1fbd
00000310: 0934 1ebd 2172 28bd 9e8f adbc 22ba e83c
00000320: 51a9 97bc 2022 cfbc 3a6a 32bd 3cd9 a2bc
00000330: 5605 fdbc 3eb3 afbc 924c 0dbd c9b0 39bd
00000340: 962a 21bd 0a74 e3bc 25ce edbb 287c e5bc
00000350: 4e14 01bd c50e c3bc 2754 3bbd 3f4c 06bd
00000360: fab0 2fbd 6fc9 1c3d 866a 3dbd f59a f0bc
00000370: 5912 86bc 5c71 30bd 1541 d8bc 97c2 d9bc
00000380: 0b4e 82bd e857 dcbc c176 94bc df3a 3fbd
00000390: 3a8e 43bd 24b5 15bd 6f56 33bd
-0.5653062 -0.09530439 -0.0055531072 -0.08995935 0.013699129 -0.09378932 0.0062021026 0.028053
-0.048000414 0.06557541 0.055630185 0.0046648793 -0.04259153 0.0097850785 0.06860346 -0.04038974
0.09764544 0.10206719 -0.09978683 0.03698295 -0.08313038 0.025936164 0.074284054 0.039898567
0.118694514 0.1387115 0.18136367 -0.032623395 0.02266783 -0.025967425 -0.03788568 -0.032301035
-0.02770937 -0.057551846 0.0355201 -0.02257995 -0.040385775 -0.09184984 0.03399164 -0.056890108
0.051061958 0.11092648 -0.048313256 0.027957486 0.020026129 -0.070344925 -0.029086426 -0.022670772
0.014240234 0.07847921 0.048119146 0.05172947 0.05392532 -0.005193466 -0.033715956 0.081508785
0.024873551 0.022130469 0.0066238176 -0.011509549 -0.041693192 -0.043757617 -0.058714192 -0.03381513
0.05018409 -0.043401048 -0.009864459 0.022036212 -0.03972522 -0.12251548 0.03444085 0.027792014
-0.005672885 0.046304565 -0.019912373 0.022586482 -0.023764495 -0.06286512 -0.05847111 -0.023254842
-0.044060197 0.03582808 -0.031459074 -0.005012452 0.012120539 0.0057222964 -0.0090235965 0.015364696
-0.0644276 -0.007681864 0.054779936 -0.0014990164 0.011566566 -0.094033286 0.0009999629 -0.044527676
-0.0021061483 -0.0042835325 0.030687053 0.074907914 0.02983967 0.0020370842 -0.03720542 -0.02226571
0.039919574 0.076201886 -0.02757946 -0.0021332966 -0.007822552 0.01788824 -0.040083136 -0.026652116
-0.03302711 -0.037690938 -0.034770686 0.0017960146 -0.030543048 -0.027838727 0.01560637 0.07641125
-0.027806884 -0.02503401 0.049155444 -0.038059633 -0.017410515 -0.03478958 0.02708877 -0.035144117
-0.052913155 0.004292689 0.04677112 -0.004720331 -0.006128101 0.016032036 0.043934327 -0.006756428
0.002127414 -0.06871548 -0.035779253 -0.052898787 -0.037816558 -0.013224253 -0.037231807 -0.041411158
0.014921429 -0.058586467 -0.03307136 -0.029937005 -0.0034426 -0.036704175 0.015952293 0.011522758
-0.030479282 -0.0863941 -0.0002985912 -0.038431786 -0.022480335 -0.021672724 -0.03339624 0.0048518027
-0.024076644 0.009896755 -0.030721897 0.030585181 -0.0018029811 -0.036461927 -0.022365807 -0.0551913
-0.093841895 -0.019067762 0.0070987036 0.062711865 -0.018878095 -0.044280615 -0.01311813 -0.024319297
-0.02764814 -0.027700644 -0.020638486 -0.031345148 -0.012750848 -0.004200397 -0.019977812 -0.024448961
-0.023571922 0.03620708 -0.0008395524 -0.020970087 -0.041424636 0.028941145 -0.004158619 -0.035774205
0.03303079 -0.010263233 -0.039726064 -0.03883087 -0.038623843 -0.041124467 -0.021186646 0.028409068
-0.018513354 -0.025284827 -0.043558337 -0.019878976 -0.030886333 -0.021447774 -0.03449685 -0.04533461
-0.039347254 -0.027765293 -0.0072572404 -0.028013304 -0.031513505 -0.023810754 -0.04573455 -0.032787558
-0.042893387 0.03827804 -0.046244167 -0.029370764 -0.01636617 -0.043076858 -0.026398221 -0.026582045
-0.06362542 -0.026897386 -0.018123033 -0.046687003 -0.04774306 -0.036549702 -0.0437836
