models/MPC_horizon_8_obs_10.pt (torch_old, 670973 bytes, 8 tensors)

layers.0.weight f4 [128, 58]
-0.012525611 -0.008523508 -0.016553087 -0.008194534 -0.00052423734 0.006601734 0.012044445 0.016662002
-0.010710267 -0.010683921 -0.010697416 -0.010553645 -0.010672732 -0.010275924 -0.010709283 -0.0106488485
-0.01071604 -0.009276247 -0.01071505 -0.010700921 -0.010705943 -0.010650859 -0.010695393 -0.010583392
-0.010716719 -0.010694219 -0.01072143 -0.010502741 -0.010679109 -0.009553427 -0.010669129 -0.0105054695
-0.010629126 -0.010694977 -0.010332463 -0.010686768 -0.010697443 -0.010657806 -0.010700153 -0.0106219435
-0.0106893 -0.010657129 -0.01068631 -0.010712162 -0.0106466375 -0.010706904 -0.010709788 -0.0106890835
-0.0015696739 -0.014896236 0.003553751 0.008876251 -0.00634691 -0.006643325 0.01901752 -0.005413755
-0.0069368095 -0.002177144 -0.8655924 0.18783711 -0.9336961 0.35365066 -0.008176597 -0.022078851
-0.26243058 0.0969628 0.083217934 -0.029767957 0.023548994 0.15334937 0.13742101 0.025696125
0.15543194 0.12554322 0.13213754 0.06257888 0.10952561 -0.014793593 0.1706634 0.15236008
-0.02941641 0.03610062 -0.007410609 0.15081865 0.09478322 0.08623388 -0.019754874 0.03996952
0.08053776 -0.061594773 0.024300342 -0.006513977 0.065278135 0.071943834 0.0058638095 -0.0362191
0.11095577 0.045287803 0.03367241 -0.021563802 0.070529655 -0.016771907 -0.06431915 -0.057646748
-0.07525587 0.030041121 0.30661693 -0.18006578 0.51937264 -1.5627406 0.23003137 -0.35988635
1.2475783 0.26405472 -0.44492882 -0.3170715 -0.0014443545 0.00046537776 -2.4861935e-18 -5.0012753e-16
-0.0029068107 -0.0011301269 -4.4044995e-26 -3.3578921e-18 -0.0018644409 -0.00085520983 -0.0012710309 -2.224333e-05
-0.00061796553 -1.573059e-08 -0.0018102132 -0.0003116081 -0.0022208577 -1.0720932e-19 -0.0021546592 -0.0014101941
-0.0016383453 -0.00033003988 -0.0011974673 -5.010665e-05 -0.0022673062 -0.0011565315 -0.0026182325 -5.660059e-06
-0.0007434488 -1.7013856e-16 -0.00055694586 -6.086825e-06 -0.00017844501 -0.0011827172 -6.668119e-08 -0.0009294818
-0.0012722353 -0.00040239422 -0.0013785927 -0.00014590533 -0.0010009535 -0.0003946071 -0.00091691664 -0.001974558
-0.00029264344 -0.0016857481 -0.0018380831 -0.0009945018 1.5666463e-11 -6.2611994e-06 -6.483906e-10 5.4358125e-08
1.3273735e-08 -1.135671e-07 -3.840797e-11 -4.627844e-09 5.7273877e-12 1.2136147e-07 -0.00024888385 -0.00017419335
2.1957872e-07 -3.3546276e-06 -8.236378e-05 -0.0008416047 1.3754317e-05 -6.0746297e-06 -0.00021371263 4.777425e-05
7.83377e-06 2.4884712e-06 3.335943e-05 -4.9639525e-06 -0.00018516225 -9.589939e-06 -0.0004430732 2.9739579e-06
-0.00039502085 -2.6283318e-05 -0.00010575548 -6.8928716e-06 2.1548869e-05 -1.1415574e-05 -0.00047827265 2.790711e-05
-0.00078327145 1.3987473e-05 4.391352e-05 1.4534313e-06 2.6208043e-05 1.3764591e-05 -2.4234012e-05 2.3944787e-05
-6.861942e-07 4.713015e-05 7.584886e-06 4.1079616e-06 -1.7589316e-05 -2.515855e-05 4.3945984e-05 2.9143328e-06
4.7426878e-05 -0.0002768572 -1.2272521e-05 -0.00012597436 -0.0001996278 4.433914e-05 -1.9947873e-05 1.6390739e-05
1.3728573e-05 1.3875504e-05 -3.1562176e-06 2.6712173e-06 -1.7546611e-07 2.1204596e-09 -1.3317509e-05 -1.0221836e-05
-1.9999996e-07 3.820024e-05 -3.7630502e-25 -1.5996e-40 -7.6365495e-07 -7.625686e-06 2.2304e-41 5.4975512e-30
-1.9777943e-05 -1.0112743e-06 -4.6170553e-06 -5.765682e-13 -2.888364e-07 -1.2338383e-26 -1.7691835e-05 -2.0222124e-08
-3.819543e-05 -6.80478e-40 -3.409687e-05 -6.8606523e-06 -1.2128073e-05 -2.5300517e-08 -3.67688e-06 -1.4983135e-11
00000000: 3838 4dbc 2fa6 0bbc 579a 87bc 5e42 06bc
00000010: f96c 09ba 5c53 d83b 1056 453c c07e 883c
00000020: 1e7a 2fbc 9d0b 2fbc 3744 2fbc 32e9 2cbc
00000030: afdc 2ebc 595c 28bc fd75 2fbc 8278 2ebc
00000040: 5492 2fbc 66fb 17bc 2d8e 2fbc ea52 2fbc
00000050: fb67 2fbc f180 2ebc bb3b 2fbc f765 2dbc
00000060: 2d95 2fbc ce36 2fbc f0a8 2fbc b013 2cbc
00000070: 6ef7 2ebc fa85 1cbc 92cd 2ebc 221f 2cbc
00000080: c925 2ebc fc39 2fbc 7e49 29bc 8e17 2fbc
00000090: 5444 2fbc 149e 2ebc b24f 2fbc a907 2ebc
000000a0: 2c22 2fbc 3d9b 2ebc a215 2fbc 1082 2fbc
000000b0: 3c6f 2ebc 036c 2fbc 1b78 2fbc 4421 2fbc
000000c0: 84bd cdba 580f 74bc 0ce6 683b b26d 113c
000000d0: bdf9 cfbb 40b0 d9bb a1ca 9b3c de65 b1bb
000000e0: 2d4e e3bb 6aae 0ebb 7797 5dbf 5f58 403e
000000f0: b506 6fbf b311 b53e 22f7 05bc b5de b4bc
00000100: 4d5d 86be 6f94 c63d 2a6e aa3d eedb f3bc
00000110: d2e9 c03c 9e07 1d3e 18b8 0c3e ae80 d23c
00000120: 8d29 1f3e 678e 003e 104f 073e 5b29 803d
00000130: f74e e03d d460 72bc 63c2 2e3e 4804 1c3e
00000140: affa f0bc 3ede 133d b2d4 f2bb 3470 1a3e
00000150: b41d c23d 639b b03d f9d4 a1bc 14b7 233d
00000160: fbf0 a43d cd4a 7cbd 8311 c73c 3373 d5bb
00000170: 8bb0 853d 4a57 933d 3325 c03b 7b5a 14bd
00000180: c73c e33d b47f 393d 15ec 093d 92a6 b0bc
00000190: da71 903d 3d65 89bc c2b9 83bd ff1e 6cbd
000001a0: c01f 9abd cc18 f63c e5fc 9c3e 2a63 38be
000001b0: 9bf5 043f e207 c8bf 588d 6b3e 0643 b8be
000001c0: a5b0 9f3f 2e32 873e b6cd e3be 3257 a2be
000001d0: 7f50 bdba f2fd f339 de72 37a2 e626 10a6
000001e0: 3180 3ebb c420 94ba aa19 5a95 cac4 77a2
000001f0: 4160 f4ba 2930 60ba b898 a6ba 3097 bab7
00000200: f7fe 21ba ef1f 87b2 ad44 edba 555f a3b9
00000210: cf8b 11bb 0f24 fd9f 2f35 0dbb 43d6 b8ba
00000220: bfbd d6ba 3409 adb9 56f4 9cba 9b29 52b8
00000230: 1697 14bb c296 97ba a796 2bbb 89eb bdb6
00000240: 01e4 42ba 0a28 44a5 0100 12ba 6e3d ccb6
00000250: f81c 3bb9 6705 9bba 5f32 8fb3 78a8 73ba
00000260: 22c1 a6ba 70f8 d2b9 e5b1 b4ba 2afe 18b9
00000270: 6d32 83ba 45e3 ceb9 3c5d 70ba 9667 01bb
00000280: f06d 99b9 52f4 dcba d6eb f0ba f159 82ba
00000290: bdcd 892d 4b17 d2b6 6f3a 32b0 6477 6933
000002a0: 810a 6432 2ce2 f3b3 88eb 28ae f202 9fb1
000002b0: b983 c92c 964f 0234 a07c 82b9 aca7 36b9
000002c0: 57c5 6b34 1020 61b6 b8ba acb8 239f 5cba
000002d0: 57c2 6637 acd4 cbb6 0c18 60b9 3661 4838
000002e0: c96d 0337 9cff 2636 6aeb 0b38 0790 a6b6
000002f0: 1d28 42b9 79e4 20b7 474c e8b9 3594 4736
00000300: cd1a cfb9 ff7a dcb7 0ac9 ddb8 5149 e7b6
00000310: d8c3 b437 8485 3fb7 abc0 fab9 101a ea37
00000320: 7554 4dba bdab 6a37 c82f 3838 8513 c335
00000330: 58d9 db37 78ee 6637 254a cbb7 0add c837
00000340: e832 38b5 9dad 4538 ad81 fe36 1fd7 8936
00000350: c58c 93b7 930b d3b7 a452 3838 db93 4336
00000360: 39ec 4638 2527 91b9 14e6 4db7 fc17 04b9
00000370: 2e53 51b9 caf8 3938 bb55 a7b7 d87e 8937
00000380: c653 6637 d6ca 6837 68cf 53b6 2a43 3336
00000390: c267 3cb4 85b7 1131 446e 5fb7 747e 2bb7
000003a0: 92bf 56b4 3239 2038 e9eb e896 e7bd 0180
000003b0: f8fd 4cb5 25e0 ffb6 2d3e 0000 d601 df0e
000003c0: cfe8 a5b7 1fbb 87b5 34ec 9ab6 1e4a 22ab
000003d0: 5f11 9bb4 0963 7494 ed68 94b7 ecb4 adb2
000003e0: 0834 20b8 e568 0780 3c03 0fb8 8e34 e6b6
000003f0: ad79 4bb7 6d54 d9b2 51c0 76b6 05cb 83ad

layers.0.bias f4 [128]
-0.010648489 0.08856006 -0.0003085361 -1.0031469e-05 -1.9455525e-08 -2.1472497e-17 -0.0111960815 -0.002764358
-0.054286897 0.036033165 -0.0019411128 0.1199776 -0.035005532 0.0006906973 -0.0063504716 0.09440005
-0.059080668 -0.005134824 0.010901077 -6.896834e-05 -0.0052057677 -0.11911808 0.06885593 0.08316319
0.033424135 0.011171182 -0.002518399 0.1291728 0.063594684 0.042987388 -0.10202185 -0.0238756
-0.05033723 0.035433672 -0.12560296 -1.6049015e-13 -0.009573167 -0.04182963 -0.012180226 -8.4716585e-06
0.03603539 0.056074847 0.15302727 -0.009062457 0.11380879 0.041398637 -0.004132693 -0.031537186
0.12814094 -0.067664646 0.056960188 0.09730371 -0.009638273 -0.020233594 0.07805482 -0.000112220936
0.02196579 0.11426096 -0.13098204 -2.17208e-40 -0.0012366337 -0.003907227 -0.066588864 -0.0122162765
0.049272954 0.094559826 -0.07427217 0.074398525 -0.00219964 -0.016342157 0.13875666 -0.00040926566
-0.010372903 0.054674465 -0.0031335314 -4.3730193e-05 -0.0047572087 -0.025439544 -0.010259987 -1.2799134e-05
-1.25982e-40 0.1276717 -0.0038789122 -0.06736265 0.103462435 4.4606e-41 -0.01256582 -0.04825835
0.016858278 -0.0038982995 0.14048511 -0.09359248 -0.006128695 -0.06085114 -4.8067905e-05 -0.07002977
-6.76537e-40 -0.004871676 -1.3260276e-05 -0.011280025 -0.017411247 -3.632196e-05 -0.00088699145 0.15427043
-0.047408085 -0.08698887 -0.09861779 -0.05082885 -0.05762857 0.047964133 0.13124089 -0.1051341
-1.1886725e-09 -0.038571395 -0.007262528 0.02096458 0.032461427 0.00015822363 0.04661437 -0.082046665
-0.0074487096 -0.044730853 0.045926843 4.60807e-40 0.028889421 0.061030228 -0.0058088265 -0.06693708
00000000: 0077 2ebc fa5e b53d 04c3 a1b9 d54c 28b7
00000010: 271f a7b2 800c c6a3 c56f 37bc 3b2a 35bb
00000020: f05b 5ebd 8397 133d f06c feba d1b6 f53d
00000030: f661 0fbd e90f 353a 9e17 d0bb d054 c13d
00000040: 92fe 71bd 0742 a8bb 6e9a 323c 18a3 90b8
00000050: 2595 aabb 2ef4 f3bd 5604 8d3d 7651 aa3d
00000060: bfe7 083d 5507 373c b90b 25bb e045 043e
00000070: ee3d 823d 8b13 303d d5f0 d0bd c396 c3bc
00000080: 692e 4ebd e622 113d 109e 00be 23b2 34aa
00000090: c6d8 1cbc 8c55 2bbd 928f 47bc 7f21 0eb7
000000a0: d899 133d bdae 653d 2eb3 1c3e b37a 14bc
000000b0: 9514 e93d 9e91 293d 8b6b 87bb 232d 01bd
000000c0: 6137 033e c393 8abd 164f 693d 2b47 c73d
000000d0: d9e9 1dbc ecc0 a5bc 35db 9f3d 2858 ebb8
000000e0: 9af1 b33c a601 ea3d 2820 06be 7d5d 0280
000000f0: 8b16 a2ba 3208 80bb be5f 88bd c726 48bc
00000100: 70d2 493d 95a8 c13d 021c 98bd 415e 983d
00000110: d627 10bb fddf 85bc 3a16 0e3e b592 d6b9
00000120: 1cf3 29bc 55f2 5f3d ef5b 4dbb f06a 37b8
00000130: 5ce2 9bbb 9766 d0bc 8119 28bc ddbb 56b7
00000140: 305f 0180 5fbc 023e 5935 7ebb 6ef5 89bd
00000150: 1de4 d33d 587c 0000 dee0 4dbc 8caa 45bd
00000160: 5f1a 8a3c 9d7a 7fbb 54db 0f3e 6aad bfbd
00000170: 38d3 c8bb 0c3f 79bd 859c 49b8 c56b 8fbd
00000180: e95d 0780 95a2 9fbb 7478 5eb7 dbcf 38bc
00000190: 08a2 8ebc 6858 18b8 fd84 68ba 11f9 1d3e
000001a0: fb2e 42bd 3827 b2bd 20f8 c9bd ea31 50bd
000001b0: ef0b 6cbd 0a76 443d 0364 063e 8c50 d7bd
000001c0: b25e a3b0 0afd 1dbd 80fa edbb e9bd ab3c
000001d0: 46f6 043d d5e8 2539 b6ee 3e3d 1508 a8bd
000001e0: 4e14 f4bb b337 37bd c91d 3c3d 8b04 0500
000001f0: 82a9 ec3c d5fa 793d f857 bebb 4f16 89bd

layers.1.weight f4 [128, 128]
-0.012352941 0.10291637 0.00017935713 5.6728037e-08 -1.5592524e-09 2.1969816e-13 0.0046925694 -0.0037351782
-0.470615 -0.21985413 0.14352484 0.17637403 0.045379892 0.10053485 0.023243198 0.077217236
-0.002333122 0.008577238 -0.15250306 -4.3922424e-10 0.010177803 -0.46238253 0.21317153 -0.0979394
0.073929615 0.49052435 0.0003676841 -0.25796634 0.083450004 -0.30193058 -0.3724104 0.16962384
0.09801171 -0.07031903 -0.24850158 -4.061081e-33 -0.14901398 0.35846427 0.18255559 -1.8443345e-05
0.1724259 0.3967941 -0.19035242 0.0034602007 0.079540655 -0.11317942 -4.390392e-05 0.16666052
-0.1131327 0.11433264 -1.6455784 -0.05147227 -0.0078160735 0.29141214 -0.054325186 1.9348172e-05
0.01490533 -0.05062156 0.25451556 8.25845e-40 -0.0039975974 0.00046720676 -0.23289832 0.19604205
0.5696103 -0.12864971 -0.16422567 -0.21523422 -0.35667765 0.069586135 -0.08665814 -0.00076286
-0.0039443327 0.090376414 -0.00039404441 -0.0007243294 -0.007156119 0.028830577 0.009909371 2.4735586e-05
-1.4428e-41 -0.85845834 0.00084084616 0.15572917 0.26657966 0.00022356932 -0.03538073 -0.33556613
0.53970915 0.0076602325 -0.0914484 -0.074679404 -0.0068915472 0.24175338 2.016248e-05 0.36663872
-1.75919e-40 -0.005872529 -7.63792e-40 0.0038788614 -0.132317 -3.28813e-40 0.0025239734 0.058170736
-0.1389204 -0.07289054 0.2907143 -0.13019261 -0.021380343 0.36518154 -0.048068304 -0.07135262
-0.00027781856 0.020643266 -0.010037865 0.4150396 0.00052368856 0.042677276 0.19978099 0.029942997
0.34148553 -0.04986425 0.019188786 6.81324e-40 0.2503965 0.047547143 -0.022262935 0.034189932
-0.010806544 0.28129902 -0.0011015794 -1.2884251e-09 -4.0597308e-05 -1.5268693e-08 0.0014524059 0.002114023
0.56853664 -0.17719857 -0.36733776 0.16503029 -0.09701586 0.1780096 0.031331066 0.2695408
0.17089729 0.002212522 -0.040563792 0.00015679581 0.014705151 -0.4587514 -0.26427993 0.5487484
0.06881491 -0.22047447 -0.00025333153 0.48032674 -0.013461633 0.24755028 0.12687911 0.02756989
-0.20332754 -0.6691595 0.2612705 5.46655e-40 -0.1044663 -0.091078475 -0.018198656 8.441495e-05
0.48045844 -0.027834883 -0.26108187 0.003827624 0.067733005 0.054279335 9.211903e-05 -0.29512364
0.07006435 -0.17003427 -0.8655378 0.3369781 0.01979627 -0.2788672 -0.50197864 0.00019352917
0.05060302 0.023602879 0.09597484 -5.7568e-41 0.0050738323 0.0060647763 0.9922486 0.6245182
-0.7756131 -0.3434483 0.37842813 0.3723179 -0.017047623 -0.14839299 0.006545541 0.0040967944
-0.0119213285 -0.3471224 -0.0011215296 -0.0005311969 0.0052225147 -0.13551423 -0.001665502 0.00012871192
2.5767e-40 -0.23937154 -6.871453e-34 -0.013634552 -0.15527801 3.8969098e-05 -0.37771314 0.10623297
0.034197874 -0.0068457797 0.33274838 0.13177112 -0.007092647 0.16937478 -0.00015160268 -0.18281709
-5.28542e-40 0.0036831966 2.148253e-29 0.0019341053 0.16743875 -4.73015e-40 -0.0006237554 -0.22382787
-0.7880513 -0.030121591 0.8246522 0.30196014 0.041706286 -0.16670567 0.26502278 -0.22007279
1.664645e-07 0.21436502 0.002354966 -0.6576636 0.36063045 -0.311045 0.31318095 0.080941185
0.009785119 -0.03379931 -0.045126013 -4.98993e-40 -0.11032453 0.1002676 -0.005557034 0.13535391
00000000: fd63 4abc d1c5 d23d d011 3c39 23a5 7333
00000010: 514d d6b0 af5b 772a 20c4 993b e4c9 74bb
00000020: 73f4 f0be 7121 61be 2df8 123e 659b 343e
00000030: 44e0 393d 37e5 cd3d 8568 be3c 1224 9e3d
00000040: 4be7 18bb 8b87 0c3c c329 1cbe 5177 f1af
00000050: cdc0 263c 67bd ecbe a349 5a3e 7494 c8bd
00000060: 6968 973d 0226 fb3e b9c5 c039 2a14 84be
00000070: d6e7 aa3d a596 9abe 93ac bebe dfb1 2d3e
00000080: 5dba c83d 6c03 90bd 3377 7ebe d2b0 a889
00000090: 1f97 18be a188 b73e daef 3a3e c8b6 9ab7
000000a0: 6a90 303e 9928 cb3e bfeb 42be 89c4 623b
000000b0: 36e6 a23d 9dca e7bd 7a25 38b8 0ea9 2a3e
000000c0: 1eb2 e7bd 3b27 ea3d 50a2 d2bf 96d4 52bd
000000d0: fd0e 00bc f933 953e 1684 5ebd e24d a237
000000e0: 7c35 743c 8e58 4fbd dd4f 823e 1ffe 0800
000000f0: 47fe 82bb 6ef3 f439 e67c 6ebe 3fbf 483e
00000100: fbd1 113f c0bc 03be c62a 28be 5c66 5cbe
00000110: 749e b6be 2d83 8e3d d379 b1bd abfa 47ba
00000120: 763f 81bb 4517 b93d bf97 ceb9 ece0 3dba
00000130: e17d eabb 1a2e ec3c ea5a 223c 447f cf37
00000140: 3828 0080 edc3 5bbf 3b6c 5c3a 7877 1f3e
00000150: 217d 883e ef6d 6a39 62eb 10bd 53cf abbe
00000160: 612a 0a3f b002 fb3b 4c49 bbbd 84f1 98bd
00000170: 7dd2 e1bb 338e 773e 9922 a937 12b8 bb3e
00000180: 64ea 0180 586e c0bb 2451 0880 7f34 7e3b
00000190: 1c7e 07be 9994 0380 3f69 253b 7044 6e3d
000001a0: 2641 0ebe a347 95bd 81d8 943e 3651 05be
000001b0: d425 afbc 13f9 ba3e 45e3 44bd 5321 92bd
000001c0: 2da8 91b9 111c a93c db75 24bc 1280 d43e
000001d0: 2548 093a 5ece 2e3d 6393 4c3e 044b f53c
000001e0: 31d7 ae3e 753e 4cbd cd31 9d3c 416b 0700
000001f0: f833 803e cbc0 423d c260 b6bc be0a 0c3d
00000200: ee0d 31bc 6d06 903e df62 90ba 6e14 b1b0
00000210: 0747 2ab8 3628 83b2 a85e be3a 6c8b 0a3b
00000220: 9e8b 113f 8b73 35be b213 bcbe b3fd 283e
00000230: 40b0 c6bd 2648 363e 0155 003d 4001 8a3e
00000240: b3ff 2e3e f6ff 103b 3826 26bd 8e69 2439
00000250: e0ed 703c 77e1 eabe b34f 87be c67a 0c3f
00000260: d5ee 8c3d 0fc4 61be 95d1 84b9 63ed f53e
00000270: 2e8e 5cbc d27d 7d3e 99ec 013e 40da e13c
00000280: 1835 50be 094e 2bbf 3fc5 853e daf3 0500
00000290: 6df2 d5bd 5a87 babd 5915 95bc ee07 b138
000002a0: a6fe f53e fb05 e4bc 86ac 85be e0d8 7a3b
000002b0: 9ab7 8a3d 0254 5e3d 0730 c138 721a 97be
000002c0: e67d 8f3d 771d 2ebe e393 5dbf 6588 ac3e
000002d0: ca2b a23c aec7 8ebe ac81 00bf 17ee 4a39
000002e0: 1d45 4f3d d35a c13c 758e c43d 7aa0 0080
000002f0: 6442 a63b 08bb c63b 0104 7e3f 6de0 1f3f
00000300: 958e 46bf 75d8 afbe 55c1 c13e 74a0 be3e
00000310: 75a7 8bbc 55f4 17be fa7b d63b 673e 863b
00000320: ad51 43bc 07ba b1be 4a00 93ba 0540 0bba
00000330: a121 ab3b 3ec4 0abe f94c daba d8f6 0639
00000340: 47ce 0200 d01d 75be db57 6488 7563 5fbc
00000350: 3301 1fbe c072 2338 9e63 c1be ac90 d93d
00000360: 1213 0c3d 9052 e0bb ff5d aa3e 02ef 063e
00000370: 6f69 e8bb 9570 2d3e 89f7 1eb9 6734 3bbe
00000380: 5cc1 0580 c961 713b d6db d90f ce81 fd3a
00000390: 1075 2b3e 9326 0580 8483 23ba 2233 65be
000003a0: bbbd 49bf 8ec1 f6bc 681c 533f 859a 9a3e
000003b0: 36d4 2a3d e4b4 2abe 11b1 873e c35a 61be
000003c0: 6abd 3234 8182 5b3e c655 1a3b a45c 28bf
000003d0: 8ea4 b83e 4a41 9fbe 4159 a03e 7ec4 a53d
000003e0: c451 203c 2571 0abd 0ed6 38bd fd6e 0580
000003f0: d4f1 e1bd 1959 cd3d c817 b6bb 379a 0a3e

layers.1.bias f4 [128]
0.011743066 -0.19857316 -4.5414002e-12 -0.0018865524 0.21818347 0.077072635 1.09532e-40 -3.8285287e-07
0.2358661 0.17628305 0.07614604 -0.014369465 -0.18954593 -5.34373e-40 0.010088651 0.41853863
0.32497054 0.23558687 0.2173614 -3.7539322e-10 0.25293085 -0.10929107 0.19430253 -0.16714017
0.2370376 0.17204292 -0.011214871 0.13091157 0.3364886 -0.007462125 0.10557168 0.10447927
-0.102671795 -0.0064010606 -0.0820969 -0.046247225 5.84056e-40 0.24820417 0.08649594 0.16944891
-5.955461e-28 0.18046594 0.15389913 -0.0004925321 0.011294924 0.15041718 0.02334158 0.18468893
-0.0004504873 0.19513078 -0.35939363 -3.127354e-17 0.15273511 -2.5515662e-29 0.08327009 -0.0004934301
0.07415692 -0.00012913378 0.25532568 -2.5061686e-07 0.26238665 -0.015244937 -2.2587007e-30 0.15996954
-8.588325e-11 0.36622128 -2.9452532e-12 0.23543672 0.06463776 0.18058032 -0.00027089939 -0.077654734
-0.082594596 0.07708919 -5.5180822e-14 -5.9846054e-18 -0.0055961907 0.19007668 0.25076166 0.010444997
-0.29496723 0.40898827 -0.00224353 0.35104516 0.006409991 0.24134655 -0.15093033 0.0866614
0.1909311 0.13813588 0.051765274 -0.004324004 0.3489434 0.14730634 0.1285918 0.081193596
-1.9221197e-13 -5.481971e-07 -0.0011947607 -0.007784135 -0.008291508 -0.121479735 0.07165378 0.2107306
0.3234792 0.3609901 0.07453927 -0.0026534938 0.40175682 0.096232586 -6.9602083e-07 0.07122765
-0.0021118473 0.24746764 -0.3547668 0.21988152 -0.25426802 0.28033733 0.12683952 1.2261923e-27
-2.4646098e-17 -0.0022461058 0.22147402 1.464408e-35 -0.010368005 0.23355846 0.13355592 0.109191395
00000000: fd65 403c c356 4bbe 4cc9 9fac 3246 f7ba
00000010: 7d6b 5f3e 42d8 9d3d 5531 0100 e68a cdb4
00000020: e286 713e 8b83 343e 74f2 9b3d e86d 6bbc
00000030: 5418 42be 9dd1 0580 df4a 253c b24a d63e
00000040: 8a62 a63e af3d 713e fd93 5e3e e65f ceaf
00000050: 2780 813e ffd3 dfbd 3ef7 463e cb26 2bbe
00000060: fcb9 723e 052c 303e 94be 37bc af0d 063e
00000070: 3c48 ac3e d784 f4bb f735 d83d 3af9 d53d
00000080: 9745 d2bd fdbf d1bb 6b22 a8bd bb6d 3dbd
00000090: 1c5c 0600 3c29 7e3e c924 b13d 0484 2d3e
000000a0: 71bc 3c92 10cc 383e bc97 1d3e 451d 01ba
000000b0: 580e 393c f606 1a3e d736 bf3c 181f 3d3e
000000c0: 622f ecb9 5dd0 473e 7102 b8be 4739 10a4
000000d0: 9866 1c3e 3961 0190 8289 aa3d 8959 01ba
000000e0: 95df 973d 1668 07b9 0cba 823e 858c 86b4
000000f0: 8b57 863e e6c5 79bc 613f 378e 0ecf 233e
00000100: f9db bcae 5b81 bb3e f740 4fac 5316 713e
00000110: cd60 843d 0cea 383e 8007 8eb9 7209 9fbd
00000120: 5b27 a9bd f0e0 9d3d 2883 78a9 00cb dca2
00000130: 4060 b7bb 76a3 423e d563 803e 7e21 2b3c
00000140: f205 97be e966 d13e 3008 13bb 31bc b33e
00000150: e70a d23b 8d23 773e 7b8d 1abe 887b b13d
00000160: 7183 433e 7e73 0d3e d307 543d 60b0 8dbb
00000170: b6a8 b23e 79d7 163e 92ad 033e d448 a63d
00000180: 5469 58aa d127 13b5 8499 9cba 0f12 ffbb
00000190: 1bd9 07bc 5eca f8bd 38bf 923d c3c9 573e
000001a0: 119f a53e b2d3 b83e 0ba8 983d 3de6 2dbb
000001b0: 12b3 cd3e 9715 c53d 30d6 3ab5 cddf 913d
000001c0: eb66 0abb 2868 7d3e fea3 b5be 9f28 613e
000001d0: 6b2f 82be 6088 8f3e 38e2 013e 454c c212
000001e0: f451 e3a3 6733 13bb 16ca 623e fab8 9b05
000001f0: 91de 29bc f329 6f3e e2c2 083e bd9f df3d

layers.2.weight f4 [128, 128]
1.77487e-40 5.26293e-40 -3.1116e-40 -3.84348e-40 -3.43364e-40 -6.1953e-41 -7.68066e-40 -9.13621e-40
2.38204e-40 1.4376335e-37 6.69037e-40 1.12097e-40 5.34501e-40 2.47108e-40 -1.84459e-40 -1.2110175e-11
6.6572e-40 7.820719e-27 -3.0084391e-15 9.1563e-40 -3.7987683e-14 -4.916693e-30 -6.5978315e-13 -2.1392012e-17
-4.54437e-40 -9.9548e-41 7.76097e-40 3.15563e-40 -2.6884252e-15 -2.2289e-41 -2.71064e-40 -3.64359e-40
-6.69e-40 1.55359e-40 3.17712e-40 1.38125e-40 -7.39418e-40 3.43729e-40 -3.1949324e-23 -7.249791e-13
2.20539e-40 -1.5749043e-19 5.56191e-40 9.52835e-40 3.77417e-40 1.90117e-40 1.50714e-40 -6.83496e-40
9.22953e-40 -3.1684352e-31 1.57244e-40 -5.87258e-40 6.5834e-40 2.28933e-40 -2.4716476e-22 -8.55221e-40
3.7114791e-37 -4.34677e-40 -2.1045e-41 -9.8452e-40 -7.4598e-41 -4.371e-41 -9.28652e-40 -6.6535e-41
-7.27865e-40 -1.7484597e-22 2.73632e-40 -5.56238e-40 -2.1288046e-19 -3.4512586e-17 -1.46862e-40 3.17412e-40
6.78458e-40 -1.7238228e-15 8.22459e-40 -3.87882e-40 7.8285e-40 -1.4695566e-28 -9.488355e-25 3.918577e-23
-2.83554e-40 -4.670126e-25 6.26082e-40 -2.69499e-40 -3.5053e-40 6.66103e-40 6.851995e-21 -3.7472603e-20
4.83094e-15 -2.4673437e-16 -1.849773e-14 -7.64792e-40 -6.631969e-13 -2.3874777e-36 -1.997379e-12 3.91188e-40
-3.12435e-40 7.24132e-40 3.4836e-41 -8.80489e-40 1.03968e-40 -8.494016e-21 -4.81886e-40 -2.637132e-17
4.94291e-40 -5.45418e-40 5.06722e-40 1.039e-40 -2.3845715e-13 1.7677e-41 5.17785e-40 -4.6817434e-20
1.040669e-39 2.61978e-40 -3.8738318e-26 2.57843e-40 -3.7847203e-24 1.9195e-40 3.3912194e-37 -8.7481e-40
5.32838e-40 1.42972e-40 6.59963e-40 -6.92429e-40 -4.79611e-40 -9.4430676e-32 7.6734e-41 -1.5954e-41
-0.0116949305 -0.008762304 2.04641e-40 -6.44526e-40 0.0027826182 -0.0018275778 -4.48931e-40 8.11853e-40
-0.0018411045 -0.0013982024 -0.0061275247 -6.25677e-40 -0.004021761 9.22094e-40 -0.009948519 -0.014451085
-0.010754069 -0.010222916 -0.004519557 6.62647e-40 -0.01085288 -0.013254224 -0.011134569 -0.014116532
-0.0077499375 -0.009807521 -9.11725e-40 -0.0073167207 -0.011486873 8.94195e-40 -0.0075347717 0.0019250886
-0.0033967153 -4.32481e-40 -0.0017619921 0.00034095036 -5.88016e-40 0.0013981641 -0.003568026 -0.0102105355
8.1731e-40 -0.00986314 -0.004500779 -8.3672e-40 0.006446647 -0.01405699 -0.0025993898 -0.017167479
9.39346e-40 -0.0040079346 -0.0057122484 -5.89963e-40 0.0024516422 -2.12798e-40 -0.009804457 8.48028e-40
-0.003382789 1.36161e-40 -0.0044462746 -7.74229e-40 0.0035734354 1.8999e-41 -7.738e-40 -0.009464491
-5.22298e-40 -0.009847145 -6.93451e-40 -0.0075829723 -0.004340539 -0.012050786 4.59479e-40 -0.006098657
-0.001818473 -0.012252158 2.49755e-40 -4.425e-41 -9.3903e-40 -0.014935611 -0.01027146 -0.009566702
-0.006654505 -0.010585267 2.97933e-40 -0.006691393 -0.0069858916 -0.0066127186 -0.012347235 -0.007747329
-0.013319057 -0.010222892 -0.0020744877 -2.8938e-40 -0.014692249 -0.019487778 -0.013006845 -0.005241786
2.3731e-40 -4.81724e-40 -4.71164e-40 8.02433e-40 -3.94816e-40 -0.008667978 -0.012874445 -0.010621739
-0.011050726 0.0007892468 -0.007949531 -4.08476e-40 -0.014809138 -0.014295934 9.83109e-40 -0.013411653
7.17533e-40 0.0033758369 -0.004240874 -0.0038170267 -0.011213766 -0.0120549705 -0.011930652 -3.4129e-40
-9.7655e-40 -6.61931e-40 -0.014772003 -8.80188e-40 9.54524e-40 -0.006300901 -0.008055998 -0.0020965852
00000000: c3ee 0100 17bb 0500 6363 0380 682f 0480
00000010: 29bd 0380 b3ac 0080 0e5d 0880 cef2 0980
00000020: 0498 0200 37ae 4302 0149 0700 7b38 0100
00000030: f9d1 0500 d6b0 0200 3202 0280 610b 55ad
00000040: c23f 0700 c2e7 1a14 e8c7 58a7 67f8 0900
00000050: d114 2ba9 dc71 c78e 63b6 39ab 764e c5a3
00000060: c9f2 0480 8015 0180 7173 0800 a96f 0300
00000070: b1b8 41a7 223e 0080 9ef3 0280 aff7 0380
00000080: e648 0780 14b1 0100 a775 0300 0981 0100
00000090: 320d 0880 2dbe 0300 597f 1a9a 4010 4cab
000000a0: c666 0200 90ee 39a0 6f0e 0600 1e60 0a00
000000b0: 161c 0400 f811 0200 21a4 0100 4f71 0780
000000c0: d10c 0a00 a9a4 cd8c 55b6 0100 0965 0680
000000d0: 2f2b 0700 2c7e 0200 e566 959b 0250 0980
000000e0: 1697 fc02 b4bb 0480 aa3a 0080 71b8 0a80
000000f0: f3cf 0080 d879 0080 b41c 0a80 79b9 0080
00000100: feec 0780 3560 539b c6fa 0200 910e 0680
00000110: 2c53 7ba0 4529 1fa4 6499 0180 d174 0300
00000120: 4463 0700 d66d f8a6 aef4 0800 4239 0480
00000130: 4486 0800 d749 3a91 3fd3 9297 a27d 3d1a
00000140: 6f16 0380 8d88 1097 43d1 0600 41ef 0280
00000150: 23d1 0380 d340 0700 376e 011e 99f5 309f
00000160: 8f0d ae27 913b 8ea5 dd9c a6a8 ee53 0880
00000170: 5fac 3aab a91a 4b84 958d 0cac 7942 0400
00000180: f166 0380 96e2 0700 1c61 0000 7296 0980
00000190: d221 0100 8b72 209e 4d3f 0580 853b f3a3
000001a0: e261 0500 67f0 0580 8984 0500 a221 0100
000001b0: 4c3d 86aa 4731 0000 60a3 0500 ce16 5d9f
000001c0: f654 0b00 4ada 0200 a7d2 3f95 c3ce 0200
000001d0: 0e6a 9298 1417 0200 60cb e602 9d86 0980
000001e0: 56cd 0500 8c8e 0100 b52f 0700 368a 0780
000001f0: f638 0580 f327 f58b e7d5 0000 792c 0080
00000200: 189c 3fbc c48f 0fbc 753a 0200 ad04 0780
00000210: 965c 363b 568b efba 70e3 0480 1ed7 0800
00000220: 3751 f1ba e343 b7ba 67c9 c8bb 22d0 0680
00000230: fac8 83bb 6c0a 0a00 1dff 22bc 3ec4 6cbc
00000240: d631 30bc 047e 27bc cb18 94bb 3137 0700
00000250: 47d0 31bc 3f28 59bc c46d 36bc 0749 67bc
00000260: 30f3 fdbb b9af 20bc 85ed 0980 1ac1 efbb
00000270: 7033 3cbc a7bc 0900 3fe6 f6bb 4153 fc3a
00000280: 6d9b 5ebb 95b5 0480 a5f2 e6ba 95c1 b239
00000290: 2667 0680 9a42 b73a 8bd5 69bb 174a 27bc
000002a0: 54e6 0800 0299 21bc 457b 93bb 6f1c 0980
000002b0: 653e d33b 4a4f 66bc 865a 2abb d0a2 8cbc
000002c0: 843a 0a00 fe54 83bb d02d bbbb 946c 0680
000002d0: bbab 203b 3251 0280 e0a2 20bc f53b 0900
000002e0: c8b1 5dbb 907b 0100 0eb2 91bb 3c6e 0880
000002f0: 4c30 6a3b f634 0000 0a6d 0880 f410 1bbc
00000300: f4af 0580 eb55 21bc 0f8d 0780 957a f8bb
00000310: 153b 8ebb a970 45bc d700 0500 3ed7 c7bb
00000320: d459 eeba 46bd 48bc 37b8 0200 5a7b 0080
00000330: a239 0a80 7eb4 74bc a049 28bc a8bd 1cbc
00000340: 090e dabb d46d 2dbc 843e 0300 7943 dbbb
00000350: e8e9 e4bb 81af d8bb 0f4c 4abc 4edd fdbb
00000360: 2d38 5abc eb7d 27bc 21f4 07bb ac26 0380
00000370: c2b7 70bc d5a4 9fbc a91a 55bc 4ac3 abbb
00000380: 8695 0200 da3e 0580 6a21 0580 dbbc 0800
00000390: 964c 0480 2304 0ebc 56ef 52bc cd06 2ebc
000003a0: 1b0e 35bc 75e5 4e3a c03e 02bc aa72 0480
000003b0: 07a2 72bc 7e39 6abc 82b4 0a00 8dbc 5bbc
000003c0: 31d0 0700 253d 5d3b 08f7 8abb 1527 7abb
000003d0: f2b9 37bc 3682 45bc c878 43bc 61b7 0380
000003e0: 39a2 0a80 3235 0780 4506 72bc 9b95 0980
000003f0: d364 0a00 ca77 cebb 4efd 03bc dd66 09bb

layers.2.bias f4 [128]
2.86539e-40 -0.0052443417 -0.00082744344 0.012894275 -0.061245363 0.2257671 -4.7161247e-06 -4.303194e-08
4.073639e-39 -0.0071099 0.20508851 0.35241753 -0.7643965 -0.2906733 -8.5283524e-08 -2.0316e-41
-0.39627033 -2.443e-40 -0.00019655001 -0.13103697 2.61969e-40 -0.073005006 0.14474702 3.75199e-40
-0.008520707 2.40463e-40 -0.16320695 -0.0020370358 -0.009692166 -0.03113177 -4.883952e-07 -1.1812555e-05
-9.506002e-25 0.018844007 -0.25556287 -0.116036296 0.17524509 -0.0030888934 -0.00087634486 -5.1910254e-05
-4.0846094e-21 -0.0053735543 -0.039567735 -0.08810028 0.41380277 0.36126795 -0.10580472 -0.007374933
0.36020193 -0.52164435 0.10672392 0.21631081 -2.49986e-40 -7.57005e-40 -1.25586845e-23 -1.5166966e-12
-7.600866e-06 -0.0032153777 0.33500442 -0.21150377 6.76512e-40 -0.3186352 -0.17555137 4.75755e-40
-0.0013926793 -0.113144234 -0.13877659 -7.32389e-40 -0.013768752 -8.1138e-41 -1.7217887e-11 -9.95665e-07
-2.3075e-41 -0.014127219 3.67238e-40 -0.10755843 -5.30231e-26 -1.6711154e-21 -0.6456018 4.81947e-40
0.029088935 -0.26927194 0.23005141 -0.14106475 7.51364e-40 -6.48688e-40 0.27557364 -0.00034852503
-0.00015712218 -0.031370267 0.26852643 0.12613827 -0.5004536 -0.13531438 0.013476221 0.054469388
-1.203423e-08 -1.75615e-40 0.2466574 -0.0011228009 -6.1565e-40 -0.33566162 -2.2393419e-08 0.27850416
-5.556591e-09 -0.0058591287 -0.2355674 5.37219e-40 0.25911275 0.013852226 7.00693e-40 -0.037623633
-2.4193039e-06 5.49739e-40 -0.44298178 -7.49172e-40 0.20977975 -1.2499905e-17 -3.4248056e-05 -7.8610396e-10
-0.001109989 -0.066773176 -4.8192334e-08 -0.07809184 0.33660161 0.2656428 -1.121151e-24 -0.010123551
00000000: c11e 0300 bad8 abbb cae8 58ba 8242 533c
00000010: 6bdc 7abd 7e2f 673e 343f 9eb6 1ed2 38b3
00000020: a65b 2c00 2afa e8bb b902 523e 1270 b43e
00000030: 7daf 43bf 21d3 94be 1d25 b7b3 a238 0080
00000040: f2e3 cabe 02a9 0280 fe18 4eb9 8e2e 06be
00000050: 43da 0200 a683 95bd 9038 143e e715 0400
00000060: 6f9a 0bbc 509e 0200 b91f 27be ca7f 05bb
00000070: e4cb 1ebc 0e08 ffbc 431a 03b5 8a2e 46b7
00000080: 2719 9397 bf5e 9a3c 23d9 82be 70a4 edbd
00000090: 7373 333e 086f 4abb 82ba 65ba 36ba 59b8
000000a0: eb4f 9a9d a414 b0bb c711 22bd eb6d b4bd
000000b0: f5dd d33e 1df8 b83e 25b0 d8bd 6ca9 f1bb
000000c0: 636c b83e 7c8a 05bf 1292 da3d 9580 5d3e
000000d0: dcb8 0280 393e 0880 98eb 7299 c174 d5ab
000000e0: f10a ffb6 16b9 52bb b385 ab3e 7294 58be
000000f0: d75d 0700 2724 a3be bdc3 33be 362e 0500
00000100: 908a b6ba 2ab8 e7bd 731b 0ebe 9af9 0780
00000110: 5596 61bc 2ee2 0080 3c73 97ad caa2 85b5
00000120: 5340 0080 da75 67bc b6ff 0300 9847 dcbd
00000130: 6247 8395 2588 fc9c 2946 25bf 793f 0500
00000140: eb4b ee3c 03de 89be 9992 6b3e 4773 10be
00000150: 7f2e 0800 4710 0780 fd17 8d3e 3dba b6b9
00000160: 2ac1 24b9 1c7e 00bd 4c7c 893e 642a 013e
00000170: ba1d 00bf da8f 0abe 5ecb 5c3c 4b1b 5f3d
00000180: 1abf 4eb2 8be9 0180 c293 7c3e f22a 93ba
00000190: 2fb4 0680 d7db abbe a65b c0b2 1998 8e3e
000001a0: 4bec beb1 effd bfbb 9538 71be 8cd9 0500
000001b0: 6daa 843e 72f4 623c 3fa1 0700 3d1b 1abd
000001c0: 535b 22b6 73fc 0500 82ce e2be 6328 0880
000001d0: 81d0 563e 2295 66a3 92a5 0fb8 2615 58b0
000001e0: 0d7d 91ba 60c0 88bd 08fc 4eb3 9dee 9fbd
000001f0: 0c57 ac3e 5502 883e 5e7d ad97 40dd 25bc

layers.3.weight f4 [983, 128]
-0.0003777151 0.0051370645 -0.0024347105 -0.6161972 -0.3078442 -0.7314029 0.00664401 -0.0067375996
-0.0077972305 0.0024140566 -0.8919858 -0.6986693 -0.04049078 -0.11785824 -0.0034458628 -0.0013801337
0.2908516 5.2705456e-15 -0.0032658963 -0.36233798 6.140195e-08 -0.4653753 -0.21989189 -1.6425973e-23
-0.009469123 0.0022766057 -0.28936803 0.0036450292 -0.0031439187 -0.37750712 0.0014958476 -0.0042857076
-0.000634522 -0.22190428 0.2812436 0.07372348 -0.4758491 0.0075632758 0.003584009 0.0010452606
0.004692422 -0.001813962 -0.3708832 -0.34907663 -0.7165647 -0.8427696 -0.4601923 -0.0033215336
-0.72443384 0.07736921 -0.57807255 -0.65384984 -0.0031161332 -2.9877923e-13 -0.00022533297 0.006589176
-0.01166368 -0.015102607 -0.4072657 -0.25664178 -0.000321685 -0.020962685 -0.2155191 6.9518e-40
0.015112336 -0.3230627 0.19496967 -1.5911476e-12 -0.37857753 -3.9737795e-05 -0.00037213054 -0.0061715553
-7.271089e-07 -0.15014811 -0.0021312775 -0.26580676 -0.0013981432 5.6567815e-06 0.46801686 -1.9784082e-07
-0.49405733 0.22865619 -0.70373774 -0.4543941 6.407002e-05 0.0004926286 -0.64359117 -0.0056747673
-0.0040938687 -0.19438452 -0.6182969 -0.40444547 0.701799 -0.11291206 -0.46381748 -0.7589409
2.2335385e-09 0.0009357584 -0.3775218 0.014248226 -2.4255962e-05 0.06974001 0.006344308 -0.5857792
-0.0041463803 0.005992013 0.034527224 5.6359037e-05 -0.65342957 -0.65775084 1.7830534e-05 -0.2719739
0.0095359525 -0.00067610113 0.06765914 -1.0036595e-06 -0.7351371 -2.4213603e-05 -0.012532332 -0.00011128461
-0.009293648 -0.18995777 -0.006856041 -0.046096183 -0.6398728 -0.5593021 5.1487536e-05 0.009853013
-2.842733e-16 0.011021208 0.00044017695 -0.6089842 -0.88924056 -0.36473107 -0.001579033 0.0031810224
8.362714e-05 -0.0017814571 -0.48892754 -0.6810968 -0.61652017 -0.9229894 -0.008215961 -7.5386986e-10
-0.011833552 3.96092e-40 -0.0043271673 -0.2406483 5.9551915e-36 -0.4947904 -0.032098528 -4.5769e-40
0.012340743 -7.993397e-06 -0.5493097 -0.0076466277 0.007735381 -0.25590837 4.43772e-40 -0.0009920968
-1.8595836e-05 -0.6422894 -0.028952256 -0.24229486 -0.5785074 -0.0029028528 -0.010829523 -0.00015430416
5.0160914e-05 -0.013781255 -1.1837587 -0.3640728 -1.0801649 0.028968683 -0.32708383 -0.038919628
-0.49107465 -0.043748256 -0.5111825 -0.3478731 -3.18395e-40 2.08069e-40 0.0008781098 -0.001644377
0.0020937223 0.005762759 -0.52339506 -0.3028609 3.16891e-40 -1.6654639 -0.030342754 6.43799e-40
-0.008480326 -1.1273484 -0.0778876 1.13819e-40 -1.3332037 4.8940233e-27 0.0051868046 -0.006141362
-3.51251e-40 -0.93481994 0.00014749695 -0.5439224 0.00419015 6.476128e-14 -0.0018396006 -5.47626e-40
-0.2565056 -0.023252154 -0.78124845 -0.8244748 -7.89213e-40 2.4663846e-08 -0.0074577625 -0.01360481
-0.0006889138 -0.031031577 -0.889517 -0.7547666 -0.06665444 -0.020447884 -0.43794334 -1.1556764
-1.9816147e-11 -4.2693395e-09 -0.013294947 -0.00035520474 4.265154e-24 -0.09693388 -4.414095e-10 -0.72249085
-5.67197e-15 -0.015764471 3.7686696e-06 -5.7011324e-29 -0.653577 -0.33249244 5.64963e-40 4.6038062e-06
1.5213072e-19 -1.9047181e-07 -0.12765735 7.6883495e-22 -1.2247823 4.4456317e-21 0.002850588 0.0003666805
-1.872538e-07 -0.45689392 -0.005900612 -0.78552705 -0.8900253 -0.2708055 -3.5161504e-06 -0.007235105
00000000: 1008 c6b9 d254 a83b aa8f 1fbb 1abf 1dbf
00000010: c19d 9dbe 383d 3bbf ffb5 d93b 15c7 dcbb
00000020: e97f ffbb 2635 1e3b 2e59 64bf fedb 32bf
00000030: a9d9 25bd a95f f1bd fcd3 61bb 9ae5 b4ba
00000040: 80ea 943e 34e4 bd27 a608 56bb 5d84 b9be
00000050: 14dc 8333 ac45 eebe 572b 61be bddc 9e99
00000060: 6124 1bbc 1b33 153b 0c28 94be 71e1 6e3b
00000070: 340a 4ebb 9d48 c1be 5110 c43a 1f6f 8cbb
00000080: 0d56 26ba e03a 63be 29ff 8f3e 56fc 963d
00000090: 7ea2 f3be 5bd5 f73b b1e1 6a3b 2001 893a
000000a0: e4c2 993b 77c2 edba 67e4 bdbe 2cba b2be
000000b0: c970 37bf c0bf 57bf 539e ebbe 16ae 59bb
000000c0: 7f74 39bf c073 9e3d 90fc 13bf b462 27bf
000000d0: 0a38 4cbb a032 a8aa 5c47 6cb9 04ea d73b
000000e0: 0519 3fbc ed70 77bc 2185 d0be 8d66 83be
000000f0: d4a7 a8b9 f0b9 abbc 0ab1 5cbe e191 0700
00000100: bb99 773c 7968 a5be 21a6 473e 22ef dfab
00000110: ead4 c1be 22ac 26b8 841a c3b9 c23a cabb
00000120: 8b2e 43b5 6dc0 19be e7ac 0bbb d317 88be
00000130: e741 b7ba 62cf bd36 e89f ef3e 126e 54b4
00000140: 15f5 fcbe d924 6a3e 2828 34bf 58a6 e8be
00000150: 545d 8638 bf23 013a 64c2 24bf 66f3 b9bb
00000160: dc25 86bb bc0c 47be b548 1ebf 7a13 cfbe
00000170: 19a9 333f 703e e7bd 7c79 edbe f349 42bf
00000180: d37c 1931 af4d 753a 8a4a c1be 6471 693c
00000190: 4879 cbb7 dad3 8e3d eae3 cf3b a0f5 15bf
000001a0: 5cde 87bb a658 c43b 6b6c 0d3d 0e63 6c38
000001b0: 2947 27bf 5c62 28bf c892 9537 2a40 8bbe
000001c0: af3c 1c3c 613c 31ba e090 8a3d 7ab5 86b5
000001d0: f231 3cbf 511e cbb7 6954 4dbc 7861 e9b8
000001e0: 6344 18bc 4a84 42be a4a8 e0bb 5acf 3cbd
000001f0: b4ce 23bf 6c2e 0fbf 52f4 5738 886e 213c
00000200: 56df a3a5 4c92 343c 8dc7 e639 63e6 1bbf
00000210: 45a5 63bf 08be babe 8ef7 ceba b378 503b
00000220: fb60 af38 c87f e9ba b654 fabe 5c5c 2ebf
00000230: 44d4 1dbf 0949 6cbf 3d9c 06bc e038 4fb0
00000240: 84e1 41bc 2550 0400 e9ca 8dbb 826c 76be
00000250: 4b4e fd04 2b55 fdbe bf79 03bd dafb 0480
00000260: d430 4a3c 611b 06b7 8f9f 0cbf 9090 fabb
00000270: 1479 fd3b 6c06 83be 0ed5 0400 3f09 82ba
00000280: 41fe 9bb7 146d 24bf 482d edbc 251c 78be
00000290: 1019 14bf ca3d 3ebb 506e 31bc b5cc 21b9
000002a0: df63 5238 c6ca 61bc 6885 97bf c067 babe
000002b0: d842 8abf bb4f ed3c 8877 a7be 306a 1fbd
000002c0: 236e fbbe 5f31 33bd dbdc 02bf 6c1c b2be
000002d0: 8e77 0380 0344 0200 f330 663a 2388 d7ba
000002e0: d536 093b 87d5 bc3b 38fd 05bf 9510 9bbe
000002f0: 5d73 0300 ec2d d5bf 5e91 f8bc a602 0700
00000300: 11f1 0abc f44c 90bf 8983 9fbd 483d 0100
00000310: 6ba6 aabf 4bdf c113 12f6 a93b 7a3d c9bb
00000320: 25d3 0380 5c50 6fbf 69a9 1a39 803e 0bbf
00000330: 874d 893b 56d4 9129 c11e f1ba 8ff6 0580
00000340: b454 83be 4d7b bebc e6ff 47bf c810 53bf
00000350: 0198 0880 5fdc d332 3f60 f4bb b6e6 5ebc
00000360: 3998 34ba ef35 febc 63b7 63bf 6238 41bf
00000370: 1f82 88bd 5282 a7bc 1c3a e0be 34ed 93bf
00000380: ff4d aead 82b1 92b1 0dd3 59bc c63a bab9
00000390: 0a00 a518 4585 c6bd ddaa f2af 29f5 38bf
000003a0: b15a cca7 7e24 81bc 40e9 7c36 778a 9090
000003b0: d350 27bf 733c aabe e326 0600 657a 9a36
000003c0: b09a 3320 7e84 4cb4 9cb8 02be b95d 681c
000003d0: abc5 9cbf 83f3 a71d eed0 3a3b 063f c039
000003e0: ef0f 49b4 00ee e9be ec59 c1bb 4d18 49bf
000003f0: b3d8 63bf 05a7 8abe 01f7 6bb6 7614 edbb

layers.3.bias f4 [983]
-1.4788077 -0.4047371 -0.5756369 -0.22017986 -0.24093664 -0.17503314 -0.7473125 -0.62940586
0.2826673 -0.49066043 -0.14150503 0.21502678 -0.7125546 -0.27503476 -0.2366076 -0.60714334
-0.48460752 -0.66009855 -0.2105208 -0.22481574 -0.4354773 -0.2866894 -0.0048964615 -0.24500826
-0.23305604 -0.6112954 -0.11919961 -0.69436294 -0.4514367 -0.5213194 -0.17221627 -0.585069
-0.43864003 -0.13743573 -0.5643665 -0.30162984 -0.38914317 -0.33303618 -0.23655881 -0.27183557
-0.13325536 -0.27071768 -0.2641261 -0.1646829 -0.30249363 -0.19309755 -0.46993214 0.039600674
-0.36414555 -0.17661326 -0.23864128 -0.16699147 -0.25698084 -0.37188017 -0.3693517 -0.17660594
-0.37568432 -0.23780401 0.007496498 -0.10780672 -0.33387706 -0.3927693 -0.3722624 -0.17307445
-0.23295417 -0.3118774 -0.10112241 -0.046488546 -0.122452825 -0.15745047 -0.33341825 -0.2744589
-0.11232933 -0.025373178 -0.33685398 -0.23656556 0.07766477 -0.2725915 -0.059699666 -0.055095937
-0.1935979 -0.20472753 -0.18616128 0.014568543 -0.21217634 -0.26678014 -0.09876529 -0.22958986
-0.19959885 -0.27617174 -0.107432604 -0.37360805 -0.53607345 -0.3111666 -0.1967818 -0.3415237
0.0071357964 -0.23993744 -0.5057216 -0.25047442 -0.12879393 -0.3176976 -0.17629275 -0.16413487
-0.2288882 -0.10279291 -0.30592963 -0.17326488 -0.0034598904 -0.044240583 -0.19696702 -0.12347905
-0.06603481 -0.28589663 -0.12995268 -0.102131315 -0.1187658 -0.12997244 -0.29483682 -0.28692925
-0.11403695 -0.1431781 -0.13318114 -0.28614098 -0.07353408 -0.10906306 -0.19938183 -0.12704355
-0.5373117 -0.1172123 -0.2475403 -0.34716657 -0.22468026 -0.1397948 -0.18268345 -0.25965175
0.056615375 -0.14443512 -0.037529234 -0.0011519912 -0.19221072 0.038916 -0.0875168 -0.09921205
-0.104800135 -0.09263181 -0.23385824 -0.24256796 -0.18376157 0.00070502644 -0.26681608 -0.146586
-0.17187154 -0.2821587 -0.3036819 -0.22145458 -0.27444312 -0.02674185 -0.17628257 -0.2851621
-0.18938382 -0.1092539 -0.3547511 -0.1263186 -0.114670426 -0.17890419 -0.092561066 -0.29237118
-0.19505401 -0.301893 -0.28573883 -0.02312316 -0.13138157 -0.21663918 -0.2952634 -0.3919121
-0.1690778 0.02447131 -0.14473806 -0.17013283 -0.1232757 -0.09561733 -0.14982629 -0.24916232
-0.1765569 -0.121129766 -0.3033749 -0.32786196 -0.19390333 0.015827611 -0.026416294 -0.06033516
-0.13362168 -0.13331586 -0.14373086 -0.15835838 -0.048605688 -0.1289638 0.11103888 -0.14849906
0.021361237 -0.08520994 -0.06951743 -0.2390791 -0.13337532 0.09709498 -0.22202606 -0.20243423
-0.2723985 0.00018427077 0.003456656 -0.11549877 -0.043386776 -0.18565173 -0.08224133 -0.0806434
-0.27378556 -0.10517626 -0.18034099 -0.3126746 -0.123333804 -0.35863402 -0.1195095 -0.103360176
-0.21749732 -0.21300873 -0.1215312 -0.23216309 -0.045095973 0.0056110783 -0.14184377 -0.09993717
-0.090374045 -0.19097623 -0.07694154 -0.21009956 -0.2227581 -0.1698629 -0.17305723 -0.25020477
-0.14693074 -0.17081597 -0.1310867 -0.07556591 -0.108399905 -0.23429725 -0.13507886 0.013409632
-0.21835028 -0.13170816 -0.09310992 -0.091078535 -0.16647673 -0.12802865 -0.085339345 -0.20889072
00000000: 9249 bdbf b339 cfbe f15c 13bf d476 61be
00000010: 18b8 76be e33b 33be df4f 3fbf be20 21bf
00000020: c5b9 903e d837 fbbe b2e6 10be fb2f 5c3e
00000030: fa69 36bf 5bd1 8cbe 4349 72be bf6d 1bbf
00000040: 7a1e f8be 38fc 28bf c492 57be 1936 66be
00000050: e1f6 debe f4c8 92be 7f72 a0bb 72e3 7abe
00000060: 3ea6 6ebe db7d 1cbf ed1e f4bd c5c1 31bf
00000070: b622 e7be 3075 05bf 7659 30be 15c7 15bf
00000080: 6d95 e0be f4bb 0cbe 537a 10bf 3a6f 9abe
00000090: c63d c7be b883 aabe 793c 72be 082e 8bbe
000000a0: 1874 08be 829b 8abe 893b 87be a2a2 28be
000000b0: 72e0 9abe 5dbb 45be f29a f0be 5134 223d
000000c0: 4971 babe 1bda 34be 615e 74be d0ff 2abe
000000d0: fe92 83be 1467 bebe ab1b bdbe 30d8 34be
000000e0: b259 c0be e582 73be 2fa5 f53b c5c9 dcbd
000000f0: eff1 aabe 0f19 c9be 2d99 bebe 6e3a 31be
00000100: 8a8b 6ebe 65ae 9fbe 4419 cfbd c66a 3ebd
00000110: 8cc8 fabd b23a 21be ccb5 aabe e085 8cbe
00000120: eb0c e6bd 69db cfbc 2078 acbe 3e3e 72be
00000130: b50e 9f3d 1d91 8bbe a387 74bd 47ac 61bd
00000140: 873e 46be 18a4 51be 10a1 3ebe e6b0 6e3c
00000150: c144 59be 6897 88be 7545 cabd 9b19 6bbe
00000160: a463 4cbe 6266 8dbe a005 dcbd 8e49 bfbe
00000170: 1c3c 09bf 3b51 9fbe 2b81 49be 32dc aebe
00000180: 66d3 e93b 29b2 75be f976 01bf 2f3e 80be
00000190: 8ee2 03be 43a9 a2be 1686 34be f912 28be
000001a0: ab61 6abe 1785 d2bd cfa2 9cbe 596c 31be
000001b0: 54bf 62bb 9d35 35bd b9b1 49be 96e2 fcbd
000001c0: 423d 87bd 0b61 92be 5112 05be 392a d1bd
000001d0: 7c3b f3bd 7f17 05be daf4 96be 64e8 92be
000001e0: 348c e9bd 489d 12be a360 08be 1281 92be
000001f0: 0999 96bd 745c dfbd c02a 4cbe b417 02be
00000200: 428d 09bf 010d f0bd 347b 7dbe d1bf b1be
00000210: 9512 66be 5e26 0fbe 5f11 3bbe 13f1 84be
00000220: 86e5 673d cde6 13be 41b8 19bd 69fe 96ba
00000230: e3d2 44be 6266 1f3d 023c b3bd b02f cbbd
00000240: 74a1 d6bd bfb5 bdbd 8978 6fbe bc63 78be
00000250: fe2b 3cbe 86d1 383a 1e9c 88be a41a 16be
00000260: 18ff 2fbe 1b77 90be 327c 9bbe fdc4 62be
00000270: cf83 8cbe b911 dbbc 6b83 34be c400 92be
00000280: d5ed 41be 82c0 dfbd f0a1 b5be aa59 01be
00000290: 54d8 eabd a932 37be a890 bdbd adb1 95be
000002a0: 3dbc 47be b891 9abe 5c4c 92be c86c bdbc
000002b0: e488 06be a9d6 5dbe c42c 97be b4a8 c8be
000002c0: bb22 2dbe 0f78 c83c 3736 14be 4d37 2ebe
000002d0: f877 fcbd 05d3 c3bd 106c 19be 6824 7fbe
000002e0: 55cb 34be e212 f8bd f453 9bbe 86dd a7be
000002f0: 988e 46be e8a8 813c fc66 d8bc 0022 77bd
00000300: 1fd4 08be f483 08be 2f2e 13be b328 22be
00000310: c216 47bd 160f 04be 5a68 e33d 2310 18be
00000320: c3fd ae3c 8d82 aebd 285f 8ebd 27d1 74be
00000330: 8a93 08be bcd9 c63d cd5a 63be eb4a 4fbe
00000340: d177 8bbe cf38 4139 1089 623b 9e8a ecbd
00000350: 55b6 31bd 7d1b 3ebe 246e a8bd 5e28 a5bd
00000360: 9f2d 8cbe a766 d7bd 4fab 38be e316 a0be
00000370: 6f96 fcbd e19e b7be 66c1 f4bd 80ae d3bd
00000380: 9eb7 5ebe f61e 5abe 5ae5 f8bd 29bc 6dbe
00000390: 8eb6 38bd 23dd b73b 7e3f 11be dcab ccbd
000003a0: 0716 b9bd 468f 43be 8793 9dbd 5724 57be
000003b0: b31a 64be 8af0 2dbe ea35 31be d71a 80be
000003c0: 0375 16be 62ea 2ebe 983b 06be 4dc2 9abd
000003d0: c500 debd 9eeb 6fbe 1d52 0abe 13b4 5b3c
000003e0: 3797 5fbe 81de 06be 6ab0 bebd 6287 babd
000003f0: e078 2abe f119 03be 65c6 aebd 73e7 55be
