models/MPC_horizon_7_obs_5.pt (torch_old, 400171 bytes, 8 tensors)

layers.0.weight f4 [128, 33]
00000000: 8141 663c 84ec 40be b22a c83f 0712 7bbe
00000010: f8b2 1cbd c27d 48bd 3f40 063e cea5 03ba
00000020: 58a8 e23d 3c07 2b3b 9461 74bd 3224 ee3d
00000030: 3166 1d3e eb8f 963d b928 e43d 88f1 b13c
00000040: 2ff5 763c 6b59 6fbd 1f85 263e 333c 0abd
00000050: 512d 2e3d c50e adbd 0840 3cbd 64d8 59bd
00000060: 11ef 84bd 9361 ff3d 47d8 a4bd 699e d43d
00000070: abc6 753f 84c4 babe ded7 3bbf 9554 e23e
00000080: 7725 b5bd a338 89b4 5418 4ab1 5101 0280
00000090: 6b59 0600 03d7 ccb0 53be 7bb0 59cd 0080
000000a0: cd0c 0100 b701 50ac b701 50ac ac00 0280
000000b0: 0824 71b4 cede 88b5 5141 73b2 88c2 04b1
000000c0: b709 aea2 76a1 3cb6 76a1 3cb6 023d 9fab
000000d0: 1745 0300 279d 11af a005 ecaf 5141 73b2
000000e0: 279d 11af 632f 1da8 5141 73b2 5141 73b2
000000f0: d9af 8db3 7c31 0380 104d 0000 107a 019b
00000100: 18fe 0200 b52a 0280 95a0 063f ffc0 76be
00000110: fed1 7c3f d5b9 00bf aa66 c6bd 1ce2 c63d
00000120: e13c 08bc 1ea4 d4bd 6638 2bbe 0802 003e
00000130: 4559 c13c 46c7 e33d 8e0e 82bd a12d ddbd
00000140: 8cd9 7bbd c83c 233e ad82 803d 274b 2c3e
00000150: 0e31 063c 0ba7 963d 276c 433d 1ff0 89bd
00000160: 440a b93c 3235 733c a7b0 1c3e da8b 20be
00000170: 833e 853d 3304 2e3c 381a e3bd de2c 0d3e
00000180: 567e 893f 2cb2 bebe 32f8 11bf e815 1fbe
00000190: d472 c43e 6c3d 94bf 60a6 ebbe 6d1c a9bd
000001a0: 7d37 873e c96b 6bbe 7656 113f 9953 953c
000001b0: 6895 0d3e 4d96 0a3d 240d 0e3e 4fb6 7f3d
000001c0: 849b 7c3d 3ed9 11be 443a 1d3e 05a3 1a3e
000001d0: 4a91 17bd ea99 e13d 9214 6cbc 7e87 503d
000001e0: 0f29 b4bc 2407 7abd d883 17bd 0337 cabd
000001f0: 90b7 6dbc a070 26be 193a 3e3d f27b b5bc
00000200: e1c2 2e3c 01f4 f3be b8a2 3d3f ae5d e8be
00000210: 5347 8b87 be19 f289 3401 b207 26c2 4888
00000220: cb7f 7809 3a61 8b8a 83f9 a787 6c46 3486
00000230: c6a6 8789 c6a6 8789 b371 7888 3be4 bc89
00000240: 486c c689 b62c ad89 d70a a389 7179 4389
00000250: 6f37 cd89 6f37 cd89 cc33 8489 2f41 fc87
00000260: a4c5 9689 fcf9 9b89 b62c ad89 a4c5 9689
00000270: 2e52 6989 b62c ad89 b62c ad89 ccab b589
00000280: a2df 5088 84f0 8589 24ee ea89 973d 280a
00000290: 01a2 1289 fbda 05bf 1eb6 273e 084e 95bf
000002a0: 197e 783e 3ed9 7e3c a070 1cbc 2448 e73d
000002b0: 36ac ff3d 3118 e73d 0dab 973d f70c c33d
000002c0: ad9d 6a3e 746a 753d a79a 843d cb22 d6bd
000002d0: 198e c2bc fc68 7f3d c0b6 07bd 3a1d 1a3d
000002e0: d180 5c3d 0861 92bd f6d5 053c 5f39 003e
000002f0: e3c7 a2bd f3e8 bf3d 611a d13d b4ad 443e
00000300: 0b5a 9e3d eea9 b9be 6c42 d9be 69c5 afbe
00000310: 8334 4a3f a4a2 653f 15aa 0bb4 e939 adb6
00000320: 3e9d 0480 9c66 0400 6b64 4a9f 891a 79b7
00000330: 68f2 0280 d598 0200 25cf 86b3 25cf 86b3
00000340: 4845 7394 aea4 d8b7 94ed 75b8 47d9 c2b6
00000350: 838c 05b6 9b74 84ae 863e d5b8 863e d5b8
00000360: 253c 22b3 55a6 0680 9e82 feb4 5f99 6eb5
00000370: 47d9 c2b6 9e82 feb4 d081 49b1 47d9 c2b6
00000380: 47d9 c2b6 6770 5fb7 4a93 0100 d34f 0700
00000390: 009c 3da3 a597 b2a5 6880 0180 abb4 bbbc
000003a0: 4221 89be 54ce 8040 e415 10bf 6c9e 1f3d
000003b0: aba2 c73d 784a c93d 147b 813e 04af 12bd
000003c0: 95a8 a23d 0d9b aa3d 9856 003e 7637 06bd
000003d0: 0ff9 b9bc 97c8 18be 564c 15be d594 eabd
000003e0: d77c e63d d98f d33d 8ba9 013e 230f 303d
000003f0: e189 cf3c 70e9 153d cc74 3d3d be1a 02bc
0.014053703 -0.18840224 1.563803 -0.24518596 -0.038256615 -0.048948057 0.13110445 -0.000502196
0.11067265 0.0026096841 -0.05966337 0.116279975 0.15371014 0.07351669 0.1114058 0.021721616
0.015073105 -0.058434885 0.16261719 -0.033748817 0.042523686 -0.08450083 -0.045959502 -0.05318488
-0.06490911 0.12469783 -0.08049064 0.10381777 0.9600627 -0.36478055 -0.7337626 0.44205156
-0.088450365 -2.5559447e-07 -2.9408698e-09 -1.84143e-40 5.8309e-40 -1.4904064e-09 -9.1583735e-10 -7.3665e-41
9.6428e-41 -2.955953e-12 -2.955953e-12 -1.83912e-40 -2.2457982e-07 -1.0197634e-06 -1.4159313e-08 -1.9319106e-09
-4.717308e-18 -2.8108166e-06 -2.8108166e-06 -1.1314563e-12 3.00291e-40 -1.3243505e-10 -4.2932147e-10 -1.4159313e-08
-1.3243505e-10 -8.725526e-15 -1.4159313e-08 -1.4159313e-08 -6.597811e-08 -2.93258e-40 2.7645e-41 -1.071007e-22
2.74823e-40 -1.98991e-40 0.5258878 -0.2409706 0.9875792 -0.5028356 -0.0968755 0.09711096
-0.008315296 -0.10382865 -0.16720733 0.12500775 0.023602137 0.11121993 -0.06350432 -0.10799719
-0.061486766 0.15941155 0.062749244 0.16825543 0.0081904065 0.0735608 0.047710564 -0.067352526
0.022587903 0.014844226 0.15301763 -0.15678349 0.06506064 0.010621118 -0.11088985 0.13786647
1.074168 -0.3724531 -0.5701934 -0.155357 0.38368857 -1.1581244 -0.46025372 -0.08257375
0.26409522 -0.22990336 0.56772554 0.018228339 0.13826525 0.033834744 0.138722 0.062429722
0.06167175 -0.14243028 0.15354258 0.1510125 -0.037003793 0.11015685 -0.014409201 0.050910465
-0.021992235 -0.061041966 -0.03699097 -0.09873774 -0.014509097 -0.162539 0.046442125 -0.022153828
0.01066658 -0.47647098 0.74076414 -0.45383972 -2.0956316e-34 -5.828359e-33 2.678317e-34 -6.041353e-34
2.9912002e-33 -1.3421786e-32 -2.5274017e-34 -3.3905975e-35 -3.26569e-33 -3.26569e-33 -7.476344e-34 -4.547398e-33
-4.7768593e-33 -4.169028e-33 -3.9251016e-33 -2.3529373e-33 -4.9404084e-33 -4.9404084e-33 -3.1826554e-33 -3.7955057e-34
-3.6297047e-33 -3.7549977e-33 -4.169028e-33 -3.6297047e-33 -2.8084996e-33 -4.169028e-33 -4.169028e-33 -4.3735722e-33
-6.2855602e-34 -3.2244765e-33 -5.6557397e-33 8.1004895e-33 -1.7650285e-33 -0.5228726 0.16378066 -1.1664438
0.24266852 0.015554724 -0.009548336 0.112930566 0.124840185 0.11283911 0.07405672 0.09523957
0.22911711 0.059915975 0.0647481 -0.10455855 -0.023749398 0.06235598 -0.03313327 0.03762553
0.053833786 -0.071474135 0.008168688 0.12521885 -0.079482816 0.093706034 0.102101095 0.19206887
0.07732018 -0.3626246 -0.42433488 -0.343303 0.78986377 0.89701295 -1.3007259e-07 -5.1625434e-06
-4.2375e-40 4.04151e-40 -4.2858228e-20 -1.4847735e-05 -2.7063e-40 2.38497e-40 -6.2775406e-08 -6.2775406e-08
-1.2282028e-26 -2.5825891e-05 -5.8633814e-05 -5.806945e-06 -1.9900333e-06 -6.023378e-11 -0.000101682774 -0.000101682774
-3.7773265e-08 -6.10682e-40 -4.7406223e-07 -8.8885093e-07 -5.806945e-06 -4.7406223e-07 -2.932314e-09 -5.806945e-06
-5.806945e-06 -1.33180065e-05 1.44673e-40 6.71484e-40 -1.0278745e-17 -3.0980836e-16 -1.37899e-40 -0.022913298
-0.26783186 4.0251865 -0.562834 0.038969442 0.09747823 0.09828657 0.25289214 -0.03581144
0.07942311 0.08330355 0.12533033 -0.032767735 -0.022701768 -0.14920269 -0.14579901 -0.11454169
0.1125428 0.10330171 0.12662332 0.042983185 0.0253343 0.036599576 0.046253964 -0.007940946

layers.0.bias f4 [128]
00000000: f416 adbc 632f 1da8 418c 56bd 17de d3bd
00000010: 3b52 6989 ab17 bcbc d081 49b1 6587 b73d
00000020: 8032 503d 9ed5 bb3d 3b4e d23d 5231 1abe
00000030: 65b5 88bb e9ee d3bd ec69 e1b6 4bfd 49bd
00000040: 08bf 023d be90 0680 b65c 2fbd 7354 ec3c
00000050: 3f98 d5bc 401e ad3d 0da1 323c 419a 96bd
00000060: 2d48 183e 844f 02be 58ae 60a7 29ab 06be
00000070: 827e 103e 3866 4a3d 3b2c c5bc 9804 b73c
00000080: d0da 76bd c84b f9bb 9b5d 463d 8ee0 843d
00000090: fb1b 0400 9277 6e3d d385 83bd 678e a1bc
000000a0: bd11 aa3d eb53 18bb 84ff 5dbd 7050 33bd
000000b0: 34e6 283e c7d4 073e 346b 573d 7112 c7bc
000000c0: b53b 12bd 5bab f3a9 745e 84bd afa8 00be
000000d0: 6581 12be 79e0 373c 4ac4 5fbc 3678 5b3d
000000e0: b359 0400 f67e a23d c201 c3b5 3a93 c13d
000000f0: a1b6 713d eabf 08bc 545c 1f3c d8e6 dfbb
00000100: 6864 bfbd f5bd dabd 7827 0780 62ef 85bc
00000110: 2f51 54bd c179 b0a9 4ce1 00b8 744b c33c
00000120: 1376 023e f9a6 0680 c394 0300 9270 31be
00000130: f9c5 b9b8 0b48 033e cded 1c3e 153e 87bb
00000140: 2c88 49bb 8b3a c9bb e89b 34bd e8e0 2d3e
00000150: ffc7 ec3d 37c7 04a7 2de2 d2bd be94 e8bd
00000160: d3ac 56b6 c90b 0d3e 6bb5 edbb da4e 27bd
00000170: 9306 1ebc a94a f53d f270 d13d 963d ad3d
00000180: 1b8f 163e fb53 0ebe b861 1f3d afc1 1e3a
00000190: 8ffd d3bb 5748 55bc a2e6 d13d ef5a ab3c
000001a0: 5852 a33d 418d 2f3d 95dc 2090 6822 08bc
000001b0: ea16 76bd 9594 abbb f8ae 063e aa9e 06be
000001c0: 3720 b3ba fd00 dabb a57e 99bd 19c1 ebbd
000001d0: bcfa 70bd 0261 f6bc 3579 00be d004 053e
000001e0: 2e10 fa3d bac0 a8bb 1104 893d 92d3 9cbd
000001f0: e8f5 81bc e1a6 d1bd 9d92 dcbb 3d21 0cbd
-0.021129109 -8.725526e-15 -0.05237985 -0.10345095 -2.808502e-33 -0.022960505 -2.932314e-09 0.08961371
0.05082941 0.091716036 0.102688275 -0.15057877 -0.0041720145 -0.10348303 -6.7178535e-06 -0.049313825
0.031920463 -6.02937e-40 -0.042813025 0.028848862 -0.026073573 0.08453035 0.010902655 -0.0735364
0.14871283 -0.12725645 -3.1180757e-15 -0.1315123 0.14110759 0.04941389 -0.024068942 0.022341058
-0.06026727 -0.007607911 0.048429113 0.06488143 3.7738e-40 0.0582195 -0.06422009 -0.019721223
0.083041646 -0.0023243378 -0.054198757 -0.043777883 0.16494066 0.13264762 0.05259247 -0.024300786
-0.035701472 -1.0821093e-13 -0.06463328 -0.12564348 -0.14307173 0.011222952 -0.013657639 0.05358144
3.9952e-40 0.07934372 -1.4529144e-06 0.09451909 0.05901206 -0.008346537 0.009726603 -0.0068329386
-0.09345323 -0.10680763 -6.57007e-40 -0.016349498 -0.051835235 -7.837091e-14 -3.0727402e-05 0.02383969
0.12740354 -6.10911e-40 3.28872e-40 -0.17328098 -8.858363e-05 0.12820451 0.15325089 -0.004127274
-0.003075133 -0.006141012 -0.044093996 0.16980326 0.11561584 -1.8426674e-15 -0.10297046 -0.11356495
-3.1989082e-06 0.13774027 -0.0072542927 -0.040846683 -0.009645122 0.11977131 0.10226621 0.08459012
0.14703028 -0.13899224 0.03891155 0.0006056083 -0.0064694355 -0.013017735 0.10249068 0.020917384
0.0797469 0.04285932 -3.1724366e-29 -0.008308984 -0.060080446 -0.005236218 0.13152683 -0.13146463
-0.0013666217 -0.00665295 -0.07494859 -0.1151144 -0.05883287 -0.030075554 -0.12546237 0.12990117
0.12210117 -0.005149928 0.06690229 -0.07657541 -0.015864328 -0.10236908 -0.006731345 -0.034211386

layers.1.weight f4 [128, 128]
00000000: 785a 33b9 8c86 0880 ea38 35ba e048 0539
00000010: 2899 0480 55b3 21b8 aee6 0780 704c b0b6
00000020: 16d1 e238 ab28 10b6 2c6a 44ba 47cc 55b9
00000030: ad5c 0200 ea82 3eb4 143d 0780 3f0a 57b8
00000040: 5a08 9eb7 cc8b 0a80 5b85 36ba fa25 5cb9
00000050: c260 48b8 d8e4 eeb8 1e05 a939 3b1b e1b9
00000060: ed32 ceb7 b125 a638 5943 0180 5608 2eb9
00000070: 71a5 3db9 ca12 a4b9 4fba 8eba 55db 83b8
00000080: d3b3 d038 40fe d9b9 b529 4cb6 3f71 b5b9
00000090: e77a 0580 ceab bdab 3a6e e0b7 160d bcb4
000000a0: 3270 18b8 1c77 0000 ebf6 eab3 0922 0cba
000000b0: 859b 49ba 3aba ecb5 11b2 66b9 de5f 25ba
000000c0: e4e5 7f37 d188 0500 f7aa 63b8 2548 9bb7
000000d0: 63d3 cfb6 e6a9 8ab4 1418 0980 282f 41b8
000000e0: beb2 0400 e1e8 83ba d8e9 0280 609d 96b9
000000f0: 46da 8d39 ddd5 d6b9 88f9 17b9 24fe 0280
00000100: dd4f 44b8 77b6 9fb9 9b5d 0100 ab39 e5b9
00000110: 261f 8bba 90bc 0480 b43f 0600 fb35 21b9
00000120: 32cd a0b7 09ff 0400 d60a 0980 627a c931
00000130: 5151 0100 8f73 0eba 7b4a b8b9 22d3 0700
00000140: c44a 0680 00a3 0700 58cb eab9 2e5a 91b9
00000150: 1ffa 0fba e9d0 0480 a35e 87b8 937d 9bb8
00000160: 3993 0280 1f23 12ba 5210 0100 f7c7 61ba
00000170: 1ef1 0200 4116 8b39 c539 f339 7022 c8b9
00000180: a448 59b9 7308 c535 644e a5b9 90fd 97b8
00000190: 1b26 0800 1be3 29ba 2b42 85b8 9692 89b9
000001a0: 71bf ddb9 0adb 4637 1612 0180 486d 0700
000001b0: bd91 dfb9 4970 92ba 4179 6bb9 a87b c2b9
000001c0: a2a3 0a80 90bc 0180 ef91 cdb7 186a a3b8
000001d0: f1fd b0b7 d3d6 21b8 b2c6 1db8 4de7 c1b9
000001e0: 772a 83b9 e797 f9b8 c3cd 08b7 43be 8b37
000001f0: 6530 0a00 e719 3239 51b5 0800 8b8f 0db9
00000200: e57e 2cbb d25b 0400 b0d9 fdbb 9926 06bb
00000210: 7aae 0980 4788 27bb 4cb6 0980 4a12 08bb
00000220: c86b 56bb 2730 0bb8 9bc3 67bb 01a1 85bb
00000230: 3c5f 0b00 90ba 06ba 3be2 0880 8d02 e2bb
00000240: 51ff 9cba f9f0 0180 d652 5ebb f649 0739
00000250: fd22 a2ba ee52 8eba a9c5 44bb 0133 8cbb
00000260: e413 a9ba 501c 1639 3a8f 0300 952a 95bb
00000270: b7fd 6ab9 d684 d3bb a592 cebb 0244 24ba
00000280: c098 75bb af7b a7bb f431 afb9 8aa2 6cbb
00000290: fc90 0880 5dfc 0eb7 f0ad abbb 4e83 38bb
000002a0: c0e6 acba 3a3f 0400 92fc a2bb a4b1 ba38
000002b0: 2b10 8bbb a6a0 4d3a 3f11 debb 6354 f1bb
000002c0: eb02 33bb b200 0a00 6bb3 d3bb d731 87bb
000002d0: b1bd 6ebb af4f 5c3a 4970 0000 fc21 44bb
000002e0: 373b 0380 bc12 10bc dc19 0980 07bb a6bb
000002f0: 1344 60bb f888 2fba 39c9 a5bb 4172 0a00
00000300: 6869 253b 274e 18bb d467 0500 2c07 91bb
00000310: 47be d9bb 64c0 0680 e802 0380 6f12 3ebb
00000320: ebfd 25bb 5121 0700 0155 0300 07ca 77bb
00000330: 0cbd 0880 3009 deba 30d3 80bb 44f0 0580
00000340: 046f 0280 c830 0b80 1778 45ba af89 a6bb
00000350: 4044 d7bb 9a6f 0200 8329 5cba abd5 a8bb
00000360: 10fb 0180 8649 94bb 5e29 0200 c26d 8abb
00000370: dac2 0280 824e 95bb 9cf0 6cbb 9764 a9bb
00000380: 64b0 6dbb 9f43 3bbb ffde 28bb 9dc9 26bb
00000390: 1eb6 0900 5449 c4bb cdcc bbbb ec5c 54bb
000003a0: c3c8 6fbb c316 94bb 641d 0400 5a3c 0980
000003b0: 8dba a8bb 7ec3 94bb 39c2 8abb abdb bebb
000003c0: f4a5 0a00 1c7e 0a00 7ec8 1d39 cfe8 ac39
000003d0: 9573 a5ba 59ec 3cbb a82a 9abb 10fe cabb
000003e0: 59c3 b938 d9fb 91b9 4543 65ba 9daa 69ba
000003f0: f638 0700 f125 d8ba 55f8 0980 07b9 4ebb
-0.00017104472 -7.8295e-40 -0.0006913083 0.00012711016 -4.22284e-40 -3.8552407e-05 -7.25601e-40 -5.2541072e-06
0.00010815465 -2.1481344e-06 -0.00074926275 -0.00020389362 2.16917e-40 -1.7742755e-07 -6.64759e-40 -5.1269537e-05
-1.8838957e-05 -9.68505e-40 -0.00069626205 -0.00020994982 -4.777383e-05 -0.0001139135 0.00032238004 -0.00042935633
-2.4580828e-05 7.9225174e-05 -1.15995e-40 -0.00016597038 -0.00018086076 -0.00031294517 -0.0010889265 -6.2874205e-05
9.951708e-05 -0.00041578896 -3.0422646e-06 -0.00034607385 -5.03267e-40 -1.3476943e-12 -2.675421e-05 -3.502725e-07
-3.6344114e-05 4.2728e-41 -1.0941388e-07 -0.0005345648 -0.0007690716 -1.7637569e-06 -0.00022000844 -0.0006308536
1.525271e-05 5.08258e-40 -5.428024e-05 -1.8511035e-05 -6.1936894e-06 -2.582812e-07 -8.35157e-40 -4.6058703e-05
4.31463e-40 -0.001006391 -2.67558e-40 -0.00028727483 0.00027056242 -0.000409766 -0.0001449344 -2.7484e-40
-4.680442e-05 -0.0003046279 1.25415e-40 -0.0004372125 -0.0010614141 -4.34985e-40 5.73865e-40 -0.00015374266
-1.9169038e-05 4.58831e-40 -8.30407e-40 5.8637832e-09 1.21006e-40 -0.00054340897 -0.00035150707 7.18589e-40
-5.77834e-40 7.01322e-40 -0.0004478346 -0.00027723744 -0.0005492288 -4.42285e-40 -6.454929e-05 -7.414366e-05
-2.36485e-40 -0.00055746915 9.769e-41 -0.0008612866 2.70168e-40 0.00026528726 0.00046391613 -0.0003817263
-0.00020721793 1.4680103e-06 -0.00031529658 -7.247471e-05 7.48354e-40 -0.000648068 -6.354259e-05 -0.0002623989
-0.0004229504 1.1852719e-05 -9.8324e-41 6.82051e-40 -0.00042642458 -0.001117238 -0.00022456517 -0.00037094695
-9.77055e-40 -1.59479e-40 -2.450586e-05 -7.792207e-05 -2.1099086e-05 -3.8585462e-05 -3.7616766e-05 -0.0003698416
-0.00025017906 -0.00011901539 -8.154139e-06 1.6658689e-05 9.35716e-40 0.00016985052 7.99728e-40 -0.00013500282
-0.0026320752 4.00281e-40 -0.0077468976 -0.0020469783 -8.8911e-40 -0.0025563405 -8.91915e-40 -0.0020762854
-0.0032718051 -3.3185028e-05 -0.0035364393 -0.004078031 1.044354e-39 -0.00051394943 -8.1584e-40 -0.0068972767
-0.0011977946 -1.7828e-40 -0.0033923886 0.00012902156 -0.0012370046 -0.0010858455 -0.0030025041 -0.004278541
-0.0012899605 0.00014315662 3.26886e-40 -0.0045521953 -0.00022410495 -0.0064550443 -0.0063041025 -0.00062662375
-0.003747508 -0.00511118 -0.0003341582 -0.0036107623 -7.86695e-40 -8.5226175e-06 -0.005239241 -0.0028154436
-0.0013191327 3.90023e-40 -0.0049739564 8.902259e-05 -0.0042438707 0.0007844068 -0.0067769582 -0.007364796
-0.0027314972 9.18604e-40 -0.0064605973 -0.0041258144 -0.0036428983 0.0008404208 4.028e-41 -0.0029927483
-2.96749e-40 -0.008793529 -8.35796e-40 -0.0050882134 -0.0034220263 -0.000669613 -0.005059388 9.59342e-40
0.002523983 -0.0023239942 4.96424e-40 -0.004425904 -0.0066449973 -6.2003e-40 -2.76549e-40 -0.0029002686
-0.002532835 6.548e-40 3.06e-40 -0.0037809627 -8.02501e-40 -0.0016939994 -0.0039314255 -5.45369e-40
-2.23496e-40 -1.02769e-39 -0.00075328484 -0.005082331 -0.0065694153 2.23706e-40 -0.000839852 -0.0051524243
-1.819e-40 -0.0045253662 1.98511e-40 -0.00422451 -2.5357e-40 -0.004556478 -0.0036154157 -0.005169462
-0.0036268467 -0.002857424 -0.0025767682 -0.002544976 8.91851e-40 -0.0059901867 -0.0057312013 -0.0032404019
-0.003658817 -0.004519315 3.77885e-40 -8.4817e-40 -0.0051491917 -0.004539906 -0.004234579 -0.0058245263
9.77888e-40 9.63594e-40 0.00015047376 0.00032979852 -0.0012622947 -0.0028827398 -0.004704792 -0.0061948374
8.857874e-05 -0.00027844196 -0.00087456807 -0.0008913668 6.63282e-40 -0.00164908 -9.15604e-40 -0.003154339

layers.1.bias f4 [128]
00000000: c4a7 c8b8 e82f 51bb b3bc ab3d fab1 15b9
00000010: 04b2 293e 4118 653d 7734 a6ba 8885 e13d
00000020: d629 bfbb 6d67 1cb4 0a37 923e b624 363e
00000030: cf56 183e 351b 1abe 619b d7b4 67fa 5c91
00000040: 32ce 103e 20a7 53a7 f03e 0d3d b530 58ad
00000050: f7c2 273e eb89 b5a6 bf61 a79a 777e 1cbc
00000060: de7b b8bc b226 713d eb8f 0400 1d19 34bc
00000070: 9266 4e3d d300 2e3e 5b12 cb3d e09e 5d3c
00000080: 8080 403e 50cc 753d 3d64 e5bb 91fa 8f3c
00000090: 5faf 5fb9 745a d93d 11dd 2dbe ee80 0c3e
000000a0: a069 0080 32ac 3ebd 99b8 f93d 0b33 8dbc
000000b0: 3328 eaae 464b a3bb 0bc9 abbd 5482 5b3e
000000c0: 68fd c33d 92b2 813e 8f83 f03a ae2f d1a9
000000d0: 18c5 1abc ec43 f63d 9478 dc3d eb90 0300
000000e0: 3b7e 1d3d 1d14 0300 0463 833d 7690 dfa9
000000f0: a408 0480 769c 8abb f0a4 f63d b07b 573e
00000100: 018b c13d ee11 573d 3e39 093e 0889 1abc
00000110: cfac a7bc bcbd cfbd 275e d9b9 4663 1c3e
00000120: d9f9 df3d 3572 993d 3e9d 193d 42eb 36bc
00000130: b124 873d 4d0a 033e 5a3b 87bb 87e4 0100
00000140: d130 963c 9b4f a93d efb6 363e d05d 013e
00000150: 07cc bfb9 71e3 27bc d786 86ab 2116 0480
00000160: d5af 18bd 171e 2d3e 41d2 a03c 6165 0200
00000170: d477 29bc 4274 dc3d f389 ad3d 6107 e6bc
00000180: cbd3 8da8 5370 2bb5 c17a 4ebb 9eb9 25b6
00000190: c54a 8c3e 15d6 92bb 0e3e 8e3d e20f 1e3e
000001a0: e906 be3d 609e 833d ca51 423e 90f2 243e
000001b0: 4549 f2bc fada 8d3d 31c6 f43d 08b6 923d
000001c0: 23eb 0b3e 564c ab3d fa29 233e 6759 073e
000001d0: 6cba 4c3e 59c5 913d 9ab4 653e 1c2d b83a
000001e0: 32bf 573e 9703 873e 87e9 483d 2750 6b3c
000001f0: f7a9 bcbb bdcc 42bb 4873 ff3c c066 3d3e
-9.567992e-05 -0.0031919423 0.08385601 -0.00014276049 0.16571814 0.055931333 -0.0012680431 0.11011797
-0.0058338447 -1.4566258e-07 0.28557616 0.17787442 0.14876865 -0.15049441 -4.0159924e-07 -1.7432101e-28
0.14141157 -2.937273e-15 0.03448385 -1.2288994e-11 0.16382967 -1.2596781e-15 -6.92275e-23 -0.009551636
-0.022520002 0.058874793 4.1897e-40 -0.010992316 0.050390787 0.16992502 0.099156104 0.013526648
0.18799019 0.0600093 -0.0070004747 0.017575534 -0.00021332268 0.10612956 -0.16978861 0.13721058
-3.7891e-41 -0.046550937 0.12193412 -0.017236253 -1.0648229e-10 -0.0049833385 -0.08387955 0.21436435
0.09569818 0.2533155 0.0018349754 -9.2897356e-14 -0.009446405 0.12024674 0.10765186 3.27493e-40
0.03845046 2.82722e-40 0.0641537 -9.9282494e-14 -3.70442e-40 -0.0042300774 0.12043178 0.21043277
0.09450341 0.052507333 0.13400742 -0.009432085 -0.020468144 -0.10143611 -0.00041459614 0.15272245
0.109363265 0.074924864 0.037503473 -0.011164488 0.06598795 0.12796898 -0.0041269483 1.73816e-40
0.018333824 0.08267137 0.17843221 0.12633443 -0.0003658237 -0.010247097 -9.558698e-13 -3.7528e-40
-0.03727706 0.1690601 0.019631507 2.20039e-40 -0.010343511 0.10764362 0.08473577 -0.02807969
-1.5745995e-14 -6.386592e-07 -0.0031506272 -2.469496e-06 0.27400795 -0.004481087 0.0694543 0.15435746
0.09278662 0.06426692 0.18976513 0.16108155 -0.029575953 0.06926532 0.119518645 0.07163626
0.13663916 0.08364169 0.15933982 0.13217698 0.1999299 0.07117719 0.22432175 0.001405153
0.21069029 0.26369926 0.049050834 0.0143623715 -0.005757566 -0.0029724084 0.0311829 0.18496227

layers.2.weight f4 [128, 128]
00000000: 94a0 13bc e08d 243b 03e5 5dbd 71d4 95ba
00000010: f8ce 56bd 49f5 f9bd da6f bcbb 4f41 dcbd
00000020: fcb2 e2bb e954 9f38 5c21 f33d 9f86 c83d
00000030: 7496 e63e c0af 90bf 1b03 0ebc 9b43 6b94
00000040: 4629 b8bd c799 afb8 b751 2ebd 52c2 eb8b
00000050: b483 abbe 6afe 34ae 8115 4eb1 fce0 30be
00000060: 7f16 96be 8f68 b43e 8cb5 9e33 3dba 733c
00000070: fc0b 89bd f975 1bbe c41b 6bbd d1f9 13bd
00000080: a270 b8bb 8d4d d63e b1db 99bb c51b 643c
00000090: 5f27 8739 f8f4 fc3d dc16 38bf bce8 17bc
000000a0: b7f5 0300 1ba6 da3d fa2a 94bd 75e1 3abe
000000b0: c2ba 833b 37a0 6e3d cfbf db3d 9c1a 663d
000000c0: 9628 19bd 3dba c43c b077 4fbe 8b21 43bb
000000d0: a609 aa3b 4c0e 98bb c6f9 f8bd 0ef0 0380
000000e0: 7aa6 61bc b573 922f 5a79 38bd 3478 4a3a
000000f0: 52c1 0700 4ae2 75bb ca0d aebd ab14 a73e
00000100: fde4 d23d 3d93 6cbe e597 24be 9240 233c
00000110: bcb1 c03d 9670 c5bd 15d7 f73c 490d db3d
00000120: 4419 083e 1181 a43b 68b6 743e 1c2e b5bb
00000130: 4371 87bd b07b 2a3d 1e1e 6bb8 8af3 5638
00000140: b7fe 5b3e fb58 6dbe f322 123e 6c9e f93c
00000150: 1d3a 2fb8 00de aa3b ff49 0c3b 6738 0a24
00000160: 0860 24be c5c3 4b3d 0c82 223e 5a9f 41b8
00000170: a01a c9bb 2af4 6d3d 515d efbc cd02 293d
00000180: bde8 c2b9 25a5 813a 8af0 bcba 9141 66bb
00000190: b732 683e 958c 78bb 2f0a ac3d a263 32bd
000001a0: a742 bc3c c715 a43e 2d7c d83e 6d09 3abe
000001b0: be7f 8e3c 26d7 133e 8aba b23d a21d f33e
000001c0: 78a5 8f3b 652c 15be ef3d 993e 84c7 b9bc
000001d0: 6d0b 453d a2fe 80bd bb54 8fbd e749 9abd
000001e0: e68a 713e cd5d 84bd 91f9 063e 0d9a 8b3e
000001f0: ca4f 373a 7d75 be3c 68ad f8be 450e 83bd
00000200: 083b 3a39 5bf1 963b bf28 4f3c 8639 aab9
00000210: a5f3 aabe 4ca6 44be ccce a4bb 1dcf dabd
00000220: 50c2 66bc 5dd7 cab4 6951 6f3e 6b4d 2dbd
00000230: ff61 4a3e 6e9c 28be c0d1 b2bb 2980 1403
00000240: c1fe 61bd 2b43 35b2 8c4d 253e 38ae 9104
00000250: e0d7 9f3e 7e48 419c 39a4 6d22 da98 dbbd
00000260: bbb6 0fbe b4d1 783e 7026 d0ab 419a a3bb
00000270: f0dc 9d3e 9bf1 74be eea1 b2be c860 bebe
00000280: e235 a0bd e10c 923e d5b2 233c 0f38 503e
00000290: 4e31 84b7 87ad 603e 0ad7 b53e 65ba 48bd
000002a0: 833e 0100 cb9f d23c 12d1 54be a100 78be
000002b0: 8949 cf35 af5f 0a3e 12c8 d0be f861 e43d
000002c0: 1dd4 503c 2e8a e4bb b9e8 94be 5d30 0735
000002d0: cc61 58bc 7e7d 423c 14d6 9cbe d14c 0780
000002e0: 64f7 57be e990 ea18 8b21 903c c5b8 8337
000002f0: 9aca 0880 06bf ff38 c06f cbb9 a503 6d3e
00000300: b7b3 d33c fef4 d23e 8347 f8bd 0f71 deba
00000310: 8160 c03e fa39 bbbe a858 b93d d008 70bc
00000320: a54d db3e b6b3 ca3d 2ea6 ac3d d983 8d3c
00000330: 2c18 1f3b d2d9 573b 64c9 09b7 645a b137
00000340: b9d0 6e3d 5836 283e 245d 96bd 3ae0 d4be
00000350: 6bbe 0200 bc85 4bbc 3866 e039 d70b e09a
00000360: 65d5 fe3e e296 9a3d ceef cebe b19d 19af
00000370: 0dc1 d83c ddfb 343e d838 8dbe 6255 00bd
00000380: 9c0c 0380 6a0b e338 5f15 c23b 6836 66b8
00000390: c690 873d 41f7 bc3b 6999 763e aa6d 10be
000003a0: a7c5 ae3b b2b7 1c3e 0962 903e eac2 22be
000003b0: d48c 193e 949d 20bd e569 35be cc37 9a3e
000003c0: 9c51 223a daa8 80bf 5b6f 803e 4dd9 61be
000003d0: e2e6 023f dccc 41bb b5e6 bb3c a9a0 05be
000003e0: 1265 3cbe b821 9bbe 9711 05bd 45cd 443e
000003f0: a32c d5bb 132d 853a 26fa 8cbf bcd4 18be
-0.009010453 0.0025108978 -0.05417348 -0.001143111 -0.052443475 -0.122049876 -0.0057506384 -0.10754644
-0.0069183093 7.5975266e-05 0.11871597 0.09791302 0.45036662 -1.1303635 -0.008667733 -1.1877801e-26
-0.08992247 -8.3732935e-05 -0.042558398 -9.081109e-32 -0.3349892 -4.1153227e-11 -2.998917e-09 -0.17273325
-0.29314038 0.35236022 7.3904715e-08 0.014875946 -0.06691739 -0.15181722 -0.057399526 -0.036126915
-0.0056286613 0.41856042 -0.0046953787 0.013922636 0.0002577854 0.123514116 -0.7190988 -0.009271797
3.63652e-40 0.10676213 -0.0723476 -0.18250068 0.004020066 0.05825826 0.10729944 0.05617772
-0.03739222 0.024014587 -0.20260501 -0.0029774632 0.0051891385 -0.004640376 -0.121570155 -3.61622e-40
-0.013772601 2.663946e-10 -0.045037605 0.00077236 7.12199e-40 -0.0037518912 -0.08498724 0.32632956
0.10297582 -0.23103042 -0.16073568 0.009964125 0.094089 -0.09640615 0.030253926 0.10695893
0.13290888 0.0050202687 0.23897707 -0.0055291783 -0.066134 0.041621864 -5.6056415e-05 5.124839e-05
0.21483885 -0.23178475 0.14271145 0.03047105 -4.1777374e-05 0.0052144527 0.002140641 2.9971755e-17
-0.16052258 0.049747247 0.15869921 -4.6163193e-05 -0.006137207 0.05809418 -0.029219301 0.041262437
-0.00037175967 0.0009891136 -0.0014414948 -0.0035134295 0.22675596 -0.003792559 0.0840038 -0.04355205
0.022981001 0.32047865 0.4228224 -0.18167658 0.017394897 0.14437541 0.08726986 0.47483546
0.004383739 -0.14567716 0.29930064 -0.022678144 0.0481066 -0.06298567 -0.06998583 -0.07533627
0.23588142 -0.064632036 0.1318114 0.2726597 0.00069927855 0.023249382 -0.48569798 -0.06399206
0.00017760333 0.0046064085 0.012643992 -0.00032467785 -0.3338901 -0.19204062 -0.005029535 -0.10684035
-0.014084414 -3.778213e-07 0.233709 -0.04231016 0.19763945 -0.16465923 -0.005457133 4.364041e-37
-0.055174593 -1.0550859e-08 0.16142863 3.424933e-36 0.31219387 -6.3952037e-22 3.2206428e-18 -0.107225135
-0.1403455 0.24298745 -1.4789957e-12 -0.0049927537 0.30832624 -0.2392029 -0.34889168 -0.37183213
-0.07822777 0.2852545 0.009991367 0.20333885 -1.5758586e-05 0.21941195 0.35515624 -0.049005885
1.1426e-40 0.02571096 -0.20782879 -0.2421899 1.5444103e-06 0.13513063 -0.40777642 0.111514986
0.012745884 -0.00697448 -0.29083803 5.0361797e-07 -0.01320691 0.01187074 -0.3063208 -6.70405e-40
-0.21090466 6.0633904e-24 0.01759412 1.5702457e-05 -8.07364e-40 0.000121949284 -0.00038802437 0.23145922
0.02584253 0.4120254 -0.12123015 -0.001697095 0.37573627 -0.3656767 0.09050113 -0.014650539
0.42832676 0.098975584 0.08430134 0.017274784 0.0024275882 0.0032936228 -8.212726e-06 2.1142136e-05
0.058304522 0.1642698 -0.07341984 -0.4157732 2.5198e-40 -0.0124220215 0.00042800768 -9.266336e-23
0.49772182 0.0754831 -0.4041733 -1.3971292e-10 0.026459241 0.17674203 -0.2758243 -0.031331427
-2.8003e-40 0.000108263295 0.005922958 -5.4886943e-05 0.0661941 0.0057667797 0.24081959 -0.14104334
0.0053336206 0.15304449 0.28199795 -0.15894666 0.14995128 -0.03921278 -0.17716177 0.30120695
0.00061919703 -1.005153 0.25084957 -0.2205555 0.5113355 -0.0029571569 0.022937158 -0.13049568
-0.1839793 -0.30299163 -0.032487478 0.19218929 -0.0065055653 0.0010160528 -1.1013839 -0.14924902

layers.2.bias f4 [128]
00000000: 3de9 afbc aae0 eebd 6d10 c9a3 38f3 d23b
00000010: fbd0 65bc 56c7 023e b8bb b53c 4b1a 1ebe
00000020: ace9 343e 5058 e8a6 65bc d83c bad1 133e
00000030: d7f5 a63d d6a1 b4bd 345e d7af 9e86 9cbe
00000040: f6a8 b3bb a4a7 7cab c33b 0580 aa2d 003e
00000050: ebd4 c73e 7639 0880 843b 68bb 35a1 613b
00000060: 68a1 88b2 4d02 64b0 4002 89bd 4d31 10be
00000070: 2022 353e c203 0700 27ac 4ebb 5b54 7fbe
00000080: a42d 7cbe 462a adbd 8f72 19bc 728b 06be
00000090: e846 173c bd82 c899 9c7d 5390 d518 e0bb
000000a0: b6ab e0bd 48cf e7bc 7e10 a23d 8da0 84bd
000000b0: 5708 d13e ff15 9caa 4b85 163e 85ec 073c
000000c0: 73f4 0000 0d54 90a3 3be9 38b7 cf91 953e
000000d0: e59b 4696 43f5 e53d 9db5 2d3d dec8 86b4
000000e0: d0ec 0520 4c9b 993e 2e97 933e 34ce 6d3c
000000f0: d989 0e3e 2c4b b9bb 89ce d1bd 8bc8 0380
00000100: 66bd f23d bc1a 18bb 70c1 80be 02a5 d8be
00000110: 8a9e 4ebe 6cd6 0200 3ac2 f93d a2f8 ecbb
00000120: 5c05 68be 3c5c 6bbe 5167 5dbe bddd a022
00000130: be16 17b6 d62b cabd 78e9 a9bd bba0 3b3e
00000140: c115 0180 e8a1 053d 4ff3 0abe dc7c 11b7
00000150: 2644 9cbd 1ca6 0700 10bf 803e 3e1a dd3d
00000160: 7da9 a2b8 8358 43bb 557d 0200 3bb4 58bd
00000170: 12af 8abe c82f 0180 d8fc 12aa ed89 213e
00000180: 88b7 973e 597e 0380 8669 0400 5f8e 0700
00000190: d428 b83e 253d 183e 2076 5e3e 506d cabb
000001a0: 7d99 0080 09ef fa3c 4853 853e d44b ccb7
000001b0: 2748 41be cb0e 72be 651e 1d3e 6dfc 4e3e
000001c0: fd3e c03d fac5 08b7 6c7f 903e 5f3e 0700
000001d0: d821 8baa dd52 633c 16e7 84ad f8f9 3cbc
000001e0: f993 0780 6704 2e3e c5b3 663d 1ec8 04bc
000001f0: 6127 0280 1a3c be9e 26c7 143e 5dce 0680
-0.021473521 -0.11663945 -2.179942e-17 0.0064376853 -0.014026876 0.12771353 0.022184238 -0.15439717
0.17667264 -1.6122171e-15 0.026457021 0.14435473 0.08152359 -0.0881993 -3.9175208e-10 -0.30571455
-0.005482788 -8.9761033e-13 -4.80616e-40 0.1251742 0.3902963 -7.55297e-40 -0.0035435865 0.0034428362
-1.5905883e-08 -8.2949186e-10 -0.06689882 -0.14081307 0.17688799 6.44197e-40 -0.0031535716 -0.24934523
-0.24626786 -0.08455329 -0.009365692 -0.13139132 0.009233214 -2.073232e-23 -4.170918e-29 -0.0068388977
-0.10970251 -0.028297082 0.07913302 -0.06475935 0.40826675 -2.772643e-13 0.14699285 0.008296137
8.7692e-41 -1.5648108e-17 -1.1021558e-05 0.29212806 -1.6043504e-25 0.112284206 0.042409528 -2.5105595e-07
1.1343893e-19 0.30001295 0.28826278 0.014514495 0.13919772 -0.005654713 -0.102444716 -3.47448e-40
0.11852531 -0.0023209294 -0.2514758 -0.4231339 -0.20177665 2.60591e-40 0.12195249 -0.007231788
-0.22658294 -0.22984403 -0.21621443 4.360286e-18 -2.251399e-06 -0.09871642 -0.08296484 0.18323033
-9.964e-41 0.03262511 -0.13569377 -8.671745e-06 -0.07630186 7.02437e-40 0.2514577 0.10796021
-7.7563316e-05 -0.0029807396 2.28632e-40 -0.052906256 -0.27086693 -1.08976e-40 -1.3055128e-13 0.15775271
0.2963221 -3.20831e-40 4.05197e-40 6.93922e-40 0.3596865 0.14867075 0.21724749 -0.006177582
-5.5061e-41 0.030631559 0.260401 -2.4354005e-05 -0.1887518 -0.23638456 0.15343626 0.2021348
0.09387014 -8.152327e-06 0.28222215 6.65223e-40 -2.4714844e-13 0.013874737 -1.5109285e-11 -0.011534207
-6.95931e-40 0.16993867 0.056323785 -0.008104352 -1.97797e-40 -2.014189e-20 0.14529094 -6.25042e-40

layers.3.weight f4 [483, 128]
00000000: 1455 f1bb 274e 943d 50d2 0780 7b7e be3d
00000010: 4a1a 84bb d2bf f8be a13f 0dbe 3fe3 43bf
00000020: 35e6 eabe de8f 1017 896e 81bf fa39 01bb
00000030: 939f 13be f107 9bbd 0d03 b83b 88f3 04bf
00000040: a5f3 a1bb 57ac 1cbb 9512 0900 e614 e9bc
00000050: 8986 123e 67c2 abae 1bdc 41bc 8343 94bd
00000060: 1756 e9bb cc80 e13b ca95 83bc 3f7c a5be
00000070: 30cd 91bd da22 8e95 900b 60ba ce66 193d
00000080: 9c38 06b9 6ab5 2dbf 4fe3 a5bc 785d 7ebd
00000090: bdea a2bd e4e1 0180 4a12 aeb9 d9f5 3f3c
000000a0: 53ec a21c f5e4 98bf b6c7 2cbf c5cc 44bc
000000b0: 9f44 71bd 279a 0439 eda5 6abe 00b7 fc3b
000000c0: b71b 5ebb 258d 0700 4446 8d3a 81b2 c3bb
000000d0: 7818 14bb f7c9 583d 369f 35a0 2c42 63bb
000000e0: 8046 5835 4dee 6e3e c0ea 733d 57fd 85bd
000000f0: df67 6b3e 9fef 6dbc 3127 833c 1830 1826
00000100: 9546 d33c b1a5 213b 0964 f5bf 5f13 07be
00000110: 3d70 ce3d 27d0 a923 6fbf 8b3b 84c8 363c
00000120: d1f3 0ec0 0fb6 18bd d065 b53d d18f 9320
00000130: 42cf 2c39 f6a7 4528 da68 40be b886 d4be
00000140: 087a 32b1 8a2a 5fbe 3dac 9ebe 0846 02bc
00000150: 2255 1a3e 79b1 b735 e20d 98bd 51be bbbe
00000160: 27fc 8ebb d5cb d5ba f591 0480 ca5c bbbf
00000170: e30d f9be d4c3 1bb9 5429 2d3b 6599 803d
00000180: 85ec 0d3e 3a19 0100 c153 0400 fa98 0180
00000190: 63f6 ccbc 79a3 e2b9 ef82 38bf 6d14 a73b
000001a0: 8b31 a419 33c6 85be dd95 f33b 0640 01b8
000001b0: 22cb 4128 1932 5ebe 2e79 01bd 58e7 30bd
000001c0: 96da a0be 6fce fc3b d071 153e fdcd c104
000001d0: 7753 7fbb 919a 243e 83b5 0fb9 5b0a 12bc
000001e0: f945 0fb1 e6d4 15ba 67da 1bbe dbe2 db3b
000001f0: c377 d4b8 88e2 d639 97a3 073e ecf8 0080
00000200: 13bc 0abe 27c8 10be bf7a ba3b 1416 1fbe
00000210: 4c31 2cbc c64c c7bd 6f6d 7abd 76b4 193e
00000220: 059d 6cbe 5317 152a 2197 a1bd 9a7c ecbe
00000230: e3e4 4abe 2e07 a6bd 8a8e 223c 8901 b63e
00000240: 042a b63a 0d71 433b f0b7 2d21 50f0 3bbe
00000250: d4ca 14bf 219f e93a 9d33 4cbb 3224 39be
00000260: b30b ca3b 2c88 9ebb 44b2 bebd ade8 273e
00000270: ba42 64be 223c 8737 0a06 94bb 474b 303e
00000280: 7d9a 2f3f 93b3 463d ec4a 173c bac3 25bd
00000290: 2147 60be c13c 1738 eb80 91bb 8c86 123c
000002a0: 3f25 863c 7a64 16bd 0f82 3c3b 9799 0bbc
000002b0: 9d3f febe 50d9 8fbb c745 c6be f940 65bd
000002c0: a5aa 95bb 01a3 9b38 f8ba 0a3c 7f7f a2be
000002d0: 9119 8a3b fa57 14be 4eac bf3d dba3 8bbb
000002e0: 4773 20b7 0162 babe 48b3 f4be 20f8 76be
000002f0: f2cd fdbe 1dcb b5bb f397 0abe 722c 65b7
00000300: ea13 5fbe 5c73 26bc 174b 903e 7942 053f
00000310: 7b27 183d 04d0 e6b5 58b5 f4be fcd8 873a
00000320: 5ee9 023e a530 723b c0da 533e 0cee a2bb
00000330: a078 ffba 356d 013e 5fdf 96bd db60 93be
00000340: d1f9 77ba 79c1 29be 86bb b23d 367b b9bb
00000350: e47b adbc 4019 a7b7 de15 8ebe 11c4 84be
00000360: 100f 72bb f526 4c3b d478 6a30 3981 6a3d
00000370: f1a7 f53e 4870 dfb7 9ff7 0eb9 0b4a 2fbe
00000380: d8ca 02bf b002 0080 bbbf 852f a8b6 823a
00000390: 505a 20bf 9719 8f3c 2da8 13bf fc6c 9e3b
000003a0: 55d9 85b9 dd32 25be 2b6d c2be 1953 a23b
000003b0: 168c c43e c623 213d fa8d b5bd ff19 50be
000003c0: 0fd4 33be 0889 1c3c ece8 b9be c828 97ae
000003d0: e126 8e3b 6051 89be 98a5 a03b 012d 563c
000003e0: 298c 1fba 9719 1bbe 1e11 3bbe 701d 62bb
000003f0: 6d24 4aba 25f0 87bb 9c2a a0be 2276 cead
-0.0073648784 0.07241469 -7.18294e-40 0.09301468 -0.004031454 -0.48583847 -0.13793804 -0.76518625
-0.4587876 4.6710495e-25 -1.0111858 -0.0019718395 -0.14416341 -0.07569874 0.005615598 -0.519341
-0.004942375 -0.0023906433 8.33185e-40 -0.028452348 0.14309134 -7.8107125e-11 -0.011832262 -0.07239439
-0.0071208584 0.006881809 -0.016062636 -0.32321355 -0.071192145 -5.740833e-26 -0.0008546645 0.037451558
-0.00012800324 -0.6785494 -0.02024999 -0.062100857 -0.07954929 -1.7287e-40 -0.00033201493 0.0117163295
1.0781349e-21 -1.1944872 -0.67492235 -0.0120117115 -0.058903333 0.00012645927 -0.22914858 0.007712245
-0.003389103 6.93482e-40 0.0010778387 -0.005972207 -0.0022597592 0.052926984 -1.5383975e-19 -0.0034676893
8.056886e-07 0.23333092 0.059550047 -0.06542461 0.22988842 -0.014522462 0.016009899 5.2800773e-16
0.025790492 0.002466541 -1.9171153 -0.13190983 0.100800015 1.8411173e-17 0.004264764 0.011156205
-2.2336314 -0.037283 0.0885731 2.4997938e-19 0.00016480408 1.09721175e-14 -0.18789998 -0.41509032
-2.5971776e-09 -0.21793571 -0.30990782 -0.007951267 0.15071538 1.3686214e-06 -0.07424523 -0.36668637
-0.004363555 -0.0016311357 -4.19702e-40 -1.4637692 -0.48643407 -0.00014854904 0.0026422339 0.06279258
0.13859756 1.00885e-40 3.97387e-40 -1.46713e-40 -0.02501983 -0.00043227876 -0.7207479 0.0050988705
1.6977213e-23 -0.26127777 0.0074336366 -3.0815623e-05 1.07577e-14 -0.21698798 -0.031609707 -0.043189377
-0.31416768 0.0077150385 0.14594197 4.5563252e-36 -0.003895966 0.16074587 -0.00013705161 -0.008913602
-2.0849014e-09 -0.0005715623 -0.15220033 0.006710393 -0.00010131255 0.0004098604 0.13245998 -8.9296e-41
-0.13548307 -0.14138852 0.005690902 -0.15535766 -0.0105098 -0.0973144 -0.06113952 0.15010247
-0.23106773 1.324195e-13 -0.07890154 -0.46188813 -0.19813876 -0.08106838 0.009921679 0.35548046
0.001389802 0.0029822022 5.885812e-19 -0.1835339 -0.5812199 0.0017823913 -0.0031158694 -0.18080214
0.0061659454 -0.0048380103 -0.09311345 0.16397353 -0.22291079 1.6121256e-05 -0.0045173215 0.17216216
0.68595105 0.0485111 0.009234171 -0.040469863 -0.21902134 3.6057787e-05 -0.004440417 0.008943211
0.016375182 -0.036716916 0.0028764044 -0.008520505 -0.49657908 -0.0043899193 -0.3872511 -0.055970166
-0.0045674616 7.421338e-05 0.008467428 -0.31737897 0.0042144735 -0.14486685 0.093590364 -0.0042614765
-9.563583e-06 -0.36402896 -0.4779303 -0.2411809 -0.49571186 -0.0055478946 -0.13534527 -1.3659812e-05
-0.2178494 -0.01015934 0.2818229 0.52054554 0.037147027 -1.7196876e-06 -0.47794604 0.0010364349
0.12784335 0.0036955264 0.20688915 -0.004972225 -0.0019490905 0.12639315 -0.073668234 -0.28784832
-0.0009459528 -0.1657771 0.087271735 -0.00566044 -0.02117724 -1.991971e-05 -0.27751058 -0.25930837
-0.0036935247 0.003115115 8.530041e-10 0.057252143 0.47979692 -2.6635957e-05 -0.00013634421 -0.17118089
-0.51090765 -9.64e-43 2.4328792e-10 0.0009972649 -0.62637806 0.017468257 -0.5767849 0.0048347693
-0.00025529662 -0.16132684 -0.37973914 0.0049537537 0.38388127 0.039340757 -0.088649705 -0.20322417
-0.17561363 0.009554155 -0.36310518 -6.873929e-11 0.004338131 -0.26819897 0.004902553 0.013072253
-0.0006086254 -0.1514648 -0.18268248 -0.003450241 -0.00077111163 -0.0041485005 -0.31282508 -2.347195e-11

layers.3.bias f4 [483]
00000000: a367 a33d d039 54bf 9bb4 5bbb 917b 39bd
00000010: 8add 21bc be58 55be d687 d1bc e762 2c3b
00000020: a015 7dbd 7461 33bd e2e2 933c e638 58be
00000030: ca18 15be 18c9 67bd 79f5 00be acdc 2cbe
00000040: 3d2c debe 8d3a 7ebd 7ba9 12bd 0188 7fbd
00000050: 205d d5bd 6b9c babd 044f 35bd b2ad f7bc
00000060: 3f20 b03d 45e9 f0bd 3bc4 5cbd cb97 8bbd
00000070: 9ccc 99bd 29cd 473d 077e 2abe 3a36 913d
00000080: f818 05bd 5d4c dbbd 4b72 62bd 2f13 c9bd
00000090: f0db f2bd d885 57bc cd50 bebc 30e2 f8bd
000000a0: 5248 9fbd 71ce 463d b7d3 88bc fba8 33bd
000000b0: 38ef 70bd 77a7 c33c 3f3f 43be 5cd8 bfbc
000000c0: 6880 e9bd 8bb8 07bd 5c9c 0bbe 50c0 c63c
000000d0: 0ad1 db3c 9cf9 babb 7f0d e7bc 75eb 84bd
000000e0: b4de a73b 9449 aabd 14be 5a3d 1739 29be
000000f0: 4fd3 62bd ff4e a2bd aade 9ebc e3e2 4cbd
00000100: d16e a6bd fad9 f8bd 12b4 20bd 38db bd3d
00000110: e152 503d 3a4c c8bc 8866 44bd 865a d1bc
00000120: ad15 a4bc cc08 1cbc 5fc3 a9bc ba22 51bd
00000130: c90f 71bd 5a8e 42bd d4df ccbd e1c6 13bc
00000140: 20c6 d2bc ebe0 02be d389 7abb 180a f7bc
00000150: 2fcd 76bd 6341 95bd a8c7 5ebd 056b af3c
00000160: a815 1ebd a9ed aebd 4359 ddbd f251 84bd
00000170: b31e bebd 79c5 5bbd ef29 3dbd 5315 a3bd
00000180: d18b 36bc 23fa 99bd b9fe 2cbd ae1a e3bb
00000190: 86b7 11bc d20d a2bc 9abd fbbc 5c71 82bc
000001a0: 2b66 b43b a578 42bd e6c6 97bd 0f70 90bd
000001b0: 936a 75bb fd55 62bb a842 21bd feed 80bd
000001c0: e7d6 2abd 53ab efbc 3d2c 92bd cee9 40bd
000001d0: daac c83a b4aa 39bd ae11 213d a6c2 76bd
000001e0: 0ea9 b7bd 7a0d f03c 531a bbbd 9704 4ebd
000001f0: f207 bcbc 3aba 9abd e16a c2bd 5bf2 133d
00000200: a120 7cbd feb5 aebd a458 1ebd 4261 e13c
00000210: 76d3 6cbd 84ff bbbb adb4 abbd ebb9 003d
00000220: ef18 bdbd c4a7 373c 128e 8fbd bcce 96bd
00000230: 4824 b2bd 01f6 77bd f42a 54bd 6aad 7dbd
00000240: 24a6 8dbd af4f 5fbd 77d5 80bd 5bbb 47bd
00000250: ed9b 26be 6a40 23bc 9d50 c1bd 02a4 f4bc
00000260: 20ea bf3b f207 10bd b0f6 663c 8ee5 59bc
00000270: 4ab9 82bd 2ab8 2cbd 1601 09bd a7e7 5ebd
00000280: 4527 4e3c 9de4 d7bc a3a6 26bc 0bf7 22bd
00000290: 63ee 38bd 52e8 49bd 40a6 22bd 24ab e23c
000002a0: b791 213c cb59 b0bb a8d7 3fbd c0ff ac3c
000002b0: 7593 50bd 0dd7 37bd 1732 18bd 6cae 4cbc
000002c0: 8a57 2bbd bc1a 38bd a206 18bd 6816 95ba
000002d0: 139b 41bd 1730 29bd ea0e 16bd 56b5 28bd
000002e0: 2ce0 03bd bb71 e0bc c6ad d4bc 587b 5bbd
000002f0: 060c 64bc 80c2 49bd f0ad 9dbc 6981 ffbd
00000300: b361 fcbc 25b2 e2bd 354e 49bd 96bd e0bc
00000310: dc56 4abd e53a 61bd 693c 5dbd 3361 1fbd
00000320: 44b9 90bd a897 1bbd ce3e 64bd 4cac 8fbc
00000330: fd08 4abd 63da c13b 372e 2abd bccf 35bd
00000340: 30fc 4dbd 9433 9bbc 207a 25bd d19c 25bd
00000350: b0e0 86bd 4f83 00bd ecb7 48bd 8e5b e5bc
00000360: 6dc5 3cbe 5620 fdbc a7b1 7abd 9b39 32bd
00000370: 2f92 28bd 0f64 33bd 20a7 58bd db4e 97bd
00000380: bbb0 7abd c2f8 83bd 120c 71bd 6501 f3bc
00000390: 7a16 b3bd ce3b 793c 045d efbc a9f0 0abd
000003a0: 909e 29bd 7b41 08bc cbff 8abd a619 59bd
000003b0: 527c 67bd 0bc4 28bd a972 033c 7d0d 6ebd
000003c0: aa8a 69bc edff 80bc 6a8e a83b d19c 84bd
000003d0: 34dd 40bd 3ede 60bd d83b c63c 4e52 9dbd
000003e0: a2da c0bc 9667 d13a 4313 79bd 1af0 5fbd
000003f0: 1ece 473c 9e27 e6bc af4e 12bd d86b 0abd
0.079787515 -0.82900715 -0.0033524397 -0.045283858 -0.009879479 -0.20834634 -0.025577467 0.0026304068
-0.0617882 -0.04379411 0.018052522 -0.21115455 -0.14560238 -0.056588262 -0.1259364 -0.16881055
-0.43393126 -0.062067557 -0.03580616 -0.062385563 -0.10418153 -0.091118656 -0.04426481 -0.030234192
0.085999005 -0.11763243 -0.053898077 -0.068160616 -0.07509729 0.04877964 -0.16649638 0.07090421
-0.032494515 -0.107079245 -0.05528478 -0.09818112 -0.11858356 -0.013154469 -0.023231888 -0.12152517
-0.07777466 0.04853672 -0.016702516 -0.043862324 -0.058821887 0.023883564 -0.19067095 -0.023418598
-0.11401445 -0.03313498 -0.13633865 0.024261624 0.026833076 -0.0057060253 -0.028204678 -0.06490222
0.005122984 -0.08314815 0.05340393 -0.16525684 -0.0553773 -0.079252236 -0.019393284 -0.050021064
-0.08126605 -0.12150951 -0.03923423 0.09270328 0.05086029 -0.02445041 -0.047949344 -0.02555586
-0.020029867 -0.009523582 -0.020723043 -0.05105851 -0.058852945 -0.04749904 -0.10003629 -0.009019584
-0.025729239 -0.12781112 -0.0038229122 -0.03015618 -0.060254272 -0.07287862 -0.054389626 0.021413336
-0.03859487 -0.08541424 -0.10808041 -0.06460942 -0.09283199 -0.05365512 -0.04618257 -0.07963052
-0.011141733 -0.07518413 -0.04223511 -0.0069306707 -0.008893853 -0.01978198 -0.030730058 -0.015923195
0.0055053434 -0.047478337 -0.07410984 -0.070526235 -0.0037447556 -0.0034536116 -0.03937021 -0.062953934
-0.041708853 -0.029256498 -0.07137344 -0.047097974 0.0015310303 -0.04532881 0.0393235 -0.060244225
-0.089677915 0.029303301 -0.0913588 -0.050297346 -0.022953007 -0.07555051 -0.09493042 0.0361198
-0.061554555 -0.08530806 -0.038658753 0.027512196 -0.057818852 -0.005737247 -0.083840705 0.031427305
-0.09233271 0.011209432 -0.0700952 -0.0736365 -0.08698326 -0.060537342 -0.051798776 -0.06193296
-0.069164544 -0.05451935 -0.06290715 -0.04876266 -0.16270418 -0.009964088 -0.09439204 -0.029863361
0.0058567673 -0.035163827 0.014096901 -0.013299359 -0.06382997 -0.04216782 -0.0334483 -0.05442014
0.012582605 -0.026354128 -0.010171565 -0.03978638 -0.04514922 -0.049293824 -0.03970933 0.027669497
0.009861401 -0.005381798 -0.046836525 0.021118045 -0.050921876 -0.044882823 -0.037157144 -0.012492757
-0.04183153 -0.04494737 -0.0371157 -0.0011374475 -0.04726703 -0.041305628 -0.036635317 -0.04118856
-0.03219621 -0.02739798 -0.025961768 -0.053584427 -0.013918882 -0.049257755 -0.019247979 -0.12475855
-0.030808305 -0.110691346 -0.04914685 -0.027434152 -0.04939924 -0.054987807 -0.05401269 -0.038911056
-0.070665866 -0.037986428 -0.055723958 -0.017538212 -0.04932498 0.0059159263 -0.04154798 -0.044387564
-0.050289333 -0.018945493 -0.04039967 -0.040432755 -0.065858245 -0.031375226 -0.049003527 -0.027997758
-0.18434687 -0.030899208 -0.06120458 -0.043511968 -0.041155037 -0.043796595 -0.052893758 -0.07388087
-0.0612037 -0.06443931 -0.0588494 -0.02966375 -0.087445214 0.015212012 -0.029219158 -0.033920918
-0.041410983 -0.008316393 -0.0678707 -0.053002976 -0.056515045 -0.041202586 0.008022943 -0.058118332
-0.0142542515 -0.015747035 0.00514393 -0.06475223 -0.047085956 -0.054899447 0.024198458 -0.07681714
-0.023541752 0.0015976306 -0.060809385 -0.054672338 0.012195138 -0.028095063 -0.03571957 -0.033794254
