models/MPC_horizon_8_obs_7.pt (torch_old, 639041 bytes, 8 tensors)

layers.0.weight f4 [128, 43]
0	0xbb8281ff	-0.003982782
1	0xbc7b5ae4	-0.015341494
2	0xbb9e3cc2	-0.0048290202
3	0xbba2d336	-0.004969026
4	0xbc3d81b1	-0.011566565
5	0xbc30f5ee	-0.010800822
6	0xb5ec2367	-1.7593674e-06
7	0xbad5f2a8	-0.0016322928
8	0xbc351bd4	-0.011053998
9	0xbc2e9128	-0.010654725
10	0xbc41e95d	-0.011835423
11	0xbc3c5949	-0.011495897
12	0xbc43dbe0	-0.011954278
13	0xbc4176b9	-0.011808091
14	0xbb1abcd5	-0.0023611088
15	0xbc3c1693	-0.0114799915
16	0xbc386b90	-0.011256114
17	0xbc453168	-0.012035705
18	0xbc42b768	-0.011884548
19	0xbc45fee4	-0.012084696
20	0xbc4343b6	-0.011917999
21	0xbc2d88f3	-0.010591733
22	0xbb81e6a2	-0.003964261
23	0xbc3afc68	-0.011412717
24	0xbc3f6fb1	-0.011684344
25	0xbc3a8c36	-0.011385968
26	0xbc384414	-0.0112467
27	0xbbac3408	-0.005255226
28	0xbc3afd1d	-0.011412886
29	0xbc2eaba5	-0.01066104
30	0xbc3fd2c1	-0.0117079625
31	0xbc42418d	-0.011856449
32	0xbc3f2862	-0.011667343
33	0xbc3ecf0f	-0.011646046
34	0xbc2497bd	-0.010045943
35	0xbc3ec24f	-0.0116430065
36	0xbc45ca26	-0.012072122
37	0x3ad28a89	0.0016063015
38	0xbbfc0130	-0.0076905712
39	0x38e79548	0.00011042744
40	0x3b260115	0.0025330235
41	0x3b8058b0	0.0039168224
42	0xbbfd5d6e	-0.007732085
43	0xb61f021e	-2.3694079e-06
44	0xb9c847b8	-0.00038200407
45	0x00031768	2.83903e-40
46	0x9c09b0f3	-4.55582e-22
47	0xb9acea6b	-0.00032981051
48	0xb9001d14	-0.00012217864
49	0x82bbd7c4	-2.7601024e-37
50	0x000090f2	5.1997e-41
51	0xb6cd1951	-6.1124233e-06
52	0xb55560ff	-7.948983e-07
53	0xb98cc8d9	-0.00026852524
54	0xb85fb837	-5.3338907e-05
55	0xb9f6a398	-0.00047042663
56	0xb977796c	-0.00023600989
57	0x00075b11	6.75517e-40
58	0xb84f3a7f	-4.9407125e-05
59	0xb78b96c9	-1.6640306e-05
60	0xba3509a2	-0.00069060375
61	0xb9b1877f	-0.00033861023
62	0xba6425e4	-0.0008703156
63	0xb9cfde9d	-0.00039647977
64	0xb5197392	-5.716512e-07
65	0x853c099b	-8.841482e-36
66	0xb815be63	-3.570168e-05
67	0xb909ad78	-0.0001312996
68	0xb8038ac4	-3.136207e-05
69	0xb785480b	-1.5888383e-05
70	0x9639b4ea	-1.5001267e-25
71	0xb815de8c	-3.573163e-05
72	0xb55c87d5	-8.215405e-07
73	0xb91a0451	-0.00014688192
74	0xb99b7c57	-0.00029656544
75	0xb8fdf7fd	-0.000121101715
76	0xb8e57b14	-0.00010942496
77	0xb2fecbf8	-2.9662246e-08
78	0xb8e22d08	-0.000107849075
79	0xaa0e0db3	-1.2616886e-13
80	0xb2e3efa0	-2.6535247e-08
81	0xa302bc54	-7.087194e-18
82	0x207e163b	2.1521992e-19
83	0xadb46ec9	-2.051283e-11
84	0xaaab208b	-3.0398283e-13
85	0xa92b7c62	-3.8077512e-14
86	0xb72cb0b7	-1.02931435e-05
87	0xb1affb08	-5.1217093e-09
88	0x000778e9	6.86223e-40
89	0x80068b6a	-6.01025e-40
90	0xb31caee5	-3.6480646e-08
91	0xb4f85c34	-4.6260686e-07
92	0x80004461	-2.453e-41
93	0x80068f9c	-6.0253e-40
94	0xb3cfdb22	-9.679049e-08
95	0xb198aca2	-4.4434083e-09
96	0xb7e5f300	-2.7412083e-05
97	0xb627b113	-2.498801e-06
98	0xb8826517	-6.2177125e-05
99	0xb7be3b6c	-2.2677435e-05
100	0x80032ac6	-2.90851e-40
101	0xb61592bf	-2.2288148e-06
102	0xb4ea6bb1	-4.3664252e-07
103	0xb8e340e1	-0.00010836288
104	0xb8217d59	-3.850213e-05
105	0xb91e63e8	-0.00015105272
106	0xb84b5343	-4.8476515e-05
107	0xb13951bf	-2.696751e-09
108	0x0000c43c	7.0396e-41
109	0xb5b80ea9	-1.3713335e-06
110	0xb720181f	-9.542359e-06
111	0xb59799f4	-1.1295183e-06
112	0xb4dab2b5	-4.073569e-07
113	0x00019e5d	1.48646e-40
114	0xb5b8499b	-1.373049e-06
115	0xb1a07a6b	-4.67053e-09
116	0xb73d017c	-1.12656235e-05
117	0xb80500ea	-3.1710522e-05
118	0xb70e03d2	-8.464749e-06
119	0xb6f45e92	-7.282776e-06
120	0xae0418d4	-3.0035377e-11
121	0xb6ef29e6	-7.1276327e-06
122	0x1e69d357	1.2378621e-20
123	0x00025a31	2.16026e-40
124	0xb2a6f68b	-1.9437058e-08
125	0x29847d33	5.883696e-14
126	0x800ad4eb	-9.94736e-40
127	0xb1faef53	-7.3031656e-09
128	0x80082c27	-7.50523e-40
129	0x3ea49974	0.32148325
130	0xbf3ccd44	-0.7375071
131	0x3f42801d	0.75976735
132	0xbf31a60e	-0.69394004
133	0xbdad5c82	-0.0846491
134	0xba0d279e	-0.00053846266
135	0x3d7d4248	0.06183079
136	0xbda4a640	-0.08039522
137	0x3d28d975	0.04122301
138	0x3c31fd9b	0.010863687
139	0xbde2c0bc	-0.110719174
140	0x3e153ab6	0.14573178
141	0xbd00bf61	-0.031432513
142	0xbc0ed9ba	-0.008718902
143	0x3d623c8a	0.055233516
144	0x3e236a3a	0.15958491
145	0x3e017ea1	0.12645961
146	0x3d725085	0.05915882
147	0x3d3cbef2	0.046080537
148	0x3debf547	0.11521392
149	0x3ceb4c22	0.028722826
150	0x3bccda07	0.006251577
151	0x3dfd6519	0.123727985
152	0x3dfca51e	0.12336181
153	0x3e23a89a	0.15982285
154	0x3d59b747	0.053153303
155	0x3de57bd9	0.11205263
156	0xbdd9865c	-0.1062133
157	0xbd703375	-0.058642823
158	0x3ca42813	0.02003864
159	0x3e2576e6	0.16158637
160	0x3e2fbca1	0.171618
161	0xbcc7a84f	-0.024372248
162	0x3de19fb8	0.11016792
163	0x3d2e7923	0.042595994
164	0xbd938167	-0.07202416
165	0xbedcb9a7	-0.43110391
166	0x3e18c830	0.14920115
167	0x3d89c264	0.0672653
168	0x3f2666ce	0.6500062
169	0xbe9c59ec	-0.30537355
170	0xbf4c3395	-0.7976621
171	0x3f13bd70	0.57710934
172	0xb161fca2	-3.2885414e-09
173	0x2af09bf1	4.274077e-13
174	0x80000396	-1.286e-42
175	0x80070947	-6.46177e-40
176	0xb1262319	-2.417613e-09
177	0x2f3ab951	1.6982439e-10
178	0x80059b03	-5.14785e-40
179	0x0007f926	7.32226e-40
180	0xabcc7592	-1.4527704e-12
181	0xa75f68bc	-3.1004243e-15
182	0xb3c31544	-9.084263e-08
183	0xb06df0b8	-8.656218e-10
184	0xb4ed3a3d	-4.4187064e-07
185	0xb3872be3	-6.29441e-08
186	0x00077566	6.84963e-40
187	0xb03e55d7	-6.9243583e-10
188	0xadf9be79	-2.839261e-11
189	0xb5acf6b3	-1.2886798e-06
190	0xb43c1b7e	-1.7518866e-07
191	0xb623dd66	-2.4417764e-06
192	0xb492c06e	-2.733463e-07
193	0xa6a3486a	-1.1330025e-15
194	0x00054ebf	4.87426e-40
195	0xaf934fad	-2.6795757e-10
196	0xb249eaa9	-1.1753095e-08
197	0xaf498a3a	-1.8329951e-10
198	0xadd9de20	-2.4768687e-11
199	0x00065915	5.8297e-40
200	0xaf93abf0	-2.6861313e-10
201	0xa776fd1a	-3.4276565e-15
202	0xb28b5955	-1.6222353e-08
203	0xb40146cf	-1.2039821e-07
204	0xb21ffde7	-9.312749e-09
205	0xb1eee8a3	-6.9531594e-09
206	0xa004e7a6	-1.1257481e-19
207	0xb1e51c2a	-6.667979e-09
208	0x0001e363	1.73406e-40
209	0x00063a47	5.71919e-40
210	0x8d908b39	-8.908202e-31
211	0x000107fe	9.4703e-41
212	0x0004598d	3.99467e-40
213	0x800496ec	-4.21483e-40
214	0x00015bf1	1.24818e-40
215	0x3eacb55c	0.33732116
216	0x3c732203	0.014839652
217	0x3fb4a1a7	1.4111832
218	0x40188fb5	2.3837712
219	0x3c246761	0.010034413
220	0x3d4e73fa	0.050403573
221	0xbe53d4c5	-0.20686634
222	0xbe3f3a33	-0.18674545
223	0xbdadc26a	-0.08484347
224	0x3d25a56c	0.04044096
225	0x3df098cd	0.117478944
226	0x3cc8ab45	0.02449573
227	0x3df85d09	0.1212712
228	0xbd9052ff	-0.0704708
229	0xbd3d647f	-0.04623842
230	0xbd38d447	-0.04512432
231	0x3dfd99c9	0.12382848
232	0x3df02bab	0.11727079
233	0x3dcf2704	0.101148635
234	0xbcb95cbd	-0.022627229
235	0xbe1a35cc	-0.15059584
236	0xbdcd950c	-0.10038194
237	0xbbe8f8bd	-0.00710973
238	0xbdc35db2	-0.09539355
239	0xbd423417	-0.047412958
240	0xbdbef6d1	-0.0932442
241	0xbb43fc30	-0.0029904954
242	0xbd670db9	-0.05640957
243	0x3de18717	0.110120945
244	0x3d3768fc	0.044777855
245	0xbd8addf8	-0.067806184
246	0x3c43b140	0.011944115
247	0x3d0b15fb	0.03395651
248	0xbe0e502d	-0.13897772
249	0x3db62a41	0.08894778
250	0xbc2624c0	-0.010140598
251	0x3dcd8b6a	0.10036357
252	0x3db8cce0	0.09023452
253	0xbecc78cb	-0.39935908
254	0x3ec7fcd5	0.39060083
255	0xbeaf7f75	-0.3427693

layers.0.bias f4 [128]
0	0xbc30e1f3	-0.010796058
1	0xb5ddd2f0	-1.6527174e-06
2	0xb26702af	-1.344658e-08
3	0xbc3483cd	-0.011017752
4	0xa900c9c9	-2.859673e-14
5	0xbda23646	-0.07920508
6	0xbb198d41	-0.002343014
7	0x0004625e	4.0263e-40
8	0x3cec25d9	0.02882664
9	0x3d0db616	0.03459748
10	0x3c476d55	0.012172063
11	0xb65f345e	-3.3260071e-06
12	0x3e219d82	0.1578274
13	0xbbaf80d0	-0.005355932
14	0x3e1f407b	0.15551941
15	0xbdb1a5dd	-0.08674214
16	0x0003419b	2.99041e-40
17	0x0001b642	1.57217e-40
18	0x3bb07ba0	0.005385831
19	0x3db5de0d	0.088802435
20	0xae2bfb53	-3.910412e-11
21	0xbbe194c0	-0.0068841875
22	0x3dcd391f	0.100206606
23	0xb6503e9c	-3.1030859e-06
24	0xbd5b963b	-0.053610068
25	0xbd33399e	-0.04375612
26	0x3e19b391	0.15009905
27	0x3db66829	0.08906586
28	0x3e45253d	0.19252487
29	0xbceaf6c6	-0.028682124
30	0xbd8b65c3	-0.06806519
31	0xafd9ad6f	-3.9595302e-10
32	0xbb00cc31	-0.0019652958
33	0xbd563087	-0.052292373
34	0x3d89e4ee	0.06733118
35	0xbdca5330	-0.09879148
36	0xb7f7034d	-2.9446232e-05
37	0xb887910b	-6.464318e-05
38	0x3e099cad	0.13438673
39	0xbd5673aa	-0.0523564
40	0xbb79dc96	-0.0038125864
41	0xbaca8d1b	-0.001545343
42	0x3dffb471	0.12485588
43	0xb74c9624	-1.2194305e-05
44	0xbd3084c3	-0.04309536
45	0xbdb583e7	-0.08863049
46	0xbdea80b2	-0.11450328
47	0x3daf6024	0.08563259
48	0x0001da6a	1.70188e-40
49	0x3db03825	0.08604459
50	0x932c9ef6	-2.1787826e-27
51	0x3e08c52d	0.13356467
52	0xb993c607	-0.00028185567
53	0x3d9a0f8c	0.075224966
54	0x3ced66b3	0.028979635
55	0x3c82289c	0.015888505
56	0xbb29677f	-0.0025849042
57	0x3d51820e	0.05114942
58	0xba27fbb5	-0.00064080517
59	0x8002e861	-2.67033e-40
60	0x3dce3481	0.10068608
61	0x3d7b5efb	0.061369877
62	0xb2a331b9	-1.8998309e-08
63	0xbdbc654d	-0.09199009
64	0x3d319f7a	0.04336498
65	0xbe11ddb7	-0.14244734
66	0x3dd69cd0	0.10479128
67	0x3cca86d4	0.024722494
68	0xafb8c837	-3.3611666e-10
69	0xa623257c	-5.6602786e-16
70	0xbbbc0368	-0.0057377107
71	0x0006cc36	6.2427e-40
72	0x3dbb4dc1	0.0914569
73	0x3e2f71b9	0.17133226
74	0x3e1b7174	0.15179998
75	0xb6658cbc	-3.4205577e-06
76	0xbd4a6b24	-0.049418584
77	0xbdb47359	-0.08811063
78	0xbbac816f	-0.005264453
79	0x0002a060	2.41203e-40
80	0x00260ab3	3.493587e-39
81	0xb1d70f85	-6.259088e-09
82	0x3dcfd9c9	0.10148961
83	0x3bf7fba9	0.007567842
84	0xbc1ac0b2	-0.009445356
85	0xbc922525	-0.017839978
86	0xbc030843	-0.007997575
87	0xbd51c008	-0.051208526
88	0xbc09c748	-0.008409329
89	0x3d444e41	0.04792619
90	0x3db39dff	0.0877037
91	0x3d86abda	0.06575747
92	0x3ddc8b7e	0.107687935
93	0xbc0e42fa	-0.008682961
94	0xbd3404bf	-0.04394984
95	0xbcb01a98	-0.021497056
96	0xa528db0a	-1.464589e-16
97	0x3cf48eaf	0.029853193
98	0xbd5b20d2	-0.053498097
99	0xbc9aea95	-0.018910686
100	0xb82dc832	-4.143286e-05
101	0xbdbda0a3	-0.09259155
102	0x3df7f9ad	0.12108169
103	0x3d6ee5aa	0.058324493
104	0x3c8b5b64	0.017011352
105	0xb9117d05	-0.00013874851
106	0xb8c1118b	-9.206225e-05
107	0xbb8b68db	-0.004254443
108	0x3d8670f2	0.06564511
109	0x3ccab64d	0.02474513
110	0xbd26c4ca	-0.040715016
111	0x3e3ccbf8	0.18437183
112	0xbd4ebe89	-0.050474677
113	0x3cd36474	0.025804736
114	0xbd3ca6c0	-0.046057463
115	0x3e1fa921	0.15591861
116	0xbac07fd7	-0.0014686537
117	0x3b143b08	0.0022618193
118	0xbd6cdfdb	-0.057830673
119	0xbc7fd3a0	-0.01561442
120	0x3dfa40e5	0.12219409
121	0x3dfdebb9	0.12398476
122	0x3e1023d6	0.1407617
123	0xbdbb70db	-0.09152385
124	0x3dc64f88	0.09683138
125	0x3c84f342	0.016229276
126	0xbd86452b	-0.065561615
127	0xbcdcc771	-0.02695057

layers.1.weight f4 [128, 128]
0	0x000b6cd3	1.049229e-39
1	0x000af6e3	1.006921e-39
2	0x00042448	3.80357e-40
3	0xbb51d755	-0.0032019217
4	0x80083d73	-7.56728e-40
5	0xbb72270e	-0.0036949548
6	0x8002e904	-2.67261e-40
7	0x0002ce28	2.57626e-40
8	0x998c9ba0	-1.4538517e-23
9	0x3845a87c	4.7125373e-05
10	0xbb2196c6	-0.0024656518
11	0x800aded5	-9.98292e-40
12	0xb9212561	-0.00015368081
13	0x0004b7fd	4.33345e-40
14	0xab90b985	-1.0283307e-12
15	0xbb91dd0a	-0.0044513987
16	0x00010208	9.2564e-41
17	0x800a3b24	-9.3957e-40
18	0xbb9f79e6	-0.0048668263
19	0xbb80ffed	-0.0039367587
20	0x800ad20a	-9.93703e-40
21	0xbb6d9925	-0.0036254611
22	0xbb92a737	-0.0044755
23	0x0002281e	1.98062e-40
24	0xb9500511	-0.00019838313
25	0xbb78f897	-0.0037989968
26	0xaf32a97d	-1.624922e-10
27	0x3adb1cbe	0.001671694
28	0xb80fe50f	-3.4307184e-05
29	0xba980d4b	-0.0011600641
30	0xba1d1726	-0.0005992524
31	0x8000e5cd	-8.2437e-41
32	0x00015052	1.20649e-40
33	0xbb3b9e74	-0.002862838
34	0xbb894b9c	-0.0041899215
35	0x3ab702a6	0.0013962581
36	0x800894f4	-7.88118e-40
37	0x000856e8	7.6586e-40
38	0xb492e4c4	-2.7361068e-07
39	0xba869c70	-0.0010270011
40	0x00011155	9.8053e-41
41	0x000a903f	9.70101e-40
42	0xbb04aa66	-0.0020243167
43	0x000a7f96	9.64124e-40
44	0xb935e100	-0.00017345324
45	0xbb81d774	-0.0039624516
46	0xbb4dfd0a	-0.003143134
47	0xbaea570c	-0.0017878725
48	0x000443e7	3.91701e-40
49	0x396d101d	0.00022608084
50	0x800972ec	-8.67746e-40
51	0xb5bdb713	-1.4134879e-06
52	0xbb532b94	-0.003222202
53	0xbb178f96	-0.0023126355
54	0xbb0174b5	-0.00197534
55	0xb868cce7	-5.550394e-05
56	0x00081938	7.43731e-40
57	0xbb6c8f4c	-0.0036096154
58	0x80057793	-5.02073e-40
59	0x8003cdbc	-3.4931e-40
60	0xbbc9673d	-0.00614634
61	0xbb5b3f07	-0.0033454315
62	0x800902d1	-8.2753e-40
63	0xba60053a	-0.00085457007
64	0xb8a2f781	-7.770863e-05
65	0xbb32d60d	-0.0027288229
66	0xbbca8060	-0.0061798543
67	0xba7eee53	-0.0009724844
68	0x80089de4	-7.91324e-40
69	0x0007a93c	7.03558e-40
70	0x0009f509	9.14422e-40
71	0x800a603c	-9.52877e-40
72	0xbb711f06	-0.0036792173
73	0x37a1dfb7	1.9296871e-05
74	0xbbd12069	-0.0063820374
75	0x8004d67e	-4.44287e-40
76	0xbba77d4e	-0.005111373
77	0xb7f9cfe8	-2.9779927e-05
78	0x00061231	5.57539e-40
79	0x8004f536	-4.55307e-40
80	0x0009f394	9.13899e-40
81	0x80013da5	-1.1395e-40
82	0xb68e008e	-4.2319944e-06
83	0xb5bba90a	-1.3981783e-06
84	0x0006cc18	6.24228e-40
85	0xbac057ec	-0.001467464
86	0x0002f87b	2.72809e-40
87	0xbbcf29b6	-0.006322111
88	0x8007fc17	-7.33281e-40
89	0xb408e69c	-1.2749882e-07
90	0xbacec9d2	-0.00157767
91	0x34b98368	3.4554546e-07
92	0xbba0f87a	-0.004912433
93	0x8007d0ae	-7.17709e-40
94	0xb6682ee3	-3.4597986e-06
95	0x382f15f4	4.1743697e-05
96	0x0001bdb5	1.5989e-40
97	0x3952f7d9	0.00020119491
98	0xbbe1ccf5	-0.006890888
99	0xbb2b80fd	-0.0026169412
100	0x8007228f	-6.55246e-40
101	0xbbb7d658	-0.0056102686
102	0xbb707347	-0.0036689804
103	0xbb0b196f	-0.0021224876
104	0x394c66c0	0.00019493233
105	0x0001eb7a	1.76309e-40
106	0x800891fa	-7.8705e-40
107	0x80078dff	-6.93787e-40
108	0xb920ed79	-0.00015347255
109	0xba6aef63	-0.0008962063
110	0xbb32f1b6	-0.0027304715
111	0xb87f338d	-6.0844748e-05
112	0xbb88a681	-0.0041702394
113	0xbb83384b	-0.0040045134
114	0xbb5d6f6a	-0.0033788332
115	0x38f4a0e8	0.00011664798
116	0x000aad7c	9.8059e-40
117	0xbb89585f	-0.004191443
118	0xbb59328c	-0.00331417
119	0xba372add	-0.0006987283
120	0xbab87700	-0.0014073551
121	0xae89c190	-6.264422e-11
122	0xbb509447	-0.0031826661
123	0xbaf5a9a0	-0.0018742569
124	0xbb918a7f	-0.004441559
125	0xbab0f663	-0.0013501163
126	0xbbbd8e2f	-0.005784772
127	0xbb44caba	-0.003002806
128	0xbb566eb2	-0.0032719788
129	0xb7976d65	-1.8051544e-05
130	0x8001074f	-9.4457e-41
131	0x3d541d62	0.051785834
132	0x28792b4a	1.38316635e-14
133	0xbd9a584e	-0.07536374
134	0xbab54e35	-0.0013832512
135	0x80064e50	-5.79106e-40
136	0xbd4d6ef3	-0.050154638
137	0x3ea9aaf4	0.3313824
138	0x3d00ac94	0.031414583
139	0x366ac5f1	3.4983934e-06
140	0xbe320120	-0.17383242
141	0x3c6dd1fd	0.014515397
142	0x3e814cd7	0.25253937
143	0xbe28306c	-0.16424721
144	0x8000d4bc	-7.6315e-41
145	0x0007383a	6.63019e-40
146	0xbdb97548	-0.09055573
147	0xbce6e2d0	-0.028184325
148	0x000384bf	3.23127e-40
149	0x3e63fff5	0.22265609
150	0x3d5eb461	0.05437124
151	0xb8689c44	-5.5458644e-05
152	0xbd8eda3f	-0.06975221
153	0xbcbafd10	-0.022825748
154	0x3dcd790a	0.10032852
155	0xbc4bf998	-0.0124496445
156	0x3e875a8d	0.26436272
157	0x3e21f2cc	0.15815276
158	0xbc80342b	-0.015649876
159	0x8809e750	-4.1498844e-34
160	0xba0b2403	-0.00053077954
161	0x3d7d9963	0.06191386
162	0xbdca9ea4	-0.098935395
163	0x3dbd957e	0.09257029
164	0x38f60483	0.000117310345
165	0x37202b49	9.546821e-06
166	0xbe9cd32e	-0.30629867
167	0xbd98af0e	-0.07455264
168	0xbaec9354	-0.0018049278
169	0xb6e2848f	-6.7507567e-06
170	0x3df076f8	0.117414415
171	0xb6090cd3	-2.0422056e-06
172	0xbee4ad51	-0.4466348
173	0xbe299f86	-0.1656476
174	0x3e831d97	0.25608513
175	0xbe0083ac	-0.12550229
176	0x8002e053	-2.64143e-40
177	0xbaa0ad31	-0.0012258646
178	0x00031ca4	2.85781e-40
179	0xbde2534c	-0.11051044
180	0xbe0e8409	-0.13917555
181	0xbddacba5	-0.10683373
182	0x3cd7e929	0.026356297
183	0xbc97d5b1	-0.018534513
184	0xb9807ca8	-0.0002450694
185	0xbe4ce8c9	-0.20010675
186	0x39255950	0.00015768898
187	0x0005e90d	5.4278e-40
188	0xbe20494f	-0.15652965
189	0xbe4e17c9	-0.20126261
190	0x322fbd83	1.0229431e-08
191	0xbdbce8d8	-0.09224099
192	0x3e82766f	0.25480983
193	0x3e601a47	0.21885024
194	0xbd299eec	-0.041411325
195	0x3dd10299	0.102055736
196	0x25dcf2ec	3.8328527e-16
197	0xa12c7372	-5.8428657e-19
198	0xb8b89573	-8.801641e-05
199	0x0004661c	4.03972e-40
200	0x3d56c7d0	0.05243665
201	0x3e1d088e	0.15335295
202	0xbdcc6859	-0.0998084
203	0xb69772aa	-4.5134993e-06
204	0xbdf76154	-0.12079111
205	0x3f044dd5	0.5168126
206	0xbb804a2a	-0.003915091
207	0x0006a265	6.09269e-40
208	0x00052693	4.73015e-40
209	0xa01ba338	-1.3183015e-19
210	0x3defb11e	0.11703704
211	0xbda68f77	-0.081328325
212	0xbca09267	-0.01960106
213	0xbe398281	-0.1811619
214	0x3c023f39	0.007949644
215	0xbd532e42	-0.051557787
216	0xbb6ed255	-0.0036441286
217	0xbd6a8731	-0.057257835
218	0x3da361b8	0.07977623
219	0x3e55921f	0.20856522
220	0x3e1c3b4c	0.15256995
221	0xbc7023e3	-0.014656994
222	0x3d6235c0	0.05522704
223	0x3e4dc168	0.2009331
224	0xb77cde96	-1.5072195e-05
225	0xbead63d5	-0.33865228
226	0xbdeec6a4	-0.116589814
227	0xbeaced14	-0.33774626
228	0x35396605	6.906633e-07
229	0xbdd8b166	-0.10580711
230	0xbe067c71	-0.13133408
231	0x3c2ccbb6	0.010546615
232	0xb9d9e56f	-0.00041560407
233	0xb5cd115b	-1.5278741e-06
234	0xb79218b4	-1.741606e-05
235	0x3b234af6	0.0024916506
236	0xbd9c130e	-0.07620822
237	0xbbdc273a	-0.0067185434
238	0xbc8b3177	-0.01699136
239	0x3e00c1c4	0.12573916
240	0x3d30aa1e	0.043130986
241	0x3d30078b	0.042975944
242	0xbd9387d1	-0.07203639
243	0x3e22b795	0.15890343
244	0x38dd6459	0.000105567924
245	0x3d3c8e70	0.046034276
246	0xbd36c97b	-0.04462574
247	0xbe70d705	-0.23519523
248	0x3e108384	0.14112669
249	0x3e3a7ddd	0.18212076
250	0x3e1e38cd	0.15451355
251	0xbe882cd8	-0.26596713
252	0x3dfbf3f3	0.12302389
253	0x3e05c1f0	0.13062263
254	0xbee1eb87	-0.44125006
255	0xbdb1a097	-0.08673208

layers.1.bias f4 [128]
0	0xba9dde9a	-0.001204449
1	0x3e001754	0.12508899
2	0x3e04c9af	0.12967561
3	0xb8aad262	-8.1454185e-05
4	0x80030905	-2.78742e-40
5	0x3d559756	0.05214628
6	0x3ea6f928	0.32611966
7	0xb903e1bf	-0.0001257723
8	0x3dbd5465	0.092446126
9	0xbcba09c1	-0.02270973
10	0x3d2ca306	0.04214766
11	0x3e570023	0.20996146
12	0x3e2dc86f	0.1697099
13	0xbe02ff95	-0.1279281
14	0x8003c196	-3.44952e-40
15	0xb55d1af8	-8.236816e-07
16	0x3e269066	0.16266021
17	0x3d562140	0.052277803
18	0x3e4b065c	0.19826645
19	0x0afcaa4a	2.4330773e-32
20	0x3df373fb	0.11887356
21	0x3d0bf9d2	0.034173794
22	0xa1627d1c	-7.673736e-19
23	0xbbe9a945	-0.007130774
24	0xbc2049ad	-0.009783191
25	0xb6b35de8	-5.345548e-06
26	0x3d90119e	0.0703461
27	0xbc0ea148	-0.008705445
28	0xb8b5f149	-8.6756954e-05
29	0xa8e55002	-2.5458805e-14
30	0xbbe24fe4	-0.0069064964
31	0xb3aeabae	-8.133735e-08
32	0xbda90b02	-0.08254053
33	0x3d5d3bbf	0.054012056
34	0x9b917780	-2.4065463e-22
35	0x3d300646	0.042974733
36	0x3e2e3e27	0.17015897
37	0x3d06228f	0.0327478
38	0x8003b19c	-3.39221e-40
39	0x3d457cf9	0.048214886
40	0x8002b80c	-2.49695e-40
41	0x3e01301f	0.12616013
42	0x3e44f93b	0.19235699
43	0x93366b92	-2.3024666e-27
44	0x3d8c5147	0.0685144
45	0xa66447fa	-7.9200937e-16
46	0xbda19ea1	-0.07891584
47	0x3d53cbf4	0.051708177
48	0x3dae03f7	0.0849685
49	0xbbe5a579	-0.0070082513
50	0xbb65f874	-0.0035090717
51	0x3e0732dc	0.13202995
52	0x3e4e26da	0.20132008
53	0x3ddfb17e	0.10922526
54	0x3c41d2f3	0.011830079
55	0xb1d5a29a	-6.2176015e-09
56	0x3dc2f9f9	0.09520335
57	0xbda7c13b	-0.08191153
58	0xbb9c376e	-0.00476735
59	0x3e71c770	0.23611236
60	0xba9812b9	-0.001160226
61	0xbb05f001	-0.0020437243
62	0x3c53eaea	0.012934426
63	0x3cc9ce15	0.0246344
64	0xac3f7859	-2.7209539e-12
65	0xb64b8df0	-3.0331976e-06
66	0x3ea26c08	0.31723046
67	0x3d32faeb	0.043696325
68	0x87fbeba3	-3.7904777e-34
69	0x3e166c60	0.1468978
70	0x0001660b	1.28442e-40
71	0x3e1f2167	0.15540086
72	0xafb7af38	-3.3412006e-10
73	0x3e5ae4e6	0.2137638
74	0x3d2ada7f	0.04171228
75	0x3c90a296	0.017655652
76	0x00029338	2.36483e-40
77	0x3ea79f49	0.32738712
78	0x80007389	-4.1446e-41
79	0xbc418656	-0.011811813
80	0x39fb7765	0.00047963407
81	0x3c2aac84	0.0104171075
82	0x00046cf9	4.06434e-40
83	0xbdd792e1	-0.10526062
84	0xbc303f80	-0.010757327
85	0xb7eb02ff	-2.8015578e-05
86	0x3da2c448	0.07947594
87	0x3dc7bb43	0.09752514
88	0xbb0796e3	-0.00206893
89	0x391f747e	0.00015206818
90	0x3ddaad33	0.106775664
91	0x3e0f240b	0.13978593
92	0x3d8e18a5	0.06938294
93	0xb1409e08	-2.8029508e-09
94	0x3e3f7328	0.18696272
95	0x3e745fba	0.23864642
96	0x3da07e49	0.07836587
97	0x3d614937	0.055001464
98	0x3daeca6e	0.08534704
99	0x3e034707	0.12820064
100	0x3d8eb3a8	0.069678605
101	0x3da99dd9	0.0828206
102	0xa87bb634	-1.3972808e-14
103	0xbbe00154	-0.006836096
104	0x3e2156d3	0.15755777
105	0xbc44ad0d	-0.012004149
106	0xbc442ad7	-0.011973104
107	0xbb80dc1e	-0.00393249
108	0xbbdde954	-0.0067721996
109	0x3df76562	0.12079884
110	0xb5e27ff0	-1.6875547e-06
111	0x3e367444	0.1781779
112	0x3e0f6e21	0.14006855
113	0x3dabc91f	0.0838797
114	0x3d5bc27c	0.05365227
115	0xbba2931b	-0.004961384
116	0xbc5af01b	-0.01336291
117	0xbbe5215e	-0.006992503
118	0xad61dd69	-1.2838932e-11
119	0x028e3648	2.089618e-37
120	0xbaa7e28e	-0.0012808607
121	0xbccf3fed	-0.025299037
122	0xbd33b59d	-0.04387437
123	0xadae4e20	-1.9816204e-11
124	0x3db6d7d9	0.089278884
125	0x3dac8732	0.08424224
126	0xab60ea66	-7.990608e-13
127	0xbd430f32	-0.047621913

layers.2.weight f4 [128, 128]
0	0x00049758	4.21634e-40
1	0xb391d2ae	-6.790411e-08
2	0xb9db1f18	-0.00041794102
3	0x8004d45f	-4.43526e-40
4	0x8008a4cc	-7.93802e-40
5	0xbaf99f0c	-0.0019044592
6	0xbabe14ee	-0.0014502087
7	0x80088a6b	-7.84339e-40
8	0x363b02e2	2.786685e-06
9	0xb7ec2f3d	-2.815539e-05
10	0xba81989a	-0.0009887398
11	0xb8595ffa	-5.1826217e-05
12	0xbc0348ce	-0.008012963
13	0x3a1db957	0.00060166925
14	0x0004b6c7	4.3291e-40
15	0x00053dbc	4.81324e-40
16	0xbb0985bb	-0.002098425
17	0xbb0079f7	-0.0019603947
18	0xbb460859	-0.0030217378
19	0x000213f8	1.90834e-40
20	0xb994a064	-0.0002834826
21	0xbb03bd45	-0.0020101827
22	0x8006bca6	-6.18687e-40
23	0xb74550ff	-1.1760973e-05
24	0x00099148	8.78637e-40
25	0x00007c54	4.46e-41
26	0xb9234cae	-0.00015573457
27	0x0008e96f	8.18424e-40
28	0x8000ac88	-6.1893e-41
29	0x0002d75a	2.60925e-40
30	0x0004d9fe	4.45543e-40
31	0x80093881	-8.46789e-40
32	0xb7b41aff	-2.1470243e-05
33	0xb987feeb	-0.00025939135
34	0x80035f0f	-3.09607e-40
35	0x3935df4d	0.00017344691
36	0xb8546b4e	-5.0644674e-05
37	0xb94bb812	-0.0001942816
38	0x80083198	-7.52475e-40
39	0xb9677531	-0.00022073534
40	0x8004ebb7	-4.519e-40
41	0xb8b72f77	-8.734961e-05
42	0xbadfcc20	-0.0017074384
43	0x000a8814	9.6717e-40
44	0xba342c81	-0.00068730867
45	0x80040072	-3.67502e-40
46	0x39215a2d	0.0001538775
47	0xb9bf7fcf	-0.00036525584
48	0xba7a004b	-0.0009536787
49	0x8000b484	-6.4757e-41
50	0x0009c577	8.97357e-40
51	0xb8c74a3c	-9.502887e-05
52	0xbacaf51a	-0.0015484423
53	0xba200bd2	-0.0006105277
54	0xbaf12983	-0.0018399212
55	0x000a34f3	9.3735e-40
56	0xba054157	-0.0005083284
57	0x391eb7d4	0.00015136536
58	0x00092d9d	8.42882e-40
59	0x38b6e8ad	8.7217755e-05
60	0x00010dfd	9.6854e-41
61	0x800a4f88	-9.46885e-40
62	0xbb0165a8	-0.001974443
63	0xb9a19db9	-0.00030825826
64	0x000162db	1.27298e-40
65	0x00026d62	2.2291e-40
66	0xba3dd648	-0.0007241708
67	0xb7cada9d	-2.4182076e-05
68	0x00085882	7.66435e-40
69	0xba364a5e	-0.00069538306
70	0x8009bdc6	-8.94597e-40
71	0xbb87d1f0	-0.0041448995
72	0x0001bc8a	1.5947e-40
73	0xba0af266	-0.00053004024
74	0xb53ef506	-7.113707e-07
75	0xb90c0302	-0.00013352561
76	0x00038f54	3.26923e-40
77	0xba76e3b2	-0.00094180845
78	0x0008d698	8.11666e-40
79	0x000887be	7.83379e-40
80	0xb9be7a27	-0.00036330635
81	0xb697729f	-4.5134943e-06
82	0x80040f4b	-3.72828e-40
83	0xb7a5d551	-1.9768866e-05
84	0x80098404	-8.73878e-40
85	0x80072dbf	-6.59259e-40
86	0xb84811ba	-4.7700225e-05
87	0xb9ecceb6	-0.0004516744
88	0x0000c06b	6.9027e-41
89	0xb688cbd4	-4.0768446e-06
90	0xba450a0a	-0.00075164496
91	0xb91cb5c4	-0.00014945032
92	0xb9371519	-0.000174601
93	0x000118c1	1.00716e-40
94	0xb8d9f686	-0.00010393285
95	0xbab1e9ab	-0.0013573667
96	0xa4e90bf1	-1.0106787e-16
97	0xb4032a97	-1.221582e-07
98	0xb488dcd4	-2.5492648e-07
99	0xb8104f70	-3.4406257e-05
100	0xb98c58c2	-0.0002676901
101	0xb9751b2c	-0.00023375143
102	0x00003b63	2.1304e-41
103	0x000aba90	9.85281e-40
104	0xb9dbd8d8	-0.00041932496
105	0x0005e964	5.42902e-40
106	0x000aff34	1.009905e-39
107	0xb72cbac6	-1.02954855e-05
108	0x00048fd7	4.18942e-40
109	0xb8b576fb	-8.6529144e-05
110	0x0008042a	7.36178e-40
111	0xbaa94b8a	-0.0012916189
112	0x395ce2d2	0.00021065332
113	0xb9427b70	-0.00018547266
114	0xb9cd64b4	-0.00039175677
115	0x80042920	-3.82095e-40
116	0x0007d664	7.19757e-40
117	0x80091d41	-8.37014e-40
118	0x02a795e1	2.462447e-37
119	0x00043487	3.86185e-40
120	0x80025ea5	-2.17623e-40
121	0x3782be3b	1.558579e-05
122	0xba0499d5	-0.0005058323
123	0x80050bd9	-4.63428e-40
124	0xb8760225	-5.8652968e-05
125	0x36266e9a	2.4800306e-06
126	0x0001acfd	1.53892e-40
127	0x37e4a512	2.7256585e-05
128	0x389a2eae	7.351987e-05
129	0x3e477e16	0.19481692
130	0xbd99984e	-0.07499753
131	0x3a03fbc0	0.0005034767
132	0x8005d73d	-5.3639e-40
133	0x3dc9d9dc	0.098560065
134	0x3d840032	0.0644535
135	0x3c0a799d	0.008451846
136	0x3ea10e03	0.31456003
137	0x3da8c911	0.082414754
138	0x3e2ebf78	0.17065227
139	0xbdda1828	-0.10649139
140	0x3e315535	0.1731766
141	0xbc934a94	-0.017979898
142	0xaa6eaade	-2.1197928e-13
143	0xbb46eb83	-0.0030352778
144	0x3f1b5b57	0.6068625
145	0x3f74f85e	0.9569148
146	0x3e32458c	0.17409343
147	0x14c75796	2.0128412e-26
148	0xbebc6931	-0.36799005
149	0xbe6e0f95	-0.23248132
150	0xaea8d238	-7.677098e-11
151	0x3e127906	0.1430398
152	0xbaffb991	-0.0019510259
153	0x385a3310	5.2022806e-05
154	0xbf1fdd64	-0.6244719
155	0x3beea462	0.0072827796
156	0xba208f03	-0.0006124826
157	0x38e711c0	0.000110182445
158	0xbba0f068	-0.004911471
159	0x3782b6e4	1.5582373e-05
160	0xbd2a2429	-0.04153839
161	0x3d192145	0.037385244
162	0x2bd3b977	1.5043929e-12
163	0x3e41c15b	0.18921416
164	0x3ce8d4ff	0.028421877
165	0xbc9420b5	-0.018082002
166	0x2231b0fa	2.4081664e-18
167	0x3ed00e29	0.40635803
168	0x08ea40ae	1.4098569e-33
169	0x3e720b6c	0.2363717
170	0xbc7366cf	-0.014856054
171	0x2db80b99	2.0923529e-11
172	0xbe3fabed	-0.18717928
173	0xb9a2a206	-0.00031019765
174	0xbdedecbf	-0.11617421
175	0xbde62c2c	-0.11238894
176	0x3d7a53dc	0.06111513
177	0xbc8b3c22	-0.016996447
178	0xbbdde3ba	-0.006771532
179	0x3d955993	0.072924756
180	0xbd1f627a	-0.038912274
181	0xbf0bd385	-0.5461963
182	0x3e01863a	0.1264886
183	0x39d9d8be	0.0004155095
184	0xbdcb1636	-0.09916346
185	0x3e220aed	0.1582448
186	0xbbd47a37	-0.0064842957
187	0xbde87d24	-0.11351994
188	0x3bb5cf84	0.0055484194
189	0x2f6e3b2e	2.1666999e-10
190	0xbe39b76d	-0.18136378
191	0x3e6fedce	0.23430559
192	0xb346b8e7	-4.6268635e-08
193	0x3ab043c7	0.0013447934
194	0xbddc05eb	-0.10743316
195	0xbf4801f9	-0.7812801
196	0xb485f568	-2.4951737e-07
197	0xbe130f3d	-0.14361282
198	0x28dd982f	2.4601928e-14
199	0xbe113968	-0.14182055
200	0x398a7322	0.00026407192
201	0xbc911db3	-0.017714357
202	0x3cefac49	0.029256957
203	0x3e7dc1cd	0.2478096
204	0x376867e6	1.3852468e-05
205	0xbc94e9fc	-0.018177979
206	0x07d62511	3.2220927e-34
207	0x3c1b0cf8	0.009463541
208	0xbdcb34ba	-0.09922166
209	0xbdd26046	-0.10272269
210	0x00004588	2.4943e-41
211	0xbd1f682f	-0.038917717
212	0x3c816f46	0.01580013
213	0xb9779c9c	-0.00023614097
214	0xbd2ee158	-0.042695373
215	0x3d31fe56	0.043455444
216	0x3ac6a266	0.00151546
217	0xbe04c939	-0.12967385
218	0xbfd30fc0	-1.6489182
219	0x3c61c337	0.013779453
220	0xbdb667f1	-0.08906544
221	0xb8271471	-3.983494e-05
222	0xbd52a72b	-0.051428955
223	0xbd379c80	-0.044826984
224	0xbd658a25	-0.056039948
225	0x3eb493c8	0.35268998
226	0x3ef6a120	0.48169804
227	0xbdcdc8b3	-0.10048046
228	0xbdb597ae	-0.08866821
229	0x3dc61dd2	0.096736565
230	0xb7b995cf	-2.2123479e-05
231	0x3c1067c6	0.008813804
232	0x3e9aa7ba	0.3020609
233	0x3ca749d5	0.020420948
234	0x3c8599d0	0.016308695
235	0xbe4058dd	-0.18783899
236	0x3c881e1a	0.016615916
237	0xbdd694f9	-0.10477633
238	0xba6de916	-0.0009075565
239	0xbd1ab46a	-0.037769713
240	0x3d4b5d0f	0.049649294
241	0xbe88765c	-0.266528
242	0x3e878b42	0.26473433
243	0x363a1f18	2.7734259e-06
244	0xbb8827c5	-0.0041551315
245	0xb98d74c9	-0.00026980627
246	0x388bbd4d	6.6632965e-05
247	0x33e854ea	1.08187876e-07
248	0x3b12097f	0.0022283492
249	0xbe9a4e27	-0.3013775
250	0x3ec3e676	0.38261765
251	0x8ea4c5b9	-4.061952e-30
252	0xbe738b52	-0.23783615
253	0x3e5b2227	0.21399747
254	0xb3a6d174	-7.768077e-08
255	0xbe28c725	-0.16482218

layers.2.bias f4 [128]
0	0xb0ce1a87	-1.4996012e-09
1	0x3c354c7c	0.011065599
2	0xbe047fad	-0.1293933
3	0xb5f1c629	-1.8013571e-06
4	0x000749da	6.69341e-40
5	0x3bbad217	0.005701314
6	0x3e361a0a	0.1778337
7	0x80076911	-6.80539e-40
8	0xbbb217d5	-0.00543497
9	0x00054c37	4.86518e-40
10	0xbd9efd4b	-0.077631555
11	0xbda197bd	-0.0789027
12	0x0000f2f1	8.7151e-41
13	0xbdd843d0	-0.10559809
14	0xbea76476	-0.32693833
15	0xbe5939c4	-0.21213442
16	0x3eb87ca7	0.36032602
17	0xbe714949	-0.23563112
18	0xbd5bb955	-0.053643543
19	0xb4c771bd	-3.7149394e-07
20	0xbb469416	-0.0030300668
21	0xbddc7e2b	-0.10766252
22	0x3de53d74	0.11193362
23	0x3ec4134b	0.3829597
24	0x909944de	-6.0453966e-29
25	0x2527c099	1.4550196e-16
26	0x00035b22	3.08199e-40
27	0x80077b67	-6.87117e-40
28	0xbdddf6ba	-0.10838075
29	0xbbe8877c	-0.007096229
30	0xb7233388	-9.727555e-06
31	0xbc29b42b	-0.010357897
32	0xb6a3c994	-4.8812453e-06
33	0xbb35f283	-0.0027762956
34	0x3b396fcd	0.0028295398
35	0x800625b5	-5.6454e-40
36	0xb9bea3c1	-0.0003636163
37	0xb988df4c	-0.0002610631
38	0xbc7f471f	-0.015580921
39	0xae130eaa	-3.3436955e-11
40	0xb758d090	-1.2923163e-05
41	0x3cd7da8f	0.026349334
42	0x3e1cbd20	0.1530652
43	0xbd868d05	-0.06569866
44	0x3d243163	0.04008616
45	0x3ea13f19	0.31493452
46	0xbd7e9f0c	-0.062163398
47	0xbe4109c4	-0.18851382
48	0xbaa2b5c6	-0.0012413792
49	0xbbf2761e	-0.0073993346
50	0xbe4d4996	-0.20047602
51	0xbd7297ed	-0.05922692
52	0xbd68a632	-0.05679912
53	0x80086b6f	-7.73224e-40
54	0xbc180abd	-0.009279904
55	0x3e5776a1	0.21041347
56	0xbab684af	-0.0013925041
57	0x0007e4bc	7.24903e-40
58	0x3e9d8d8a	0.30772048
59	0xae21887f	-3.6728395e-11
60	0x3de5e163	0.1122463
61	0xaa8784fd	-2.4073096e-13
62	0xa32be3f1	-9.318197e-18
63	0x8000b2fc	-6.4207e-41
64	0x80070e7f	-6.48049e-40
65	0x80059475	-5.12434e-40
66	0xbeaca7ff	-0.3372192
67	0x0003a893	3.3598e-40
68	0x3e7bda54	0.24595004
69	0xa0985890	-2.5808407e-19
70	0xb6bd44e1	-5.6406575e-06
71	0xba1372c3	-0.0005624706
72	0x3da3a141	0.07989741
73	0x3e1865e8	0.14882624
74	0x0005e1c8	5.40173e-40
75	0xb9a6d3e7	-0.00031819867
76	0xbb890864	-0.0041819084
77	0x1c2a4a30	5.6344167e-22
78	0xbe3a1bb0	-0.18174624
79	0xbd9de9e1	-0.077106245
80	0x0004e736	4.50285e-40
81	0x3cb73dd2	0.022368345
82	0xba8256b4	-0.0009944052
83	0x8003a6a4	-3.35286e-40
84	0x3e370482	0.17872813
85	0xbd3e4d10	-0.04646021
86	0xbada2067	-0.0016641737
87	0x3db5a0b5	0.08868543
88	0x3de863e0	0.11347175
89	0x3d97dc7e	0.074151024
90	0xbe0a1e5a	-0.1348814
91	0x3bce7231	0.006300234
92	0xbe22af4e	-0.15887186
93	0xb2756bf1	-1.428542e-08
94	0xbe41b949	-0.18918337
95	0x3ca63ac3	0.020291692
96	0xae8eb78e	-6.490018e-11
97	0xa2c0ded7	-5.2277645e-18
98	0xbe69b5de	-0.22823283
99	0x3d9e391b	0.07725736
100	0xbe8b98ea	-0.27265102
101	0x3e0efe86	0.1396428
102	0x3e900093	0.28125438
103	0xae90e3d3	-6.5888316e-11
104	0xbd91a4c4	-0.07111505
105	0x8000365f	-1.9505e-41
106	0x3d3846ee	0.04498952
107	0x00072e90	6.59552e-40
108	0x8005ff85	-5.5084e-40
109	0xbe69156c	-0.22762078
110	0x80051a6a	-4.68653e-40
111	0xbe4d91ee	-0.20075199
112	0xbe44547c	-0.19172853
113	0x3e8863dc	0.26638687
114	0x9af9456c	-1.03096143e-22
115	0x8626d6d5	-3.1378964e-35
116	0x3d6fe00c	0.058563277
117	0x3d515961	0.05111063
118	0xbbfd8533	-0.007736826
119	0x80013384	-1.10316e-40
120	0x3e30b9fe	0.1725845
121	0xbd862147	-0.06549316
122	0xb7bae0a5	-2.2277536e-05
123	0x98b0b6c1	-4.5679468e-24
124	0xbe0dae7d	-0.13836093
125	0x3d0210bf	0.03175425
126	0xb93d5faf	-0.0001806009
127	0x9d94e911	-3.941626e-21

layers.3.weight f4 [936, 128]
0	0xbb2ef978	-0.0026698988
1	0xbe62268b	-0.22085015
2	0xbf244fab	-0.64184064
3	0xbc2635ec	-0.010144692
4	0x3bbc9b5d	0.0057558254
5	0xbede1939	-0.43378618
6	0xbe68cfd3	-0.22735529
7	0x22f41259	6.615576e-18
8	0xbc8cfa76	-0.017209273
9	0x8005ab3d	-5.20606e-40
10	0xbedeb97e	-0.43500894
11	0xbe07219e	-0.13196418
12	0x3b2d6ab2	0.00264613
13	0xbeb211b2	-0.34779125
14	0x3ea5f310	0.32412004
15	0xbe58eb74	-0.21183568
16	0xbf1a406b	-0.60254544
17	0xbe3ecc77	-0.18632685
18	0xb2686449	-1.35269795e-08
19	0xbc1b163d	-0.009465751
20	0x3b1455b5	0.0022634093
21	0xbf1d7be2	-0.61517155
22	0xbe57f49d	-0.21089406
23	0xbebf5fe8	-0.37377858
24	0xbac423e3	-0.0014964308
25	0x22e45613	6.189066e-18
26	0x24a4f07c	7.153106e-17
27	0xad223413	-9.220197e-12
28	0xbd896551	-0.06708778
29	0x3cbd43d1	0.023103626
30	0x843c7f2c	-2.2157688e-36
31	0xbf3b0b7a	-0.73064387
32	0xbbec04ad	-0.007202706
33	0x3bca7f63	0.0061797365
34	0xbec55c39	-0.38546923
35	0x34db6c87	4.0870893e-07
36	0x3c3cb11c	0.011516836
37	0x3bbfca5e	0.0058529815
38	0xbc102a13	-0.008799094
39	0x3a8150da	0.0009866015
40	0xbbffad3d	-0.007802634
41	0xbe60b87e	-0.21945378
42	0xbf08bb2f	-0.5341062
43	0x3eaffcfa	0.34372693
44	0xbdd9ba3b	-0.10631224
45	0xbe3d4eb6	-0.18487057
46	0xbe879082	-0.26477438
47	0xbf14918f	-0.58034605
48	0xba4d4f95	-0.0007831988
49	0xb90e3b6d	-0.00013564313
50	0xbfc38c55	-1.5277201
51	0xbe2bf741	-0.16793539
52	0xbe54dfba	-0.2078847
53	0x3287370f	1.5741106e-08
54	0xbb31fc37	-0.0027158388
55	0xbe2ca1b8	-0.16858566
56	0xbc2f62c6	-0.010704702
57	0x34e895f6	4.3322478e-07
58	0x3c088aa1	0.008333833
59	0x32586fda	1.2598287e-08
60	0xbf6c7bc6	-0.92376363
61	0xbb1b8fe2	-0.0023736884
62	0xad062e2d	-7.627271e-12
63	0x80013014	-1.09083e-40
64	0xae00972a	-2.923809e-11
65	0xbb2cb149	-0.0026350787
66	0xa9928652	-6.507003e-14
67	0x271c7261	2.1711354e-15
68	0xbe1b7594	-0.15181571
69	0xbae526a7	-0.0017482833
70	0x3c17d5fc	0.009267326
71	0x3bee5bdf	0.0072741355
72	0xbe35ecd4	-0.17766124
73	0x3c99b747	0.018764151
74	0x80024d4f	-2.11404e-40
75	0xbb958879	-0.004563388
76	0xbb93692d	-0.004498622
77	0x18bfbd46	4.956346e-24
78	0xbf037def	-0.51364034
79	0xbf3f7136	-0.7478212
80	0xb99fa9df	-0.00030453407
81	0xbc194200	-0.0093541145
82	0x3bb4d869	0.005518962
83	0x3917bf4a	0.00014471743
84	0xbf22b388	-0.6355519
85	0xbf448bd8	-0.76775885
86	0xbc067f77	-0.008209101
87	0xbdd38a9d	-0.10329173
88	0xbf076059	-0.5288139
89	0xbf325feb	-0.6967761
90	0x3b12884f	0.0022359078
91	0xbd6d6b62	-0.057963736
92	0xbd97e364	-0.07416418
93	0x39fcae5d	0.00048195096
94	0xbf95a927	-1.1692246
95	0xb3629964	-5.2759233e-08
96	0xbaa394e8	-0.0012480291
97	0xba06603e	-0.00051260355
98	0x3e8f47fc	0.27984607
99	0xbf4fe78e	-0.812127
100	0xbea04a8b	-0.31306872
101	0xbe32f70b	-0.17477052
102	0xbede6e0d	-0.43443337
103	0xbb29eb96	-0.0025927774
104	0xbed0f1aa	-0.40809375
105	0xb107af1a	-1.974462e-09
106	0xbe88a4e9	-0.26688316
107	0x288aba27	1.5401808e-14
108	0x8006131c	-5.57868e-40
109	0xbe82f811	-0.25579885
110	0x32a201a4	1.8860028e-08
111	0xbe132966	-0.14371261
112	0x3e25ace0	0.16179228
113	0xbe342049	-0.17590441
114	0xbbcc23de	-0.0062298616
115	0x39a4a159	0.0003140073
116	0xbdb648b3	-0.08900585
117	0xbe3b3f73	-0.18285923
118	0xbaf9e901	-0.0019066633
119	0xb9b3cd60	-0.00034294557
120	0x3e2380c2	0.15967086
121	0x3cd697f9	0.026195513
122	0xbb9427a2	-0.004521326
123	0x389a8ef8	7.369922e-05
124	0xbea316af	-0.31853244
125	0xbd1173ef	-0.035510954
126	0x3af6760e	0.0018803494
127	0xb593ce0b	-1.101232e-06
128	0x0008dd1f	8.14007e-40
129	0xbe145d12	-0.14488629
130	0xbbdc2057	-0.0067177224
131	0xba3a111c	-0.00070978864
132	0x8008cc5f	-8.07999e-40
133	0xbf74ae03	-0.9557802
134	0xbe2a6225	-0.16639002
135	0x00006f22	3.9867e-41
136	0x3a54b7e4	0.000811456
137	0x0000bb65	6.7224e-41
138	0xbe23acb7	-0.15983854
139	0xbf06405e	-0.52441967
140	0x38b3214f	8.541589e-05
141	0xbe610b11	-0.21976878
142	0x3e6114d1	0.21980597
143	0xbd8859ce	-0.06657754
144	0xbf0b6a29	-0.5445886
145	0xbebae76d	-0.3650469
146	0xb26c783e	-1.3764348e-08
147	0x363d4e70	2.8208851e-06
148	0xbcbbe3cd	-0.022935772
149	0xc00f27b2	-2.2367978
150	0xbf285080	-0.65747833
151	0x3d2ec190	0.042665064
152	0xb325f12d	-3.8636404e-08
153	0x1db3b4b0	4.756773e-21
154	0x8004fc70	-4.579e-40
155	0x9c903584	-9.542954e-22
156	0xbe5b4230	-0.21411967
157	0xbbdf345e	-0.0068116626
158	0x001dca6c	2.735845e-39
159	0xbf0f4820	-0.5596943
160	0x0004016a	3.67849e-40
161	0xbbeaa490	-0.0071607307
162	0x3d3e74ca	0.046498097
163	0x32011574	7.513666e-09
164	0xba82fbc9	-0.0009993251
165	0xb7da376a	-2.601343e-05
166	0xbb233d06	-0.00249082
167	0x33bfddd6	8.934482e-08
168	0x3bdee8c1	0.006802649
169	0x3e1b2d25	0.1515394
170	0xbe080064	-0.13281399
171	0xbe9ae2d4	-0.3025118
172	0xbf8e65ee	-1.1124856
173	0xbe1ab21c	-0.15107006
174	0x3e26a76b	0.16274802
175	0x33f20e1a	1.1271568e-07
176	0xb6f69404	-7.3486026e-06
177	0xb647d4d3	-2.977719e-06
178	0x38f41e7b	0.00011640504
179	0xbf39d712	-0.72593796
180	0xbe0c418d	-0.1369688
181	0xaca831d1	-4.780378e-12
182	0x3b909cac	0.004413208
183	0xbf286021	-0.6577168
184	0xbbcf6321	-0.0063289558
185	0x9d7d3098	-3.3509394e-21
186	0xbd6760c5	-0.05648877
187	0x38032764	3.126952e-05
188	0xbe32982c	-0.17440861
189	0x000318b1	2.84364e-40
190	0x00024aa0	2.10441e-40
191	0x000b5e6c	1.044063e-39
192	0x80083ad7	-7.55792e-40
193	0x37549379	1.2670521e-05
194	0x28224b76	9.0091695e-15
195	0x8000642c	-3.5935e-41
196	0xc006326e	-2.096828
197	0xb6df07de	-6.6468338e-06
198	0xb9c42370	-0.00037410436
199	0x39a42e43	0.00031314985
200	0xbe62a410	-0.22132897
201	0xbf73e43c	-0.95270133
202	0x140503cb	6.715532e-27
203	0x0372e7db	7.1383565e-37
204	0x3bdc785c	0.006728215
205	0x9007880b	-2.672886e-29
206	0xbe58567c	-0.21126741
207	0xbb36d852	-0.0027899933
208	0x000410b1	3.7333e-40
209	0xbf47f278	-0.7810435
210	0xb90ffd60	-0.00013731932
211	0xb2c689ab	-2.3112838e-08
212	0xbef8ca7e	-0.4859199
213	0x3d8ce96f	0.068804614
214	0x3b9e648e	0.0048337644
215	0xbe871dac	-0.26389825
216	0xbf7cae70	-0.9870367
217	0xbed82a63	-0.42219839
218	0x3e1d8937	0.15384375
219	0xbe893f1c	-0.2680596
220	0xbe512f09	-0.20428099
221	0xb6ddc534	-6.6092707e-06
222	0x371572f7	8.907859e-06
223	0xb2513db5	-1.2179432e-08
224	0x00021b5f	1.9349e-40
225	0xa509c98e	-1.1951145e-16
226	0xbd662e10	-0.056196272
227	0xbecbc942	-0.39801985
228	0x3e1ab26b	0.15107124
229	0xbe3adcfd	-0.18248363
230	0x3d9cce4e	0.07656537
231	0x0009e4d2	9.08605e-40
232	0xbe238a23	-0.15970664
233	0x000aaef0	9.81111e-40
234	0x3dd64750	0.104628205
235	0x800184c2	-1.3946e-40
236	0x800a4e09	-9.46349e-40
237	0xbb88b578	-0.0041720234
238	0x0001888e	1.40822e-40
239	0xbeb0d7db	-0.34539685
240	0xbebc586d	-0.36786214
241	0xbd0f257a	-0.03494785
242	0x36687a13	3.464175e-06
243	0x383a8e40	4.4478336e-05
244	0xbe4f3773	-0.20235996
245	0xbfa7395c	-1.306438
246	0x3c12bd36	0.008956244
247	0x1d83b5ed	3.486352e-21
248	0xbe56a574	-0.20961553
249	0xbe19cd20	-0.15019655
250	0x3907b5d9	0.00012942347
251	0xb2c60302	-2.3051602e-08
252	0xbdc71611	-0.09721006
253	0xbe65378a	-0.22384468
254	0x21cbdca7	1.3814221e-18
255	0x00025fdc	2.18059e-40

layers.3.bias f4 [936]
0	0xbe16159e	-0.14656684
1	0xbdfa9305	-0.12235073
2	0x3d1f9174	0.038957074
3	0xbe408b16	-0.18803057
4	0xbea62b3e	-0.32454866
5	0xbdb08af6	-0.08620255
6	0xbe7989f3	-0.2436903
7	0xbdd14f2d	-0.1022018
8	0xbf9bf7a4	-1.2184949
9	0xbee78d42	-0.4522496
10	0xbdbfdb9f	-0.09368061
11	0xbe6b82d7	-0.2299913
12	0xbdbc0bb9	-0.091819234
13	0xbde93d79	-0.11388678
14	0xbe5562c3	-0.20838456
15	0xbeae38f1	-0.34027818
16	0xbc44c2e9	-0.012009361
17	0xbda9109a	-0.082551196
18	0xbdeaafd1	-0.114593156
19	0xbcd43635	-0.025904754
20	0xbe16559c	-0.14681095
21	0xbd08f93b	-0.03344081
22	0xbd139a0a	-0.036035575
23	0xbe492bf9	-0.1964568
24	0xbdaf3636	-0.08555262
25	0xbeaae71e	-0.33379453
26	0xbe2a71ca	-0.1664497
27	0xbe3c85cb	-0.18410413
28	0xbdf6c877	-0.120499544
29	0xbdfd8a1b	-0.12379857
30	0xbe11e7ea	-0.14248624
31	0xbdf6877d	-0.12037561
32	0xbe982ae8	-0.29720235
33	0xbc8bbb08	-0.017056957
34	0xbea6055d	-0.32425967
35	0xbde666eb	-0.11250099
36	0xbe6c67fa	-0.23086539
37	0xbe1da398	-0.15394437
38	0xbe070481	-0.13185312
39	0xbe3aed7f	-0.1825466
40	0xbe62c12e	-0.22144005
41	0xbe80429f	-0.25050828
42	0xbdab2ced	-0.08358178
43	0xbd212570	-0.039342344
44	0xbe2815df	-0.16414593
45	0xbdd8587d	-0.10563753
46	0xbe49ffc1	-0.19726469
47	0xbdc34e15	-0.09536377
48	0xbdef824c	-0.11694774
49	0xbe87bdbb	-0.2651194
50	0xbdcf2452	-0.101143494
51	0xbdb33bc8	-0.08751637
52	0xbe10b12d	-0.14130087
53	0xbe944753	-0.28960666
54	0xbe9e6555	-0.30936685
55	0xbd29a426	-0.04141631
56	0xbdd12f56	-0.10214107
57	0xbe0a497f	-0.13504599
58	0xbea824bd	-0.3284053
59	0xbe138b9b	-0.14408724
60	0xbe36fa66	-0.17868957
61	0xbdba6989	-0.091021605
62	0xbe12b21e	-0.14325759
63	0xbe90f68b	-0.28313097
64	0xbe985da7	-0.2975895
65	0xbd453c9d	-0.04815351
66	0xbe10242b	-0.14076297
67	0xbe23ed71	-0.16008545
68	0xbde577d4	-0.11204496
69	0xbd43fdb2	-0.047849365
70	0xbe9070da	-0.282111
71	0xbdccb045	-0.09994558
72	0xbe23b365	-0.15986402
73	0xbe1864c1	-0.14882185
74	0xbd767e56	-0.060179077
75	0xbdc53632	-0.096294776
76	0xbe290eb0	-0.16509509
77	0xbd7ad562	-0.061238654
78	0xbe6d9d0d	-0.23204441
79	0xbe216c1c	-0.15763897
80	0xbe286b2b	-0.16447131
81	0xbe919703	-0.28435525
82	0xbe8717b6	-0.26385278
83	0xbdce4ce7	-0.10073262
84	0xbdf36a9d	-0.11885569
85	0xbe4de0f8	-0.2010535
86	0xbd89455d	-0.06702683
87	0xbe0ddd64	-0.13853985
88	0xbd9ce673	-0.07661142
89	0xbe114071	-0.14184739
90	0xbda74ca5	-0.08168916
91	0xbd4b419b	-0.049623113
92	0xbe58fd3f	-0.21190356
93	0xbe32ca75	-0.17460044
94	0xbe4c6fb4	-0.19964486
95	0xbd977c06	-0.073967025
96	0xbdd10b15	-0.10207192
97	0xbe42a654	-0.19008762
98	0xbe28d13c	-0.16486067
99	0xbe20e54c	-0.1571247
100	0xbd8e2e15	-0.06942383
101	0xbccbd481	-0.024881603
102	0xbd0d5500	-0.03450489
103	0xbe4bc586	-0.19899568
104	0xbdd97f76	-0.10620014
105	0xbc998971	-0.018742295
106	0xbd419166	-0.047257803
107	0xbdc602bc	-0.0966849
108	0xbddd6579	-0.1081037
109	0xbd002138	-0.03128168
110	0xbe72b6d6	-0.23702559
111	0xbe5cd319	-0.21564902
112	0xbd8e74e9	-0.069558926
113	0x3da6c2a5	0.08142594
114	0xbdd35a2c	-0.10319933
115	0xbd7d43a0	-0.06183207
116	0xbc922260	-0.017838657
117	0xbe12627e	-0.14295384
118	0xbd17e1b0	-0.037080467
119	0xbe7363d9	-0.23768558
120	0xbe7e5ecd	-0.24840851
121	0xbde5c4fe	-0.11219214
122	0xbe0e1906	-0.13876733
123	0xbda4513e	-0.08023308
124	0xbc738678	-0.014863603
125	0xbefc5c07	-0.4928896
126	0x3c6fed22	0.014643939
127	0xbe3fb1d3	-0.18720178
128	0xbdc5b767	-0.09654122
129	0xbdfc3d16	-0.12316339
130	0xbd80b1ad	-0.06283889
131	0xbe129681	-0.14315225
132	0xbe4e6dc4	-0.2015906
133	0xbe255bad	-0.16148253
134	0xbd8e2527	-0.0694068
135	0xbdff46f3	-0.12464704
136	0xbda65a02	-0.081226364
137	0xbe2e6804	-0.17031866
138	0x3c1077d9	0.008817636
139	0xbe07ec7a	-0.13273802
140	0xbdacb899	-0.08433647
141	0xbd54b972	-0.051934667
142	0xbd97ace6	-0.07406025
143	0xbd246cb9	-0.04014275
144	0xbd08e85e	-0.033424728
145	0x3c668614	0.014070053
146	0xbd09f395	-0.033679564
147	0xbdfe065e	-0.12403558
148	0xbd0d0951	-0.034432713
149	0xbe149f9a	-0.14514008
150	0xbe15a8ff	-0.14615248
151	0xbe963bc2	-0.29342467
152	0xbe194a0b	-0.14969651
153	0xbdb6772d	-0.0890945
154	0xbdcef86f	-0.10105979
155	0xbe0cac2b	-0.13737552
156	0x3c21ba7f	0.009871124
157	0xbe1590d6	-0.14606032
158	0xbdf7f618	-0.121074855
159	0xbda26e9c	-0.07931253
160	0xbd95387f	-0.072861664
161	0xbcfda256	-0.030961197
162	0xbe0f14f0	-0.13972831
163	0xbe2f7815	-0.17135651
164	0xbe349e91	-0.17638613
165	0xbddcf579	-0.10789008
166	0xbe253244	-0.16132456
167	0xbdb10f5d	-0.086455084
168	0xbdc81042	-0.09768726
169	0xbea4966d	-0.32146016
170	0xbe18cbaa	-0.14921442
171	0x3c459b47	0.012060947
172	0xbd8c7ce3	-0.06859758
173	0xbe25d0ef	-0.16192983
174	0xbdd71742	-0.10502483
175	0xbe0905de	-0.13381144
176	0xbdec06d7	-0.11524742
177	0xbdad2045	-0.084534205
178	0xbe339ae9	-0.17539562
179	0xbdaa451c	-0.08313963
180	0xbcd4d22b	-0.025979122
181	0xbddb48cf	-0.107072465
182	0x3d6ed3e7	0.058307555
183	0xbd949817	-0.07255571
184	0xbe09b92c	-0.13449544
185	0xbe775a98	-0.24155653
186	0xbe40f574	-0.18843633
187	0xbdc94e8b	-0.09829434
188	0x3d659129	0.05604664
189	0xbe57b3c4	-0.21064669
190	0xbe1571fd	-0.14594264
191	0xbdb99cfa	-0.09063144
192	0xbd97207d	-0.073792435
193	0xbe01334c	-0.12617224
194	0x3d7c9b41	0.0616715
195	0xbe0622ba	-0.13099185
196	0xbda27132	-0.079317465
197	0xbdc3b21d	-0.09555457
198	0xbdc0dfe3	-0.09417703
199	0xbd94d346	-0.0726686
200	0xbd8e1d40	-0.06939173
201	0xbc199f16	-0.009376308
202	0xbd2779f4	-0.040887788
203	0x3dce5c5f	0.10076212
204	0xbc94f995	-0.018185416
205	0xbca0090b	-0.019535562
206	0x3ca256eb	0.019816836
207	0xbd5c4615	-0.053777773
208	0xbe076b25	-0.13224466
209	0xbd97200b	-0.073791586
210	0xbdbca58f	-0.09211265
211	0xbe160fc9	-0.14654459
212	0xbe1ef142	-0.1552172
213	0xbe4a7e27	-0.19774686
214	0xbe0a98d4	-0.13534862
215	0xbd8c82b9	-0.06860871
216	0xbd19dc74	-0.037563756
217	0xbe11c760	-0.14236212
218	0xbda449bc	-0.08021876
219	0xbda08c3e	-0.07839249
220	0xbe28e95e	-0.16495273
221	0xbddbbeb4	-0.10729733
222	0xbd2cdbee	-0.04220193
223	0xbdfb8128	-0.12280494
224	0x3cd22327	0.025651528
225	0xbc332cbb	-0.010935958
226	0xbd1cfa11	-0.03832442
227	0xbdc69202	-0.096958175
228	0xbe092191	-0.13391711
229	0xbcbb61d6	-0.0228738
230	0xbdb2594d	-0.08708439
231	0xbe09ea50	-0.1346829
232	0xbdc64abe	-0.09682225
233	0xbc43cdc4	-0.011950914
234	0xbd4b2a7f	-0.049601074
235	0xbd355268	-0.04426804
236	0xbdd418f7	-0.10356324
237	0xbd7a6b8d	-0.061137725
238	0xbe2c9454	-0.16853458
239	0xbd797d52	-0.06091053
240	0xbe2814dc	-0.16414207
241	0xbe5e9903	-0.21738057
242	0xbd80f60f	-0.06296932
243	0xbe8eb317	-0.2787101
244	0xbdac5375	-0.08414356
245	0xbdc5b27e	-0.09653185
246	0xbd959196	-0.07303159
247	0xbda6b421	-0.081398256
248	0xbdbf925c	-0.09354088
249	0xbd8f9d2f	-0.07012402
250	0xbdb6d3c6	-0.08927111
251	0xbd60b63c	-0.054861292
252	0xbcefb6b7	-0.02926193
253	0xbd1d8f46	-0.038466714
254	0xbdba1cd6	-0.09087531
255	0xbd7e5bee	-0.06209939
