models/OMISTL_MPC_8.pt (torch_old, 502957 bytes, 8 tensors)

layers.0.weight f4 [128, 8]
0.3586639 0.2597622 1.3440893 0.48743826 0.15089083 -0.17661902 -0.47353303 -0.20664886
-0.6827429 -0.4567355 1.3102497 0.25835502 0.24774268 0.3374994 -0.49907744 -0.06833379
-0.97237885 0.07416176 -3.7798276 0.10548891 0.038887203 0.04857248 -0.07166265 -0.045410294
0.38392553 0.45140362 1.5279013 0.76436704 -0.36061692 -0.0066351937 0.80388 0.51091087
0.35486853 -0.115820624 0.544044 -1.4078659 -0.4114994 0.5404766 0.5425568 -0.84093016
-0.22238557 0.23072517 0.1707857 0.37997314 -0.02658639 -0.042981423 -0.5489719 -0.5804825
-0.871515 0.034403272 -1.1167636 0.36669204 0.10232471 0.1469624 -0.16194814 0.8232997
-0.03400834 0.759194 -0.22981267 1.26997 0.004386527 0.21341959 -0.105340615 0.06823816
0.10778302 -0.068932384 -0.61041117 -1.0269226 -0.09565652 -0.11752693 -0.6127013 -0.53658307
0.00466163 0.062361207 -0.6703102 -2.32837 0.0421735 0.23182285 0.06737248 0.26253158
-0.18320023 -0.13249607 -0.5308293 -0.23256046 -0.07501411 0.1903304 -0.007054268 -1.1766075
-0.0446786 0.10899533 -0.31173423 -0.0023941682 0.08063697 0.09040666 -0.20485379 -0.44878185
-0.8368987 -0.022918036 -1.2088248 -0.084190495 0.18954049 0.09969127 0.3516644 -0.43781766
-0.33422276 -1.1190473 -1.1627036 1.607408 0.1923428 0.44756213 0.13484085 0.07464298
0.1614907 -0.341209 0.20303465 -0.3337475 -0.0055994177 -0.01167127 -0.25381243 -0.27258885
0.274256 -0.005696883 0.71777844 -0.204182 -0.45710987 -0.015529352 -0.37711805 -0.17380969
-0.33022648 -0.11382198 0.08027236 -0.7733542 0.083932325 -0.07656097 -0.86280644 0.024791181
0.3247233 -0.2974161 0.9578189 -0.52807736 0.088078044 0.3228643 0.22857168 0.89982677
-0.04286648 -0.14108345 -0.25851163 -0.67480165 0.060249794 -0.13757066 0.41776863 -0.32136884
-0.016944148 -0.0372073 1.2214304 0.7780708 -0.02391118 0.012234048 -0.4551008 0.4032113
-0.3821124 0.08719489 -1.1438347 0.9493446 0.4850573 -0.108484834 0.42954633 0.6114359
0.04626902 -0.024932921 -0.33437568 1.2505536 0.040851466 -0.23230328 0.9618459 0.2858108
0.37609318 -0.6234683 -0.5762871 -0.3375566 0.48250103 -0.05755214 0.10198217 0.18891382
0.29571408 0.33272 -1.8484185 0.74916404 0.044672817 -0.53729165 -0.011075139 0.24058597
-0.44168508 -0.07237265 -0.8217178 -0.16882095 0.4102056 0.286748 0.11668753 -0.94609535
0.090504326 -0.54322666 0.8313521 -1.6227806 0.0050344267 0.51343995 0.12081149 0.08615261
-0.27536204 0.121173404 0.84842443 -0.5601619 -1.8530753 0.3769689 1.1419777 1.3226727
-0.3222392 0.14742212 0.1080605 0.78566796 -0.017445648 0.2553893 0.02493915 0.44167438
-0.06303542 -0.88152075 0.2634098 -1.3192699 -0.027581466 0.759158 0.1535317 1.359688
-0.25045726 0.49978256 0.19520892 0.38996977 0.17261109 -0.40937206 0.3337948 -0.01778348
0.48429152 0.049215425 -0.0020638972 0.9000388 0.16184573 -0.012341753 0.5291966 -0.3592024
0.17904194 0.43995333 -0.43937707 0.47824344 0.049897905 0.17312813 -0.12098253 -0.22793601
00000000: cba2 b73e 8dff 843e 1e0b ac3f 8291 f93e
00000010: 2083 1a3e 9edb 34be ec72 f2be c29b 53be
00000020: 3dc8 2ebf 3cd9 e9be 43b6 a73f 1c47 843e
00000030: 42b0 7d3e b9cc ac3e 1487 ffbe 96f2 8bbd
00000040: d2ed 78bf 1fe2 973d b2e8 71c0 920a d83d
00000050: 3048 1f3d f0f3 463d dec3 92bd 2500 3abd
00000060: e391 c43e 601e e73e 4592 c33f 8fad 433f
00000070: c8a2 b8be 0a6c d9bb 14cb 4d3f 0ecb 023f
00000080: 54b1 b53e 5d33 edbd 7846 0b3f f334 b4bf
00000090: 0db0 d2be ad5c 0a3f 01e5 0a3f 3347 57bf
000000a0: 0bb9 63be 3843 6c3e 72e2 2e3e d78b c23e
000000b0: b3cb d9bc 4a0d 30bd 6c89 0cbf 809a 14bf
000000c0: 9b1b 5fbf 72ea 0c3d 1cf2 8ebf 0fbf bb3e
000000d0: 9e8f d13d 507d 163e bcd5 25be c5c3 523f
000000e0: 544c 0bbd 8a5a 423f 0354 6bbe 618e a23f
000000f0: dbbc 8f3b aa8a 5a3e d2bc d7bd 73c0 8b3d
00000100: 58bd dc3d 6c2c 8dbd e843 1cbf 3372 83bf
00000110: 91e7 c3bd f6b1 f0bd fed9 1cbf 825d 09bf
00000120: 96c0 983b 776e 7f3d 7399 2bbf 0404 15c0
00000130: 1fbe 2c3d f862 6d3e 95fa 893d 8a6a 863e
00000140: d798 3bbe 0dad 07be 6ee4 07bf 5424 6ebe
00000150: ffa0 99bd f9e5 423e 7d27 e7bb 139b 96bf
00000160: e800 37bd f238 df3d a19b 9fbe 7ae7 1cbb
00000170: ff24 a53d 2127 b93d 31c5 51be bcc6 e5be
00000180: fe3e 56bf 9bbe bbbc c5ba 9abf 116c acbd
00000190: e716 423e f02a cc3d 5b0d b43e a329 e0be
000001a0: 3f1f abbe f13c 8fbf 79d3 94bf 8cbf cd3f
000001b0: 83f5 443e dd26 e53e b813 0a3e 6bde 983d
000001c0: d15d 253e f2b2 aebe 51e8 4f3e f4e0 aabe
000001d0: 527b b7bb db38 3fbc b4f3 81be c490 8bbe
000001e0: 486b 8c3e ebac babb 54c0 373f 1615 51be
000001f0: 4e0a eabe d36e 7ebc 9e15 c1be 2bfb 31be
00000200: 7213 a9be 801b e9bd d665 a43d 8afa 45bf
00000210: b6e4 ab3d ffcb 9cbd e2e0 5cbf e016 cb3c
00000220: 2242 a63e ec46 98be 9f33 753f 1430 07bf
00000230: 4362 b43d 784e a53e b20e 6a3e 0c5b 663f
00000240: c394 2fbd 2e78 10be a35b 84be cdbf 2cbf
00000250: 7dc8 763d 53df 0cbe c5e5 d53e 758a a4be
00000260: 74ce 8abc af66 18bd d557 9c3f a62f 473f
00000270: 61e1 c3bc 5171 483c f902 e9be b671 ce3e
00000280: 3da4 c3be 3c93 b23d 2d69 92bf 3f08 733f
00000290: 6e59 f83e 4c2d debd 7fed db3e 1087 1c3f
000002a0: 9584 3d3d 2040 ccbc 4a33 abbe 2412 a03f
000002b0: de53 273d e9e0 6dbe 883b 763f cb55 923e
000002c0: 498f c03e 9e9b 1fbf 8d87 13bf 38d4 acbe
000002d0: 600a f73e cbbb 6bbd 07dc d03d a072 413e
000002e0: d667 973e 475a aa3e fa98 ecbf 37c9 3f3f
000002f0: d8fa 363d f28b 09bf 8074 35bc 2b5c 763e
00000300: 8c24 e2be 1d38 94bd 195c 52bf 66df 2cbe
00000310: 7806 d23e a2d0 923e dff9 ee3d 4e33 72bf
00000320: 555a b93d e710 0bbf 7ed3 543f 46b7 cfbf
00000330: d5f7 a43b cd70 033f 046c f73d c870 b03d
00000340: 41fc 8cbe c329 f83d 5832 593f c566 0fbf
00000350: 9231 edbf 1102 c13e 532c 923f 574d a93f
00000360: 89fc a4be d3f5 163e d34e dd3d 8921 493f
00000370: 2dea 8ebc 63c2 823e 304d cc3c 2523 e23e
00000380: b718 81bd 58ab 61bf a6dd 863e d6dd a8bf
00000390: 87f2 e1bc 2e58 423f 6a37 1d3e 420a ae3f
000003a0: ef3b 80be 80e3 ff3e d9e4 473e 1eaa c73e
000003b0: f6c0 303e 3799 d1be 27e7 aa3e a9ae 91bc
000003c0: 0ff5 f73e 1d96 493d 7342 07bb f168 663f
000003d0: e3ba 253e 1035 4abc 6e79 073f 61e9 b7be
000003e0: c556 373e 9041 e13e 08f6 e0be 53dc f43e
000003f0: bf61 4c3d 8048 313e b0c5 f7bd 0f68 69be

layers.0.bias f4 [128]
-0.49661434 0.8053852 0.39554128 -0.860416 -0.40412888 0.88187957 0.8609867 -1.1856045
0.59679383 -0.3142931 0.94953513 -0.10413236 0.93252563 0.50880194 0.69271207 0.48920053
0.9675178 -0.54519725 0.7667687 0.29334307 0.194577 0.34796974 -0.4472751 -0.1506574
-0.11367648 0.23646317 0.67628884 0.93328303 -0.32874295 0.46366832 -0.5803228 -1.1098073
1.1075486 0.8198618 1.77424e-40 0.003957211 -0.4075608 -0.010500271 0.3257906 -0.2144743
0.26246938 1.0717777 0.3341846 -0.48889688 -0.637164 -0.047243766 -0.08919649 -0.14526056
0.92288625 0.276079 0.30169624 0.69677526 -0.40037063 -0.3993296 -0.0037576368 -1.0882386
-0.0062261876 -0.59086186 0.96720666 0.7041141 0.2581325 0.10296431 -0.0034075794 -0.5839192
0.4323308 -0.3656272 -0.2482426 -0.5088601 0.555218 0.033227086 0.21264006 -0.19897752
-0.39945084 -0.26061663 -0.36695126 0.5625201 -0.48738733 -0.26037878 1.0512938 -0.76757324
-0.47139058 -0.2567931 -0.26659137 -0.41700056 -0.10472119 0.24150914 1.0652951 -2.4812856e-16
-0.00038243554 1.0776852 0.7017483 -0.6468607 -0.560983 0.21900727 0.37367916 0.8652616
0.20206201 1.203255 0.68020517 0.7807526 0.2119429 0.1406139 -1.1655443 -0.53634155
1.0418168 0.19634953 -0.2986544 -0.22422798 0.7053433 -0.048307765 -0.15237579 -0.68785626
0.17043649 -1.0624162 0.7203164 0.7495679 0.7812929 -0.12903929 -1.1873082 -0.6512133
-0.4797451 -0.62211514 -0.67079645 0.1677387 0.2284455 -0.6697096 0.7099177 -8.1648075e-05
00000000: 3c44 febe b92d 4e3f 6384 ca3e 3944 5cbf
00000010: fbe9 cebe dcc2 613f a069 5c3f e3c1 97bf
00000020: 7bc7 183f 06eb a0be bc14 733f 5943 d5bd
00000030: 00ba 6e3f d840 023f 9455 313f 7e78 fa3e
00000040: 3faf 773f 0c92 0bbf f44a 443f 1031 963e
00000050: 313f 473e 1729 b23e 3e01 e5be ef45 1abe
00000060: 37cf e8bd 6723 723e 4421 2d3f a3eb 6e3f
00000070: ff50 a8be ef65 ed3e 0990 14bf 2a0e 8ebf
00000080: 27c4 8d3f 77e2 513f 96ee 0100 7eab 813b
00000090: cfab d0be 5409 2cbc 07ce a63e 279f 5bbe
000000a0: 6362 863e 0330 893f 3e1a ab3e b150 fabe
000000b0: 2e1d 23bf ae82 41bd a6ac b6bd 2fbf 14be
000000c0: 4642 6c3f 3a5a 8d3e ee77 9a3e dd5f 323f
000000d0: 61fd ccbe ee74 ccbe af42 76bb 674b 8bbf
000000e0: 0c05 ccbb b942 17bf db9a 773f d240 343f
000000f0: f129 843e f4de d23d b251 5fbb bb7b 15bf
00000100: 765a dd3e 7d33 bbbe 4f33 7ebe a844 02bf
00000110: c422 0e3f 2019 083d 51be 593e c3c0 4bbe
00000120: d284 ccbe 8b6f 85be 09e1 bbbe 5101 103f
00000130: d58a f9be 5e50 85be cc90 863f ae7f 44bf
00000140: 1b5a f1be 637a 83be aa7e 88be 1981 d5be
00000150: 1078 d6bd 2c4e 773e 975b 883f 5009 8fa5
00000160: a181 c8b9 97f1 893f c7a5 333f aa98 25bf
00000170: 959c 0fbf 7143 603e e052 bf3e c981 5d3f
00000180: 58e9 4e3e 4304 9a3f ed21 2e3f 67df 473f
00000190: 8f07 593e 17fd 0f3e 8e30 95bf ae4d 09bf
000001a0: 415a 853f da0f 493e 3be9 98be 059c 65be
000001b0: 6191 343f 5dde 45bd 6608 1cbe 5917 30bf
000001c0: e786 2e3e 41fd 87bf a866 383f afe3 3f3f
000001d0: d002 483f e022 04be b7f9 97bf eab5 26bf
000001e0: 26a1 f5be f042 1fbf 51b9 2bbf b2c3 2b3e
000001f0: 9eed 693e 1772 2bbf 2bbd 353f 7a3a abb8

layers.1.weight f4 [128, 128]
0.052693233 0.12870587 -0.8016964 -0.19693372 0.018394629 0.2286095 0.11934715 -0.5806801
0.32737583 -0.21950188 0.48212838 -0.006117793 0.024742665 -0.021927543 0.47953936 0.16167161
-0.24134833 -0.01548404 0.16771433 0.093451895 -0.009664395 0.0648436 0.271617 0.073294036
-0.09494864 0.22617926 0.23727754 0.21815391 0.002145845 0.2645265 -0.074729316 -0.2205346
-0.39746362 -0.3673257 5.4621e-40 0.27843148 -0.029850751 -0.015002837 0.10671042 0.118400626
0.16419664 0.21318857 0.1546872 0.13692318 -0.17450832 -0.06878513 0.16851391 -0.05315915
0.27984664 -0.0027008187 -0.06995946 -0.10523713 -0.07982932 -0.20271714 7.932902e-05 -0.14856209
-0.0077177244 0.19892004 0.49468085 0.27182406 -0.016339172 0.05332935 -0.0075642876 -0.001169525
0.13562165 0.06937355 -0.4078279 -0.1869499 0.012071744 0.03629427 0.2868821 0.0189769
-0.6781915 -0.12527417 -0.5310797 0.114724666 -0.14060634 -0.089477286 0.4388502 -0.3278806
0.0053109676 0.1413847 -0.5153498 -0.14978556 -0.41182846 -0.13347965 -0.08581555 4.4168035e-23
8.088761e-05 0.3991863 -0.18372642 -0.4623188 -0.47034562 0.1055221 0.11039905 0.3577483
0.049064174 -0.87072146 0.17237078 -0.22218628 -0.078826435 -0.079776496 -0.283487 -0.018097825
-0.083102524 -0.13909388 -0.24633001 0.2175567 0.20882006 0.06517038 0.10185671 -0.1583601
0.06910797 -0.05703145 -0.46636397 0.24274635 -0.53346926 -0.22974902 -0.5947093 -0.085899174
0.048832178 -0.26565966 0.07486364 -0.05124698 0.11364052 -0.15211561 0.38933387 1.0422542e-07
0.34306547 -0.38777438 -0.011256813 0.026205247 -0.16060546 0.11775383 -1.0660306 0.328371
0.0022936969 0.19791254 -0.076651506 -0.0022155875 -0.7198183 -0.70554763 0.03277728 -0.37408495
-0.043006588 0.11157851 0.046937607 0.39634407 0.06607602 0.023614181 0.15024734 0.46910676
0.108208045 0.02076942 -0.15046883 0.17088708 0.4025407 0.28824687 -0.055631004 0.18231244
-0.6877947 -0.3587885 -5.76259e-40 -0.11751266 0.14143442 0.08301015 -0.054400176 0.3349363
9.6441814e-05 -0.3323438 0.23921552 -0.21285073 0.17565796 -0.5322213 0.019689221 0.08044966
-0.106894076 0.018664923 0.3545439 0.12184685 -0.44766033 -0.0572244 -0.00055297225 0.22612572
-0.0072492333 0.07222149 -0.053523682 -0.20468703 -0.88700557 0.39797175 -0.003973819 -0.37697947
0.23926018 -0.09268955 0.3566489 0.68113995 -0.04312642 0.059025675 -0.23800783 0.1933499
0.01443758 0.115897454 0.09918497 -0.32058868 0.08559842 0.23114476 -0.115709946 -0.12391364
-0.04876244 0.19853091 -0.14906354 0.029941441 -0.06294378 0.31462216 -1.0544704 3.03877e-40
3.3062488e-14 0.15787914 -0.24134333 0.3540812 0.60656494 -0.024124723 -0.08568234 0.59540147
-0.01227112 -0.042985678 0.2928938 -0.2304665 -0.020949418 0.22491391 -0.2501044 0.42623234
-0.9625198 -0.20352061 -0.3913374 0.05653978 -0.046349127 0.1284038 0.25301284 0.15025833
-0.18986034 0.011862992 -0.27161634 -0.06365219 0.18493374 0.03258285 0.03481085 0.01998713
0.21514784 -0.0007137477 -0.05422781 0.21468203 -0.54734766 -0.3901348 0.47049072 4.8945304e-29
00000000: dcd4 573d 79cb 033e fa3b 4dbf fea8 49be
00000010: 55b0 963c 9c18 6a3e 476c f43d 73a7 14bf
00000020: ce9d a73e 1ac5 60be 88d9 f63e c477 c8bb
00000030: 21b1 ca3c 64a1 b3bc 2f86 f53e 3e8d 253e
00000040: 0424 77be c5b0 7dbc 4ebd 2b3e b563 bf3d
00000050: 6957 1ebc b9cc 843d 6211 8b3e 2f1b 963d
00000060: 6f74 c2bd 899b 673e e2f8 723e bd63 5f3e
00000070: 4ea1 0c3b 0470 873e af0b 99bd d2d3 61be
00000080: 5a80 cbbe 1d12 bcbe 9cf2 0500 928e 8e3e
00000090: 9089 f4bc 76ce 75bc fe8a da3d 077c f23d
000000a0: 2a23 283e 1b4e 5a3e 5266 1e3e 9735 0c3e
000000b0: 4fb2 32be 38df 8cbd e98e 2c3e 69bd 59bd
000000c0: 0f48 8f3e 3800 31bb e846 8fbd 9086 d7bd
000000d0: 8e7d a3bd 1595 4fbe 715d a638 a920 18be
000000e0: f7e4 fcbb b2b1 4b3e cf46 fd3e 862c 8b3e
000000f0: bad9 85bc e06f 5a3d d8dd f7bb bf4a 99ba
00000100: 67e0 0a3e b813 8e3d d2ce d0be cb6f 3fbe
00000110: 90c8 453c 4da9 143d 36e2 923e 7275 9b3c
00000120: f59d 2dbf df47 00be d7f4 07bf c4f4 ea3d
00000130: 1cfb 0fbe de3f b7bd f9b0 e03e f7df a7be
00000140: a007 ae3b 27c7 103e f7ed 03bf 6361 19be
00000150: 2edb d2be e4ae 08be 10c0 afbd 6195 551a
00000160: 34a2 a938 2662 cc3e c722 3cbe 0db5 ecbe
00000170: 24d1 f0be f91b d83d e618 e23d c92a b73e
00000180: 84f7 483d 9ae7 5ebf f781 303e cd84 63be
00000190: c16f a1bd dc61 a3bd 3525 91be e441 94bc
000001a0: a831 aabd a06e 0ebe ef3d 7cbe 2fc7 5e3e
000001b0: edd4 553e 0c78 853d 409a d03d 2629 22be
000001c0: 7b88 8d3d cf99 69bd 42c7 eebe 8092 783e
000001d0: 7191 08bf 5443 6bbe de3e 18bf e8eb afbd
000001e0: 4004 483d 8b04 88be 1c52 993d 5ae8 51bd
000001f0: 5cbc e83d 32c4 1bbe c556 c73e 88d2 df33
00000200: 47a6 af3e 5d8a c6be 7f6e 38bc 63ac d63c
00000210: c275 24be ec28 f13d b173 88bf 3e20 a83e
00000220: d951 163b 96a9 4a3e 77fb 9cbd 6433 11bb
00000230: 0346 38bf c59e 34bf 7841 063d 1088 bfbe
00000240: ad27 30bd 4683 e43d a641 403d 9ced ca3e
00000250: dd52 873d 8772 c13c 70da 193e c32e f03e
00000260: 2e9c dd3d a124 aa3c 8014 1abe 06fd 2e3e
00000270: d119 ce3e 1895 933e 56dd 63bd 1db0 3a3e
00000280: 5013 30bf 20b3 b7be 6046 0680 7aaa f0bd
00000290: 2fd4 103e 3a01 aa3d b8d2 5ebd c57c ab3e
000002a0: ce40 ca38 f728 aabe eaf4 743e 8bf5 59be
000002b0: aedf 333e a83f 08bf 4a4b a13c cbc2 a43d
000002c0: 48eb dabd 2ee7 983c c786 b53e d78a f93d
000002d0: bc33 e5be 2264 6abd 57f5 10ba 808d 673e
000002e0: fa8a edbb dce8 933d a63b 5bbd 7a99 51be
000002f0: cc12 63bf f4c2 cb3e cf36 82bb 7403 c1be
00000300: 9f00 753e 05d4 bdbd af9a b63e 305f 2e3f
00000310: 54a5 30bd e8c4 713d 53b8 73be 84fd 453e
00000320: 998b 6c3c a55b ed3d 7d21 cb3d 3324 a4be
00000330: 394e af3d 36b1 6c3e 56f9 ecbd 6fc6 fdbd
00000340: 20bb 47bd b04b 4b3e 1da4 18be c147 f53c
00000350: abe8 80bd 2816 a13e e3f8 86bf 164f 0300
00000360: 74e6 1429 12ab 213e b522 77be 224a b53e
00000370: d747 1b3f 36a1 c5bc 397a afbd 3b6c 183f
00000380: cf0c 49bc c011 30bd 2df6 953e 69ff 6bbe
00000390: 1d9e abbc d54f 663e af0d 80be 203b da3e
000003a0: b367 76bf b567 50be 605d c8be 4296 673d
000003b0: 95d8 3dbd 497c 033e e68a 813e 52dd 193e
000003c0: c06a 42be ff5c 423c 4c11 8bbe 145c 82bd
000003d0: 455f 3d3e 9875 053d d295 0e3d 0dbc a33c
000003e0: b74f 5c3e cc1a 3bba fb1d 5ebd 9bd5 5b3e
000003f0: fa1e 0cbf c0bf c7be 29e4 f03e a32e 7810

layers.1.bias f4 [128]
0.34271207 0.10140142 -0.0051020696 -1.1357756e-05 0.2556639 -0.5538238 0.27554208 0.17340106
-0.038065463 0.30448794 -0.16332038 0.0068957405 0.18272677 0.3436645 0.34556603 0.21833757
0.29435557 -7.414765e-05 0.4426636 0.21543454 0.23018184 0.053457197 -0.27092132 0.24271403
0.3573966 -6.9854373e-06 -0.004967034 0.16401438 -0.0023511506 0.24160542 0.07877792 0.20831816
0.07442585 0.22155543 0.15165786 -0.7769113 -0.0020969142 -4.3248396e-13 0.35719278 0.51723546
0.17456812 0.14237916 -0.008691404 -0.12548868 0.2608344 -0.27161998 -0.77243096 0.053807672
-0.504843 -0.36693832 0.2630913 -0.18788812 0.3157832 0.39704853 0.17559862 0.33277717
-0.084723234 0.390864 -0.09731291 0.28341034 0.22153673 0.22488636 -0.070024684 0.14808121
0.081271544 0.3038192 0.23677705 0.028393202 -0.00653364 0.24527352 0.19073829 -0.016657643
-0.026835248 0.29650176 0.052353773 0.31462085 0.0114139 0.10683277 0.1990826 0.07463533
0.16708669 -0.0021328467 0.004258408 0.16183443 0.022175733 0.20012894 0.053777505 0.20786354
0.12520666 0.119238295 -0.009703452 0.0907741 0.25901338 0.19926606 0.07512331 0.13372152
0.17070863 0.28754628 0.26184505 -0.009735263 0.28401512 0.21592467 0.08769496 -0.25591248
-6.7284316e-09 -9.7857285e-11 0.030130915 0.16065514 -0.34804797 0.34316462 0.22238731 0.18250458
-0.26026177 -0.015835423 0.23172052 0.16483788 0.2327821 0.32552198 0.32399765 0.17612647
0.017958641 0.37786305 0.2774991 -0.25935662 0.12447164 -0.07237709 -0.06952687 0.14960325
00000000: f577 af3e 8cab cf3d 432f a7bb 318d 3eb7
00000010: 61e6 823e 66c7 0dbf da13 8d3e 0c90 313e
00000020: 88ea 1bbd d8e5 9b3e 753d 27be aaf5 e13b
00000030: ba1c 3b3e cbf4 af3e 08ee b03e e293 5f3e
00000040: c6b5 963e b77f 9bb8 cea4 e23e df9a 5c3e
00000050: cab4 6b3e eff5 5a3d 33b6 8abe 078a 783e
00000060: b0fc b63e 7364 eab6 80c2 a2bb 63f3 273e
00000070: c315 1abb 6967 773e 5156 a13d 5b51 553e
00000080: 946c 983d 6ddf 623e 334c 1b3e a9e3 46bf
00000090: 626c 09bb 8277 f3aa f9e1 b63e 8b69 043f
000000a0: fcc1 323e d8cb 113e 6466 0ebc 1b80 00be
000000b0: 168c 853e c611 8bbe 09be 45bf 6f65 5c3d
000000c0: 643d 01bf 57df bbbe e7b3 863e be65 40be
000000d0: 56ae a13e f249 cb3e 20d0 333e c561 aa3e
000000e0: 6083 adbd 541f c83e fe4b c7bd 291b 913e
000000f0: 86da 623e 9c48 663e 1a69 8fbd 9aa2 173e
00000100: b271 a63d 318e 9b3e af75 723e dc98 e83c
00000110: 2518 d6bb fb28 7b3e e650 433e 9c75 88bc
00000120: 98d5 dbbc 14cf 973e e970 563d fc15 a13e
00000130: 5e01 3b3c 24cb da3d 4fdc 4b3e 68da 983d
00000140: c618 2b3e 3bc7 0bbb 1e8a 8b3b edb7 253e
00000150: e2a9 b53c 9aee 4c3e cd45 5c3d 2eda 543e
00000160: 2d36 003e 3533 f43d 3afb 1ebc c5e7 b93d
00000170: 679d 843e 670c 4c3e 40da 993d 4bee 083e
00000180: 3ece 2e3e 4439 933e 8e10 863e a780 1fbc
00000190: 6e6a 913e 5b1b 5d3e 6a99 b33d f606 83be
000001a0: e92f e7b1 c130 d7ae 1cd5 f63c c882 243e
000001b0: 5833 b2be 46b3 af3e 80b9 633e 7be2 3a3e
000001c0: 0841 85be 4ab9 81bc 2548 6d3e 43cb 283e
000001d0: 6e5e 6e3e d1aa a63e 05e3 a53e 7f5a 343e
000001e0: 001e 933c 4477 c13e 5d14 8e3e 64ca 84be
000001f0: fdea fe3d 713a 94bd 1b64 8ebd 9831 193e

layers.2.weight f4 [128, 128]
-4.3607e-40 -1.3127552e-29 -2.42825e-40 1.94199e-40 6.88088e-40 -4.317433e-08 1.76526e-40 -3.87225e-40
-6.74039e-40 2.48515e-40 -2.6339527e-19 -2.17573e-40 -2.283411e-23 5.72736e-40 3.3346715e-37 -2.8172847e-31
-3.00413e-40 7.63577e-40 1.33461e-40 -4.0542675e-33 4.88823e-40 -3.7213756e-11 -6.79833e-40 -2.5974e-41
-2.21325e-40 -2.72418e-40 -8.56717e-40 -2.62776e-40 -6.75374e-40 -2.76507e-40 -4.90693e-40 5.9788e-41
-4.39467e-40 3.27416e-40 1.55679e-40 -3.41952e-40 9.38416e-40 5.25046e-40 5.15709e-40 -4.19947e-40
-4.9254e-40 6.0909e-40 -1.0652988e-14 -6.1339376e-21 -1.8720177e-33 -7.1153295e-07 -7.50875e-40 -3.05302e-40
-3.9456832e-08 -7.03627e-40 -2.05862e-40 -1.13239735e-17 -2.72546e-40 6.13814e-40 -4.15517e-40 7.49755e-40
-2.6689256e-27 1.3103e-40 -4.9518094e-36 -3.91754e-40 -4.79458e-40 -1.92948e-40 8.5052e-41 -2.5637722e-31
7.43791e-39 -4.97412e-40 2.88894e-40 -2.0402684e-20 9.95275e-40 -6.43195e-40 1.52328e-40 -8.59198e-40
-2.4244204e-19 -2.1343233e-21 3.48804e-40 -6.35822e-40 -8.807949e-15 6.8276e-40 2.61121e-40 -1.38687e-40
-5.7841e-41 -5.156172e-19 -4.28605e-40 7.16831e-40 2.33894e-40 -8.474795e-31 6.27892e-40 5.87314e-40
2.13027e-40 -6.86325e-40 1.33916e-40 -2.118918e-10 5.7131e-40 1.85156e-40 -7.8588e-40 -4.54304e-40
7.79873e-40 4.36277e-40 -5.64565e-40 -7.31702e-40 -5.68456e-40 -5.29045e-40 3.21804e-40 -5.21786e-40
-6.46237e-40 -4.71451e-40 5.89018e-40 -4.756e-41 -1.1815221e-07 -4.7266982e-29 2.90181e-40 -1.4785295e-31
-2.2943233e-08 3.08494e-40 -1.2895102e-23 -1.33649e-40 -1.7632733e-24 -1.0161913e-27 -2.46609e-40 -3.88308e-40
-1.5847033e-12 5.60346e-40 3.0839445e-37 -7.104658e-08 -2.9788363e-11 -2.4289e-41 -5.3606184e-17 -6.92873e-40
-2.7517654e-08 -1.2254908e-14 9.20016e-40 -6.35918e-40 4.3469903e-16 -4.8898083e-11 -8.0516304e-07 -9.640668e-27
-1.6620415e-05 -1.9898978e-12 -1.6462059e-20 -2.7310328e-11 -6.7580923e-14 -6.6802393e-12 -1.4538511e-19 -8.520113e-18
-1.13236975e-10 3.04827e-40 -1.3308244e-08 -1.1879348e-10 3.85164e-40 -1.2961445e-12 -1.3261997e-24 -5.0913348e-26
-4.050119e-07 -9.11199e-40 -7.91285e-40 -2.442776e-17 -1.93699e-40 -7.331487e-11 -1.4341821e-21 -1.8930217e-07
-2.5427538e-10 -2.3870702e-17 -2.1680198e-07 -3.6410935e-12 -2.8951e-40 2.37677e-40 -1.1943261e-15 -7.670902e-07
-5.148243e-10 -2.5710501e-12 -3.3078369e-15 -6.581143e-08 -1.1719682e-20 -1.6073397e-08 6.60897e-40 -6.643047e-24
-3.4011315e-11 -1.2107052e-09 -2.3595172e-05 -4.039091e-18 -2.7147717e-09 -4.2920608e-08 -4.7143624e-07 -1.2701645e-07
-2.4441766e-07 -1.3475038e-13 -1.1671194e-13 -1.8313064e-12 -3.3709432e-10 -2.9639062e-22 7.980796e-17 -6.5453453e-13
-3.1434425e-08 -2.791839e-08 -1.5906396e-06 -2.5075929e-08 -7.78644e-40 -7.593041e-06 -1.391572e-19 8.41188e-40
-2.9727238e-09 1.372524e-24 -1.0087765e-15 -2.79678e-08 -1.2819395e-15 -9.820599e-07 -1.5462448e-14 -0.00012553035
-1.501841e-08 -3.6142255e-06 -4.6434784e-06 -2.574652e-16 -3.005243e-20 -1.3607572e-09 -5.927399e-07 -3.8090954e-07
-1.5086578e-13 -2.4712615e-06 -7.39541e-40 -2.6637158e-11 4.747455e-25 -6.298973e-10 -5.6785e-41 -7.2823207e-07
-5.330496e-07 -2.5604686e-07 -2.6893476e-28 -1.13934e-40 -1.2432538e-16 -6.5198294e-14 -7.719155e-07 -3.4671004e-06
9.67364e-40 3.78011e-40 -2.6432049e-06 -4.6734033e-22 -6.7359107e-10 -2.4034371e-17 -2.8433705e-21 -1.9387887e-18
-1.296624e-11 9.0418e-40 -1.0100634e-17 -6.3507185e-05 -1.5228753e-18 -2.6275713e-17 2.9063791e-18 -2.370892e-11
-5.970711e-10 -1.413718e-07 4.813169e-15 -3.170606e-09 -4.433472e-10 -4.3469882e-20 -3.7676218e-19 -1.186141e-06
00000000: 96bf 0480 1321 858f e6a4 0280 591d 0200
00000010: 1c7e 0700 ae6e 39b3 15ec 0100 6d37 0480
00000020: f256 0780 c2b4 0200 2b7b 9ba0 815e 0280
00000030: 85d6 dc99 8e3c 0600 2cf2 e202 2cda b68c
00000040: 6e45 0380 8b50 0800 0974 0100 5e68 a889
00000050: a452 0500 f7aa 23ae 1967 0780 6848 0080
00000060: f768 0280 64f7 0280 2e54 0980 83dc 0280
00000070: ab5a 0780 ca02 0380 da57 0580 aaa6 0000
00000080: 0ec9 0480 b490 0300 f8b1 0100 39b9 0380
00000090: ec37 0a00 9db7 0500 969d 0500 a492 0480
000000a0: 005d 0580 e5a1 0600 3ce8 3fa8 cebb e79d
000000b0: 6a85 1b89 2c00 3fb5 222d 0880 0f53 0380
000000c0: 3f77 29b3 6da9 0780 dc3d 0280 f4e3 50a3
000000d0: bff7 0280 10af 0600 4b86 0480 032a 0800
000000e0: 3e74 5393 426d 0100 6ea0 d284 0d44 0480
000000f0: 8938 0580 dc19 0280 17ed 0000 f965 a68c
00000100: defd 5000 956a 0580 5225 0300 aab2 c09e
00000110: 6cd6 0a00 f700 0780 a1a8 0100 185b 0980
00000120: ce1c 8fa0 d143 219d 53cc 0300 6aec 0680
00000130: 7fab 1ea8 426f 0700 e6d7 0200 9a82 0180
00000140: 3da1 0080 ef2e 18a1 c7aa 0480 3cce 0700
00000150: 008c 0200 ec82 898d 4fd6 0600 3165 0600
00000160: d551 0200 3279 0780 4e75 0100 3dfa 68af
00000170: 9438 0600 2404 0200 b78e 0880 6af2 0480
00000180: f87d 0800 2ac0 0400 c725 0680 b0f7 0780
00000190: a030 0680 c3c2 0580 0f81 0300 87ae 0580
000001a0: 7209 0780 3722 0580 f169 0600 9484 0080
000001b0: ddba fdb3 0dac 6f90 e828 0300 92ec 3f8c
000001c0: b414 c5b2 f55b 0300 746d 7999 8f74 0180
000001d0: 3a6d 0898 9e05 a192 72af 0280 723a 0480
000001e0: f406 dfab 041a 0600 e4e1 d102 4592 98b3
000001f0: b702 03ae b543 0080 0337 77a4 738b 0780
00000200: f65f ecb2 cac3 5ca8 a104 0a00 aeec 0680
00000210: 4196 fa25 590e 57ae 6222 58b5 fff3 3e94
00000220: 126c 8bb7 d006 0cac d17a 9b9e 6439 f0ad
00000230: c02d 98a9 3f0a ebac f4a3 2ba0 192b 1da3
00000240: c002 f9ae bc51 0300 47a2 64b2 649d 02af
00000250: ae31 0400 876a b6ab 2f38 cd97 561c 7c95
00000260: 6970 d9b4 0dec 0980 c89d 0880 6b4e e1a3
00000270: f41b 0280 9a38 a1ae 3cba d89c fc42 4bb4
00000280: 14ca 8baf 1a2b dca3 13ca 68b4 0e1c 80ac
00000290: 0927 0380 8c96 0200 db1e aca6 0aea 4db5
000002a0: 8a83 0db0 eceb 34ac d25a 6ea7 3754 8db3
000002b0: e860 5d9e c611 8ab2 5032 0700 c77e 0099
000002c0: 5695 15ae e765 a6b0 3fee c5b7 2304 95a2
000002d0: c58e 3ab1 b557 38b3 b419 fdb4 0462 08b4
000002e0: 8238 83b4 27b7 17aa ed67 03aa e2dd 00ac
000002f0: cf51 b9af 3a28 b39b 4e06 b824 2f3c 38ab
00000300: 8402 07b3 30d1 efb2 f67d d5b5 8d66 d7b2
00000310: 8b7a 0880 bac7 feb6 af49 24a0 e428 0900
00000320: b648 4cb1 4763 d417 4961 91a6 d83d f0b2
00000330: 38bf b8a6 52cf 83b5 fa45 8ba8 cca0 03b9
00000340: d501 81b2 ec8b 72b6 2dcf 9bb6 286b 94a5
00000350: 29eb 0d9f 6305 bbb0 c71c 1fb5 cf7f ccb4
00000360: 1adc 29aa f3d7 25b6 8a0d 0880 8c4d eaad
00000370: 37ed 1217 1525 2db0 4b9e 0080 ba7b 43b5
00000380: e416 0fb5 d076 89b4 2975 aa91 9a3d 0180
00000390: 6056 0fa5 42d0 92a9 a135 4fb5 55ac 68b6
000003a0: 9e88 0a00 be1d 0400 ea61 31b6 b53e 0d9c
000003b0: c227 39b0 8ead dda3 c9d6 569d af0e 0fa2
000003c0: c11a 64ad 7cd8 0900 e552 3aa3 292f 85b8
000003d0: 9abc e0a1 c659 f2a3 f373 5622 be8b d0ad
000003e0: 251f 24b0 fccb 17b4 a669 ad27 e4e1 59b1
000003f0: 92bb f3af dd47 4d9f b166 dea0 7f33 9fb5

layers.2.bias f4 [128]
-7.6591e-41 -2.8958604e-12 -0.011928082 -0.20549975 0.062647134 -0.036638733 -0.035640307 -0.105902314
-9.050105e-15 0.13922536 -0.085969456 0.02514351 -1.13549156e-07 0.044793654 0.13627051 0.044533104
0.066641696 0.056805644 0.0073680044 -2.820975e-05 0.21971518 -0.038906086 0.031044409 0.2017954
0.073162444 -0.31649798 0.01849358 -3.706286e-05 -0.0026796872 -0.051741373 0.08828619 -8.3472935e-20
0.026049351 -0.0067332 -0.1521246 -0.005307534 0.22377333 0.112991154 -0.22873296 -4.696278e-12
4.103994e-37 -0.05623632 0.049682386 -4.4313024e-06 -0.3640412 0.12784865 -0.00028898355 0.15526097
-0.04375232 0.057765063 -1.2466782e-18 -0.068939224 0.21433967 0.20285445 0.023691773 -0.035463102
-0.009163871 -0.0002122209 0.0065635666 0.1323583 0.023646858 -0.27433047 0.14467198 0.26500836
-0.345392 -0.3138556 -0.5844591 0.112379596 0.003480458 0.059012357 0.031741172 1.8232e-40
0.13728262 0.21543561 -0.0069469926 -4.1787716e-26 0.035564728 -2.1197855e-05 -5.9320575e-07 -0.013899783
-0.42349273 -0.009796726 0.0138635915 -0.00060794654 0.09208579 0.06613053 0.13175438 -1.3793258e-08
0.14179541 -0.007904201 -0.005463954 -0.058744203 0.06524745 -0.20472796 -2.6369888e-09 0.27561042
-0.00057594193 -0.08953175 0.08467382 -0.013236633 0.07033123 -2.3147795e-08 0.12033715 -0.03889524
-0.27767542 0.0897549 -0.013529044 -0.088087365 0.008498152 -0.017140035 -0.16681172 0.10767886
-3.915701e-05 0.040134415 -0.0023043277 0.16757074 -0.0093122255 0.1999541 -1.5973538e-15 -0.009186709
-3.2263693e-21 -2.273284e-21 -0.018176291 -1.3435219e-08 -0.16950484 -1.049225e-06 -0.021281525 0.0036041941
00000000: 81d5 0080 2fc7 4bac 016e 43bc 876e 52be
00000010: 244d 803d 7f12 16bd 92fb 11bd 50e3 d8bd
00000020: 3e08 23a8 1891 0e3e c110 b0bd c3f9 cd3c
00000030: 4fd8 f3b3 8d79 373d 7f8a 0b3e 5868 363d
00000040: 717b 883d 09ad 683d 4d6f f13b faa3 ecb7
00000050: 04fd 603e fd5b 1fbd d850 fe3c 74a3 4e3e
00000060: 31d6 953d 060c a2be d97f 973c f173 1bb8
00000070: b19d 2fbb c3ee 53bd 64cf b43d 4b18 c59f
00000080: 7365 d53c 2da2 dcbb 8dc6 1bbe d2ea adbb
00000090: d624 653e e867 e73d f938 6abe 503c a5ac
000000a0: d4a6 0b03 0e58 66bd c27f 4b3d 99b0 94b6
000000b0: 9c63 babe c2ea 023e b782 97b9 bbfc 1e3e
000000c0: a235 33bd 0f9b 6c3d 2cfa b7a1 0230 8dbd
000000d0: dc7b 5b3e 14b9 4f3e 4015 c23c c241 11bd
000000e0: 1024 16bc 9d87 5eb9 3013 d73b ef88 073e
000000f0: 0eb7 c13c 0b75 8cbe e424 143e 2daf 873e
00000100: 38d7 b0be aeb1 a0be 1d9f 15bf 4627 e63d
00000110: 6518 643b f1b6 713d 0803 023d 3cfc 0100
00000120: d193 0c3e 279b 5c3e 99a3 e3bb 39ec 4e95
00000130: 52ac 113d 0cd2 b1b7 ca3c 1fb5 eabb 63bc
00000140: 0ad4 d8be 7282 20bc 1e24 633c 9a5e 1fba
00000150: 7a97 bc3d 716f 873d 9fea 063e 64f7 6cb2
00000160: d132 113e 9f80 01bc f80a b3bb c39d 70bd
00000170: 74a0 853d 35a4 51be 6636 35b1 cf1c 8d3e
00000180: cffa 16ba 6c5c b7bd 7869 ad3d 76de 58bc
00000190: d209 903d 8ad6 c6b2 5373 f63d 9d50 1fbd
000001a0: 792b 8ebe 6bd1 b73d eca8 5dbc 2667 b4bd
000001b0: d53b 0b3c 4269 8cbc b1d0 2abe bc86 dc3d
000001c0: 853c 24b8 fc63 243d 3404 17bb aa97 2b3e
000001d0: 4e92 18bc c5c0 4c3e f433 e6a6 da83 16bc
000001e0: 0fc7 739d b5c3 2b9d 72e6 94bc b8d0 66b2
000001f0: ad92 2dbe 19d3 8cb5 9856 aebc 5834 6c3b

layers.3.weight f4 [707, 128]
8.6576e-41 6.71815e-40 -0.17121501 -0.15408018 0.25806957 -0.66984993 -0.43250284 -0.8188352
5.14822e-40 -0.6099796 0.08228328 -0.20310745 5.5522e-41 -0.11001887 -0.06662871 -0.8634529
-0.458362 -0.38050914 -0.2657229 1.0814686e-22 -0.24971563 -0.51065934 -0.47117236 0.112203926
-0.04680315 -0.08721695 -0.27890012 4.1665e-40 -3.276097e-21 -0.041766323 -0.25458235 -2.754e-41
-0.114323005 -0.012697401 -0.20370215 -9.71853e-05 -0.3170696 -0.38233045 -0.590162 -6.65458e-40
5.64168e-40 -0.77879226 -0.697104 -8.37671e-40 -0.4046418 -0.6181533 -0.0045543136 0.19442421
-0.02739326 -0.45021883 7.2279e-40 0.035247512 -0.39019075 0.15624587 -0.10738033 -0.21710435
-0.022410747 5.3436287e-09 -0.48414654 -0.59233105 -0.4678687 -0.9944701 -0.3731748 -0.1873923
-0.9877415 -0.00092122215 -0.14530657 0.11242705 -0.23732339 -0.40532246 0.09136195 2.89023e-40
-0.27800998 0.16759941 -0.0051363898 2.6351e-40 -0.42328694 -6.5026e-41 4.91386e-40 -0.04864188
-0.7628017 -0.030260066 -0.40297258 -0.0005315837 -0.5818582 -0.3866615 -0.47555763 -4.05539e-40
-1.2393211 -1.380192e-39 -7.066696e-26 -0.69835764 -0.46224377 -0.18927068 4.88483e-40 -0.15063992
-3.7826826e-08 -0.79057336 -0.4103 -1.5694359e-09 -0.51401895 3.26497e-40 -0.1262335 0.13026959
-0.00066243473 0.07433371 -0.000108308406 -0.6570108 -0.9593755 -0.17917566 -0.057824247 -0.5022262
1.76618e-40 -0.418512 -0.5903124 -0.123127304 -9.99613e-35 0.43282896 8.1755e-40 -0.014902586
9.1658e-40 3.55086e-40 -0.5656526 9.810156e-05 -0.27995086 3.5810812e-37 -0.5641564 -0.82557863
7.09166e-40 6.31646e-40 -0.058725722 -0.3966266 0.006089993 -0.1323442 -0.11756195 -0.24422537
-6.499521e-28 0.01471144 -0.26606688 -0.19979516 -4.8217e-41 -0.6888783 -0.5191559 -0.42841455
-0.66000056 -0.101709634 -0.3614211 -1.6844647e-24 -0.25534412 -0.38231915 -0.13688944 -0.024692718
-0.52233875 -0.24469745 -0.67331177 -4.0112098e-24 -1.6407487e-18 -0.62386906 -1.5223668 -1.7883853e-17
-0.34008726 -0.018133743 -0.0033370662 -0.0006580377 -0.2617324 -0.4137987 -0.9435517 -1.2692684e-14
5.82045e-40 -0.23347606 -0.32555726 8.17691e-40 -0.47178194 -0.13677943 -0.40251806 0.17735814
-0.29671532 -0.7810403 -3.212897e-08 -0.40626535 0.117996156 0.026896317 -0.4587296 -0.0046459725
-0.033415537 -1.6048746e-16 -0.51785046 -0.7849344 -0.13591883 -0.89817774 -0.72548085 -0.10839547
-0.6686203 -0.16519952 -0.16034646 0.018351933 0.046083305 -0.5726254 -0.016268767 1.7489e-40
-0.38239914 -0.34984946 -0.012610493 9.284747e-08 0.05267412 -2.7536678e-06 -5.59697e-40 0.061468646
-0.86434114 -0.026954377 -0.4664056 -0.001568619 -0.6221856 -0.023557084 -0.21347804 -9.074761e-09
-0.8984649 -2.6134534e-18 4.5486e-27 -0.08277694 -0.20142923 -0.202763 -3.56956e-40 0.10998477
2.5404181e-27 -0.08406866 -0.47495714 -0.007922987 0.3249144 -8.5686175e-15 -0.660053 -0.7640458
-3.36975e-07 -0.3467352 -1.5329199e-05 -0.21198718 -1.074517 -0.2544724 -0.49651694 -0.27109596
-2.6461608e-09 -0.15442286 -0.55838376 -0.120587505 4.193749e-26 -0.1717717 6.84454e-40 -0.02297465
-9.35416e-40 7.8766386e-23 -0.21633105 -4.686636e-13 -0.6300472 1.7035472e-38 -0.70641226 -0.5317009
00000000: 57f1 0000 bf50 0700 fd52 2fbe 32c7 1dbe
00000010: b221 843e 497b 2bbf 0371 ddbe 2f9f 51bf
00000020: 1d9b 0500 a027 1cbf 2384 a83d 66fb 4fbe
00000030: c69a 0000 9351 e1bd a274 88bd 400b 5dbf
00000040: 6dae eabe 18d2 c2be d50c 88be d5bd 021b
00000050: 74b5 7fbe 92ba 02bf 813d f1be 2ccb e53d
00000060: a9b4 3fbd cd9e b2bd ffcb 8ebe 7389 0400
00000070: ef88 779d 2a13 2bbd 9e58 82be c54c 0080
00000080: 2e22 eabd c308 50bc 4c97 50be f6cf cbb8
00000090: f256 a2be d1c0 c3be db14 17bf 073f 0780
000000a0: ac24 0600 ee5e 47bf 6875 32bf 161f 0980
000000b0: 362d cfbe 4b3f 1ebf 5a3c 95bb 2417 473e
000000c0: d467 e0bc 1583 e6be d8de 0700 b25f 103d
000000d0: 15c7 c7be ebfe 1f3e 38ea dbbd 9a50 5ebe
000000e0: be96 b7bc 0e9b b731 0ee2 f7be 02a3 17bf
000000f0: 7c8c efbe 9895 7ebf c410 bfbe c4e3 3fbe
00000100: a0dc 7cbf 2c7e 71ba 3fcb 14be 2740 e63d
00000110: e704 73be 6d86 cfbe f91b bb3d ae25 0300
00000120: 5357 8ebe 2e9f 2b3e 294f a8bb 8fde 0200
00000130: 11b9 d8be 44b5 0080 c959 0500 b53c 47bd
00000140: f946 43bf f5e3 f7bc 6c52 cebe fa59 0bba
00000150: a9f4 14bf 7ff8 c5be 4a7c f3be 7a6a 0480
00000160: 13a2 9ebf 6a07 0f80 82f6 ae95 91c7 32bf
00000170: 37ab ecbe 2cd0 41be b151 0500 5a41 1abe
00000180: 0977 22b3 0463 4abf d712 d2be 9eb3 d7b0
00000190: bf96 03bf 248e 0300 5b43 01be 6465 053e
000001a0: 3ea7 2dba 463c 983d a223 e3b8 dc31 28bf
000001b0: a299 75bf d379 37be 1ed9 6cbd e591 00bf
000001c0: 57ec 0100 3447 d6be b71e 17bf 2b2a fcbd
000001d0: 11df 0487 c29b dd3e ffe6 0800 fa29 74bc
000001e0: 0dfb 0900 d6dd 0300 9cce 10bf e0bb cd38
000001f0: b855 8fbe 3cb7 f302 8e6c 10bf 1f59 53bf
00000200: deb8 0700 c6e0 0600 628a 70bd a412 cbbe
00000210: 908e c73b 3d85 07be 52c4 f0bd 3716 7abe
00000220: 61fa 4d92 4008 713c eb39 88be 1a97 4cbe
00000230: 6986 0080 545a 30bf 67e7 04bf 2759 dbbe
00000240: ccf5 28bf 244d d0bd 300c b9be 4354 0298
00000250: 77bc 82be 56bf c3be bf2c 0cbe 6248 cabc
00000260: feb7 05bf f891 7abe 295e 2cbf 192d 9b98
00000270: bc21 f2a1 e2b5 1fbf eadc c2bf 0ef3 a4a3
00000280: eb1f aebe 378d 94bc aeb2 5abb 2a80 2cba
00000290: ca01 86be 6cdd d3be 9b8c 71bf aca6 64a8
000002a0: 8156 0600 5914 6fbe 71af a6be 64e7 0800
000002b0: 678d f1be e80f 0cbe d916 cebe 5f9d 353e
000002c0: 12eb 97be 42f2 47bf 2dfe 09b3 0302 d0be
000002d0: f8a7 f13d aa55 dc3c 9bde eabe 3e3d 98bb
000002e0: bbde 08bd 8a07 39a5 d991 04bf 76f1 48bf
000002f0: 4e2e 0bbe faee 65bf 1db9 39bf 72fe ddbd
00000300: b32a 2bbf 102a 29be dd31 24be cb56 963c
00000310: d9c1 3c3d 9497 12bf 1446 85bc 86e7 0100
00000320: d2c9 c3be 781f b3be 3e9c 4ebc 7063 c733
00000330: d1c0 573d a7cb 38b6 3518 0680 8cc6 7b3d
00000340: 7645 5dbf 6dcf dcbc b7cc eebe 1f9a cdba
00000350: 8e47 1fbf c9fa c0bc fd99 5abe 39e7 1bb2
00000360: cc01 66bf bdd6 40a2 4930 b413 f586 a9bd
00000370: 7743 4ebe 1ba1 4fbe 0ce3 0380 b23f e13d
00000380: cd45 4913 312c acbd 952d f3be 6bcf 01bc
00000390: 2e5b a63e c65b 1aa8 3cf9 28bf 8198 43bf
000003a0: 7ee9 b4b4 4787 b1be 3497 80b7 2b13 59be
000003b0: c689 89bf 354a 82be 7837 febe 17cd 8abe
000003c0: c1d7 35b1 0721 1ebe 3df2 0ebf 95f6 f6bd
000003d0: 16aa 4f15 ece4 2fbe fb73 0700 5535 bcbc
000003e0: 8f2f 0a80 0872 be1a e385 5dbe c5ea 03ab
000003f0: c64a 21bf f77f b900 6fd7 34bf 8d1d 08bf

layers.3.bias f4 [707]
-0.021129096 0.010281038 0.17457718 -0.084528975 -0.41557097 -0.50436366 -0.030591812 -0.38226542
-0.45040515 -0.42793396 -0.10767593 0.023039095 -0.46460322 -0.27539125 -0.35140523 -0.38349617
-0.37748414 -0.077080175 -0.51560336 -0.23422062 0.02435074 -0.07891159 -0.5318787 -0.03233789
-0.1122436 -0.1060495 0.12828791 -0.40248045 -0.13479008 -0.1223603 -0.45595136 -0.23637179
-0.27827236 -0.050793957 -0.28280804 -0.1336346 -0.18492636 -0.2074749 -0.38513017 0.0024795325
0.012335857 -0.15671226 -0.19438638 -0.35469127 -0.32350913 -0.08596741 -0.1384563 -0.04565575
-0.13738056 -0.030112583 -0.22145614 -0.63182133 -0.48579034 -0.045055542 -0.16333172 -0.25952357
-0.13422553 -0.133196 0.038088903 -0.16311117 -0.03394566 -0.09407621 -0.3608635 -0.23874252
0.067351185 -0.30838922 0.0067590806 -0.28256392 -0.11268967 -0.20503905 -0.072240435 -0.042127933
-0.40712768 -0.15401512 -0.21157394 -0.1765983 -0.21974383 -0.23050973 -0.15285853 -0.11327414
-0.11351242 -0.2947361 0.0035421965 -0.10096419 -0.14811091 -0.09230895 -0.3060532 -0.17096363
-0.3226372 -0.15368739 -0.040042166 -0.19807503 -0.013248961 0.021518564 -0.15546702 -0.05319353
-0.3433126 -0.061962917 0.048740014 0.26254857 -0.31337753 -0.31356195 0.006753842 -0.13959542
-0.15382747 0.13266356 -0.067958936 -0.069815286 -0.057905614 -0.17392004 -0.21644157 -0.13676617
-0.3662957 -0.028946275 -0.1220305 -0.17012303 -0.083858415 0.17854004 -0.10737841 -0.018505452
-0.14788644 0.056011163 0.02894806 -0.06660378 0.26598614 -0.12971674 -0.043462805 -0.06336415
0.027423467 -0.3600119 -0.09896304 -0.020476624 0.022635313 -0.21133846 -0.03977119 -0.33304548
-0.021261973 -0.22803831 -0.16070674 -0.24258243 -0.15184398 -0.46630606 -0.20140186 -0.13169597
-0.065727435 -0.03725091 -0.35590822 -0.23796421 -0.022799 -0.06454237 -0.09488838 -0.10343939
-0.11823362 -0.114674404 -0.2117721 -0.13910367 -0.13530768 -0.25241822 0.08828084 -0.05457869
0.09323314 -0.19719198 0.00932436 0.06298569 0.06178221 0.09478689 -0.17587581 -0.16712938
-0.40029627 -0.08675197 0.0047175502 -0.11823163 -0.19663003 -0.13241915 -0.13856328 0.1283969
-0.03593448 -0.11140478 -0.043185126 0.13157284 -0.05749911 -0.17938036 -0.2330196 -0.07172855
-0.1821312 -0.091947034 0.060821816 -0.16243902 0.027336359 -0.09291926 -0.107772395 -0.036807522
-0.20288521 -0.17072809 -0.21724619 -0.14077836 -0.0052382112 0.03375528 -0.22346689 0.10257235
-0.10017011 -0.14751308 -0.011417863 -0.13631569 -0.051308654 -0.15406749 -0.114837736 -0.03344454
0.014452711 -0.11150019 -0.10726121 -0.09739687 0.04207192 -0.0018459314 -0.011361914 0.31319883
-0.20832439 0.07292823 -0.08485398 0.10001387 -0.14004067 -0.18900283 -0.098568 -0.14859971
-0.1513009 -0.114181586 -0.112889506 -0.066650175 -0.28415877 -0.064167336 0.021719504 -0.13317208
-0.14794014 -0.04645245 -0.09312297 -0.048450314 0.15812695 -0.004054122 -0.17316768 -0.17704627
-0.114811815 -0.2173401 -0.08569295 0.09697954 -0.23608433 0.009381486 -0.15444122 -0.08869974
-0.05922058 0.12517013 -0.14692272 -0.20692708 -0.12819296 -0.11394842 -0.10956354 -0.10293248
00000000: ed16 adbc cc71 283c 5cc4 323e 871d adbd
00000010: b8c5 d4be fa1d 01bf ae9b fabc 4bb8 c3be
00000020: 819b e6be 291a dbbe 3385 dcbd 7cbc bc3c
00000030: 79e0 edbe 1500 8dbe 63eb b3be 9c59 c4be
00000040: 9a45 c1be 36dc 9dbd 95fe 03bf 88d7 6fbe
00000050: 347b c73c 669c a1bd 3429 08bf bc74 04bd
00000060: f9df e5bd 7b30 d9bd e85d 033e eb11 cebe
00000070: 6906 0abe 0998 fabd 7572 e9be 720b 72be
00000080: b779 8ebe 530d 50bd 37cc 90be 82d7 08be
00000090: 565d 3dbe 4d74 54be c82f c5be a77f 223b
000000a0: 561c 4a3c 2e79 20be 390d 47be 189a b5be
000000b0: fda2 a5be ae0f b0bd 7dc7 0dbe 8601 3bbd
000000c0: 7dad 0cbe aaae f6bc 66c5 62be 0bbf 21bf
000000d0: 83b9 f8be 298c 38bd 6e40 27be 46e0 84be
000000e0: 6b72 09be 8864 08be 1c03 1c3d 9d06 27be
000000f0: 9b0a 0bbd 07ab c0bd 1ac3 b8be eb78 74be
00000100: 6bef 893d 31e5 9dbe 477b dd3b 38ac 90be
00000110: d7c9 e6bd c2f5 51be cbf2 93bd 578e 2cbd
00000120: 0a73 d0be 24b6 1dbe d7a6 58be 2fd6 34be
00000130: 8704 61be be0a 6cbe f286 1cbe 46fc e7bd
00000140: 3379 e8bd a6e7 96be 3224 683b 50c6 cebd
00000150: 63aa 17be 7a0c bdbd 01b3 9cbe 1711 2fbe
00000160: b430 a5be 3a60 1dbe 4103 24bd 2ed4 4abe
00000170: 2c12 59bc b347 b03c bf32 1fbe 75e1 59bd
00000180: abc6 afbe d4cc 7dbd 9ca3 473d c46c 863e
00000190: 0573 a0be 318b a0be 554f dd3b 1af2 0ebe
000001a0: f384 1dbe f5d8 073e 0e2e 8bbd 51fb 8ebd
000001b0: 702e 6dbd 1818 32be dca2 5dbe 6e0c 0cbe
000001c0: 1c8b bbbe bd20 edbc 20eb f9bd bb34 2ebe
000001d0: f6bd abbd 33d3 363e 36e9 dbbd bf98 97bc
000001e0: 8b6f 17be f66b 653d 7b24 ed3c 9067 88bd
000001f0: 562f 883e 77d4 04be 0e06 32bd 10c5 81bd
00000200: 2ea7 e03c 7b53 b8be 22ad cabd 98be a7bc
00000210: b16d b93c 1c69 58be 1ee7 22bd f084 aabe
00000220: 972d aebc e082 69be 4f90 24be 8767 78be
00000230: fd7c 1bbe abbf eebe 4a3c 4ebe 4fdb 06be
00000240: 1b9c 86bd 6994 18bd 9a39 b6be e4ac 73be
00000250: f8c4 babc ca2e 84bd d754 c2bd 08d8 d3bd
00000260: 7824 f2bd 6ada eabd c9da 58be 3171 0ebe
00000270: 198e 0abe f63c 81be 96cc b43d e88d 5fbd
00000280: 04f1 be3d b2ec 49be 33c5 183c a4fe 803d
00000290: 580f 7d3d a11f c23d ca18 34be f723 2bbe
000002a0: a2f3 ccbe 04ab b1bd ae95 9a3b 6d23 f2bd
000002b0: 6259 49be e398 07be 88e3 0dbe 7a7a 033e
000002c0: 0930 13bd 3028 e4bd e3e2 30bd 08bb 063e
000002d0: 3084 6bbd 7caf 37be b19c 6ebe 6be6 92bd
000002e0: 9a80 3abe ba4e bcbd 4c20 793d 6a56 26be
000002f0: 80f0 df3c 744c bebd c6b7 dcbd 7cc3 16bd
00000300: 24c1 4fbe 58d3 2ebe c975 5ebe 3428 10be
00000310: 4da5 abbb fa42 0a3d 81d4 64be 7411 d23d
00000320: fd25 cdbd ab0d 17be fd11 3bbc 5796 0bbe
00000330: 0629 52bd dec3 1dbe 0c30 ebbd 24fd 08bd
00000340: 10cb 6c3c 365a e4bd c4ab dbbd 0378 c7bd
00000350: 9b53 2c3d 2ef3 f1ba 5227 3abc 995b a03e
00000360: fd52 55be 655b 953d ecc7 adbd 12d4 cc3d
00000370: d266 0fbe f589 41be 05de c9bd 862a 18be
00000380: a0ee 1abe 09d8 e9bd 9d32 e7bd e37f 88bd
00000390: 427d 91be 2a6a 83bd 1aed b13c 435e 08be
000003a0: 9f7d 17be ed44 3ebd 41b7 bebd d673 46bd
000003b0: 08ec 213e 71d8 84bb de52 31be 9e4b 35be
000003c0: 7522 ebbd 678e 5ebe c97f afbd 369d c63d
000003d0: 17c0 71be ceb4 193c d725 1ebe 36a8 b5bd
000003e0: 4791 72bd 992c 003e e972 16be b1e4 53be
000003f0: 0445 03be ca5d e9bd d962 e0bd 44ce d2bd
