models/ReachAvoid_horizon_10.pt (torch_old, 224328 bytes, 8 tensors)

layers.0.weight f4 [128, 4]
0	0x3e14c259	0.14527263
1	0xbeb4a238	-0.35280013
2	0x80029243	-2.3614e-40
3	0x0008689f	7.72215e-40
4	0xbe1c2d61	-0.15251686
5	0x3ef1522d	0.47133008
6	0x00090a54	8.30224e-40
7	0x000ab4fb	9.83279e-40
8	0x3e353ace	0.17698213
9	0x3ebd7ad6	0.3700778
10	0x0003165f	2.83532e-40
11	0x000203af	1.84992e-40
12	0xbf0d1c69	-0.55121475
13	0x3ee9fdf8	0.45701575
14	0x000428ae	3.81935e-40
15	0x8003a59a	-3.34913e-40
16	0xb348c58c	-4.6745797e-08
17	0xadd2b043	-2.3952512e-11
18	0x8000abff	-6.17e-41
19	0x8005e5cb	-5.41612e-40
20	0xbf8c4307	-1.0957955
21	0x3e765411	0.24055506
22	0x8003f1d6	-3.62261e-40
23	0x80052163	-4.71154e-40
24	0xbe880e1a	-0.2657326
25	0x3ed05d15	0.40696016
26	0x00032d90	2.91851e-40
27	0x0008c24f	8.04389e-40
28	0xbc474010	-0.01216127
29	0xbb339c76	-0.002740649
30	0x0007b080	7.06165e-40
31	0x80045329	-3.97174e-40
32	0xbe1973f3	-0.14985637
33	0xbd85e954	-0.065386444
34	0x0003eddc	3.60834e-40
35	0x800a5223	-9.4782e-40
36	0x3f069eae	0.52585876
37	0xbead8f16	-0.33898228
38	0x800b3f20	-1.032835e-39
39	0x0006e0ac	6.3161e-40
40	0xbf1ff859	-0.62488323
41	0x3f153621	0.5828572
42	0x8003aff4	-3.38627e-40
43	0x80089161	-7.86836e-40
44	0xbe9da1ee	-0.30787605
45	0x3f24a243	0.6431009
46	0x0000e1e3	8.1033e-41
47	0x80090712	-8.29056e-40
48	0x3ef28b9b	0.47372136
49	0xbec71586	-0.3888361
50	0x800a2015	-9.29864e-40
51	0x80089a66	-7.90072e-40
52	0xbde054d1	-0.109536774
53	0x3d7e2e12	0.062055655
54	0x80028239	-2.30386e-40
55	0x00049714	4.21539e-40
56	0x39313968	0.00016901421
57	0x3ee23078	0.44177604
58	0x00037636	3.17913e-40
59	0x000849c0	7.6114e-40
60	0xa20c1b34	-1.898794e-18
61	0x8aedc060	-2.2894633e-32
62	0x80011745	-1.00183e-40
63	0x0003cc35	3.48762e-40
64	0xbe356558	-0.17714441
65	0x3df6c256	0.120487854
66	0x0004710a	4.07893e-40
67	0x000585cb	5.07173e-40
68	0x3eb27bb8	0.34860015
69	0xbeb4ab9a	-0.35287172
70	0x8000fb55	-9.0161e-41
71	0x80014b35	-1.18815e-40
72	0x3e4ef807	0.20211802
73	0x3dd2539f	0.10269856
74	0x80077472	-6.84621e-40
75	0x80035166	-3.04707e-40
76	0x3d55f015	0.052230913
77	0x3f27ebe5	0.6559432
78	0x800951c1	-8.55847e-40
79	0x8001f00f	-1.77952e-40
80	0xbef2f8ae	-0.47455353
81	0x3ee73730	0.45159292
82	0x0000f0f8	8.6443e-41
83	0x80027491	-2.25487e-40
84	0xa527c5a9	-1.4551911e-16
85	0x069fd958	6.012851e-35
86	0x8002e7d3	-2.66834e-40
87	0x80070036	-6.42924e-40
88	0x3e61c74d	0.22048683
89	0xbe40cf1c	-0.18829006
90	0x00087413	7.76324e-40
91	0x80025825	-2.15291e-40
92	0x90dcfdd8	-8.716581e-29
93	0x9e35aeb5	-9.618189e-21
94	0x000a113a	9.24535e-40
95	0x80027f41	-2.29321e-40
96	0xbeebbd73	-0.46042976
97	0x3a35793b	0.0006922667
98	0x000762fd	6.78359e-40
99	0x0004c982	4.3963e-40
100	0x3e895517	0.2682273
101	0x3ee759d7	0.4518573
102	0x8002a176	-2.41592e-40
103	0x8005eae3	-5.43439e-40
104	0x3ee80544	0.45316517
105	0x3eaf7f85	0.34276977
106	0x0008c51a	8.0539e-40
107	0x80059c6b	-5.1529e-40
108	0x3ebbe83a	0.36700612
109	0x3e9ac7d7	0.3023059
110	0x8006c43d	-6.2141e-40
111	0x8008885c	-7.836e-40
112	0x3ea1f661	0.31633285
113	0x3f023e93	0.5087673
114	0x8002e620	-2.66224e-40
115	0x0004f3a1	4.5474e-40
116	0xbe8df70c	-0.27727544
117	0x3eb721d5	0.35768
118	0x800aba7f	-9.85257e-40
119	0x80039894	-3.30241e-40
120	0x3ef94b47	0.48690245
121	0x3e51f6b0	0.2050426
122	0x800459c1	-3.9954e-40
123	0x00060d55	5.55796e-40
124	0xb5087786	-5.083788e-07
125	0xb515a988	-5.5753526e-07
126	0x00061df8	5.61764e-40
127	0x8006d85c	-6.28628e-40
128	0x3e2bf97c	0.1679439
129	0x3f10b743	0.56529635
130	0x000ad64e	9.95233e-40
131	0x0003e743	3.58468e-40
132	0xbc2788ad	-0.010225457
133	0xbbfab91c	-0.0076514613
134	0x80023a34	-2.0455e-40
135	0x0009da72	9.04883e-40
136	0xbdea8759	-0.11451597
137	0x3ed6090d	0.4180378
138	0x0006d1cb	6.26273e-40
139	0x8001a292	-1.50155e-40
140	0xbe160158	-0.1464895
141	0xbe1185f8	-0.14211261
142	0x00029711	2.37863e-40
143	0x80094454	-8.51031e-40
144	0x3f067abe	0.5253104
145	0x3df70839	0.12062115
146	0x000b621a	1.045383e-39
147	0x80061297	-5.57682e-40
148	0x3ee25176	0.44202775
149	0xbde1ae41	-0.110195644
150	0x0008873c	7.83197e-40
151	0x8005a28e	-5.17491e-40
152	0xbda172a7	-0.07883196
153	0x3f1827fd	0.5943602
154	0x000464cd	4.03502e-40
155	0x000399c6	3.3067e-40
156	0xba4e3ce3	-0.0007867349
157	0xbb947b82	-0.004531325
158	0x00047670	4.0983e-40
159	0x80020c91	-1.88179e-40
160	0xbe9a9b02	-0.30196387
161	0x3ead1a7c	0.33809268
162	0x80087713	-7.774e-40
163	0x80082195	-7.46731e-40
164	0xbc12f4e5	-0.00896952
165	0xbc5376b6	-0.012906721
166	0x8001f8e9	-1.81128e-40
167	0x8001007a	-9.2006e-41
168	0xbeb2ab7f	-0.34896466
169	0xbeaf7e4d	-0.34276047
170	0x0004cde4	4.41202e-40
171	0x00035396	3.05491e-40
172	0xbebca94d	-0.36847916
173	0x3f18e4f9	0.59724385
174	0x80062e1e	-5.67557e-40
175	0x000ab758	9.84126e-40
176	0xbe778e3f	-0.24175356
177	0x3cd6914b	0.026192328
178	0x00031cf4	2.85893e-40
179	0x0008a5f5	7.94218e-40
180	0x3cb7c5c8	0.022433177
181	0x3f05cf30	0.5226927
182	0x00017db3	1.36928e-40
183	0x00009829	5.4585e-41
184	0x3c9181bf	0.017762063
185	0xbe8456bd	-0.25847426
186	0x000873e0	7.76252e-40
187	0x8005ef27	-5.44969e-40
188	0xbe3ef7ea	-0.18649259
189	0x3f0cd91d	0.5501879
190	0x0004f8db	4.56615e-40
191	0x0008d3c8	8.10657e-40
192	0x3e7fd968	0.24985278
193	0x3e93a031	0.28833154
194	0x8003688d	-3.13012e-40
195	0x00042c86	3.83314e-40
196	0xbf24353e	-0.6414374
197	0x3f06998d	0.5257805
198	0x000b64f4	1.046406e-39
199	0x800a9460	-9.71582e-40
200	0x3e18a303	0.14905934
201	0x3ebb5652	0.36589295
202	0x80097b97	-8.70855e-40
203	0x80012909	-1.06556e-40
204	0xbf0d856a	-0.552817
205	0x3f17f2c1	0.5935479
206	0x0008c079	8.0373e-40
207	0x0000d6e3	7.7087e-41
208	0xbe9d9705	-0.3077928
209	0x3e7978d8	0.24362504
210	0x8005593a	-4.91186e-40
211	0x00094570	8.51429e-40
212	0x3e584249	0.21119036
213	0xbeae0608	-0.33988976
214	0x00004d64	2.7763e-41
215	0x00096479	8.62562e-40
216	0xbf242ab8	-0.64127684
217	0x3f06bd87	0.52632946
218	0x80067db0	-5.96101e-40
219	0x00081b2b	7.4443e-40
220	0x3f30c115	0.6904462
221	0xbe459c45	-0.19297893
222	0x80081bc4	-7.44644e-40
223	0x0006f8ef	6.40314e-40
224	0xbde306d5	-0.110852875
225	0x3f0ffe72	0.5624763
226	0x00007a1a	4.3802e-41
227	0x00033d3d	2.97475e-40
228	0x3770b383	1.4346911e-05
229	0xbc19d413	-0.009388941
230	0x0009a76b	8.86578e-40
231	0x80088369	-7.81825e-40
232	0xbb8d8245	-0.004318508
233	0xbba43f70	-0.005012445
234	0x000923fe	8.39431e-40
235	0x000a4516	9.43138e-40
236	0xaf4fd3e0	-1.8901813e-10
237	0xaf8e6b85	-2.5906047e-10
238	0x8001a829	-1.5216e-40
239	0x8000367f	-1.955e-41
240	0x3f0b909c	0.5451753
241	0xbd61582b	-0.055015724
242	0x8009b72e	-8.92232e-40
243	0x0009c894	8.98473e-40
244	0x3ec4ac5c	0.3841275
245	0xbe908ddd	-0.28233233
246	0x0008a4fd	7.9387e-40
247	0x0005416e	4.82649e-40
248	0xbed2c346	-0.41164607
249	0x3e900c5b	0.28134426
250	0x00048d4a	4.18027e-40
251	0x00030be0	2.79766e-40
252	0xbc088b34	-0.00833397
253	0xbc08466f	-0.008317574
254	0x8007c9d5	-7.15252e-40
255	0x0003c0b3	3.44634e-40

layers.0.bias f4 [128]
0	0x3f1b269a	0.60605776
1	0xbea44c5c	-0.32089508
2	0xbe2e2650	-0.17006803
3	0x3f3086cf	0.689557
4	0xad4b80c1	-1.1567803e-11
5	0x3ec2c2d0	0.38039255
6	0xbe781681	-0.24227335
7	0xbaaf3950	-0.0013368521
8	0x3f2755ed	0.6536549
9	0xbe683513	-0.22676496
10	0xbd350b16	-0.044200025
11	0xbdf59daf	-0.119929664
12	0xbe363e5f	-0.1779723
13	0x3eb73aa9	0.35786942
14	0xbbcaf38f	-0.006193585
15	0x00407b02	5.921599e-39
16	0x3e882393	0.2658964
17	0x3f34e976	0.70668733
18	0x3cfffea9	0.031249361
19	0xbd973e4f	-0.07384931
20	0x3e43fe24	0.19139916
21	0xa23b3b2f	-2.5374557e-18
22	0x3e9e24b0	0.30887365
23	0x95eb05bf	-9.492481e-26
24	0x3f15436a	0.5830599
25	0xbe81dc34	-0.25363314
26	0x3ec50184	0.3847772
27	0xbe9372eb	-0.28798613
28	0xbe98427d	-0.29738227
29	0xbe604a8c	-0.21903437
30	0xbe5f58ae	-0.21811172
31	0xb38bd552	-6.5114946e-08
32	0x3d8ccb44	0.06874707
33	0xbc14be1b	-0.009078528
34	0x3eb9b766	0.36272734
35	0x3f4ee192	0.80812943
36	0xbe3c00f6	-0.18359742
37	0xbef93602	-0.48674017
38	0xbec7abc0	-0.38998222
39	0xba9a5641	-0.0011774973
40	0x3f096aea	0.5367876
41	0xbc30866f	-0.010774239
42	0x3f43ab77	0.7643351
43	0x3eb87d37	0.3603303
44	0x3f4d8d23	0.8029348
45	0x3f069241	0.52566916
46	0x3f1a2476	0.60211885
47	0x3f189c65	0.5961364
48	0x3ef82041	0.48462108
49	0x3c5b8a74	0.013399709
50	0xbeabf4b0	-0.3358512
51	0xbe8f4974	-0.27985728
52	0x3ed085bb	0.40727028
53	0x3f01a02e	0.5063504
54	0x3c66a26f	0.014076813
55	0xbebfbc08	-0.37448144
56	0xbe8fc341	-0.28078654
57	0xbb8c436e	-0.004280499
58	0xbadcb235	-0.0016837778
59	0xa49fcc70	-6.930159e-17
60	0xbddbcaf5	-0.1073207
61	0x3ef8ece8	0.48618245
62	0x3f1e6528	0.618731
63	0xbc089f8c	-0.00833882
64	0xbebe4569	-0.3716233
65	0x3deefd84	0.11669448
66	0xbe0ad08a	-0.13556114
67	0x3f3bc1f5	0.7334283
68	0x3f0ba533	0.5454895
69	0x3f0493fc	0.51788306
70	0x3f19c5cf	0.60067457
71	0xbeb1ba46	-0.34712428
72	0x3ee8bfae	0.4545874
73	0xbe0234a1	-0.12715389
74	0x3c623c2a	0.01380829
75	0xbec67fff	-0.38769528
76	0x3ed88d55	0.42295328
77	0x80032f9c	-2.92586e-40
78	0x3e03837b	0.12843125
79	0x3ee8818c	0.45411336
80	0xbda4fb2a	-0.08055718
81	0xbeb7710c	-0.35828435
82	0x3ea3ffa8	0.32030988
83	0xbde8ed92	-0.11373438
84	0x3f01e39f	0.5073795
85	0xbea60163	-0.32422933
86	0xbe6cb655	-0.23116429
87	0x3f0eac35	0.5573152
88	0x3da55419	0.08072681
89	0xbefc3cb0	-0.4926505
90	0xba9877b3	-0.0011632353
91	0xb9c48372	-0.00037481968
92	0xbc275266	-0.010212516
93	0x8a598072	-1.0472328e-32
94	0x3e56d745	0.20980556
95	0xbe9fa317	-0.31179115
96	0x3eed4213	0.46339473
97	0xbefbec59	-0.49203756
98	0xbee53098	-0.44763637
99	0x3ed3fa78	0.4140203
100	0xbe56cc27	-0.20976315
101	0x3f08a57b	0.53377503
102	0x3e27e66e	0.16396496
103	0xbb60b4f5	-0.0034287546
104	0x3e80f3ca	0.25185996
105	0x3f1f9c36	0.62347734
106	0xbf136543	-0.5757639
107	0x3f08de39	0.53464085
108	0x3f10d505	0.5657504
109	0x3ee5e092	0.44897896
110	0x3dadcdff	0.08486556
111	0xbbf579d6	-0.0074913306
112	0x3f1c6e60	0.6110592
113	0xbdd4acc3	-0.10384514
114	0x3ea09b6f	0.31368586
115	0x800737a8	-6.62814e-40
116	0x9ce031d7	-1.483596e-21
117	0x3f45aa96	0.7721342
118	0x3ef23833	0.47308502
119	0x3f003019	0.5007339
120	0x3f055516	0.52082956
121	0xb6704c7c	-3.5807307e-06
122	0x3efdcf92	0.49572426
123	0x3efb5b79	0.49093226
124	0x3f0e1817	0.5550551
125	0xbb5f7d24	-0.003410169
126	0xbeac2a2c	-0.33625925
127	0x3e1ab875	0.15109427

layers.1.weight f4 [128, 128]
0	0x3e47fe3f	0.19530581
1	0xbe914b6f	-0.28377864
2	0x3d9272a2	0.07150771
3	0x3e1d37e0	0.15353346
4	0x80003fe9	-2.2927e-41
5	0xbf925440	-1.1431961
6	0xbdd938c9	-0.10606534
7	0xb50873fa	-5.0832716e-07
8	0x3ec014b3	0.37515792
9	0xbe90a7b0	-0.28252935
10	0xbe60b565	-0.21944197
11	0xbe27e5ca	-0.16396251
12	0xbe07286e	-0.13199016
13	0x3e52782a	0.20553651
14	0x3dd9a72e	0.1062759
15	0x8009d5d0	-9.03221e-40
16	0x3d4e498c	0.05036311
17	0x3e0bc6ec	0.13650101
18	0xbbe39799	-0.006945562
19	0xbcde1e13	-0.02711395
20	0x3d73993e	0.059472315
21	0x000683bc	5.9827e-40
22	0x3df283ca	0.11841543
23	0x0001d810	1.69344e-40
24	0xbeb84898	-0.35992885
25	0x3d9abc4f	0.07555448
26	0x3d1e1ea3	0.038603436
27	0xbd81e0bc	-0.06341693
28	0xbd06c607	-0.032903697
29	0xbe1998ee	-0.14999744
30	0x3d73dd17	0.05953702
31	0x8002264a	-1.97407e-40
32	0xbaaeb0d4	-0.0013327845
33	0x37595dd2	1.2956052e-05
34	0x3e10d538	0.14143836
35	0x3ebff7b2	0.37493664
36	0x3d2c59f5	0.042077977
37	0xbeda558e	-0.42643398
38	0xbe37be57	-0.17943703
39	0x2fa36996	2.972455e-10
40	0x3daa06b1	0.083020575
41	0x3ad683b3	0.0016366154
42	0xbf07fa1e	-0.53116024
43	0x3c8b1e57	0.01698224
44	0x3e951eb3	0.29124984
45	0x3dc2af3f	0.09506082
46	0x3e87e2b6	0.26540154
47	0x3e09e234	0.13465196
48	0x3e0dc51f	0.13844727
49	0xbea73b1f	-0.32662293
50	0xbd541710	-0.051779807
51	0xbea7ebbd	-0.32797042
52	0x3e3895af	0.1802585
53	0x3e083882	0.13302806
54	0xbec937b9	-0.39300326
55	0xbe91be30	-0.28465414
56	0xbe32e747	-0.17471038
57	0x333f659d	4.456307e-08
58	0x183b2489	2.418763e-24
59	0x0003c464	3.45958e-40
60	0xbdf7d858	-0.12101811
61	0x3e166589	0.1468717
62	0x3e204d51	0.15654494
63	0x3b8e36bd	0.0043400214
64	0xbe937237	-0.28798077
65	0x3dcff16d	0.1015347
66	0xbe135ea6	-0.14391574
67	0x3d1d3382	0.0383792
68	0x3de5e04d	0.112244226
69	0xbf46f52b	-0.77717847
70	0x3e951516	0.2911765
71	0xbda8185f	-0.082077734
72	0x3c377ff8	0.011199944
73	0xbe7351c0	-0.23761654
74	0xbd2f6fd3	-0.042831253
75	0xbe8b7c0b	-0.27243075
76	0x3dd0968b	0.10184964
77	0x8001700c	-1.3203e-40
78	0x3ddbd077	0.10733121
79	0x3e0d2be6	0.13786277
80	0xbd3fa78a	-0.046790637
81	0x3d3059df	0.043054458
82	0x3dcd6050	0.10028136
83	0x3c083193	0.008312601
84	0xbf245720	-0.6419544
85	0xbe3953df	-0.180984
86	0xbc0125b4	-0.007882524
87	0x3e13afb0	0.14422488
88	0x3d19b4be	0.037525885
89	0xbe384e28	-0.17998564
90	0xb73261d0	-1.06324005e-05
91	0x256379bc	1.9730357e-16
92	0xbb514ae2	-0.0031935503
93	0x80080022	-7.34732e-40
94	0x3c81f909	0.01586582
95	0xbe455f80	-0.19274712
96	0x3d74406f	0.05963176
97	0xbd496a29	-0.049173508
98	0xbd7efc25	-0.062252183
99	0x3e7c8ec0	0.2466383
100	0xbe5b78bb	-0.21432774
101	0x3db07a51	0.0861708
102	0x3d044c0f	0.032299098
103	0xb6a1facf	-4.827372e-06
104	0xbd0435c1	-0.032277826
105	0x3e80f0e5	0.25183788
106	0xbe47e041	-0.1951914
107	0x3e2571e9	0.16156735
108	0xbc513b83	-0.012770536
109	0x3dbbf7fc	0.09178159
110	0xbe0662dd	-0.13123651
111	0x3aacdb03	0.0013187829
112	0x3d446d3c	0.047955737
113	0x3d25a3b3	0.04043932
114	0x3d3ecb18	0.046580404
115	0x0007ea18	7.26825e-40
116	0x000086cd	4.8357e-41
117	0x3ec12f2b	0.377313
118	0xbd168944	-0.036752
119	0xbc803c6e	-0.015653815
120	0x3dbec85a	0.09315558
121	0x8006e8b6	-6.34494e-40
122	0x3e4c18e3	0.19931369
123	0x3dbd9837	0.09257548
124	0x3df9cade	0.12196897
125	0xaa3ffd3f	-1.705207e-13
126	0xbd8fdb0f	-0.07024204
127	0x3dd9e981	0.106402405
128	0x3ea33d04	0.3188249
129	0xbedaf57e	-0.4276542
130	0xbd1e1ad8	-0.03859982
131	0x3e38b8ef	0.18039297
132	0x0008c8c8	8.06711e-40
133	0xbf17fb81	-0.5936814
134	0xbec90692	-0.39262825
135	0xb48d8194	-2.6357577e-07
136	0x3eb80dfd	0.35948172
137	0xbe755317	-0.23957478
138	0xbecc4507	-0.39896414
139	0xbe182869	-0.14859165
140	0xbda85cf5	-0.08220855
141	0x3e9a56bc	0.30144298
142	0x3d17d269	0.037065897
143	0x8001889c	-1.40842e-40
144	0x3dda3dfb	0.10656353
145	0x3e429f47	0.19006072
146	0x3c8fcfcf	0.017555146
147	0xbcb33a73	-0.021878457
148	0xbcb231c6	-0.02175225
149	0x000904c7	8.28233e-40
150	0x3d8c63c7	0.068549685
151	0x000861e8	7.69806e-40
152	0x3d37d13c	0.044877276
153	0x3c57d4b5	0.013173272
154	0x3de2adef	0.110683315
155	0x3b6ee6bc	0.0036453446
156	0xbcb0802d	-0.021545494
157	0xbeb24873	-0.348209
158	0xbd1336da	-0.035940982
159	0x8002e613	-2.66206e-40
160	0xbbb605bf	-0.005554884
161	0x38f8015f	0.00011825817
162	0x3e2253a9	0.15852226
163	0x3eac687b	0.33673462
164	0xbd869a46	-0.06572394
165	0xbe9ce38b	-0.30642352
166	0xbe9be98d	-0.30451623
167	0x3488a553	2.5452263e-07
168	0x3d32c5bd	0.04364561
169	0x3b66dd8c	0.0035227267
170	0x3c85863a	0.016299356
171	0x3ca6b0fb	0.020348063
172	0x3e8cdf12	0.2751394
173	0x3db514ef	0.088418834
174	0x3e90d4d4	0.28287375
175	0x3e38b1b8	0.18036544
176	0x3d818a81	0.06325246
177	0xbebb40e8	-0.36572957
178	0xbe569262	-0.20954278
179	0xbeccf7ca	-0.40032798
180	0x3e3c6f00	0.18401718
181	0x3e1fd875	0.15609916
182	0xbed2a62a	-0.41142398
183	0xbe023e9c	-0.12719196
184	0xbe2362ca	-0.15955654
185	0x3608eb84	2.0402667e-06
186	0x24ae4865	7.558311e-17
187	0x00073578	6.6203e-40
188	0xbc1f255c	-0.009713497
189	0x3d637d86	0.05553963
190	0x3e45a6b0	0.19301867
191	0x3c016794	0.00789823
192	0xbe895183	-0.2682
193	0x3de762fb	0.11298176
194	0xbde4cbb9	-0.111716695
195	0x3e1e4466	0.1545578
196	0x3e1f856f	0.15578245
197	0xbeee6962	-0.46564776
198	0x3ebbfdbe	0.36717027
199	0xbd895e5a	-0.06707449
200	0x3e1286b5	0.14309199
201	0xbe032a7f	-0.1280918
202	0x3cac0f8f	0.021003513
203	0xbed9cf7b	-0.42541108
204	0x3e02d767	0.12777482
205	0x8000b61a	-6.5326e-41
206	0x3ddb9325	0.10721425
207	0x3e1705d1	0.14748313
208	0xbd383dfb	-0.044980984
209	0xbd462746	-0.048377298
210	0x3e035e59	0.1282896
211	0x3ca3f7bf	0.020015595
212	0xbea3c6f0	-0.31987715
213	0xbe70879b	-0.2348923
214	0xbd44613f	-0.047944304
215	0x3e4d0158	0.20020044
216	0x3cb238a1	0.021755518
217	0xbe8242e0	-0.25441647
218	0xb693aeb2	-4.4012786e-06
219	0xa375388c	-1.3293451e-17
220	0xbba8842f	-0.0051427106
221	0x8000f8f7	-8.9312e-41
222	0xbc9367cf	-0.017993836
223	0xbe88e1ef	-0.26734874
224	0x3e355401	0.17707826
225	0xbe2e5305	-0.17023857
226	0xbe3053e1	-0.17219497
227	0x3e5140e8	0.20434916
228	0xbe323d5b	-0.17406218
229	0x3e118550	0.14211011
230	0xbaf87d42	-0.0018958228
231	0xb79f2d32	-1.8975323e-05
232	0xbc67fe92	-0.014159815
233	0x3ec7a7cf	0.38995215
234	0xbdb421a4	-0.08795479
235	0x3df27bd7	0.11840027
236	0x3dc5a523	0.09650638
237	0x3e40e8ef	0.18838857
238	0xbd40da75	-0.047083337
239	0x3b1a3a89	0.0023533425
240	0x3c228149	0.009918519
241	0x3ce66b71	0.028127404
242	0x3deaf607	0.11472707
243	0x00024e9a	2.11868e-40
244	0x00084e74	7.62828e-40
245	0x3e90a1e2	0.28248507
246	0xbc534207	-0.01289416
247	0x3e1ebfdd	0.15502878
248	0x3e040824	0.1289373
249	0x00078662	6.91056e-40
250	0x3e9f656c	0.31132066
251	0x3e30c5c6	0.17262945
252	0x3df064be	0.11737965
253	0x2f3cd744	1.7174978e-10
254	0xbe0d6e30	-0.13811564
255	0x3ccca9f2	0.02498338

layers.1.bias f4 [128]
0	0x3e443ad3	0.19163065
1	0x3e87cf12	0.2652517
2	0xbd8cdf4b	-0.06878527
3	0x3e3669c0	0.17813778
4	0x3de7e3ff	0.11322784
5	0x3e82a5f9	0.25517252
6	0xb825c93f	-3.952649e-05
7	0xbb6c0aeb	-0.003601725
8	0xa385984b	-1.4484387e-17
9	0x3dfd544e	0.123695955
10	0x3d7082ec	0.058718607
11	0x0ebf21a2	4.7117523e-30
12	0x3dd294d9	0.10282297
13	0x3e88836b	0.26662764
14	0xa974712f	-5.4277055e-14
15	0x3e5e03b3	0.21681099
16	0x3dc08e4b	0.0940214
17	0x3dc2a9a8	0.095050156
18	0x3e38aab0	0.18033862
19	0x3dc5afac	0.096526474
20	0x3dc2b516	0.09507196
21	0xbc8e7bc9	-0.01739301
22	0x3e9022c2	0.28151518
23	0x3e646fc5	0.22308262
24	0x3e202cd4	0.156421
25	0xbcc80203	-0.024415022
26	0xbb269278	-0.0025416892
27	0xb0189f90	-5.552403e-10
28	0xbc8a45c8	-0.016878977
29	0x3d909f47	0.0706163
30	0x3d2327be	0.039832823
31	0xb9b862ab	-0.00035168728
32	0x3e28af86	0.16473207
33	0x3e28b8ef	0.16476797
34	0xbb698330	-0.0035631172
35	0x3d4aebe3	0.049541365
36	0x3dda0052	0.10644592
37	0x983c0efc	-2.4305996e-24
38	0x3e9af8aa	0.3026784
39	0x3e03b15d	0.12860627
40	0x3e79cb49	0.24393953
41	0x3d55743a	0.052112795
42	0x3d4315dc	0.04762827
43	0xbd44a2c0	-0.048006773
44	0x3e86377b	0.26214203
45	0x3d102cb9	0.0351989
46	0xbb4319ee	-0.0029770094
47	0x3dbd8010	0.092529416
48	0xbb932431	-0.0044903983
49	0x3c0b6a0c	0.00850917
50	0x3e01d1c1	0.12677671
51	0x3ea4e65b	0.32206997
52	0xba08b21b	-0.0005214528
53	0x975f09ea	-7.20677e-25
54	0x3e0de772	0.1385782
55	0x3e53d442	0.20686439
56	0x3e56fa3f	0.20993899
57	0xbd4d9ebf	-0.05020022
58	0x3e2b99cc	0.16757888
59	0x3d8b069f	0.06788372
60	0xbc881419	-0.016611146
61	0x3cbd992f	0.023144333
62	0x3e15994c	0.1460926
63	0x3d7d0bf4	0.061778978
64	0xb25f709c	-1.3005913e-08
65	0xbb5da7e5	-0.0033821997
66	0x3d0f9bbe	0.035060637
67	0x3e8a0b5a	0.26961786
68	0x3e185a11	0.14878108
69	0x3d998507	0.07496076
70	0x3e0ee133	0.13953094
71	0xbc34324f	-0.010998323
72	0x3e904ee0	0.28185177
73	0x3ce3a747	0.027789725
74	0x3dbfd538	0.0936684
75	0x3d42c750	0.04755336
76	0xbc5a9e0d	-0.013343346
77	0xba8247d1	-0.0009939616
78	0x3e09cfbe	0.13458154
79	0x3e6a16e8	0.228603
80	0xbcbc7070	-0.023002833
81	0xa9df73ed	-9.923299e-14
82	0x3e1c5a8a	0.15268913
83	0x3e85f041	0.26159862
84	0x3dcac9c1	0.09901763
85	0x3e0a58d4	0.13510448
86	0x3dedcf8d	0.11611853
87	0x3e131c19	0.14366187
88	0x00ff4b3e	2.3445043e-38
89	0xbd886af8	-0.06661028
90	0x3e8826b2	0.26592022
91	0x3de778a3	0.113023065
92	0x3c0cca91	0.0085932175
93	0x3e06144d	0.13093682
94	0x3e8d492c	0.27594888
95	0xbbc2303c	-0.00592616
96	0xa4a58fb6	-7.18008e-17
97	0x3d0091a0	0.03138888
98	0x3d87ed10	0.06637013
99	0x3e28685d	0.16446061
100	0x3e995d1a	0.29953843
101	0x3dfac90e	0.122453794
102	0x3de53c88	0.11193186
103	0x3e6c7ddc	0.23094887
104	0xb8dc0b4f	-0.00010492524
105	0x3e34b7d2	0.17648247
106	0x3d347755	0.044059116
107	0xbb80810e	-0.0039216345
108	0x3e7066ea	0.23476759
109	0x3d83e78d	0.06440649
110	0x3da113de	0.078651175
111	0x3e52315b	0.2052664
112	0x3e9976f1	0.29973558
113	0x3dc25e8b	0.09490689
114	0x3de1d398	0.110266864
115	0xbe7d2218	-0.24720037
116	0xba00e8bd	-0.0004917493
117	0x3e9259e7	0.28584215
118	0x3dbaa32b	0.09113153
119	0x3e82adbd	0.25523177
120	0x951804ef	-3.0700047e-26
121	0x3e095905	0.13412865
122	0xbd437a28	-0.04772392
123	0x3e2c2fdf	0.16815136
124	0x3da101f1	0.078616984
125	0x3e9a0871	0.30084565
126	0x0ccef9bf	3.1889636e-31
127	0xbd147c2a	-0.036251225

layers.2.weight f4 [128, 128]
0	0x3e47934a	0.1948978
1	0x3e1fec54	0.15617496
2	0xbe0fa7dd	-0.14028879
3	0x3ea1a43d	0.31570616
4	0xbeecfb69	-0.4628556
5	0x3e5746fb	0.2102317
6	0x3b353544	0.0027650157
7	0xba212456	-0.0006147077
8	0x34843110	2.4622614e-07
9	0x3e0683da	0.13136235
10	0x3e1aa2d9	0.15101184
11	0x24ea4cd5	1.0161148e-16
12	0xbcb07377	-0.021539433
13	0x3e5a32dd	0.21308465
14	0x31b6165f	5.2994404e-09
15	0x3eb68101	0.35645297
16	0xbd2b381b	-0.041801553
17	0xbe0f7cb3	-0.14012413
18	0x3e3d1deb	0.18468444
19	0xbe2eae29	-0.17058624
20	0x3d388f2e	0.04505842
21	0xbe2d249b	-0.16908495
22	0x3e4524e1	0.1925235
23	0x3e0360b5	0.1282986
24	0x3e74ea99	0.23917617
25	0xbe5970f3	-0.21234493
26	0xbc6a1399	-0.014286899
27	0x39944dc8	0.0002828671
28	0x3ccc82f4	0.024964787
29	0xbe60b499	-0.21943893
30	0xbcb35fa0	-0.021896183
31	0x35d9759e	1.6201991e-06
32	0x3ec06202	0.37574774
33	0x3e9206e4	0.28520882
34	0x3c64c664	0.013963316
35	0xbe17b010	-0.14813256
36	0xbdaf7582	-0.08567335
37	0x2fb56d6e	3.3001463e-10
38	0x3df79a26	0.12089948
39	0xbd8ad77d	-0.067793824
40	0x3dd18d4d	0.10232029
41	0xbd92bb4e	-0.07164632
42	0x3e0f2519	0.13978995
43	0xbe4ffb88	-0.20310795
44	0x3ea3365a	0.31877404
45	0xbde2ae5a	-0.11068411
46	0xbaa30351	-0.0012436901
47	0xbe352ecb	-0.17693631
48	0xbc0a3f80	-0.008437991
49	0xbbf78730	-0.0075539574
50	0xbdd1233b	-0.10211798
51	0x3e9232a9	0.28554276
52	0xbbe8c851	-0.0071039577
53	0x8001a5a2	-1.51253e-40
54	0x3e0d6223	0.13806967
55	0x3e6e1f27	0.23254071
56	0x3e921d69	0.28538063
57	0x3da77384	0.0817633
58	0x3e0d754c	0.13814276
59	0xbcd35254	-0.025796093
60	0x3c2a20da	0.010383809
61	0xbd4385ab	-0.047734898
62	0xbd3e7ace	-0.046503834
63	0x3e371d91	0.17882372
64	0xb90bb8ff	-0.0001332499
65	0x3bdec285	0.006798091
66	0x3d5494dc	0.051899776
67	0x3e8bce9f	0.27306077
68	0xbda9b3b3	-0.08286228
69	0x3caa9800	0.020824432
70	0x3ddc7c10	0.107658505
71	0xbcf77ad2	-0.030209932
72	0x3e1dd87c	0.15414613
73	0xbe62aca9	-0.22136177
74	0xbe16b851	-0.14718749
75	0x3dacb2be	0.0843253
76	0xbaa8ba4e	-0.0012872906
77	0xbb1b843c	-0.002372994
78	0x39a07381	0.00030603635
79	0x3ea3f419	0.3202217
80	0xbd3da803	-0.046302807
81	0xb58c929c	-1.0473482e-06
82	0x3eacf203	0.3377839
83	0x3da40578	0.080088556
84	0xbe1da27e	-0.15394017
85	0xbc2b6802	-0.010461809
86	0xbe05dd5c	-0.13072723
87	0x3e5c4a3c	0.21512693
88	0xa11ce3bd	-5.3156265e-19
89	0xbe73fbf0	-0.23826575
90	0x3e396565	0.18105085
91	0xbc55b3bc	-0.01304334
92	0xbf2aaa72	-0.6666633
93	0xbcfe0f3c	-0.031013124
94	0x3e769baf	0.24082826
95	0xbc2ade8d	-0.010429037
96	0x80089816	-7.89242e-40
97	0xbe066020	-0.13122606
98	0x3eedc5dd	0.4644002
99	0x3db4901b	0.088165484
100	0x3ed6b08e	0.41931576
101	0x3e10206c	0.14074868
102	0x3d8fb217	0.0701639
103	0x3ee1478c	0.43999898
104	0x3da73036	0.081634924
105	0xbcc7b1ab	-0.02437671
106	0xbcb46ecd	-0.02202549
107	0xbe86bf90	-0.26318026
108	0x3e3ba978	0.18326366
109	0xbe748095	-0.23877175
110	0xbcb9e687	-0.022692932
111	0x3d72844e	0.059208207
112	0x3e9a72e9	0.30165794
113	0xbe68a614	-0.22719604
114	0x3da7f2b6	0.0820059
115	0xbc83fa2d	-0.016110504
116	0xbb34f9d8	-0.0027614739
117	0x3eb31d69	0.34983376
118	0xbe6c1a95	-0.23057015
119	0x3e3f6240	0.18689823
120	0xb02a8c21	-6.2044775e-10
121	0x3d9b7e42	0.07592441
122	0xbe838d66	-0.25693816
123	0x3ef84aa0	0.48494434
124	0x3d9a5b73	0.07536974
125	0x3eb6cf47	0.35705015
126	0x299f8376	7.083823e-14
127	0xbda17dae	-0.078852996
128	0x8006481f	-5.76885e-40
129	0x0006bee8	6.19497e-40
130	0x80072709	-6.56852e-40
131	0x9e31cfa4	-9.413241e-21
132	0x00045fe6	4.01744e-40
133	0x965714ce	-1.7374126e-25
134	0x80013998	-1.12496e-40
135	0x800a97c7	-9.72802e-40
136	0x8003d843	-3.53087e-40
137	0x800305ef	-2.77635e-40
138	0x0002fc7a	2.74243e-40
139	0x8008119d	-7.41002e-40
140	0x0002a25b	2.41913e-40
141	0x8007724e	-6.83853e-40
142	0x800682f1	-5.97986e-40
143	0xa33771d9	-9.944558e-18
144	0xa6733493	-8.437881e-16
145	0x00045287	3.96947e-40
146	0x0004a6df	4.27204e-40
147	0x80000bd4	-4.243e-42
148	0x0000324d	1.8045e-41
149	0x02972f2a	2.2214527e-37
150	0x00052346	4.71831e-40
151	0x00062e38	5.67593e-40
152	0x0002869b	2.31958e-40
153	0x001b0d69	2.484369e-39
154	0x000094cc	5.3378e-41
155	0x8006b7fa	-6.17011e-40
156	0x00076d1c	6.8199e-40
157	0x8001a29e	-1.50172e-40
158	0x8e70ef62	-2.9697543e-30
159	0x800ae712	-1.001247e-39
160	0xa02e3599	-1.4756107e-19
161	0xa051e1f6	-1.7777753e-19
162	0x8001208f	-1.03515e-40
163	0x00076140	6.77735e-40
164	0x0005f39c	5.46568e-40
165	0x8001c224	-1.6148e-40
166	0x000743ea	6.67211e-40
167	0x028fe406	2.114284e-37
168	0x0007afbd	7.05891e-40
169	0x00021bd3	1.93652e-40
170	0x8002281b	-1.98058e-40
171	0x8c4f45be	-1.5967687e-31
172	0x800565e3	-4.95728e-40
173	0x8d0d171c	-4.3476796e-31
174	0x00034375	2.99706e-40
175	0x8000c1bd	-6.95e-41
176	0x0005c389	5.29322e-40
177	0x000390b3	3.27415e-40
178	0x8758ee7d	-1.6320119e-34
179	0x0000705c	4.0307e-41
180	0x80007d5a	-4.4968e-41
181	0x8009c39a	-8.96688e-40
182	0x80022479	-1.96755e-40
183	0x80049fdb	-4.24687e-40
184	0x8007b487	-7.0761e-40
185	0xa1968390	-1.019922e-18
186	0x80073961	-6.63432e-40
187	0x8003a25f	-3.33754e-40
188	0x80060060	-5.51148e-40
189	0x80004565	-2.4894e-41
190	0x8004fed7	-4.58761e-40
191	0x8003f79f	-3.64336e-40
192	0x8002ffbd	-2.75413e-40
193	0x0004739a	4.08812e-40
194	0x80044f27	-3.95736e-40
195	0x8005aa6d	-5.20315e-40
196	0x0003dbc1	3.5434e-40
197	0x8000ba43	-6.6818e-41
198	0x0006e816	6.3427e-40
199	0x8c68a068	-1.79209e-31
200	0x012c920e	3.16962e-38
201	0x890c5f18	-1.68966e-33
202	0x0006a0ca	6.08693e-40
203	0x0001ae19	1.5429e-40
204	0x0008c27f	8.04456e-40
205	0x000649a2	5.77427e-40
206	0x8000290f	-1.4729e-41
207	0x061c5b51	2.9407428e-35
208	0x80060561	-5.52943e-40
209	0x0005e862	5.42541e-40
210	0x8006c26b	-6.20757e-40
211	0x00034756	3.01097e-40
212	0x00a90466	1.5521777e-38
213	0x89763c71	-2.9639592e-33
214	0x000504ba	4.60873e-40
215	0x00016ee2	1.31613e-40
216	0x00076b2f	6.81299e-40
217	0x80053553	-4.78307e-40
218	0x0004ea02	4.51288e-40
219	0x942bf6f3	-8.681996e-27
220	0x8001e8a8	-1.75297e-40
221	0x00073428	6.61559e-40
222	0x00034d98	3.03342e-40
223	0x8002f05b	-2.69894e-40
224	0x8007f09e	-7.29166e-40
225	0x0005e6c7	5.41965e-40
226	0x96dc0639	-3.5546844e-25
227	0x84b43150	-4.2363083e-36
228	0x9cec2a5b	-1.5628119e-21
229	0x80011e65	-1.02739e-40
230	0x000783d3	6.90138e-40
231	0x9d97aea7	-4.0149953e-21
232	0x80037766	-3.18339e-40
233	0x85479fb3	-9.386267e-36
234	0x8d27a5b6	-5.1660315e-31
235	0x9b12e2a2	-1.2150066e-22
236	0x8006b7e3	-6.16979e-40
237	0x800718ae	-6.51702e-40
238	0x0003d2d6	3.5114e-40
239	0x8007598c	-6.74972e-40
240	0x8000666b	-3.674e-41
241	0x80010355	-9.3031e-41
242	0x000087a2	4.8656e-41
243	0xabf3ce72	-1.7323489e-12
244	0x00014378	1.16039e-40
245	0x80013614	-1.11235e-40
246	0x000e7753	1.328502e-39
247	0x00008a1e	4.9547e-41
248	0x8003e2e8	-3.56905e-40
249	0x000792ab	6.95463e-40
250	0x9c40a4a8	-6.3740284e-22
251	0x9f84cee8	-5.624647e-20
252	0x80001f93	-1.1327e-41
253	0x8e48fd03	-2.4773724e-30
254	0x000739e8	6.63621e-40
255	0x8003043e	-2.77028e-40

layers.2.bias f4 [128]
0	0x3e0cb533	0.13740997
1	0x000355f8	3.06346e-40
2	0x3e08d211	0.13361384
3	0x3cc43ef1	0.023955794
4	0x3e12bc0a	0.14329544
5	0xbc3c88a1	-0.011507184
6	0x3dc7a604	0.09748462
7	0x3d7dc135	0.061951835
8	0xa93edf8f	-4.238238e-14
9	0x80040580	-3.69315e-40
10	0x3dfe1751	0.12406791
11	0x3e23cfc3	0.15997224
12	0xae8e8a5a	-6.4819886e-11
13	0x3b580e4c	0.0032967506
14	0xb7a5295a	-1.9688789e-05
15	0x8007c157	-7.12206e-40
16	0x3d4d1a03	0.050073635
17	0x375e354f	1.3244643e-05
18	0x3d1eec8b	0.038799804
19	0x3df82e6f	0.121182315
20	0xb70f3906	-8.536741e-06
21	0x3de3c6bc	0.1112189
22	0x3dc92644	0.09821752
23	0xb742b653	-1.1605752e-05
24	0x3c746a6c	0.014917951
25	0x0006dd03	6.30297e-40
26	0x3dd3490d	0.10316668
27	0x13275c65	2.1123917e-27
28	0xad379374	-1.0435087e-11
29	0xbb7b29b0	-0.0038324408
30	0x3d1d8ac3	0.03846241
31	0x3ccb31ad	0.02480396
32	0xba949a52	-0.0011337495
33	0xbd24a0c5	-0.040192384
34	0xbdba86d0	-0.09107745
35	0xbbd2b654	-0.0064304266
36	0xb889f4bb	-6.578254e-05
37	0x80063645	-5.70481e-40
38	0xb399a170	-7.153983e-08
39	0x3b9ce98d	0.0047885836
40	0x05747867	1.1494939e-35
41	0x8004389a	-3.87647e-40
42	0x3c3fa963	0.0116981
43	0x3dbce88d	0.09224043
44	0x3e01db51	0.12681319
45	0xbc4b1858	-0.012395941
46	0xad46f938	-1.1310335e-11
47	0xbd789455	-0.060688335
48	0xbcaca768	-0.02107592
49	0xbc4cd7e1	-0.012502641
50	0xb285eb16	-1.5590143e-08
51	0xbd68c1ff	-0.056825634
52	0x000624b5	5.64181e-40
53	0x3db4460c	0.08802423
54	0x3d244a8f	0.040110167
55	0x3d400307	0.046877887
56	0x3dbbc7e7	0.09168988
57	0x3c8d1f9d	0.017226988
58	0x3d097419	0.033557985
59	0xb4a4f9ef	-3.072923e-07
60	0xbd487941	-0.04894376
61	0xbc65c084	-0.01402295
62	0x3dcc5f9c	0.099791735
63	0xb336f765	-4.260018e-08
64	0x3e18e325	0.14930399
65	0x3d97a3e6	0.07404308
66	0x3d196023	0.0374452
67	0x3dabf10a	0.08395584
68	0x9e8052cd	-1.3586773e-20
69	0xbb79d021	-0.003811844
70	0x3d8c13b7	0.06839698
71	0x3d279984	0.04091789
72	0x3d05af14	0.03263767
73	0x0005f40d	5.46726e-40
74	0x3d956fc2	0.07296707
75	0xbbbc1929	-0.005740304
76	0xbb54e1bb	-0.0032483179
77	0x9f55477b	-4.5163632e-20
78	0xbcec3d6a	-0.028837878
79	0x3d928920	0.07155061
80	0xbd703215	-0.058641512
81	0xbb0bd81b	-0.0021338526
82	0xa630b4c5	-6.1307255e-16
83	0x3d329e29	0.043607865
84	0x3e000cfc	0.12504953
85	0xbc01001e	-0.007873563
86	0x032edb9e	5.1386112e-37
87	0xbd16ff2a	-0.036864437
88	0x8002c196	-2.53117e-40
89	0x3d8d05a0	0.068858385
90	0xbda8f41c	-0.08249685
91	0xb3416613	-4.502915e-08
92	0xbcca88c0	-0.02472341
93	0x3a388029	0.00070381403
94	0xb6c18da1	-5.768336e-06
95	0x80077397	-6.84314e-40
96	0xad172ba3	-8.5930455e-12
97	0x3cf80bc1	0.030279042
98	0x16c4b687	3.17807e-25
99	0xbe5dbb82	-0.2165356
100	0x3e077368	0.13227618
101	0x3e2f1cf8	0.17100894
102	0xba022cc1	-0.00049657753
103	0x80032133	-2.87416e-40
104	0x3cbc17b3	0.02296052
105	0x00060cd0	5.55609e-40
106	0xbbe7d4bd	-0.007074921
107	0x3ae894ed	0.0017744579
108	0x3e2da0aa	0.1695582
109	0xbb0f3145	-0.0021849435
110	0xbbfe05a8	-0.007752139
111	0x8001472b	-1.17366e-40
112	0x0005dfc2	5.39447e-40
113	0xbb9de4e3	-0.004818545
114	0x3ce160b7	0.027511938
115	0x8007f808	-7.31825e-40
116	0x8005cecc	-5.33362e-40
117	0xbc50ee7f	-0.012752174
118	0x3c562cdf	0.013072222
119	0xbcc125e7	-0.023577644
120	0xb8a1c4a1	-7.713703e-05
121	0x3d628180	0.055299282
122	0xbb0fce56	-0.0021943054
123	0x3e02437a	0.12721053
124	0xbc918114	-0.017761745
125	0x3d64c05e	0.05584752
126	0xb8f26259	-0.00011557778
127	0x8001e268	-1.73055e-40

layers.3.weight f4 [171, 128]
0	0xc0136363	-2.302941
1	0x36088ee2	2.0348748e-06
2	0xbec7351d	-0.3890771
3	0x3d834c84	0.064110786
4	0x3d545313	0.05183704
5	0xb9060773	-0.00012782011
6	0x3e0c2cd3	0.13688974
7	0x3816dd89	3.5969108e-05
8	0xbb9d1a7e	-0.004794418
9	0xb994b769	-0.0002836541
10	0xbea727fa	-0.32647687
11	0x3d8e677f	0.06953334
12	0xba65cedd	-0.0008766482
13	0x3e6ff927	0.23434888
14	0xb49bc661	-2.901534e-07
15	0xb684c36c	-3.9566567e-06
16	0x3b125171	0.0022326375
17	0xb96a8e9e	-0.00022369108
18	0x3d46b24e	0.04850989
19	0xbe73d719	-0.23812522
20	0xba914081	-0.0011081846
21	0x3e54dcca	0.2078735
22	0x312eb890	2.5425244e-09
23	0xbbda05bc	-0.0066535156
24	0xb64c8737	-3.0477074e-06
25	0x00018213	1.38497e-40
26	0x3b050e42	0.0020302688
27	0xba4d1d6b	-0.0007824513
28	0xbc13d6f5	-0.009023418
29	0x3d9f6b7c	0.07784173
30	0xa81abc52	-8.589553e-15
31	0x859f8ebe	-1.5004723e-35
32	0x39112016	0.0001384023
33	0x3df9423e	0.12170838
34	0xbdc8eb9a	-0.098105624
35	0x3b432b2c	0.002978037
36	0x3b4c9e65	0.003122234
37	0x369b08cf	4.6203854e-06
38	0xbb265107	-0.0025377886
39	0xbc8652e0	-0.01639694
40	0x3a700883	0.0009156542
41	0x00011b15	1.0155e-40
42	0x9d80a905	-3.405608e-21
43	0xbdacafd6	-0.084319755
44	0xbea42e09	-0.32066372
45	0xbc1a86c3	-0.009431544
46	0xb820e1bf	-3.8357215e-05
47	0xbe1a43dd	-0.1506495
48	0xbcd70004	-0.026245125
49	0x00050080	4.59357e-40
50	0x3b0e3a1c	0.0021702116
51	0x8b89255c	-5.282669e-32
52	0xa8832807	-1.456128e-14
53	0x3dd5cdb9	0.10439629
54	0x0e15645e	1.8413993e-30
55	0x3d1f20aa	0.03884951
56	0xbe9680be	-0.29395097
57	0x3d8fda41	0.070240505
58	0xbc9f9441	-0.019479873
59	0xa3379499	-9.951917e-18
60	0x30b709bd	1.331777e-09
61	0x3aa39597	0.0012480494
62	0xbdd4dfd0	-0.10394251
63	0xbc482614	-0.01221611
64	0xbf0fef52	-0.5622455
65	0x3d88d871	0.06681908
66	0x3d44a01a	0.048004247
67	0xbe4054cb	-0.18782346
68	0xba37752c	-0.0006998356
69	0xbb68de59	-0.003553292
70	0x3e51c102	0.20483783
71	0x3c890681	0.016726734
72	0x9443dd92	-9.888681e-27
73	0x000369d1	3.13466e-40
74	0xbeb89605	-0.36051956
75	0xbc060a58	-0.008181177
76	0x3d7c1093	0.061539244
77	0xba22f7bb	-0.0006216724
78	0x3dc72c2d	0.09725223
79	0x3bad5419	0.0052895662
80	0x87af527c	-2.6379553e-34
81	0x3cdd7101	0.027031424
82	0x0007b8f4	7.09197e-40
83	0xa715148f	-2.0689049e-15
84	0x3db365d7	0.08759659
85	0xbb9477a9	-0.004530866
86	0x39f74095	0.0004715963
87	0x3cd434be	0.025904056
88	0xba88b779	-0.0010430656
89	0xbdc628fc	-0.09675786
90	0x00093d1c	8.48441e-40
91	0x3afa0a22	0.0019076506
92	0x3d983aa7	0.07433062
93	0x3d8363c4	0.06415513
94	0xbbc87c35	-0.0061183223
95	0x1eb0c594	1.8716441e-20
96	0x24025de4	2.8268785e-17
97	0x84422cc6	-2.282515e-36
98	0xaf4e0f05	-1.8740927e-10
99	0x3d04cf61	0.032424334
100	0xbe4a1f41	-0.19738485
101	0xbe3beb8c	-0.18351573
102	0x3a95ccaf	0.0011428798
103	0x3b0a2eb6	0.002108497
104	0x3d58f8cf	0.052971657
105	0x35b783df	1.3672942e-06
106	0xbc8923ff	-0.016740797
107	0xbfc32f4f	-1.5248812
108	0xbdab9b47	-0.08379226
109	0xbbbb7a40	-0.0057213604
110	0xbc1abc17	-0.009444258
111	0xba0de203	-0.00054124015
112	0xb8d6bcea	-0.00010239503
113	0x3c9addc0	0.018904567
114	0xbf5c9fa4	-0.8618109
115	0x800239c8	-2.04399e-40
116	0x0001834c	1.38936e-40
117	0xbb012cf0	-0.0019710623
118	0xbe586d3f	-0.21135424
119	0x3c307ee8	0.010772444
120	0xbb4e3576	-0.003146497
121	0xbddec709	-0.10877807
122	0xbb9745bf	-0.0046164687
123	0xbef85a6f	-0.48506495
124	0x3e0cb308	0.1374017
125	0xbc9a8ec2	-0.0188669
126	0xbbd3a767	-0.006459165
127	0x37e6852a	2.7480146e-05
128	0xbbd0b377	-0.00636905
129	0x29ff4f3c	1.133802e-13
130	0x3ccf4392	0.025300775
131	0xbff72e02	-1.9310915
132	0xbd1cb5bf	-0.038259264
133	0x3b248f87	0.0025109963
134	0x800748eb	-6.69007e-40
135	0xbdfd7ec9	-0.12377698
136	0xb86b8aae	-5.615752e-05
137	0xb43a931c	-1.7376118e-07
138	0x3d3dc2f1	0.04632849
139	0x3eff891d	0.49909297
140	0xbba2c50b	-0.004967337
141	0xaf1c6699	-1.4224567e-10
142	0xa046ab35	-1.68279e-19
143	0x0002debe	2.63576e-40
144	0xbd1d7c39	-0.038448546
145	0x31bd598b	5.510804e-09
146	0xc0730988	-3.7974567
147	0x3ca899f4	0.020581223
148	0x3a3a490d	0.00071062223
149	0x3d094585	0.033513565
150	0x3c8322fa	0.016007889
151	0x9a5f68a1	-4.6199838e-23
152	0x3cabc430	0.020967573
153	0x308c7082	1.0218317e-09
154	0x3cb8cd5f	0.022558866
155	0x3a5d9bfd	0.0008453725
156	0x3abc2174	0.0014353232
157	0xbfb4ce85	-1.4125525
158	0xbe6bc259	-0.23023356
159	0xbcbfc463	-0.023409074
160	0xacc39954	-5.559256e-12
161	0x00054c64	4.86581e-40
162	0xbd9b0fd3	-0.075713776
163	0xba88c8af	-0.0010435785
164	0xb88a9967	-6.608926e-05
165	0x25ae8de2	3.0280332e-16
166	0xbc54b54f	-0.01298268
167	0xbd6a881d	-0.057258714
168	0x28a4f7b9	1.831509e-14
169	0x80062808	-5.65373e-40
170	0xbb8518ba	-0.0040617855
171	0xbd70ec56	-0.058819138
172	0x3cec37d6	0.028835218
173	0x3b9669ee	0.0045902645
174	0x346aad6f	2.1856043e-07
175	0xaedd5b0c	-1.00660896e-10
176	0xbe60e133	-0.21960907
177	0x3e80b6a7	0.25139353
178	0x8c600b46	-1.7259725e-31
179	0x0003d088	3.50313e-40
180	0xb02bd3e8	-6.2510574e-10
181	0xa49c94c1	-6.7906214e-17
182	0x3d8a3166	0.06747703
183	0x89940667	-3.5635725e-33
184	0xbd7183de	-0.05896365
185	0x80041dce	-3.78034e-40
186	0xbdb98322	-0.09058215
187	0x16ea42de	3.7846938e-25
188	0xbf93a7fd	-1.1535641
189	0xbc0dacc5	-0.0086471485
190	0xbee3c568	-0.44486547
191	0x36596282	3.239286e-06
192	0xbcb7c190	-0.022431165
193	0xbec82607	-0.39091513
194	0x80493320	-6.722331e-39
195	0x000602b8	5.51988e-40
196	0xa01f1734	-1.3475501e-19
197	0xbc0f2152	-0.0087359715
198	0x3dba5067	0.09097367
199	0x3d9068fc	0.07051274
200	0x3d67aead	0.05656307
201	0x3402df04	1.2188326e-07
202	0x3cc88658	0.024478123
203	0x3921b069	0.00015419874
204	0xbd92e577	-0.07172673
205	0xb90b2b95	-0.00013272309
206	0xbfc9ba8c	-1.5760055
207	0xbe2b473f	-0.16726397
208	0x3c361af5	0.0111148255
209	0xb81742a4	-3.606327e-05
210	0x0008113f	7.40871e-40
211	0xbda0fe25	-0.07860974
212	0x3f58ec29	0.8473535
213	0x3b8d88b1	0.0043192734
214	0xb2f8aa11	-2.8948337e-08
215	0xbff33c02	-1.9002688
216	0x0005be22	5.27384e-40
217	0xbc9c15fe	-0.019053455
218	0x3d0865b3	0.033300113
219	0xb99044db	-0.00027517122
220	0xbfdc9f4c	-1.7236114
221	0xbfd80f88	-1.687974
222	0x1c5af733	7.2449647e-22
223	0x8006b084	-6.14335e-40
224	0xbbfd8fb9	-0.0077380803
225	0x3e26df99	0.16296233
226	0x00074da4	6.707e-40
227	0x0000e483	8.1975e-41
228	0xbcd7d381	-0.02634597
229	0x3d76dc82	0.060268886
230	0x3aa013f8	0.0012212982
231	0x3601afcd	1.9324827e-06
232	0x00089480	7.87956e-40
233	0xb2ef20a1	-2.78381e-08
234	0xbc2a0455	-0.010377009
235	0x3ce6d4cc	0.028177641
236	0x3cccc874	0.024997927
237	0x3c25b506	0.01011396
238	0xbb862abc	-0.00409445
239	0x363f8fc4	2.85449e-06
240	0x0004e674	4.50013e-40
241	0xbfd81249	-1.688058
242	0xbdb82633	-0.08991661
243	0x8005c6a8	-5.30442e-40
244	0xa23ae64a	-2.5329615e-18
245	0x3b7fde38	0.0039042365
246	0x058e23fe	1.3366837e-35
247	0x8bd9d601	-8.3907357e-32
248	0x3bacb069	0.005270053
249	0xbdb4af71	-0.08822525
250	0x3b441036	0.002991689
251	0x3b92cfaf	0.004480324
252	0x3e4f1d49	0.20226015
253	0x2dc1265b	2.1958593e-11
254	0xb7520631	-1.2518417e-05
255	0xa5d509f6	-3.695636e-16

layers.3.bias f4 [171]
0	0xbd6b5dfe	-0.057462685
1	0x3c9d5aa3	0.019208258
2	0x3cd0691c	0.025440745
3	0x3db547c9	0.088515826
4	0xbc3f3804	-0.01167107
5	0x3dc1afab	0.09457334
6	0xbd8c3c10	-0.068473935
7	0x3a6c4c30	0.00090140384
8	0xbd6c5431	-0.05769748
9	0xbd78743f	-0.060657736
10	0x3c54f867	0.012998677
11	0xbd068402	-0.032840736
12	0xbccfd07a	-0.025367964
13	0x3d75556a	0.05989591
14	0x3d752f84	0.059859768
15	0xbc79cd38	-0.015246682
16	0xbd90010d	-0.070314504
17	0x3b832477	0.0040021497
18	0xbbf84a77	-0.0075772363
19	0x3d4d1378	0.050067395
20	0xbd92048e	-0.07129775
21	0x3c55aa7f	0.013041138
22	0xbd9d7a80	-0.07689381
23	0x3c94f769	0.01818438
24	0xbd388262	-0.045046218
25	0x3d13d13b	0.03608821
26	0x3c5d68f8	0.013513796
27	0xbd5d60b3	-0.054047298
28	0xbd73e78f	-0.059547003
29	0x3cdda937	0.027058227
30	0xbd786599	-0.060643766
31	0xbdab901a	-0.083770946
32	0xbc25dc67	-0.010123349
33	0x3d32e40b	0.04367451
34	0xbd9ef974	-0.07762423
35	0xbd0d88fd	-0.03455447
36	0xbd96e1ee	-0.073673114
37	0x3d7c856d	0.061650682
38	0xbb7a2add	-0.003817252
39	0x3d00caa5	0.031443257
40	0xbd37cb91	-0.04487187
41	0xbd8ddc5d	-0.069267966
42	0xbd37f1b7	-0.04490825
43	0x3cc080a2	0.023498837
44	0xbe39fdaf	-0.18163179
45	0xba3b7241	-0.0007150509
46	0x3bb2ec30	0.0054602847
47	0x3da92f50	0.08260977
48	0xbd438c40	-0.047741175
49	0xbd2f478e	-0.04279285
50	0x3cb2ae09	0.021811502
51	0xbda50173	-0.08056917
52	0xbdeefa9a	-0.11668892
53	0xbcfa0c16	-0.030523341
54	0xba2b325c	-0.00065306365
55	0xbd99aa01	-0.07503129
56	0xbd8261f7	-0.063663416
57	0x3d6ef942	0.05834318
58	0xbbd0b8b0	-0.0063696727
59	0xbd0208e8	-0.031746775
60	0xbd0b45db	-0.034002166
61	0xbd9f797b	-0.077868424
62	0x3d40ce6e	0.047071867
63	0xbcfe3fd6	-0.031036299
64	0x3de15bd4	0.11003843
65	0xbcd9e9d2	-0.026600752
66	0x3cbb1077	0.022835
67	0x3b46f087	0.0030355768
68	0x3d196678	0.037451237
69	0x3c35e797	0.011102579
70	0xbd06caf5	-0.0329084
71	0xbc3f102d	-0.011661571
72	0xbd83f4d2	-0.0644318
73	0x3d4ba8cc	0.049721524
74	0xbdaf6283	-0.085637115
75	0x3d157434	0.036487773
76	0xbd1e8f72	-0.03871102
77	0xbe2ab3b3	-0.16670112
78	0xbd46423d	-0.048403013
79	0xbc086f06	-0.008327251
80	0x398812a7	0.00025953838
81	0xbd23badd	-0.03997313
82	0x3dadb48c	0.08481702
83	0x3d06602b	0.032806557
84	0xbd383690	-0.04497391
85	0xbcd9bfeb	-0.026580771
86	0xbd3e682b	-0.04648606
87	0xba2222e4	-0.00061850087
88	0x3ce26605	0.027636537
89	0x3dadce9f	0.084866755
90	0xbd47771b	-0.048697572
91	0xbce5a9e4	-0.028035112
92	0xbdbd554d	-0.092447855
93	0xbdb427f0	-0.0879668
94	0xbcb255f8	-0.021769509
95	0xbba2e049	-0.0049705845
96	0xbd3fd7e9	-0.046836767
97	0xbd44b3e9	-0.04802314
98	0x3c660ddf	0.014041393
99	0x3cf246fd	0.029574865
100	0x3d6ae307	0.057345416
101	0x3c98a549	0.018633502
102	0xbd82546d	-0.06363759
103	0xbb9cd38b	-0.00478596
104	0xbbb07f75	-0.005386288
105	0x3ca08bbd	0.019597882
106	0xbdae2b08	-0.08504301
107	0x3c72bd06	0.0148155745
108	0x3ca1859a	0.019717027
109	0xbd8d2667	-0.0689209
110	0xbd037ee4	-0.032103434
111	0xbcb27c86	-0.021787893
112	0x3cc22b9c	0.023702435
113	0x3d44c3bf	0.04803824
114	0xbd680eba	-0.05665467
115	0xbd5484f0	-0.05188459
116	0xbcea07b4	-0.028568126
117	0xbda8a4e6	-0.08234577
118	0xbd9cd2ee	-0.07657419
119	0x3cd61492	0.026132856
120	0x3d30dfde	0.043182246
121	0xbb175fb7	-0.0023097822
122	0xbcc4dcdb	-0.024031093
123	0xbdc43b97	-0.09581678
124	0x3d0085b5	0.031377513
125	0xbd357685	-0.044302482
126	0xbd9011a0	-0.07034612
127	0x3ceeef52	0.029166851
128	0x3d43e211	0.047823016
129	0x3cb83a9f	0.02248889
130	0xbd80164d	-0.062542535
131	0xbceb156d	-0.02869674
132	0x3d172d87	0.036908653
133	0x3c207287	0.00979293
134	0xbcc8bc4c	-0.02450385
135	0xbd1c6bc6	-0.03818872
136	0x3d87967c	0.066204995
137	0xbc947a55	-0.018124739
138	0xbaf9eca1	-0.0019067713
139	0xbd15847d	-0.036503304
140	0x3bb70c91	0.005586215
141	0x3c8bb99c	0.017056279
142	0x3c5944cb	0.01326103
143	0xbc162668	-0.00916443
144	0xbd815c96	-0.063164875
145	0xbd08891f	-0.033333894
146	0x3d0f4927	0.034981873
147	0x3d2e385d	0.04253422
148	0xbc451317	-0.012028477
149	0xbca6e49e	-0.020372685
150	0x3d2f926e	0.042864256
151	0xbd05c5b2	-0.03265924
152	0x3c9c1ba4	0.019056149
153	0xbd829ddb	-0.06377765
154	0x3c2fc43c	0.010727938
155	0x3d34f6fa	0.044180848
156	0xbb92ba81	-0.0044777994
157	0xbd92a03a	-0.07159467
158	0x3cbbc7ca	0.022922415
159	0xbdb58f49	-0.0886522
160	0xbd01b619	-0.031667802
161	0xbd9163d9	-0.070991226
162	0xbcb0a3ca	-0.021562476
163	0x3ca8285f	0.020527063
164	0xbb9859ca	-0.0046493756
165	0x3d11b009	0.03556827
166	0xbd275f1c	-0.040862188
167	0x3d3c9d2d	0.046048332
168	0x3d28f0cb	0.041245263
169	0x3c851346	0.016244542
170	0xbdb9107c	-0.09036347
